train/checkpoints/uduta8zd/1cxt4sw5.checkpoint.pt (torch, 616510 bytes, 181 tensors)

rowAttentions.0.q_net.weight f4 [32, 32]
00000000: 165c 33be 40b2 823d 00dc ca3d 43f5 1bbe
00000010: cf0f 853d 422d 183e 099f 1d3c 653a dbbd
00000020: 8321 143e 6d9e 9b3d aa8a ef3d 4d39 e6bd
00000030: 6c8d d83d 1d8f f3bd e78c 2f3e 977a 9cbd
00000040: 2d87 d43d 81ee 113d 33b4 3d3d 0981 e2bc
00000050: 4d6c 943d 1ca4 96bd 219d 25be 02cd 89bd
00000060: cbd3 0e3e 9c00 43bd 3a7a 633d 98ea 8abd
00000070: 9be5 083e 1977 d83d df11 7d3d bf71 bbbd
00000080: 99bf 11be be9b db37 8c87 cebd a134 173e
00000090: 2b09 2dbe 1677 a53d 8e58 313e e30d ba3d
000000a0: 3266 803d 3113 2bbe abe2 303e c7a3 eabc
000000b0: 961e 24be 441d 353e 5cb2 9fbd 8081 82bc
000000c0: 161d 213e e4d0 f9bd a13e fbbd 6912 ff3c
000000d0: 836d adbc 9d3b 363d ff59 14be 6082 f63b
000000e0: 088b 99bd 90cf adbd a830 35be f5ba ad3d
000000f0: 8223 183d 6078 16be 64b5 033e 0149 5e3d
00000100: c653 f53c 55a4 d7bd 2afe e43c a8db 2c3e
00000110: 72f6 fe3d d00c 0ebe 64f0 253e 05fc 463c
00000120: 129a a83d 7737 103e 0ae4 183e 9586 01be
00000130: 030a 1c3e ebd3 e9bd 8e9e 363c 2945 02be
00000140: 0a73 1bbd cf49 37bc a6e6 b9bc b1f4 f1bc
00000150: 284d 463c d225 2f3e 8aed d33d b502 c43d
00000160: 49a5 873d 17a4 0c3e 2764 51bb 6ffb ad3c
00000170: de42 133d 6c9e 1ebe fbe5 0cbe 7ded a03c
00000180: 4944 93bd 94a5 71bb ae0c 1fbd 33e4 db3c
00000190: 9f7a eb3d 69d7 6ebd 9279 0d3e 3643 0e3e
000001a0: cc86 0fbe 34f9 05be 7d84 13be 76e1 a9bd
000001b0: edb8 8fbd a52f cbbb 2da5 38bd 7b73 c3bd
000001c0: 4286 5abd bfc9 91bd 8bd0 303e a3ab 87bd
000001d0: 99db 02be d7e6 943d d856 debb b081 083e
000001e0: 36a2 d63d 00b8 2a3e 8281 07be 6e09 fe3d
000001f0: 4afc 193e bdae b3bd c513 233e 5c80 053e
00000200: 262d 893b 7de1 b13d 1d80 7cbd 60ef 1bbe
00000210: 01ed 313d b10a 5e3d aac5 e7bd 5e94 b33d
00000220: aebb 18be 54a8 233e d74f 313e e75c 3c3d
00000230: 6ee0 dfbd de74 a03d 6822 d73c ff20 4f3d
00000240: 1b8e 533d d049 0a3e 5b10 98bd e2d9 19bd
00000250: 45f4 493d 9ff0 963c dfc4 0f3e 7d3c babd
00000260: d84b dbbb e89c 073d caf4 53bd 71a4 f43d
00000270: 8fc4 9b3c fbf8 24be 2d23 edbc 5b9f 9dbd
00000280: 135b 903c 8c47 a5bc 75c2 34be d3f2 02bd
00000290: bf1f 97bc 6c6f 55bd 529c 273e 80e6 1cbd
000002a0: a853 e93d ab1d 463d 567b 18be a433 243d
000002b0: 6519 163e b8d4 f1bd 5962 edbd 75a8 313e
000002c0: 43d9 103e 602d cabd d40f da3d 9205 b5bc
000002d0: 39a6 32be 0109 613c dfa1 643d be6a 55bd
000002e0: 44cc 773d 30bc 1bbe a79f 013e 263e 193e
000002f0: a5ec c63d 4ab5 fa3c f3d9 643d 22bb 01be
00000300: daf1 3abd 2012 62bc db85 cfbd 48af 05be
00000310: 623b fe3d 3f3c f63d b6b5 1cbe 746e 663d
00000320: e9b0 903d 45cb 2c3e d8b6 d03d c646 2c3e
00000330: 7c92 6ebd 2755 003e 6002 0c3e 0532 2bbe
00000340: 1a3e 15be 3eb2 203d ce70 c43d 633a b3bd
00000350: fd70 9f3c 2a9c acbb 6861 423d abef c3bd
00000360: 9339 d03d 25ca f23d 215f fdbd c77f b138
00000370: c2c8 dc3a 377b 6b3d e09c 203e 9332 523d
00000380: 117a 31bd d927 253e a3cb 92bd 2dc9 59bd
00000390: ae38 803c 7a52 0bbe ee45 db3c 4378 f9bd
000003a0: 75fe 7e3c fe09 683c 4692 b83c 65fd 12be
000003b0: 38b7 2ebe 3ecb a93d 5140 183e c051 22be
000003c0: 6a1d 893d 1b0b 03be 4d4d 103c 0cb8 263e
000003d0: c695 073e 902f 08be 53ba e63d 036a bb3d
000003e0: a5de 063b 9e1f 2e3e bc28 74bd 1ad0 22bd
000003f0: 6251 babd 00d0 c73c 4a4c 4a3d 9af5 423c
-0.17515597 0.06381655 0.09905243 -0.15230279 0.06497156 0.14861014 0.0096204365 -0.10704497
0.14465909 0.07598577 0.1169637 -0.11241398 0.10573849 -0.11892531 0.17143594 -0.0764057
0.10377345 0.035627846 0.04631443 -0.02764942 0.07247219 -0.0735552 -0.16173221 -0.06728555
0.1394798 -0.047608003 0.055536486 -0.067830265 0.13368838 0.10569591 0.06178462 -0.09152555
-0.14233245 2.6179358e-05 -0.10084447 0.1476617 -0.16898029 0.080793545 0.17318937 0.0908468
0.06269492 -0.1670654 0.17273967 -0.028642548 -0.16027293 0.17686945 -0.07797691 -0.015930891
0.15733752 -0.12198046 -0.12267805 0.031136708 -0.021170383 0.044490445 -0.14487456 0.007522866
-0.07497221 -0.08486855 -0.17694342 0.08482925 0.037143238 -0.14694357 0.12862164 0.05426884
0.029947173 -0.10529391 0.027953226 0.16880667 0.124493495 -0.13872075 0.16204983 0.012145047
0.082325116 0.14083658 0.1493074 -0.12648995 0.15238194 -0.11417373 0.011146201 -0.12721695
-0.037951507 -0.011187031 -0.02269299 -0.029535623 0.012103356 0.17104271 0.10348041 0.09570829
0.066233225 0.1373447 -0.0031950565 0.021238057 0.03595244 -0.1549012 -0.13759606 0.019644493
-0.07190759 -0.0036872374 -0.03883045 0.026842212 0.114979975 -0.0583109 0.13815907 0.13892826
-0.14016265 -0.13083345 -0.14406009 -0.082949564 -0.07017694 -0.006200748 -0.0450794 -0.095435105
-0.053350694 -0.07118558 0.17267053 -0.06624534 -0.12779082 0.07270592 -0.006785255 0.13330722
0.10480158 0.16671753 -0.13232997 0.12404142 0.15037647 -0.08773563 0.1592551 0.13037246
0.0041862903 0.086855866 -0.061645616 -0.15228033 0.043438915 0.054209415 -0.11316998 0.08768533
-0.14915344 0.15982181 0.17315613 0.045987036 -0.109314784 0.07834791 0.026261523 0.050568577
0.051649194 0.1350472 -0.074249946 -0.037561305 0.04930522 0.018425284 0.14039944 -0.090935685
-0.006692391 0.03310862 -0.05174712 0.11945427 0.019014625 -0.16110604 -0.028947437 -0.0769641
0.017621553 -0.020175718 -0.17652304 -0.031969856 -0.018447755 -0.052108213 0.16368225 -0.03830576
0.11392909 0.048368137 -0.14890799 0.04008831 0.14658125 -0.11808151 -0.11591024 0.17349418
0.14145379 -0.09871936 0.1064755 -0.022097383 -0.17446221 0.013735057 0.055818435 -0.05210375
0.060497537 -0.15208507 0.12658559 0.14965114 0.09713105 0.030604023 0.055871915 -0.12669042
-0.045640804 -0.013798267 -0.10132953 -0.13055146 0.1241367 0.1202321 -0.15303692 0.05625768
0.07064993 0.16874416 0.10191125 0.16823873 -0.058245167 0.12532483 0.13672781 -0.167183
-0.14574471 0.039232485 0.09591828 -0.08751371 0.019463057 -0.0052676396 0.047456175 -0.095671974
0.101672314 0.11854962 -0.1237166 8.463818e-05 0.0016844498 0.057490554 0.15684843 0.051317763
-0.043329302 0.16128482 -0.07167747 -0.05317037 0.015652027 -0.13605681 0.026766744 -0.12181141
0.015563597 0.014162539 0.022530686 -0.14354475 -0.1706208 0.082907185 0.14868285 -0.15851498
0.066950634 -0.12797205 0.008807492 0.16281146 0.13240728 -0.13299394 0.11266007 0.091510795
0.0020579484 0.17004248 -0.05960916 -0.039749242 -0.09097554 0.024391174 0.04938916 0.011899376

rowAttentions.0.q_net.bias f4 [32]
00000000: 3704 723d 8e3a 093e f1e3 3f3d 9c8f fd3d
00000010: c803 e53d e340 4c3d 7b45 7b3d 747c 773d
00000020: 7272 b43c fce8 183e 0046 2a3e be41 853d
00000030: 0320 6cbc 15db 1d3e a090 12be 318a 063e
00000040: 389c c33d d888 f83d 834b efbc a03f 0bbe
00000050: db41 003e 0f8b a3bd 5c7d 3d3d be69 ce3d
00000060: f3ee 2abe 633a 093c f167 88bd 13ea fa3d
00000070: 1eb0 e7bd 4107 df3d dd69 e13d 8dd1 d33d
0.05908605 0.13401243 0.04684824 0.12380907 0.11182362 0.04986657 0.06134556 0.060421422
0.022027228 0.14932626 0.16628265 0.0650668 -0.014411929 0.15415604 -0.14312983 0.13138653
0.09551281 0.12135476 -0.029210811 -0.1359849 0.12525122 -0.07985508 0.04626213 0.100787625
-0.16692714 0.008375737 -0.0666045 0.12251677 -0.113128886 0.108900554 0.1100652 0.10342703

rowAttentions.0.k_net.weight f4 [32, 32]
00000000: 5897 2d3e 853b dd3c 65b3 23be ab0c 013e
00000010: a018 8f3c 9f54 583b 5059 2cbe 756b 23bd
00000020: 6436 b0bd a846 303e 56d7 003e ade3 083e
00000030: 2187 f83d 90fc e0bd 377b 9fbd c88f 8dbd
00000040: d8e0 92bd 42ff 0c3e 645a 753d 0cd0 103e
00000050: 68ed 08bc ff2f 21be c0b4 4abd 5007 003e
00000060: 6020 db3d 0af0 603d a04b 56bd 84a6 28be
00000070: e617 c3bd ab85 bc3d 5329 92bd 0eb5 ac3d
00000080: 2e25 463d 9795 8bbd 46f5 db3d b01b 68bd
00000090: 97fb e3bb 0e89 89bd d4bc 2bbe d693 ea3c
000000a0: d7ed 513d 2f28 b4bd ce23 de3d 1f17 24be
000000b0: 44c9 2ebe a1a8 debd b426 73bd 8a56 a1bc
000000c0: 1796 08bd 6886 a43d eeba 1ebe 2bea d63c
000000d0: df58 4c3b d898 3e3d e544 323e f153 dd3d
000000e0: a864 c7bd 218b 14be da83 2dbd 8f0b b6bd
000000f0: bffa 7d3d bc4f de3a b6c9 113e 7e9a 8e3d
00000100: fd00 02bd 3b0c e43b f756 2c3d 24ba b2bc
00000110: 1666 123e dda9 0dbe 1142 b63d 918f e6bd
00000120: ec67 1dbe 732c 20bd 43f5 b03d 0bad f73d
00000130: 1098 353d c1aa 92bc 57b3 10bc 6da8 8ebd
00000140: 9179 93bc d4f9 2fbc 3f37 1a3e b340 d43d
00000150: b39e 10be 4734 ef39 9284 ddbd e4b7 d2bc
00000160: d3fa 0dbe 9ccc 353d 4661 03be c49f 2f3e
00000170: 864b 073e bdda f8bd 5bd3 28be b166 f13b
00000180: 68a2 4ebd 3b0f 513d 082e f4bd 7638 933d
00000190: 9dec 1abe 2ba9 bfbd a28c c2bd 0535 ae3d
000001a0: 9242 c5bb b622 2cbe 50f2 cfbd 7485 9dbd
000001b0: b15f 28be 003d cf3c adfb 7c3d bee3 0dbd
000001c0: ec72 8bbd 3b9c 2cbb 8652 10be a489 ddbd
000001d0: cf28 97bb 6658 203e 5b89 61bd 4474 ad3d
000001e0: 7b6a 93bd a4a4 3abd a8c5 29be ebda 193e
000001f0: 24d4 303e 87cc 86bb 3dcf e73d bc45 133e
00000200: 2a29 b43d 6dc4 b93d 5038 2cbe 1abc 29be
00000210: 03a0 0abe e172 643d b26e 1cbe f2d0 09be
00000220: 1911 afbd b5ae 27be 9c5e 1e3a 27c6 d23c
00000230: 3905 d3bd 8260 ed3d 581b 89bd 3b85 4abd
00000240: 77b5 093e 9029 1c3e 6b3b a3bc 18b7 01be
00000250: a7fc b4bd 9ae1 ac3c 3329 d63d bf9c b43d
00000260: b419 9ebd a3db 2abe 3bdd 22be 6184 65bd
00000270: 933a 1c3b 6619 a2bd fb65 10be 5d06 983c
00000280: eccc 0fbe 18b8 0abe 1838 13be d072 45bd
00000290: 3c97 1f3e 18a7 8c3d caec acbc 8cc9 133d
000002a0: e4db 8f3d 3d2a f53a 9754 12be 22ab dfbd
000002b0: 29b1 f6bd 1701 9bbb 34de 25be 0dd4 04bd
000002c0: 6227 84bd fee4 303e 06d4 123e 0dee d13d
000002d0: 452a 1e3c ef97 64bd d99b 343d 9598 fabd
000002e0: 8f18 9cbd 2f5c 12bd 8e6b 19bd 70c1 2bbe
000002f0: fb9f 8f3d cddb 143e cc86 c5bd 19b2 433d
00000300: 07c1 aebc 80e6 d2bb 21c7 323c 97d8 1c3e
00000310: 0fef d93c 24fb e4bd 732c 84bd aed4 b03d
00000320: 0102 613d c596 d73b 706a c0bc 97d8 86bd
00000330: 9ee1 7fbd 2f11 bfbd 5202 da3c bd28 4d3d
00000340: f2f6 073e 65ce 20bd 2b4c 4d3c 500f ea3d
00000350: 1736 9d3d 31e7 b03c c764 563d dce6 0b3c
00000360: d42a 1cbe 8ee9 063c ed9d 20bd 703f 233e
00000370: f1f4 243e a461 103d 3053 203e 4f5e babd
00000380: 0426 1e3e e1ff 1b3e 75a7 f7bb 2e52 11be
00000390: 3a9e 75bd 250c 42bd 9938 923b 462d 24be
000003a0: a7ca 063d 2016 9ebd 3507 39bd bb1e c2bd
000003b0: 95a4 1abd 03e3 27be 4cac babd 25f1 813c
000003c0: 9a6d f33d ed62 233e 62e1 08be f0c8 973d
000003d0: 93ef cbbd 19eb 0abe c401 babb 487b cebd
000003e0: 640e 1bbe b8bc 2abe b7ce efbd fe0e 153e
000003f0: 3143 c63d 07cd 8fbd e54a eebd 0458 0bbe
0.16952264 0.02700592 -0.15986402 0.12602489 0.017467797 0.0033009422 -0.16830945 -0.0398974
-0.08604124 0.17214453 0.12582144 0.13368101 0.12135149 -0.109856725 -0.07787173 -0.0691219
-0.07171792 0.13769248 0.059900656 0.14141864 -0.008357383 -0.15740965 -0.049488783 0.1250279
0.106995344 0.05491642 -0.052318215 -0.1646977 -0.09526043 0.09205183 -0.07136788 0.08432971
0.0483753 -0.068156414 0.107401416 -0.05666703 -0.006957482 -0.06715594 -0.16771251 0.028634947
0.051252212 -0.08796727 0.10846673 -0.16024445 -0.17068964 -0.10872007 -0.059363082 -0.019694585
-0.03334626 0.080334485 -0.15500996 0.026234707 0.00311809 0.046532482 0.17409094 0.10807026
-0.097359955 -0.14506198 -0.04236207 -0.088889234 0.06200671 0.0016961019 0.14237103 0.06963061
-0.031739224 0.006959466 0.042075124 -0.021817274 0.14296755 -0.13834329 0.0889932 -0.11257852
-0.15371674 -0.03910489 0.0864053 0.12093552 0.04433447 -0.017903687 -0.00883182 -0.069657184
-0.018002303 -0.010740716 0.15060137 0.10363903 -0.14123039 0.00045624582 -0.108163014 -0.025722452
-0.13865213 0.044384584 -0.12830076 0.1715079 0.13212404 -0.12151096 -0.16486876 0.007366978
-0.05044785 0.051039916 -0.11922842 0.071885034 -0.15129323 -0.09358438 -0.0949948 0.085062064
-0.0060198987 -0.16810116 -0.10153639 -0.0769147 -0.16442753 0.025297642 0.061763454 -0.03464102
-0.06809029 -0.0026338238 -0.1409398 -0.108172685 -0.004613019 0.15658721 -0.055062633 0.084694415
-0.07198044 -0.04556717 -0.16579306 0.15024917 0.17268425 -0.004113737 0.113188244 0.1438207
0.08796914 0.09070668 -0.16818357 -0.16575661 -0.13537602 0.05577362 -0.15276602 -0.13458613
-0.08548183 -0.16375239 0.00060413196 0.025729252 -0.103037305 0.11590673 -0.066946685 -0.049443465
0.1344813 0.1525023 -0.019925794 -0.12667501 -0.08837252 0.021103669 0.10457077 0.088189594
-0.07719746 -0.16685347 -0.15904705 -0.05603445 0.0023838624 -0.079150006 -0.14101402 0.018557722
-0.14043015 -0.13546789 -0.14376867 -0.048205197 0.15585035 0.06867808 -0.021109004 0.036080882
0.07024363 0.0018704605 -0.14290081 -0.10921313 -0.12045509 -0.0047303545 -0.16198045 -0.03242879
-0.06452824 0.17274854 0.14338693 0.10250483 0.0096536325 -0.055808958 0.04409394 -0.12236134
-0.07621872 -0.035732444 -0.037456088 -0.1677301 0.07012936 0.14536972 -0.09644851 0.04777727
-0.021332277 -0.006436169 0.010911734 0.15316997 0.02660325 -0.11180714 -0.064537905 0.086343154
0.05493355 0.0065792524 -0.023488253 -0.0658428 -0.062471025 -0.093294494 0.026612435 0.05008768
0.13277796 -0.039259333 0.012530367 0.11428702 0.076763324 0.021594616 0.052342203 0.008538928
-0.15250713 0.008234395 -0.03921311 0.15942168 0.16109063 0.035249367 0.15656734 -0.09100019
0.1544419 0.15234329 -0.007557804 -0.14191505 -0.05996535 -0.047374863 0.0044623134 -0.16032895
0.032908108 -0.07719064 -0.04517289 -0.094785176 -0.037754614 -0.16395192 -0.09114894 0.015862057
0.11886139 0.15955706 -0.13367227 0.07411373 -0.099578045 -0.13566245 -0.00567648 -0.10082108
-0.15142208 -0.16673553 -0.117093496 0.145565 0.096807845 -0.07021528 -0.11635379 -0.13607794

rowAttentions.0.k_net.bias f4 [32]
00000000: 0a83 9dbd 7520 1b3e d94f f83d 6d8a 263e
00000010: f83c 30be 998a 2e3b 5c98 6ebd 6884 2d3d
00000020: 6dab 09be b1a0 963d cea2 0abc 04e1 aabd
00000030: 8891 26be 6717 c43d 26b5 83bd 9fcd 053e
00000040: cf6d f63c f27a 613d 29ab d4bc d24b ccbc
00000050: 486b 75bd 2307 1dbe 7b14 e53d 0513 e5bd
00000060: 4927 d43d e0b6 75bd 51ed e03d d969 193e
00000070: 4943 e0bd 4e16 163e eb35 393b 88a8 08be
-0.07691009 0.151491 0.12124605 0.16263743 -0.17210758 0.0026632904 -0.05825077 0.0423626
-0.134443 0.07354868 -0.008461667 -0.083436996 -0.16266453 0.09574776 -0.06431036 0.1306672
0.030081658 0.05504889 -0.025960522 -0.024938498 -0.059916764 -0.15334754 0.11185547 -0.11185268
0.103590555 -0.059988856 0.109827645 0.14981784 -0.109503336 0.14656946 0.0028260897 -0.1334554

rowAttentions.0.v_net.weight f4 [32, 32]
00000000: e9bf 7f3d 1398 d33d 29b4 173e 7aec 30be
00000010: 9fa8 323e f7bf 073e 7c8b 2e3e 13b4 bb3d
00000020: 3ef6 b6bd 624b 193e cb6b 203e a14f a3bd
00000030: adc1 d1bc 7e50 193e 5b7d 193e 6e08 f03d
00000040: 3ffc 103e 2e5f adbd 0b12 0dbd cd17 96bd
00000050: f721 aa3d bb86 143d d1a6 1cbe fa84 0fbd
00000060: ca5e 1abe d060 1ebe 2ff9 3f3e 9f6e a8bd
00000070: 6e82 903d 8051 42bd bee3 a8bc 8c39 c1ba
00000080: c036 073e 3802 dabc 5aa0 113e 1e73 cf3d
00000090: 30b1 fe3d 4055 21be 5bf8 b0bd 5be1 15be
000000a0: 7609 1dbd 17a4 51bd 02fb 053d 8945 2f3e
000000b0: 59a9 983d 7370 d6bd 3098 f8bd a77f 053e
000000c0: 92b4 263d 0ac3 5b3d fc73 c1bd 09d2 c4bc
000000d0: cf4b 423d e114 dfbd efb5 f13d bb4c b13d
000000e0: b310 d3bd c2f7 9abd c1b2 50bd 8c8f bc3c
000000f0: b1bf 6abd 49a5 293e 5062 23be 80c0 d2bd
00000100: 8f2a d5bd a5dd 1b3d 9d6d 403c 009d 61bd
00000110: ed52 0d3e 3a67 1fbe 1431 1e3d 1ff8 d0bd
00000120: 0bc8 d7bc e457 3dbe 497f 06be 76be 0bbe
00000130: 097a 853d adf6 b6bd d356 ba3d 5160 c1bd
00000140: f5fd f5bc 2fcd 053d e436 133e d4f0 5bbd
00000150: bff3 c83d 13d8 593d 06e0 1a3e bb8a ec3d
00000160: e78b 8c3d 320f 84bd c607 adbb 6f1c a63d
00000170: 75ab a43d 6fba 09bc d023 c53d 15db e1bd
00000180: a1c8 ba3d ca92 01bd 66ec cdbd 73b1 acbd
00000190: 6792 f3bd 810a 183d 038f d3bd 3a35 49bd
000001a0: 6794 3fbc af31 fabd 38fc d13b 4b03 aebc
000001b0: b00d 6f3d 5bb4 0b3e 58a1 00be 15b6 aa3d
000001c0: 9456 313b a15b c4bd d840 a1bd 3169 3c3d
000001d0: bf2d 143d 2807 a2bb 471c 9bbd 0167 973d
000001e0: b53a c83c 0d7a 2bbe c228 4abd b131 62bd
000001f0: 322c 70bd 3c5b c1bd dfb2 14be 49b1 313e
00000200: a4e7 2dbe 148c 2e3e 60e7 10be 72a0 36bd
00000210: 3849 79bd 3354 c1bd 30ff 773d 6dd5 cd3d
00000220: 856a f8bd 8ac8 d2bd 204d b23d e0cb 1abc
00000230: 723e 343d 6e20 f13d 358c 94bd f99b cabd
00000240: a390 a03d c6ae 5dbd 1138 f5bd 8d81 bcbd
00000250: 492c abbd 94c1 353e 83e7 023d 2d72 7e3d
00000260: 24d0 b83c 5124 ebbd 42a1 003e 84eb 01bd
00000270: beed 28bd bfb2 103e c183 b8bd 2315 043d
00000280: 6ed8 14be faa6 b83d d35e 933d db5e 16be
00000290: 460b 9f3d f313 a13c 89c6 bcbd 96d3 183e
000002a0: aa77 9b3d c1ae a73d e2e8 89bd 1cd1 d0bd
000002b0: 55e9 c9bd dde1 8b3d 8d2f 6f3d 7edc d7bd
000002c0: 355b 213e aba4 bf3d e38d 8abd 5b2b bd3d
000002d0: 2a0f 9dbd 976d 883d 3ec9 0d3e 4b74 18be
000002e0: d66b adbd c8cc 36bc 4722 083d 9746 17be
000002f0: dc7c f6bd c0f4 acbc 0233 b2bc 7745 153d
00000300: a4c0 eb3c 7f97 f93c 6548 763c 20c5 313c
00000310: e669 2abb 14c0 613d 4f4e ed3d 03ab c7bd
00000320: 286d b2bd 48b3 ed3d 38c5 07be 364e c83d
00000330: a2c8 9e3d c41e 8bbc 5364 7fbd 3704 1e3c
00000340: a38d 1dbe a3af 3dbe 050b 233e 0f46 28be
00000350: d01c 1fbe c75d 29bd 45f1 4f3c 1151 763d
00000360: fb92 b4bd 1c99 babc 269d 2cbc 2fd3 2d3e
00000370: e5a7 023e 375c 7f3d aeb0 043d 9fc4 053e
00000380: 5b03 12be 08ed 9c3d 5576 ffbd da71 0c3e
00000390: 7be2 12be 2b0a 7d3d f6c0 10be 10a0 d13d
000003a0: b585 e63c ff09 083e 827d 0bbe eb6f f23d
000003b0: f53e f4bd 6a6b a5bd 6c22 6b3d 762d 06bd
000003c0: c51e ebbd 5ab0 07be 17fc 49bd f0c9 373d
000003d0: 7a81 1d3e c516 db3d e1a2 443c c615 f8bd
000003e0: 837e 2abe 21ae 223e 8416 9bbd b675 ccbc
000003f0: 3249 13be 7fc2 f8bd f26c 233d 3a02 3fbd
0.06243888 0.1033174 0.1481482 -0.17277709 0.17447136 0.13256823 0.17045397 0.09165206
-0.08933686 0.14970163 0.1566612 -0.079741724 -0.025605047 0.14972112 0.14989226 0.11720358
0.14158724 -0.0846542 -0.034441035 -0.073287584 0.083072595 0.0362613 -0.1529801 -0.035038926
-0.15075222 -0.15466619 0.187474 -0.08224224 0.070561275 -0.047441006 -0.020616408 -0.0014741882
0.13204479 -0.026612386 0.14221326 0.10129379 0.124361396 -0.15755177 -0.0864112 -0.14636748
-0.0383391 -0.05118188 0.032710083 0.1711637 0.074541755 -0.10470667 -0.121384025 0.13036977
0.04069955 0.0536528 -0.094459504 -0.024025934 0.047435578 -0.10892654 0.11802279 0.08657213
-0.103059195 -0.07566787 -0.050951723 0.023017667 -0.057311717 0.16566958 -0.15955472 -0.10290623
-0.10408508 0.038053174 0.011744884 -0.055081367 0.13801165 -0.15566722 0.038621023 -0.10203575
-0.026340505 -0.18490559 -0.13134493 -0.13646874 0.06517417 -0.089337684 0.09098592 -0.09442199
-0.030028323 0.03266638 0.14376408 -0.05369647 0.09812116 0.05318458 0.1512452 0.11549898
0.06862622 -0.06448211 -0.0052804677 0.08110892 0.08040515 -0.008406266 0.09625971 -0.11028115
0.09120298 -0.03163413 -0.10054855 -0.08432283 -0.118931584 0.037119392 -0.10330012 -0.049123026
-0.011693097 -0.12216508 0.0064082406 -0.021241805 0.058362663 0.13643019 -0.12561548 0.08335511
0.0027059661 -0.09587789 -0.07873696 0.045998756 0.03617644 -0.0049447007 -0.07573753 0.07392693
0.024442056 -0.16745777 -0.049355276 -0.05522317 -0.058635898 -0.0944123 -0.14521359 0.17352785
-0.16982895 0.17045623 -0.14150763 -0.044586606 -0.060860842 -0.09439888 0.0605461 0.10050473
-0.12129692 -0.10292156 0.08706117 -0.009448022 0.044004865 0.117737636 -0.07253305 -0.09893031
0.07840087 -0.054121755 -0.119735844 -0.09204397 -0.08358056 0.17749625 0.031959068 0.062120605
0.022560187 -0.11481536 0.12561515 -0.031718746 -0.041242354 0.14130686 -0.09009505 0.03224672
-0.14535686 0.09016223 0.07195821 -0.14684622 0.07765822 0.019662833 -0.09217555 0.14924464
0.075911835 0.081876285 -0.06733872 -0.101961344 -0.09858958 0.068301894 0.058394957 -0.105401024
0.15757449 0.0935758 -0.06765344 0.09236785 -0.07668908 0.066615276 0.13846299 -0.14888112
-0.08467834 -0.011157222 0.033235814 -0.14773022 -0.12035534 -0.0211128 -0.021752838 0.0364432
0.028778382 0.030467747 0.015031909 0.010850221 -0.0026003062 0.05511482 0.11587202 -0.09749415
-0.08712226 0.11606461 -0.13258827 0.097805426 0.077531114 -0.016982444 -0.062351536 0.00964456
-0.15386061 -0.18524031 0.15922172 -0.16432975 -0.15538335 -0.0413492 0.0126918005 0.060135905
-0.08817097 -0.022778086 -0.010535514 0.16975091 0.12759359 0.062343802 0.032395057 0.13063286
-0.14259093 0.076623976 -0.12473742 0.13715306 -0.14344208 0.061777275 -0.14136109 0.102356076
0.028139928 0.13285063 -0.13622096 0.11837753 -0.119260706 -0.08077128 0.057405874 -0.0327582
-0.11480478 -0.13250867 -0.049312677 0.044870317 0.15381423 0.10697702 0.012001724 -0.12113528
-0.16649823 0.15886737 -0.07572654 -0.024958473 -0.1438339 -0.12146472 0.03989882 -0.046632983

rowAttentions.0.v_net.bias f4 [32]
00000000: 8cae 08be 1eba 033e 7196 d63c da95 73bb
00000010: 309c 2cbe 074f 1d3e 3941 e2bd 7878 b43d
00000020: f027 afbc 187b 9b3a f9f0 ad3d bb05 51bd
00000030: 9b9b 3dbd 00bb 093e d2e6 0dbe b581 8b3d
00000040: 737a 5cbd 1a93 63bd 6fcd e93d 61bd e33c
00000050: 4017 1cbe b34a 243e 0465 b4bd 648e 1f3e
00000060: 2ee3 5cbd b495 2d3e 5d9e 683d 3155 fbbb
00000070: ce2c 893d 0c98 a0ba c605 b0bd d391 c63d
-0.13347834 0.12863967 0.026194783 -0.0037168176 -0.16856456 0.15362178 -0.110475965 0.0881204
-0.021381348 0.0011862246 0.084932275 -0.051030856 -0.046290975 0.13450241 -0.13857582 0.06811849
-0.053827714 -0.05556021 0.114161365 0.027800264 -0.15243244 0.1604412 -0.0880833 0.15581661
-0.053927593 0.16951638 0.056791652 -0.0076700677 0.06697999 -0.0012252345 -0.08594851 0.096957825

rowAttentions.0.proj_net.weight f4 [32, 32]
00000000: b5a8 ee3d d99d cebc 186d 303e 48ca 173c
00000010: ac48 b4bd 1199 bbbd 2ab4 ff3d d17c 8dbd
00000020: d23c f33d 6882 3dbe b2dc 3b3c fc20 04be
00000030: 61bf 6c3d f8bd 163e ab11 5b3d 6cb5 5dbd
00000040: 990a 33be 34e5 abbd b9fb dbbd f88a 323e
00000050: c576 ccbd 9cbd 893d effd 0e3e 0475 8d3d
00000060: 39c5 1cbe 56ff 8abc 877e 4bbd 465e f93d
00000070: 37c1 83bc 2122 3d3a b6cc 1a3e 6d16 3a3d
00000080: 7164 943d 8001 1dbd 9887 ef3d 559c b03c
00000090: 2555 33bd 87e2 ca3c 7268 02be 5088 a6bb
000000a0: b2b3 cc3d 6d23 3bbe b579 abbd 3b1f c23d
000000b0: 0923 7c3c 182b e13b a6d6 bd3c addc abbd
000000c0: ba04 0a3e 2f08 88bc 1b91 99bd 9202 da3d
000000d0: dcdc 1bbe 5d0b fbbc e652 a43c d9c3 41bd
000000e0: 2caa d63d 48c9 1abe 7386 26bd 3964 a7bd
000000f0: 95ef 1b3e e491 a13d 46ee 0cbe 8862 733d
00000100: 1205 30bc 2f0c 2b3e a80b c03d 9c23 e5bd
00000110: 51a5 203e 1261 20bd 039c 1ebd 0e94 473d
00000120: 81ad 3d3e 8c6e 0a3d 2d2d 2cbe ff21 67bd
00000130: d7e8 2a3e bf9e 85bd 3b37 aabd 7b39 20be
00000140: 940d e5bd 0ea9 b5bd f8d6 1c3d b453 883d
00000150: 2a11 223e 1802 fa3d aa96 243c 9593 c63d
00000160: d51b c53d 4595 1cbe b127 c63d 0b34 eabd
00000170: c5ec 0b3e 611a 91bd a1cf 183d 65b4 15bc
00000180: 1a68 ac3d f28f 063d d521 07be 193e 6e3d
00000190: 9910 dc3d 40cb bcbd 04a8 d7bd 5fdb 06be
000001a0: 263e 82bd 6012 2cbd ab82 a53c ef7d 86bc
000001b0: 0bcd 52bd d698 e73d 2cbf 2f3c 3d5b e6bd
000001c0: 2cb3 1bbd 82d7 d7bd 584c 94bd 69b4 1ebe
000001d0: 49e6 b93c e992 12be 4e4d 993d 31a3 0a3e
000001e0: 033e 00be ef9f bdbd 8686 0abe 3568 853d
000001f0: 95f2 e73c b543 a3bd d43e cd3d 8958 793d
00000200: e8a4 2fbe 187f ca3b f9d5 a3bd 965b 0fbd
00000210: e535 ca3d 9e3a ccbc 1008 e5bd 7628 f53d
00000220: 87c7 0fbe a57e 93bd 9a13 a43d 08e2 043e
00000230: d2d6 313e 254d 07bd 8f9d 863d cb72 2bbe
00000240: f24a 06bd f877 89bd e20b 7c3d 5c23 b1bd
00000250: 254a 1d3d eb87 b53d fee4 0a3e 741b afbc
00000260: 399a 2f3e 08d2 2cbe 195e 30bd bd0f 9e3d
00000270: 4b99 1d3d ba1a ac3d d16c fdbd de45 c33d
00000280: 07ba 2abe 7c13 f5bd 4339 a2bc b5fe 27be
00000290: 7e4f 2fbe 63d0 28be b3d4 183e 6212 383d
000002a0: ea1a 74bd ad08 e7bb be19 20be 69ec 28be
000002b0: 450f f4bd 69ab 2abe 64a4 fa3d d736 55bd
000002c0: 8c6d 41bd 76ef 1cbe ef2f ad3c 240d 12bd
000002d0: 3222 eebd eced f43d 6fb2 163e 89ce 06be
000002e0: 931d cd3d 9c42 f2bc f924 dfbb 7a7b 8f3d
000002f0: e1fd 0bbd df03 153e 5c3f e33d ebea e8bd
00000300: c94b e4bd 0e86 28be 6af7 693d eb5d 04be
00000310: a7c2 12be 5ba0 e5bd bdf0 3ebe 6796 0ebe
00000320: 3360 213e cf06 f63d d7f6 1f3e db30 b7bd
00000330: e41a 95bd b616 83bd 940a b53b 01ea 05be
00000340: 1f99 f63c 36a3 e9bd aaf5 6f3d 72c9 413e
00000350: 6351 363d 14f9 103e b89c 07be 72d8 f7bc
00000360: 2aa2 e0bd 4003 c1bc 4a91 89bd aad1 debd
00000370: 4b32 28be 8357 99bd 8d49 de3c 0170 e1bc
00000380: 27a8 2cbe 65fe 093e 1cd5 fc3d be64 c5bd
00000390: 5b7f c73c 9959 f33d 76cd 34be ff00 21be
000003a0: 2158 c23d 60d0 0f3c 6896 843d 6c65 a2bd
000003b0: 1712 013d 01a5 f43d ceb3 31bd bc97 9cbd
000003c0: 704a 2fbe 372e 06bd c5c1 fc3d 7508 11be
000003d0: 0e90 78bc 6ded fd3d 515c 59bd 1e8c 8cbd
000003e0: 56ed 54bd 8e2c 94bd edea cc3c 28dd 3cbe
000003f0: 70ce 823d 8934 58bd a88b f9bc 6336 48bc
0.11653272 -0.025221752 0.17229116 0.009264536 -0.088029236 -0.091600545 0.124855354 -0.069085725
0.11876835 -0.18506777 0.011466192 -0.12903208 0.0577997 0.14720905 0.053483646 -0.054128096
-0.17484511 -0.083933264 -0.10741372 0.17435825 -0.09983591 0.06725618 0.13964055 0.069070846
-0.1530961 -0.016967457 -0.049681213 0.12176184 -0.016083343 0.00072148634 0.15117154 0.045431543
0.0724572 -0.03833151 0.11695784 0.02155892 -0.043782372 0.02476622 -0.12735155 -0.0050821677
0.09995212 -0.18275233 -0.08372823 0.09478613 0.015389212 0.0068715923 0.023173641 -0.083917
0.13478366 -0.016605465 -0.0749838 0.106450215 -0.1522097 -0.030645067 0.02005906 -0.047305916
0.104816765 -0.15115845 -0.040655565 -0.08173413 0.15228112 0.078891546 -0.13762769 0.05942014
-0.010743396 0.16703866 0.09377223 -0.111884326 0.15688063 -0.039155073 -0.038723003 0.04872518
0.18523218 0.033796832 -0.16814108 -0.056428906 0.16690384 -0.06524419 -0.083113156 -0.15646927
-0.111842304 -0.08870135 0.038290948 0.0665659 0.1582686 0.122074306 0.010045687 0.09696118
0.09624449 -0.15291317 0.09675539 -0.11435708 0.13664539 -0.070851095 0.037307385 -0.009137248
0.08418293 0.03285212 -0.131965 0.05816469 0.10745353 -0.09218454 -0.10530093 -0.13169621
-0.0635951 -0.04200971 0.020203909 -0.016417472 -0.051465075 0.11308448 0.010726731 -0.11247871
-0.03801267 -0.10539152 -0.07241124 -0.15498509 0.022692816 -0.14313854 0.07485448 0.13538815
-0.12523656 -0.092590205 -0.13527879 0.065140165 0.028313914 -0.079718985 0.10021749 0.06087545
-0.1715275 0.0061797015 -0.079997964 -0.034999453 0.09873561 -0.024930295 -0.111831784 0.11970608
-0.14040957 -0.0720189 0.08011551 0.12976849 0.17367104 -0.033032555 0.06573021 -0.16743009
-0.032786317 -0.06712335 0.06153477 -0.086493224 0.038400788 0.08863815 0.13563916 -0.021375395
0.17148675 -0.16876996 -0.04305849 0.077178456 0.03847627 0.08403535 -0.12374271 0.095348105
-0.16672526 -0.11966607 -0.019802695 -0.16405757 -0.17120168 -0.16485743 0.14924888 0.044939406
-0.05959598 -0.007050595 -0.1563482 -0.16496433 -0.11916975 -0.1666695 0.12238386 -0.052054252
-0.047223613 -0.15325722 0.02114102 -0.035657063 -0.11627616 0.119594425 0.14716505 -0.13164724
0.100154065 -0.029572777 -0.0068098274 0.07005973 -0.034177665 0.14552258 0.11096069 -0.11372932
-0.11147267 -0.16457388 0.057120718 -0.12926452 -0.14332066 -0.11212226 -0.18646522 -0.13924561
0.15759353 0.120130174 0.15621506 -0.08944865 -0.072805196 -0.06400816 0.0055249427 -0.13077547
0.03010231 -0.11408083 0.058583893 0.18924502 0.04451121 0.14157516 -0.13243377 -0.030254576
-0.1096843 -0.02356112 -0.06717165 -0.10879834 -0.16425435 -0.07487395 0.027134681 -0.027519228
-0.1686102 0.1347595 0.12345335 -0.09638356 0.02435272 0.11882324 -0.17656502 -0.15723036
0.094894655 0.008777708 0.06474 -0.07929501 0.031511392 0.119455345 -0.043384366 -0.076461285
-0.1711824 -0.032758918 0.12341646 -0.14163382 -0.015171064 0.12398801 -0.053066555 -0.06862663
-0.051984154 -0.07235061 0.025014365 -0.1844374 0.06387031 -0.052784476 -0.030462101 -0.012219998

rowAttentions.0.proj_net.bias f4 [32]
00000000: 00b8 073e ea26 293e 8632 af3d e946 ffbd
00000010: 70d5 34bd 9265 0c3e b183 f93d 8d66 80bd
00000020: ce5c fb3d 2d40 f5bd ad31 803d 0888 163e
00000030: 8652 1c3d 71c2 18be fcdc 433d cf38 c43d
00000040: 8b3f e13d 9f16 f0bd f25d fbbc 9090 8fbb
00000050: 4e44 d8bc 215b 09bd 48c7 83bd 0bb9 7f3d
00000060: 0fbf b63d 3a4c 04bd 28cd 0c3e d9b4 62bc
00000070: 9df5 333d b64b 413d e183 80bd 535d ae3a
0.13253784 0.16518751 0.085545585 -0.12464697 -0.044148862 0.13710621 0.12183321 -0.0626956
0.122735605 -0.11975131 0.06259475 0.1470033 0.038164638 -0.14917924 0.04781817 0.09581148
0.10998448 -0.11723065 -0.030684445 -0.004381247 -0.026399758 -0.033534173 -0.06434494 0.06243233
0.0892316 -0.032299258 0.13750136 -0.013837063 0.043935407 0.047191344 -0.06275154 0.0013302959

rowAttentions.1.q_net.weight f4 [32, 32]
00000000: 5e26 083e 29b1 87bc 2fcb f83d 328b d33d
00000010: 9f97 03bd 3b34 98bd 8cbf c1bd cf31 0fbe
00000020: 23c3 d6bd 4b0d 443d cf36 823d 24bd 77bd
00000030: c70b 68bc ffe4 e13d 1458 073d 0e89 f7bd
00000040: e80b 153e f069 dc3d 6cd3 c13c 7657 b23d
00000050: 3539 18be 04d3 d73d bc98 313d 423c 66bc
00000060: 1b3f 5ebd b0fd 103e ebda 1a3d 332a bfbd
00000070: fc26 9e3d 0898 0f3d 041f 75bd 5a65 fa3d
00000080: 4223 3d3e bc29 b1bc 652a 95bd 9c81 b8bd
00000090: 6bd9 d8bd 18fb b63d 1301 e73d 60d9 cbbd
000000a0: bcb3 d33d 1043 183c 4676 81bb 87a1 bebd
000000b0: 55a1 23be 84a0 42be 5796 163e a51b c0bc
000000c0: 6974 b4bc 2a9e d7bd 1078 b4bc 27de 77bd
000000d0: dc8a a13c 11c0 21be ebcd 403c bdfa 18be
000000e0: 44fe f7bd 1d97 97bb f657 e1bc 73b1 13bd
000000f0: eb92 ca3d c5c4 b73c 9ff0 333d df11 833d
00000100: 3966 003c ff2b 1ebe d318 7dbd 87ac e83d
00000110: 054c d63d d2d3 6c3d 352d 223e a74a bdbd
00000120: 2f0c 66bd f796 8ebc b78a 2cbd ec9c 353e
00000130: b82a 33be 50ed 633d b4bc 1e3e 40d4 d9bd
00000140: 97a0 0b3e 15f2 19be c966 0a3d 82ab d2bd
00000150: 93f6 5e3d 982e 2f3d 7896 4c3d 08f2 22bd
00000160: b627 67bd d496 2ebe 48e2 3f3c 5900 273e
00000170: 4362 0abe 2087 90bd 8840 2a3d c64d a43d
00000180: ae6a 7c3d b637 f03d 3aa9 c73c 3cd9 3ebd
00000190: 162d 19be 3eab 35be 068d 0abe 3b97 b13d
000001a0: cba1 203e 03c8 2c3e e0b0 073e f662 963c
000001b0: 1fb0 f63d 7932 9c3d d1e2 fdbd f1c9 17bd
000001c0: 097c 22be 756a 183e f45b 1a3d 193b 243e
000001d0: 6d75 babc 4241 123e c480 b83d 4360 b1bc
000001e0: e1c2 d5bb eed4 fe3d 833d c7bc 515b 093e
000001f0: 17ff 193d 0b43 91bd 064a 9ebd fdf0 b2bd
00000200: 6d5f ee3d 1869 043e 15ba acbd 73cc 27be
00000210: c098 c33d cbad 26bd a125 1ebe 5e14 193d
00000220: 4204 9fbc c6c9 eb3d 5cf3 1d3d 387e f3bd
00000230: 48c8 03bd e578 0dbe f7a7 b63d 997f 4b3d
00000240: b3b8 d33d 8097 02be cb30 cfbd d8b3 e1bd
00000250: a4e8 1abe 4834 27be 1ea4 0dbe f6a9 013e
00000260: 93fe 3dbd 1328 0cbd 6d2c 7f3d 34d5 423d
00000270: 6175 a53d 9421 fabd db5e 243e af02 19bc
00000280: 40e6 a3bd 3780 dd3d 56bc 18be 4dcb d9bd
00000290: d56f c13d e35a 8b3d beb8 81bd e134 47bc
000002a0: cbcd 0abd 18ec 783d a82c 193d 3a8f 563d
000002b0: 6caf 153e 1e8d 0abe 156d 03be 2bed 2cbd
000002c0: c755 a3bd 69a5 fcbd 420d 273e 7fc6 163e
000002d0: 8177 103e ca0a d9bd 0987 9bbc c1bb 09be
000002e0: 9577 71bd 1649 153e 68b2 f13c 5ff1 783d
000002f0: 1fbf 32be 55af 9a3d 26b3 f93d ffc0 83bd
00000300: 3e59 093e 06d6 9a3d ffbc 06be 857f 04be
00000310: b298 453a 0e5e 30be 5cef fcbd 6abc 8d3d
00000320: 37e6 70bd 2f94 17ba 966c 95bd 8bd6 d53d
00000330: 2452 143e 394e ff3d 8e93 1ebe 6dd8 50bd
00000340: 0411 aa3d 9792 d43d 3401 20bd dfd6 cd3d
00000350: b995 59bb 3990 9d3c 0357 f83d 788b fc3d
00000360: 13e2 febd 4902 ddbd 28b6 8d3d d2ba d33d
00000370: 5ccc 2ebd 9bfe 1f3e 4607 8dbc a298 b7bd
00000380: a45f a7bc 1d9a 1cbe f91c 523d 335e 23be
00000390: 76b6 293e 7514 0dbe f731 e63d 5d5d 0abe
000003a0: 84a9 d6bc 78db b7bd 34c7 b23d ca50 c63d
000003b0: 2a6c 2bbe 7461 19be 8aee ba3c 045a 62ba
000003c0: 3df6 94bb 8c72 5a3d ad35 1cbd f156 1e3e
000003d0: b052 593c 0743 a7bd 3a46 873d 5b86 07be
000003e0: 14ef b4bd 4630 4f3d 6c24 6abd 66e4 30be
000003f0: e0ae ac3d 265f 2a3d 6389 683d addf 7d3d
0.13295886 -0.016563969 0.12148129 0.10329284 -0.03212702 -0.07431837 -0.09460363 -0.13983844
-0.10486438 0.04786424 0.0635811 -0.060483113 -0.014162964 0.11030006 0.033042982 -0.12086688
0.14555323 0.107623935 0.023660384 0.08708088 -0.14865573 0.10538295 0.04335855 -0.0140524525
-0.0542594 0.14159274 0.037806433 -0.09334221 0.077222794 0.035057098 -0.059844032 0.122263625
0.18470481 -0.021626346 -0.07283477 -0.09009096 -0.10588344 0.08934611 0.11279502 -0.0995357
0.10337016 0.009293333 -0.003950867 -0.09308153 -0.15979512 -0.19006544 0.14705788 -0.023450682
-0.022028165 -0.10528214 -0.022029907 -0.060514595 0.019719534 -0.15795924 0.011767845 -0.14939399
-0.12109044 -0.0046261684 -0.027507763 -0.0360579 0.09891304 0.022432694 0.043930646 0.06399893
0.007836872 -0.1544647 -0.061791252 0.11361032 0.10463718 0.057819195 0.15837558 -0.092427544
-0.056163963 -0.01740597 -0.042124476 0.17735642 -0.17496765 0.05564624 0.15501672 -0.106361866
0.13635479 -0.15033753 0.03378943 -0.10286619 0.05443437 0.042769045 0.049948186 -0.0397816
-0.056434356 -0.17049724 0.0117116645 0.16308726 -0.13514046 -0.07057023 0.041565448 0.080226466
0.061625175 0.11729376 0.024372686 -0.04659389 -0.14958605 -0.17741105 -0.13530359 0.08671423
0.15686719 0.16873173 0.13251066 0.018357735 0.12045311 0.076268144 -0.123967774 -0.03705782
-0.15867628 0.1488436 0.03768535 0.16038169 -0.022761071 0.14282706 0.09008935 -0.021652346
-0.0065234755 0.12442957 -0.024321323 0.1341374 0.03759679 -0.070928656 -0.077289626 -0.08737371
0.11639295 0.12930715 -0.0843393 -0.16386585 0.09550619 -0.040693086 -0.15444042 0.03737294
-0.01941121 0.115130946 0.038562164 -0.11889309 -0.032173425 -0.13815649 0.089187555 0.049682233
0.10337963 -0.12753105 -0.101167284 -0.110206306 -0.15127808 -0.16328537 -0.13832137 0.12662491
-0.04638536 -0.034217905 0.062298227 0.047566608 0.08079029 -0.12213436 0.1605181 -0.009339019
-0.08002901 0.10815471 -0.14915594 -0.1063448 0.094451584 0.06804445 -0.06334065 -0.012158603
-0.033887666 0.06077203 0.037396103 0.052382685 0.146177 -0.13530394 -0.1283458 -0.04221837
-0.07975345 -0.12336237 0.16313651 0.14724158 0.14108087 -0.10597761 -0.018985288 -0.13450529
-0.058951933 0.14578661 0.029504016 0.060777064 -0.1745572 0.07552973 0.12192373 -0.064332955
0.1341295 0.07560353 -0.13158034 -0.1293927 0.0007537707 -0.17223379 -0.12350342 0.06920703
-0.0588133 -0.0005782274 -0.07296102 0.104413114 0.14484459 0.12466092 -0.15485975 -0.05098765
0.08304027 0.10379522 -0.039063647 0.10050749 -0.0033200814 0.01923381 0.12125971 0.12331289
-0.12445464 -0.107914515 0.06919509 0.103383675 -0.04267536 0.15624468 -0.017215382 -0.08964659
-0.020431347 -0.15293165 0.05129716 -0.15953903 0.1657351 -0.13777335 0.11239999 -0.13512178
-0.026203878 -0.08977407 0.08729401 0.09683378 -0.1674048 -0.14978582 0.022818822 -0.0008634629
-0.0045459555 0.053331897 -0.038137127 0.15462853 0.013264343 -0.08167081 0.066051915 -0.13234846
-0.08834663 0.050583147 -0.05716364 -0.17274627 0.08431792 0.041594647 0.056771647 0.061980892

rowAttentions.1.q_net.bias f4 [32]
00000000: 7763 163e 4ad4 dabd 5df0 a9bd df83 043e
00000010: 06d0 a8bc e437 04be b2d8 b0bd f0f5 fc3d
00000020: 8c72 d5bd a159 803d b65e 1ebe b518 fb3d
00000030: fc7e 4e3d 3cf8 f63d 06db 043c 1d5e bd3d
00000040: f5d6 133e 388d fcbc 2a68 0dbe 250c 04be
00000050: 504e d73d cf1f dfbd 6c75 1ebe f4be 19be
00000060: 6345 a7bd 61f5 f33c e886 25be a500 a1bd
00000070: 9860 2b3e 9d59 08bd b658 81bd 046a a43d
0.1468638 -0.10685022 -0.08297799 0.1294093 -0.020607006 -0.12911946 -0.08635081 0.12351596
-0.10422239 0.06267095 -0.15465817 0.12260572 0.05041407 0.12059066 0.00810886 0.09246466
0.14437468 -0.030829057 -0.13809267 -0.12895258 0.10512984 -0.10894739 -0.1547448 -0.15014249
-0.08167531 0.029780092 -0.16164744 -0.07861451 0.16736066 -0.033288587 -0.063157484 0.080280334

rowAttentions.1.k_net.weight f4 [32, 32]
00000000: 8a2b 13be 18fa 10be 6ac5 de3c 64b1 773d
00000010: 0ff7 30be 2235 1f3e 116e 89bd 9187 f73c
00000020: 8b42 003e 3912 963d d641 673d 72fa 2abe
00000030: 1aa4 26be e133 743d cdcc db3b 516f dd3d
00000040: 52f5 a83d d9b2 0ebe 0141 1e3d 58f3 0bbe
00000050: b12b c0bd 6d33 423d 6e72 6dbc 23ec e6bd
00000060: 891b 803d 3b22 ff3d f40e 3ebe bafa 293e
00000070: e5fc c83d 364a 3dbc b651 36be 9b38 a0bd
00000080: 8d85 563d f697 94bd ec61 75bd 749e 9dbd
00000090: e4ce 193e 43e3 183e af95 0ebe 13bd 69bd
000000a0: 6223 243e 21e3 68bc 7007 b3bd 0000 cd3c
000000b0: 4f87 0d3e c219 8ebc 2fbc 2abe 755b 70bd
000000c0: a9fb bd3d d014 e5bc b700 f63d 06f0 713d
000000d0: 890f dcba d17c 8c3d 7a6d 99bc 6adc 1abe
000000e0: 6276 1dbe cf15 10be e367 96bc d5eb 02be
000000f0: ab9f d13c 1748 8f3c 1622 0f3e 21d2 4a3c
00000100: 289f ec3c d5b4 813d 8289 48bd ace6 b7bd
00000110: 45da 2cbe 8d97 32be 3753 593c 7af4 adbd
00000120: be8d 3b3d db3b 3a3d 455b 0d3e c880 5cbc
00000130: a3e0 c839 9e0c 073e 878f d03c 2fc8 9d3d
00000140: 4ea3 bdbd e616 01be 80a2 083e 1f05 fe3d
00000150: d188 8dbd d28d fc3c cecb 18be f658 513c
00000160: 190d 29be c29d c93d d0ac 34be d32d 3bbd
00000170: 0660 273e 3f79 7bbd 5d47 cbbd 8886 203e
00000180: 0797 b4bd ad9c 1d3d 1c42 c83d 6452 493d
00000190: 9d11 f5bd 4e98 263e 0a63 aa3d 31d8 e0bd
000001a0: 153f c8bd 5566 2dbd d4d8 703d cbf2 6f3d
000001b0: e76e b13c d930 d93d 86cf 383e f59c 243d
000001c0: 4107 883d 8565 ca3d 5109 153d 23c5 523c
000001d0: ba05 253e 2be7 f63d 2344 dc3d e7b5 8dbd
000001e0: d412 abbd 005c c1bd 045a 16be 5d19 74bc
000001f0: dae6 ce3d cc93 e03c 157a 86bd ba4d b2bc
00000200: f962 09be 8cc2 eabd b711 763c 54e8 d7bd
00000210: 5bee 963c c7f0 153e 18b1 3d3d 5d96 093e
00000220: 8a54 e6bd 58c4 4ebb 7ec0 31be 2bc8 c1ba
00000230: b7ad 06be 1756 213e 101f 16be a062 793d
00000240: cf55 d9bd 87e9 503d 03c3 82bb 0572 c9bc
00000250: 76c0 93bd 8da5 ea3d 84ae f7bc 4d1a 893c
00000260: 5f53 46bd 9ee5 04be edab 84bd 2cf8 233e
00000270: c836 2d3e 31c3 a5bd 439f a73c 75d7 053d
00000280: 6db6 1e3e 7138 d63c d819 0d3c eca0 4bbd
00000290: 3964 233d c576 34be 0313 36be b1d0 a5bc
000002a0: 3b08 fabd adff efbd 3728 f7bc 5b24 d23d
000002b0: b0d4 b33d 28db 62bd 2c83 82bc 7b44 283e
000002c0: 0c9d 1c3d 537c f33d f20b 92bd bec0 20be
000002d0: 6097 a3bd 816b 7f3c 00d7 34bd a4ed c7bd
000002e0: 6599 2a3e 7573 26be c6b0 c2ba f5c5 8d3d
000002f0: 53fb 46bd fe73 9a3d b441 f0ba a971 ddbd
00000300: 507d c3bd d98f a1bd 9e04 31be fc10 e23d
00000310: e5ba 243e e757 b9bd 7301 183c af78 703d
00000320: aeb8 4b3d 8f32 cfbd edd8 dbbd c00c 2e3e
00000330: bb82 d33d 72e9 263e fef2 003e e230 58bc
00000340: d28e fd3d d589 bdbb a6bf baba c44e 9dbd
00000350: 2f61 0d3e 9968 1dbd db0f bb3c e3fe 0fbe
00000360: 4a36 7c3d 86e3 aabd 4c25 17bd 0b14 80bc
00000370: 808d 853d 0ede 0a3c a57b 023d 8dad e7bd
00000380: 8b62 09be 6f52 823d 94ec 94bd 208c 1cbe
00000390: f110 93bd 2adc 31be a980 0e3d 4dd2 543c
000003a0: 6b76 273e 8c77 c3bd d4ba bbbd 1b81 353d
000003b0: b974 40bd 25b6 0e3e 877b d23c ea71 72bb
000003c0: 176f 8abd 39cb da3d a50c aabd 40ab 913d
000003d0: 6893 e73d 4635 0dbe 2c26 1ebe 6d06 ccbd
000003e0: 6f9c ac3d ad02 c9bd 5791 7c3c 4a4b d83c
000003f0: 84db 183d 15f9 babd 36cd ba3b 8cd0 f83d
-0.14372078 -0.14157903 0.027193744 0.060471907 -0.17281745 0.15547612 -0.067104466 0.03021601
0.12525384 0.073276944 0.05645927 -0.166971 -0.16273537 0.059619788 0.0067077638 0.108122475
0.08249916 -0.13935412 0.03863621 -0.13667047 -0.093833335 0.047412325 -0.014492614 -0.11275508
0.06255252 0.12457701 -0.18560392 0.16599551 0.09813861 -0.011553338 -0.17804608 -0.07823297
0.052373458 -0.07255547 -0.05990784 -0.07696238 0.15020329 0.14930443 -0.13924287 -0.05706508
0.16029122 -0.014214308 -0.08741653 0.025024414 0.13821147 -0.017346267 -0.16673349 -0.05868097
0.09276516 -0.027964026 0.12011855 0.059066795 -0.0016789298 0.06859744 -0.01872896 -0.15123144
-0.1537719 -0.1407082 -0.018360084 -0.12785275 0.025588831 0.01749043 0.13977847 0.0123792
0.028884485 0.06333319 -0.048959263 -0.08979544 -0.16880138 -0.17440625 0.013264469 -0.08493896
0.045789473 0.04546724 0.13804348 -0.013458438 0.0003831434 0.13188407 0.025459064 0.077041976
-0.092596635 -0.12606391 0.13343239 0.124033205 -0.06910861 0.030829344 -0.14921495 0.012777558
-0.16508903 0.09844543 -0.17644048 -0.045698 0.16345224 -0.061394926 -0.09925721 0.1567632
-0.08817869 0.038479496 0.09778234 0.04915084 -0.1196625 0.16269037 0.083196715 -0.10978735
-0.09777657 -0.04233392 0.058800533 0.058581155 0.021659328 0.1060502 0.18047914 0.04018875
0.066420086 0.098826446 0.036385838 0.012864384 0.16115466 0.120558105 0.107551835 -0.06919461
-0.083532006 -0.09441376 -0.14682776 -0.014898625 0.10102625 0.027414225 -0.06566254 -0.021765579
-0.13416661 -0.11462888 0.015018872 -0.1054236 0.018424204 0.1464263 0.046311468 0.13436265
-0.11246593 -0.0031550135 -0.17358586 -0.0014784386 -0.13152204 0.15755497 -0.14660287 0.06088507
-0.1061207 0.05100396 -0.0039905324 -0.024590502 -0.072144434 0.114573576 -0.030234583 0.016736174
-0.048419353 -0.12978217 -0.06478105 0.16012639 0.16915429 -0.080938704 0.020461684 0.03267618
0.15499277 0.02614996 0.008612119 -0.049714014 0.0398905 -0.17623432 -0.1778069 -0.020241113
-0.12208601 -0.11718688 -0.030170543 0.102608405 0.08780801 -0.055384785 -0.015931688 0.16432373
0.03823571 0.11888947 -0.07131185 -0.15698525 -0.07987857 0.015589596 -0.044150352 -0.09762123
0.16660078 -0.16254981 -0.0014853708 0.06922523 -0.048579525 0.07541655 -0.0018330128 -0.108126946
-0.09545386 -0.07888765 -0.17286918 0.11038396 0.1608692 -0.09049969 0.009277689 0.058708843
0.04973667 -0.10117065 -0.10734735 0.16997051 0.10327669 0.1629999 0.12592694 -0.013195248
0.123807564 -0.005784253 -0.001424779 -0.07681039 0.13806604 -0.03842983 0.022834709 -0.14062075
0.06157521 -0.08344178 -0.036900803 -0.015634557 0.065211296 0.0084757935 0.031856198 -0.11312399
-0.13416497 0.06363379 -0.07271686 -0.15287828 -0.07180966 -0.17369142 0.03479067 0.012989593
0.16353767 -0.09544286 -0.09166494 0.044312578 -0.046986315 0.1393667 0.025693668 -0.0036994168
-0.0675947 0.10683293 -0.08303193 0.071127415 0.113074124 -0.13789853 -0.15444249 -0.09962163
0.08428275 -0.098149635 0.015415511 0.026403088 0.03731872 -0.0912954 0.0057007326 0.12149152

rowAttentions.1.k_net.bias f4 [32]
00000000: 28bc 9c3d 1f89 853c f384 1bbb 721e 443d
00000010: 7066 2a3e c7a0 80bc 2913 adbd a63e 03be
00000020: 358f 133e d64e 1ebe ad00 a73d 6fae 223e
00000030: 232f c43d 14d4 3bbb 065e bfbc 5f61 e63d
00000040: 449b c1bd dca2 803d 77d8 5ebd e1fb be3d
00000050: 0e19 24bd deac efbd c360 8abd b2fc d43d
00000060: 4dbb 843d 141b 00be 8717 eebd b734 0ebd
00000070: cf85 6bbc 15c7 56bd 6dbf f13d 8adb 5b3c
0.076530755 0.016300736 -0.0023730367 0.047880597 0.1664064 -0.015701665 -0.0845092 -0.12816867
0.14410098 -0.15459761 0.08154426 0.15886854 0.09579303 -0.0028660344 -0.023360264 0.11249041
-0.09453443 0.06281063 -0.054405656 0.09325386 -0.040062957 -0.11702894 -0.06756737 0.1039976
0.06481037 -0.1251033 -0.11625581 -0.03471824 -0.014375164 -0.052435953 0.1180409 0.013419041

rowAttentions.1.v_net.weight f4 [32, 32]
00000000: d770 37bd a82c 9fbc 3e09 963d e102 f8bd
00000010: 9dbb 41be 926d 16be 3c80 883d 9816 a13c
00000020: adb5 1bbe eaf9 163e 5b39 c73d 4833 38be
00000030: cd3c c63d 8ed8 bcbc 6135 923c 1b1a 173e
00000040: 7e98 223e 490c 033d bfc4 9fbd 9d55 0f3e
00000050: 8dcb 123e 8f09 efbb f4a8 09be aab7 2f3e
00000060: a7dc a0bd 67e0 e1bd 336e 0dbe fb25 873d
00000070: 3f9e 673d 877d 9bbd a070 26be 8e60 fe3d
00000080: 3dcd 833c 2a3b 1c3e 20e4 a3bc a255 233e
00000090: 7ebf 23bd 7476 91bd f48d f43d 3399 333d
000000a0: fc03 253e 9d46 173d 65e1 10be 6f30 12be
000000b0: 1da0 eebc 394d 41bd 0494 a1bd b645 1f3e
000000c0: 848c 06be 04e3 9c3c a1dd c43d 9fd1 313d
000000d0: 75c0 a93c c0fb 3e3d a5e7 f8bd b35c 33be
000000e0: 3a48 583d 287c f8bd bcc7 39be 475c d3bd
000000f0: 639b 1f3e e6ca e9bd d634 063e 954a ee3d
00000100: 13e3 c73c 1c50 d1bd e46d 1dbe 65b7 0cbe
00000110: 147a fd3d d709 f9bd cfa1 f8bc d3fc c93c
00000120: b0f8 b1bc 820f 7d3d 34ee 10be ff8d 1c3e
00000130: 84b8 02be 2b25 acbd 3ad6 1abe 747c e33d
00000140: ccf7 adbd 0cc6 7abd 5a61 c23d 62c3 56bc
00000150: 9c3f 153e 147f 833d a672 6ebc 18f0 f0bd
00000160: 98aa 32be 870f 333d 3ca9 41bb 4fff 213e
00000170: cea9 27be 7a54 e53c f8a2 853d 2c70 b33d
00000180: 63c7 a83d 214a 66bc e549 1fbe a1ec 22bd
00000190: 0b36 443e 93a9 0abe b4c8 edbd 2c47 1d3e
000001a0: 2c5d 49bc a1b7 38bd 2f40 843c 5678 ae3d
000001b0: 74fb a73c edb2 123e 42ea 9b3b 283d 90bd
000001c0: e58c d3bd 0d14 a5bc 5711 2cbd f0af 003e
000001d0: ef02 b23d b93f 003e 2eae 0e3e 52dc 223e
000001e0: be76 2abe c0f7 34bd bdce 15bd 4280 f83d
000001f0: ff05 c63a a6b3 773d 46ec 51bb 7419 37be
00000200: eb6f 9d3c a3d1 25bc 12a1 e8bd 0e1c 2d3e
00000210: 04ec 0fbe 42f2 19be 3246 fabd 4ba2 1dbe
00000220: 75a6 20bd a226 d1bd 9ca5 173e 5038 b73d
00000230: 80bf b23d 3a4e 1b3e bc82 18be 2d03 e3bd
00000240: fc48 243e 0955 053e 7a50 e73c e778 bd3d
00000250: 8d62 3f3d 6bf4 86bc 9550 68bd 2641 743d
00000260: 1257 10be 4f8e 333e 2b8a 24be c425 03be
00000270: 4c83 033e 559a d5bd b158 a7bd de3a 1fbd
00000280: c850 22be 25b0 94bc eb3e c5bc a67f 01bd
00000290: 5a5b b13b da28 f6bd cbfd 05bd 2db3 cbbc
000002a0: 194a 35be 1661 e3bd 7039 053e 0ee9 33be
000002b0: db09 05bd 33e7 cabd eef1 363e f73c 013e
000002c0: ae62 a13d 45b7 b6bd 25d5 24be a034 6fbc
000002d0: 05e6 e13d e406 b93c f63f d1bd e1bf 22be
000002e0: ac6f 143e ebb2 0f3d ba35 e83d fff7 1cbe
000002f0: a9dd d33c 9d14 243e 981b 24be 876a 2bbe
00000300: 7b21 27be 089e b5bd f868 64bc 855a ba3d
00000310: ab57 8bbd 9a13 0d3e 9da5 103e cdba ed3d
00000320: faae 12be 4952 ab3d a94c c73d 67be 0d3e
00000330: 1313 25be 594c 00bd 95e7 c0bd 349e 99bd
00000340: 786d 343d e704 6cbc f222 a73d 5a57 fdbd
00000350: 2023 57bd 49d8 a23d ab02 80bd 8dfc c53c
00000360: 2d7a f4bd cb88 1e3e 1c67 4cba d042 873d
00000370: 5156 c53b 806a 8d3c 5457 2b3e 9ba6 a8bd
00000380: cd90 1c3e dda0 a6bd 79c4 60bc f975 debd
00000390: 587f 403d 892e 35be 0cb3 393d 1293 c0bd
000003a0: d776 1f3e 9cb9 373e 5b75 dd3d ce1c 3bbe
000003b0: d982 983d 3b23 0fbe 8f81 933c b7cd cdbd
000003c0: 8e73 dc3d 75e1 bebc 0099 3e3d fa53 873d
000003d0: a190 f03d 119a e63d 67d9 04bc fec0 fbbd
000003e0: a02b 743d c7b8 87bd e6e0 393c 0946 713b
000003f0: b58d 1e3e 581f 033e 6945 29bc 24f8 9bbd
-0.044785347 -0.019430473 0.073259816 -0.12109924 -0.18919225 -0.14690235 0.06665084 0.019664094
-0.15206023 0.14743772 0.097277366 -0.17988312 0.096795656 -0.02305248 0.017847719 0.14756052
0.15878484 0.031994138 -0.07801198 0.13997503 0.14335461 -0.0072948406 -0.13443357 0.17159906
-0.07854586 -0.110291295 -0.13811569 0.06599041 0.0565474 -0.07592302 -0.162539 0.1242076
0.016089076 0.15256944 -0.02000624 0.15950635 -0.039977543 -0.07102671 0.11941138 0.043847274
0.16114801 0.036932576 -0.14148481 -0.14276288 -0.029129082 -0.047192786 -0.0788956 0.15553936
-0.1313954 0.019151218 0.09612585 0.0434128 0.020721653 0.046626806 -0.12153558 -0.1751583
0.052803256 -0.12133056 -0.18142599 -0.10320335 0.15586619 -0.11415653 0.13106093 0.11635319
0.02440027 -0.10220358 -0.15373951 -0.13741834 0.123768 -0.1216008 -0.030350594 0.024656689
-0.021725029 0.061782368 -0.14153367 0.15288542 -0.127657 -0.08405527 -0.15120783 0.11107722
-0.08494529 -0.06122403 0.094912246 -0.013108106 0.14575046 0.064207226 -0.0145537015 -0.11764544
-0.17447889 0.04371598 -0.0029550334 0.15820049 -0.16373369 0.027994383 0.065252244 0.087616295
0.08241155 -0.01405576 -0.15555532 -0.03977645 0.19161241 -0.1354125 -0.11610547 0.15359181
-0.01229028 -0.045096997 0.016143886 0.08519046 0.020505644 0.14326067 0.0047581503 -0.07042915
-0.10329608 -0.020151163 -0.042008724 0.12567115 0.08691966 0.12524308 0.13933632 0.15904358
-0.16646859 -0.044181585 -0.036574114 0.12133838 0.0015107988 0.06047406 -0.00320317 -0.17880803
0.019218406 -0.010120782 -0.11358847 0.16905233 -0.14054877 -0.1503382 -0.1222042 -0.15393941
-0.039221246 -0.10212447 0.14809269 0.08946288 0.08727932 0.1516656 -0.14893621 -0.1108459
0.16043466 0.1302072 0.028236616 0.09251576 0.046724845 -0.01647397 -0.056717474 0.059632443
-0.14095715 0.17534755 -0.16068332 -0.12807375 0.12843055 -0.10429827 -0.081712134 -0.0388745
-0.15851128 -0.018150399 -0.024077853 -0.031615876 0.0054125013 -0.120195106 -0.03271274 -0.024865711
-0.17704047 -0.11102502 0.13010192 -0.17569372 -0.032480102 -0.09907379 0.17865726 0.12620912
0.0788015 -0.08921675 -0.16096933 -0.014599949 0.11030201 0.022586294 -0.10217278 -0.15893508
0.14495724 0.03508274 0.113383725 -0.15328978 0.025862532 0.16023488 -0.16026151 -0.16739856
-0.16321366 -0.08868033 -0.013941042 0.090992965 -0.06803831 0.13777009 0.14125676 0.11607895
-0.14324561 0.08365304 0.09731419 0.13842164 -0.16120557 -0.03132281 -0.09419171 -0.07500878
0.04404971 -0.014405466 0.08160962 -0.123701766 -0.052523732 0.07951409 -0.06250509 0.024168277
-0.11937366 0.1548187 -0.0007797347 0.0660454 0.0060222526 0.017262697 0.16732532 -0.082349025
0.15289612 -0.08136151 -0.013718718 -0.10862345 0.046996444 -0.17693533 0.045336768 -0.094030514
0.15572678 0.17941898 0.108133994 -0.18272707 0.07446832 -0.13978283 0.018006114 -0.100490026
0.10764228 -0.023300866 0.04653263 0.06607814 0.11746336 0.112598546 -0.008108473 -0.1229267
0.059611917 -0.0662704 0.011345124 0.0036815426 0.15483744 0.12804925 -0.01033149 -0.076156884

rowAttentions.1.v_net.bias f4 [32]
00000000: 89c8 12be 73d7 183d 9015 efbd 0972 1c3e
00000010: b318 efbb 9bba a2bd 873f e8bd 5a48 4bbd
00000020: 6358 193e 88db e1bd c0a2 26be 3271 4b3d
00000030: 09b1 743d fe16 19be 042f a5bd 87a3 223e
00000040: fc9d afbd 8d1b a23d 1e41 aabd cc89 22be
00000050: 032e 2dbe ef56 0b3e 90db 603d 8232 443d
00000060: bedd 713d 9f46 913d bc5b f43d ddb3 063e
00000070: 0eee 0c3e e0ca 643d 1690 e73c 88b3 023d
-0.1433431 0.037314843 -0.116740346 0.15277876 -0.0072966455 -0.079457484 -0.11340242 -0.049629547
0.14975123 -0.110282004 -0.16273022 0.0496685 0.059739146 -0.14950177 -0.08065608 0.15882693
-0.08575055 0.07915411 -0.08313201 -0.15872878 -0.16912083 0.13607381 0.05489689 0.04789973
0.05904936 0.07093548 0.119315594 0.1315455 0.13762686 0.05585754 0.028266948 0.031909496
