train/checkpoints/uduta8zd/5mxfjdfs.best_checkpoint.pt (torch, 541398 bytes, 159 tensors)

rowAttentions.0.q_net.weight f4 [32, 32]
-0.1637241 0.053362906 0.10006757 -0.14969553 0.059794758 0.15106224 0.014883648 -0.10446821
0.1472207 0.07419102 0.1202722 -0.13529724 0.10827947 -0.107899554 0.17787017 -0.075925566
0.11073326 0.032642413 0.048891045 -0.02503945 0.07444819 -0.07545569 -0.17293453 -0.06652791
0.13330951 -0.044895127 0.052616905 -0.07325439 0.13425212 0.10637138 0.05896127 -0.08870519
-0.1247103 -0.0113272425 -0.106092714 0.14579813 -0.1737366 0.08025383 0.15883449 0.0888297
0.06161269 -0.1553125 0.17231458 -0.0515009 -0.16121584 0.19062836 -0.063181214 -0.015773086
0.18050838 -0.12582707 -0.12470287 0.029899469 -0.02399632 0.033974413 -0.16418423 0.006245709
-0.08602717 -0.08666027 -0.15564919 0.08286459 0.05801846 -0.15139267 0.13363326 0.053297065
0.034123816 -0.10194322 0.03144712 0.17481576 0.12107446 -0.13294055 0.1685046 0.018227227
0.08950129 0.12748288 0.15555495 -0.14995487 0.15975285 -0.11827121 0.012581914 -0.12005407
-0.054045986 -0.0069543542 -0.016633756 -0.023274165 0.017799772 0.17790867 0.0992879 0.1029043
0.07495778 0.14109702 -0.021120075 0.012962937 0.023941554 -0.14922027 -0.16231893 0.02350728
-0.06695849 0.015829338 -0.025341444 0.03945059 0.11482066 -0.046145946 0.15543869 0.1516213
-0.123858854 -0.1568758 -0.13134727 -0.14057457 -0.056849994 -0.024913784 -0.042696483 -0.080733106
-0.097897075 -0.057535492 0.18544582 -0.053493638 -0.11632451 0.084632285 -0.008135931 0.14645933
0.121619 0.17818801 -0.15973687 0.10717 0.109853245 -0.07536449 0.101532206 0.14056075
-0.0014575784 0.08920972 -0.059744332 -0.15227291 0.03984315 0.054510344 -0.11406077 0.08764281
-0.14955384 0.1502655 0.17258854 0.034899082 -0.109274514 0.0842291 0.032197688 0.051098585
0.061805405 0.13412718 -0.07428373 -0.037987787 0.04923376 0.01931229 0.14404425 -0.09075881
-0.007847625 0.032812744 -0.051109016 0.11563272 0.017364245 -0.16118401 -0.0226926 -0.07632693
0.015402442 -0.017687337 -0.17465056 -0.030732634 -0.019527756 -0.050799806 0.1626104 -0.03707884
0.11476401 0.042804666 -0.14805332 0.033218317 0.14750838 -0.11747483 -0.11290064 0.17521772
0.14369136 -0.0975622 0.10763192 -0.021227157 -0.17339282 0.013602118 0.059181087 -0.051211253
0.06070054 -0.15123624 0.11770443 0.14812678 0.09463369 0.031737424 0.054448836 -0.12546134
-0.029134437 -0.00834147 -0.10166746 -0.13242012 0.120758414 0.11769387 -0.1551351 0.05444299
0.06987812 0.16315575 0.10075873 0.18021841 -0.06068388 0.14272733 0.1309697 -0.16558415
-0.14964136 0.0351602 0.09397683 -0.08780749 0.01814246 0.006769968 0.035843026 -0.096083045
0.09811193 0.11909825 -0.13746342 0.002053457 0.010540712 0.05574301 0.15745416 0.046998784
-0.028837236 0.1658531 -0.069300525 -0.05273931 0.015993305 -0.13623211 0.02627043 -0.121301256
0.016863583 0.012873666 0.023683285 -0.13103257 -0.16996302 0.09269681 0.14168905 -0.15556313
0.0533466 -0.12693307 0.009228191 0.16422936 0.13311282 -0.12613654 0.104280666 0.09270426
0.00045384423 0.17272799 -0.08465828 -0.037869357 -0.08433284 0.024727156 0.03499265 0.010779321
00000000: 4aa7 27be 1093 5a3d 3af0 cc3d c949 19be
00000010: 59eb 743d 0fb0 1a3e 8bda 733c 6ef3 d5bd
00000020: 06c1 163e 76f1 973d 4551 f63d 5c8b 0abe
00000030: a0c1 dd3d 71fa dcbd 9923 363e dd7e 9bbd
00000040: 1fc8 e23d 0db4 053d fa41 483d 881f cdbc
00000050: 4b78 983d 8388 9abd c015 31be c93f 88bd
00000060: 4a82 083e f4e3 37bd d384 573d 6606 96bd
00000070: 6379 093e 3dd9 d93d 5f81 713d 11ab b5bd
00000080: 1d68 ffbd e695 39bc 2347 d9bd 1b4c 153e
00000090: 02e8 31be 1f5c a43d 82a5 223e 59ec b53d
000000a0: 975d 7c3d 3d0a 1fbe 3c73 303e 9cf2 52bd
000000b0: c415 25be 1534 433e 2765 81bd 8f36 81bc
000000c0: 30d7 383e d0d8 00be 3864 ffbd bbef f43c
000000d0: ee93 c4bc c128 0b3d e91f 28be cea8 cc3b
000000e0: 032f b0bd f17a b1bd 8062 1fbe e9b4 a93d
000000f0: c4a4 6d3d ae06 1bbe 28d7 083e 064e 5a3d
00000100: 6ac5 0b3d 9bc7 d0bd b2ce 003d e702 333e
00000110: e3f5 f73d 9121 08be 788c 2c3e 4451 953c
00000120: 744c b73d df8a 023e cc49 1f3e c58d 19be
00000130: 4096 233e 2d38 f2bd 5f24 4e3c e9de f5bd
00000140: 535f 5dbd 5ae1 e3bb 8443 88bc 76a9 bebc
00000150: d4d0 913c b12d 363e 7457 cb3d 7dbf d23d
00000160: 7783 993d bd7b 103e 0204 adbc 8062 543c
00000170: 1421 c43c 33cd 18be ef36 26be 5792 c03c
00000180: 8821 89bd 87ac 813c dc98 cfbc f196 213d
00000190: 1827 eb3d 8803 3dbd 522b 1f3e 9d42 1b3e
000001a0: b6a9 fdbd 0da4 20be e67f 06be c8f2 0fbe
000001b0: 8adb 68bd fe17 ccbc 82e2 2ebd 6657 a5bd
000001c0: 437e c8bd 56aa 6bbd 82e5 3d3e 251c 5bbd
000001d0: 8b3b eebd b153 ad3d 914c 05bc 6ff9 153e
000001e0: 6213 f93d eb76 363e 1092 23be f27b db3d
000001f0: bdfa e03d b358 9abd 1ef0 cf3d 28ef 0f3e
00000200: 370c bfba 96b3 b63d 79b6 74bd 6eed 1bbe
00000210: 9232 233d 3d46 5f3d b198 e9bd 137e b33d
00000220: a424 19be 33df 193e 0dbb 303e 57f2 0e3d
00000230: 51cb dfbd 4e80 ac3d b9e1 033d c04c 513d
00000240: aa27 7d3d a358 093e 1122 98bd 1599 1bbd
00000250: 57a9 493d cf34 9e3c 5680 133e c1df b9bd
00000260: 5393 00bc a866 063d b057 51bd d9d0 ec3d
00000270: 763f 8e3c 6c0d 25be d5e5 b9bc 4b51 9cbd
00000280: 865a 7c3c 09e5 90bc 99d7 32be 01c3 fbbc
00000290: acf8 9fbc 7513 50bd 5783 263e fbdf 17bd
000002a0: 6509 eb3d f253 2f3d 4a9b 17be ee0f 083d
000002b0: 700c 173e a596 f0bd 7338 e7bd 466c 333e
000002c0: d423 133e b1ce c7bd 206e dc3d 93e4 adbc
000002d0: e38d 31be 6bdb 5e3c de67 723d e4c2 51bd
000002e0: 21a1 783d acdd 1abe 050f f13d 8cae 173e
000002f0: 4fcf c13d 1aff 013d be05 5f3d f078 00be
00000300: 58ab eebc a9aa 08bc 0737 d0bd 2499 07be
00000310: 3050 f73d 7c09 f13d bcdb 1ebe 9dff 5e3d
00000320: 431c 8f3d 4d12 273e 985a ce3d 2d8b 383e
00000330: a98f 78bd 1d27 123e ec1c 063e e48e 29be
00000340: 963b 19be 2404 103d ed76 c03d 6ad4 b3bd
00000350: 7f9f 943c 9cd6 dd3b 23d0 123d 30c7 c4bd
00000360: e8ee c83d c9e9 f33d 36c3 0cbe 4b93 063b
00000370: f3b2 2c3c c852 643d aa3b 213e cc81 403d
00000380: 113c ecbc 65d5 293e 6fed 8dbd 2d05 58bd
00000390: 6404 833c 6e80 0bbe 1635 d73c cb6c f8bd
000003a0: 7f25 8a3c 12ec 523c 7303 c23c 672d 06be
000003b0: c90a 2ebe d3d7 bd3d ef16 113e f14b 1fbe
000003c0: f781 5a3d befa 01be d731 173c be2b 283e
000003d0: ba4e 083e f029 01be 1a91 d53d bbdb bd3d
000003e0: f1f1 ed39 9bdf 303e 5261 adbd e61c 1bbd
000003f0: b2b6 acbd 9b90 ca3c 7454 0f3d c09b 303c

rowAttentions.0.q_net.bias f4 [32]
0.056648888 0.13760248 0.036573827 0.10230975 0.11273319 0.04825192 0.059802495 0.055146974
0.0022717344 0.14174302 0.16267239 0.063212745 -0.015752705 0.15408728 -0.13838904 0.13058788
0.09136507 0.10453875 -0.06370697 -0.14329545 0.11606641 -0.08137687 0.043965794 0.0922592
-0.17666237 -0.0077746185 -0.068449795 0.095026135 -0.1171936 0.10074322 0.108751416 0.10050477
00000000: aa08 683d aae7 0c3e 70ce 153d c687 d13d
00000010: a9e0 e63d cea3 453d 76f3 743d cbe1 613d
00000020: 61e1 143b 1525 113e 9793 263e af75 813d
00000030: d10b 81bc 0ec9 1d3e dbb5 0dbe d4b8 053e
00000040: 9c1d bb3d 6a18 d63d cd78 82bd 0bbc 12be
00000050: 3ab4 ed3d eba8 a6bd 7a15 343d 64f2 bc3d
00000060: fbe6 34be 3ac2 febb 682f 8cbd 109d c23d
00000070: 3303 f0bd 7652 ce3d 10b9 de3d 72d5 cd3d

rowAttentions.0.k_net.weight f4 [32, 32]
0.17126429 0.02289318 -0.15935421 0.1273205 0.013848511 0.0045309085 -0.16467026 -0.038612917
-0.08465604 0.16884771 0.12714092 0.12603234 0.122845836 -0.10854348 -0.07546314 -0.06890694
-0.07194891 0.13628116 0.061184935 0.1427013 -0.0071774437 -0.1564671 -0.05183065 0.124834135
0.10818687 0.055545073 -0.054878782 -0.16459954 -0.09650223 0.093039334 -0.07238767 0.08565256
0.046539556 -0.06581786 0.10722876 -0.05747137 -0.004704118 -0.067917995 -0.1693154 0.027841203
0.050372258 -0.085668646 0.10766415 -0.15597941 -0.17163718 -0.10977062 -0.0610066 -0.019555004
-0.03353752 0.08131174 -0.15579934 0.025441725 0.0023899216 0.046045218 0.17699085 0.10853277
-0.09806218 -0.14567696 -0.04046256 -0.08939862 0.061996814 0.0011409487 0.14295888 0.06880741
-0.033512782 0.0034653158 0.038131665 -0.0245097 0.14111036 -0.14101897 0.082584344 -0.11528508
-0.15767893 -0.032601815 0.08326203 0.13418534 0.041639175 -0.0067399517 -0.011391752 -0.073396794
-0.0016262038 -0.0154366745 0.14784265 0.100813225 -0.14363402 -0.0005522444 -0.112820365 -0.030446565
-0.14492983 0.0417705 -0.11819043 0.17321548 0.14324169 -0.12427601 -0.1526491 0.005049347
-0.04745673 0.05446107 -0.11637181 0.07433544 -0.15215273 -0.09109023 -0.08996444 0.08755483
-0.0024782708 -0.17408863 -0.09868135 -0.08966523 -0.16201414 0.016011111 0.0635733 -0.030824589
-0.08154142 0.0015190563 -0.13843727 -0.105561875 -0.0024029908 0.15806101 -0.051008448 0.08954571
-0.0664926 -0.043983955 -0.17415439 0.14849555 0.16347769 -0.0016270431 0.10243474 0.14542307
0.086354874 0.090289265 -0.16866997 -0.16640401 -0.13513757 0.0550597 -0.1524095 -0.13523003
-0.08594637 -0.16250484 3.756327e-06 0.027431842 -0.10366574 0.11662415 -0.0678302 -0.04989972
0.13440078 0.15184246 -0.020570884 -0.12716697 -0.08892986 0.02240562 0.1042176 0.08786748
-0.07782596 -0.16733998 -0.1538419 -0.05630463 0.0019600668 -0.07969655 -0.13793474 0.018085474
-0.13884233 -0.13503626 -0.14345808 -0.047731873 0.1555896 0.0692226 -0.021550396 0.036551055
0.07053498 0.00074152584 -0.14246204 -0.11072377 -0.11999205 -0.0051255208 -0.1611576 -0.03213923
-0.06401998 0.1734728 0.14385824 0.10282725 0.010043118 -0.057246245 0.04470895 -0.12213316
-0.0757851 -0.035409033 -0.042028014 -0.16727681 0.07070731 0.14574887 -0.098798946 0.04808252
-0.015862986 -0.006248621 0.009667214 0.15233906 0.023608927 -0.11244018 -0.0597884 0.08550139
0.05434114 -0.0026694648 -0.024271714 -0.06906075 -0.06344695 -0.094946444 0.030158157 0.04830426
0.13896982 -0.04081194 0.011694353 0.1134752 0.07599676 0.021498935 0.04866789 0.008337906
-0.15222088 0.0067541017 -0.032092784 0.16087049 0.15956113 0.03437733 0.16421801 -0.09170296
0.15060535 0.15268816 -0.006223919 -0.14137763 -0.05494151 -0.04706554 5.4888234e-05 -0.15978065
0.033180945 -0.06734831 -0.044686925 -0.0869703 -0.036879938 -0.16189809 -0.096444465 0.017348355
0.11024494 0.16277836 -0.13312261 0.07469268 -0.09907459 -0.13573772 -0.002615865 -0.10091777
-0.15245277 -0.1649416 -0.1271563 0.14476103 0.09941866 -0.06963518 -0.12519847 -0.13576858
00000000: e85f 2f3e 7a8a bb3c c02d 23be 4e60 023e
00000010: dde4 623c 0478 943b 529f 28be 9428 1ebd
00000020: 2560 adbd 6ae6 2c3e 3b31 023e 9f0e 013e
00000030: 9996 fb3d 0b4c debd 6b8c 9abd 151f 8dbd
00000040: f359 93bd 4a8d 0b3e 0e9d 7a3d 4a20 123e
00000050: c330 ebbb e938 20be 604c 54bd 0aa9 ff3d
00000060: 1491 dd3d 3b83 633d 93c8 60bd c88c 28be
00000070: f6a2 c5bd 688b be3d fd3f 94bd 9c6a af3d
00000080: 43a0 3e3d 84cb 86bd c19a db3d 1967 6bbd
00000090: 0025 9abb 9718 8bbd 0461 2dbe 3c13 e43c
000000a0: 2453 4e3d 0b73 afbd 067f dc3d 11b9 1fbe
000000b0: a8c1 2fbe 6bcf e0bd 0ee2 79bd d131 a0bc
000000c0: a35e 09bd c586 a63d dd89 1fbe 2a6b d03c
000000d0: 3ba0 1c3b e999 3c3d 173d 353e 6e46 de3d
000000e0: d3d4 c8bd 572c 15be 12bc 25bd a016 b7bd
000000f0: 5ff0 7d3d e38b 953a d063 123e e6ea 8c3d
00000100: b344 09bd 5a1a 633b f32f 1c3d 91c8 c8bc
00000110: 3c7f 103e 4767 10be fb21 a93d 961a ecbd
00000120: 9676 21be 7b89 05bd 4885 aa3d e267 093e
00000130: d78d 2a3d d0da dcbb 79a4 3abc 0f51 96bd
00000140: 5826 d5ba 1bea 7cbc 1064 173e 2a77 ce3d
00000150: cc14 13be 7fc4 10ba 5d0e e7bd 136b f9bc
00000160: 7c68 14be 8b17 2b3d d30d f2bd 665f 313e
00000170: f3ad 123e 6c84 febd 0c50 1cbe fe74 a53b
00000180: fd61 42bd 9212 5f3d 5854 eebd 2e3d 983d
00000190: edcd 1bbe 848d babd 473f b8bd f24f b33d
000001a0: 7c6a 22bb 4a44 32be 7319 cabd 67a2 b7bd
000001b0: 09e7 25be bc29 833c b832 823d d983 fcbc
000001c0: 30ff a6bd 121b c73a 80c2 0dbe d330 d8bd
000001d0: 7f7b 1dbb bfda 213e 3cee 50bd be63 b73d
000001e0: 462d 88bd 8528 34bd 8755 32be 380f 183e
000001f0: b266 273e 8242 d5ba 4ec9 d13d c9e9 143e
00000200: d3da b03d 94e9 b83d d2b7 2cbe d065 2abe
00000210: 8161 0abe 4886 613d 3c11 1cbe be79 0abe
00000220: a704 b0bd ab67 26be 3515 7c36 beb8 e03c
00000230: b44e d4bd a4d8 ee3d 8fea 8abd a663 4cbd
00000240: 5ca0 093e 977c 1b3e 4584 a8bc 0f38 02be
00000250: dc20 b6bd fe8b b73c 0970 d53d def3 b33d
00000260: 3863 9fbd 2c5b 2bbe bb88 1dbe af9f 66bd
00000270: 7774 003b f237 a3bd c43e 0dbe fd27 943c
00000280: af2c 0ebe f246 0abe ade6 12be 7f82 43bd
00000290: e152 1f3e 94c4 8d3d 758a b0bc 8fb6 153d
000002a0: a574 903d f562 423a 92e1 11be 25c3 e2bd
000002b0: 64be f5bd fcf3 a7bb 7f06 25be 6da4 03bd
000002c0: e81c 83bd dba2 313e 934f 133e 1897 d23d
000002d0: e48b 243c 0a7b 6abd bb20 373d f320 fabd
000002e0: 3835 9bbd 1009 11bd 9125 2cbd 9d4a 2bbe
000002f0: ffce 903d 313f 153e 1a57 cabd 2df2 443d
00000300: 18f3 81bc 3bc1 ccbb 3c63 1e3c c5fe 1b3e
00000310: 8267 c13c 0947 e6bd aee4 74bd 5a1b af3d
00000320: d194 5e3d 30f2 2ebb 79d5 c6bc b96f 8dbd
00000330: 79f0 81bd 4873 c2bd 3d0e f73c b0da 453d
00000340: 1b4e 0e3e 6c2a 27bd ac99 3f3c b065 e83d
00000350: 30a4 9b3d 891e b03c fb57 473d b69b 083c
00000360: cadf 1bbe 8351 dd3b b973 03bd 3cbb 243e
00000370: fe63 233e 3ecf 0c3d c428 283e c3ce bbbd
00000380: 4a38 1a3e 495a 1c3e 04f2 cbbb 4cc5 10be
00000390: 590a 61bd ccc7 40bd cb37 6638 8a9d 23be
000003a0: bee8 073d e9ed 89bd a309 37bd 7c1d b2bd
000003b0: 6b0f 17bd 9dc8 25be ad84 c5bd 231e 8e3c
000003c0: 19c8 e13d 5faf 263e 4b51 08be 7af8 983d
000003d0: 9ee7 cabd d4fe 0abe ef6e 2bbb faad cebd
000003e0: 941c 1cbe 73e6 28be 4335 02be 3c3c 143e
000003f0: 039c cb3d e49c 8ebd 0734 00be eb06 0bbe

rowAttentions.0.k_net.bias f4 [32]
-0.0780975 0.15223779 0.12656255 0.15787339 -0.17090972 0.0017412729 -0.055847246 0.039847292
-0.14241175 0.080498375 -0.008514635 -0.08347036 -0.15753122 0.091695696 -0.06446287 0.13106798
0.03091189 0.05347702 -0.031738915 -0.018847845 -0.06395762 -0.14804561 0.1127794 -0.11231043
0.105913505 -0.062436845 0.12648365 0.12995924 -0.10436598 0.14187405 0.0034869607 -0.13427483
00000000: 95f1 9fbd 39e4 1b3e 9d99 013e 90a9 213e
00000010: f502 2fbe 6c3b e43a 15c0 64bd ea36 233d
00000020: 63d4 11be 55dc a43d f880 0bbc 82f2 aabd
00000030: dd4f 21be f4ca bb3d 1c05 84bd af36 063e
00000040: ef3a fd3c b80a 5b3d aa00 02bd cc66 9abc
00000050: 36fc 82bd 4599 17be e3f8 e63d 0303 e6bd
00000060: 2ee9 d83d c7bd 7fbd ee84 013e 0914 053e
00000070: d5bd d5bd 6e47 113e 7e85 643b 577f 09be

rowAttentions.0.v_net.weight f4 [32, 32]
0.056866635 0.08732507 0.14817882 -0.16819303 0.17344761 0.13375922 0.16467842 0.09623994
-0.0866244 0.14594458 0.16003864 -0.06874522 -0.02505015 0.16429624 0.15421633 0.11022118
0.14334296 -0.06991879 -0.030552467 -0.07010397 0.088364646 0.036118012 -0.1356883 -0.037424583
-0.1692919 -0.15799242 0.18255436 -0.098471835 0.067767926 -0.039219745 -0.03125902 -0.0020122074
0.11386882 -0.019938929 0.14131553 0.11337867 0.09915414 -0.14757824 -0.08232143 -0.1344993
-0.02293458 -0.06418588 0.041954916 0.13512899 0.08208307 -0.14041589 -0.1099936 0.14124256
0.036401607 0.04030665 -0.08366842 -0.014605724 0.057301976 -0.10382321 0.1291252 0.08535043
-0.1150372 -0.073264934 -0.04009064 0.029154511 -0.09957839 0.18169326 -0.15290445 -0.095303826
-0.05470256 0.07040811 0.028207274 -0.054810617 0.13418087 -0.15070496 0.07797763 -0.10192824
-0.032021128 -0.23431079 -0.13061842 -0.12333612 0.06883746 -0.03350783 0.054469857 -0.08986987
-0.089699395 0.050730497 0.14390984 -0.045638982 0.09721689 0.050800685 0.11221019 0.10577236
0.07281545 -0.06783789 -0.050594784 0.113011956 0.05922261 -0.01216258 0.11827366 -0.13387021
0.123206034 -0.0063154143 -0.09839326 -0.08545206 -0.17621087 0.039920703 -0.09222639 -0.05038712
-0.0045676255 -0.1279154 0.008743416 -0.007652673 0.05858639 0.17998223 -0.12759371 0.098899275
-0.073964216 -0.09774451 -0.07985386 0.05014327 0.032330066 -0.0030059996 -0.10789098 0.0850022
0.04631899 -0.16870376 -0.051588014 -0.01593069 -0.11326659 -0.098238565 -0.12630874 0.16805905
-0.17829822 0.17032704 -0.14576639 -0.040021937 -0.07610309 -0.09129107 0.06222321 0.10539696
-0.11418284 -0.07536772 0.090070814 -0.03456857 0.045655824 0.08689198 -0.058273483 -0.09521266
0.083415076 -0.069317654 -0.11541679 -0.08752626 -0.07961446 0.17815743 0.028123401 0.07219141
0.023183517 -0.11748545 0.12061953 -0.030576376 -0.04807568 0.1463574 -0.08794527 0.0374979
-0.166015 0.093855865 0.07421988 -0.14337052 0.105341375 0.022536451 -0.08986232 0.15294792
0.07688039 0.061510306 -0.06411017 -0.107817285 -0.09267925 0.051671114 0.05136954 -0.112330064
0.15717967 0.097039506 -0.064234234 0.09708966 -0.071541905 0.06544317 0.15211211 -0.146282
-0.07188132 -0.01122661 0.031675525 -0.16590825 -0.11502375 -0.015573699 -0.04533691 0.041155364
0.0017996837 0.008706961 0.020442218 0.0102245845 0.004664406 0.05169625 0.09561534 -0.098168455
-0.09852501 0.1217702 -0.12909271 0.12115621 0.0763394 0.06789731 -0.06146795 0.008371467
-0.183889 -0.16784099 0.15867896 -0.16090111 -0.15275224 -0.052428782 0.027268235 0.03963836
-0.062484708 -0.022456843 -0.043649834 0.16500194 0.14876308 0.06309501 0.011164312 0.12902224
-0.13138834 0.08217967 -0.13128436 0.1405778 -0.16362333 0.062802196 -0.14966309 0.105686106
0.031090926 0.13140255 -0.13668832 0.12563556 -0.116533555 -0.12577939 0.07418273 -0.038274832
-0.07852624 -0.13578185 -0.04615666 0.04236513 0.15767834 0.106198475 -0.014422048 -0.11864491
-0.1850752 0.16526355 -0.07579192 -0.026233261 -0.1180737 -0.11671331 0.036533795 -0.04436487
00000000: fdec 683d 7cd7 b23d 30bc 173e cb3a 2cbe
00000010: 409c 313e 2df8 083e 76a1 283e 7219 c53d
00000020: 2268 b1bd 7f72 153e 2be1 233e 4bca 8cbd
00000030: f935 cdbc 463d 283e e3ea 1d3e a4bb e13d
00000040: 7fc8 123e 9531 8fbd 2b49 fabc ac92 8fbd
00000050: 86f8 b43d 7bf0 133d e0f1 0abe 854a 19bd
00000060: db5a 2dbe c4c8 21be 88ef 3a3e 9aab c9bd
00000070: e9c9 8a3d e2a4 20bd 7509 00bd 3ddf 03bb
00000080: 0e34 e93d f756 a3bc 05b5 103e 1333 e83d
00000090: 5311 cb3d c01e 17be 2398 a8bd 2fba 09be
000000a0: 4de1 bbbc e373 83bd ebd8 2b3d 415f 0a3e
000000b0: 2b1b a83d 2fc9 0fbe 5344 e1bd e4a1 103e
000000c0: da19 153d 9618 253d 595a abbd d94c 6fbc
000000d0: 7ab5 6a3d 43a1 d4bd 6539 043e 35cc ae3d
000000e0: a098 ebbd ed0b 96bd 1536 24bd 71d5 ee3c
000000f0: c1ef cbbd cc0d 3a3e fc92 1cbe a72e c3bd
00000100: cb0f 60bd 2132 903d f112 e73c 1981 60bd
00000110: b666 093e 6752 1abe bcb2 9f3d c1bf d0bd
00000120: 9628 03bd 2bef 6fbe d6c0 05be a697 fcbd
00000130: a7fa 8c3d 823f 09bd c91b 5f3d b20d b8bd
00000140: 51b4 b7bd c8ca 4f3d 1a5d 133e f1ef 3abd
00000150: a619 c73d 6114 503d 75ce e53d 2e9f d83d
00000160: 4420 953d 97ee 8abd 7a3c 4fbd d072 e73d
00000170: 6893 723d 8f45 47bc 7639 f23d 4615 09be
00000180: 7253 fc3d 89f1 cebb 6882 c9bd 7d01 afbd
00000190: 9f70 34be e483 233d 31e1 bcbd ba62 4ebd
000001a0: 05ac 95bb 41fc 02be 8b40 0f3c 46c3 fabb
000001b0: 48f8 6f3d 434d 383e eda7 02be b48b ca3d
000001c0: 8d7a 97bd 462e c8bd 6c8a a3bd 0863 4d3d
000001d0: 886c 043d 4e00 45bb f2f5 dcbd a215 ae3d
000001e0: fbb8 3d3d aec0 2cbe f44d 53bd 1481 82bc
000001f0: 50f8 e7bd 4d31 c9bd 1457 01be ac17 2c3e
00000200: cf93 36be 366a 2e3e c943 15be 0bee 23bd
00000210: f0db 9bbd d0f6 babd c4dd 7e3d 5dda d73d
00000220: b1d8 e9bd 645a 9abd 0c77 b83d c697 0dbd
00000230: 9a01 3b3d 6cf4 b13d 2db0 6ebd dbfe c2bd
00000240: 86d5 aa3d 6af6 8dbd a35f ecbd f840 b3bd
00000250: e80c a3bd e76e 363e 0c63 e63c 17d9 933d
00000260: 5ceb bd3c 369c f0bd 5f07 f73d 4f7b fabc
00000270: 01eb 44bd b7de 153e a61c b4bd 6697 193d
00000280: d6ff 29be 8137 c03d 9800 983d b9cf 12be
00000290: 38bd d73d 5d9e b83c bc09 b8bd 619e 1c3e
000002a0: 7773 9d3d 3bf2 7b3d 314c 83bd 4fcf dcbd
000002b0: 9ece bdbd 17a5 533d de68 523d 4e0d e6bd
000002c0: b5f3 203e a6bc c63d 3d8d 83bd f2d6 c63d
000002d0: 9084 92bd 1207 863d 47c3 1b3e f3ca 15be
000002e0: 8336 93bd d1ef 37bc 32be 013d dae3 29be
000002f0: 9291 ebbd d428 7fbc 32b3 39bd 8792 283d
00000300: 5de3 eb3a a4a7 0e3c 7076 a73c 0485 273c
00000310: e0d7 983b 72bf 533d fad1 c33d 8b0c c9bd
00000320: 7bc7 c9bd a862 f93d e130 04be bf20 f83d
00000330: d557 9c3d bf0d 8b3d d1c5 7bbd 7a28 093c
00000340: 664d 3cbe 82de 2bbe bd7c 223e 43c3 24be
00000350: 156b 1cbe 90bf 56bd a261 df3c d55b 223d
00000360: f7ef 7fbd 6af7 b7bc 2bca 32bd 45f6 283e
00000370: 5955 183e f537 813d 85ea 363c 681e 043e
00000380: aa8a 06be d14d a83d 686f 06be a0f3 0f3e
00000390: e08c 27be 709e 803d 4841 19be f571 d83d
000003a0: 66b2 fe3c 648e 063e 06f8 0bbe 9ca6 003e
000003b0: 25a9 eebd 50cc 00be 1ded 973d 12c6 1cbd
000003c0: 5ed2 a0bd 660a 0bbe c40e 3dbd 0f87 2d3d
000003d0: 6e76 213e 967e d93d 744a 6cbc 1afc f2bd
000003e0: 5a84 3dbe d93a 293e cb38 9bbd 23e7 d6bc
000003f0: a0d0 f1bd 6307 efbd 76a4 153d f0b7 35bd

rowAttentions.0.v_net.bias f4 [32]
-0.12991916 0.12615551 0.030305829 0.0014783314 -0.17029648 0.14548227 -0.12125332 0.09120765
-0.0072197253 0.0057359654 0.07713849 -0.05143826 -0.04833848 0.13665317 -0.14177598 0.08216487
-0.061310142 -0.049612008 0.116925895 0.05352079 -0.15372698 0.16976969 -0.09535931 0.16168149
-0.059166953 0.19253963 0.056926593 -0.009339751 0.06511828 0.00037248374 -0.08531097 0.101698175
00000000: 8709 05be e92e 013e ee43 f83c 92c4 c13a
00000010: 3362 2ebe 4ef9 143e a953 f8bd 14cb ba3d
00000020: 7293 ecbb c4f4 bb3b c9fa 9d3d edb0 52bd
00000030: 92fe 45bd cfee 0b3e b92d 11be 0e46 a83d
00000040: 5820 7bbd f635 4bbd d876 ef3d 9e38 5b3d
00000050: 9b6a 1dbe 1bd8 2d3e be4b c3bd d58f 253e
00000060: 0c59 72bd 1c29 453e dc2b 693d c105 19bc
00000070: bc5c 853d ec49 c339 85b7 aebd 2247 d03d

rowAttentions.0.proj_net.weight f4 [32, 32]
0.12343594 -0.01834022 0.17298922 0.0244708 -0.10403819 -0.10449467 0.13245568 -0.07616401
0.13490838 -0.19030556 0.017082073 -0.13211906 0.060751323 0.15858464 0.0698446 -0.044805896
-0.16867745 -0.088802606 -0.09936121 0.18570106 -0.10105356 0.09593817 0.14922209 0.061521824
-0.13371234 -0.024967987 -0.036709726 0.120534934 -0.0028369233 0.007745243 0.14564794 0.03765012
0.059809417 -0.033151522 0.13256373 0.049499013 -0.04848461 0.014036051 -0.12814973 -0.001302632
0.12565649 -0.17231156 -0.08220747 0.08443274 0.021290477 0.0014551153 0.04101015 -0.082686216
0.14227515 -0.030013572 -0.081440344 0.12370108 -0.1514735 -0.0050242594 0.012855583 -0.047057506
0.099138506 -0.16270256 -0.06162372 -0.09122111 0.16802572 0.067324884 -0.12027574 0.054839764
-0.027250106 0.16300696 0.11353747 -0.11150412 0.16090724 -0.03294855 -0.04243822 0.054650433
0.17260389 0.045239102 -0.17853995 -0.038489413 0.17534322 -0.06645926 -0.08065105 -0.14545646
-0.120149866 -0.09446284 0.0033006284 0.02238475 0.16975349 0.10408173 0.007433033 0.09140265
0.08416026 -0.14465491 0.08433973 -0.12160485 0.14092992 -0.085227065 0.039704833 0.00021486671
0.076588765 0.033192366 -0.13069652 0.079033986 0.10094748 -0.095631495 -0.11116365 -0.106878996
-0.05179868 -0.02648713 0.007943989 -0.0028663913 -0.06259881 0.09225665 0.029880367 -0.08918842
-0.024774648 -0.11169861 -0.045718558 -0.16203976 0.017503211 -0.1304099 0.06477494 0.13233843
-0.12795527 -0.10737836 -0.16403456 0.06043266 0.03380528 -0.07992984 0.12395548 0.05942383
-0.14734983 -0.0167945 -0.08897961 -0.023010397 0.098753795 -0.029477907 -0.097432494 0.13127813
-0.16042624 -0.07942719 0.06347291 0.13853905 0.1659201 -0.053953916 0.07623856 -0.1565467
-0.038581725 -0.07653727 0.029786838 -0.16624051 0.036411285 0.077629805 0.14001347 -0.028881399
0.17423886 -0.20232648 -0.049194217 0.07556594 0.03730697 0.077424556 -0.11171738 0.09493685
-0.17425473 -0.109922305 0.0034870256 -0.20172465 -0.17577031 -0.16185525 0.15024252 0.038263172
-0.062186167 -0.009199818 -0.15151617 -0.1669234 -0.10901949 -0.17384106 0.12550662 -0.06970709
-0.06999963 -0.14005113 0.003615865 -0.06950218 -0.109206006 0.13661431 0.16618116 -0.12713687
0.11018301 -0.038893487 0.035014734 0.09066202 -0.021525739 0.15578938 0.104989044 -0.11140967
-0.12390531 -0.14429384 0.03562885 -0.09319015 -0.14975673 -0.12209274 -0.16751894 -0.14172556
0.1910643 0.068906516 0.16354755 -0.10020488 -0.08724399 -0.063340396 0.015955152 -0.121367626
0.049477234 -0.12688062 0.101470545 0.19453074 0.021991361 0.16932434 -0.14475265 -0.026606563
-0.09158693 -0.021168523 -0.09807728 -0.09443247 -0.16286194 -0.05095395 0.027640903 -0.029790394
-0.18839169 0.13477057 0.15344937 -0.0927453 0.027905803 0.118673615 -0.18189958 -0.16182792
0.10041373 -0.0058261594 0.05967194 -0.07309258 0.044887096 0.12314625 -0.05309557 -0.07208563
-0.18417515 -0.033415098 0.073525615 -0.16677713 -0.009831085 0.108871154 -0.05679853 -0.07189579
-0.061844815 -0.069603615 0.008281434 -0.19470115 0.064978905 -0.07259624 -0.030414177 -0.009728051
00000000: fbcb fc3d 3b3e 96bc 1624 313e fd76 c83c
00000010: f911 d5bd 4d01 d6bd 76a2 073e e0fb 9bbd
00000020: 6c25 0a3e 76df 42be b4ef 8b3c 384a 07be
00000030: 61d6 783d 0364 223e b00a 8f3d 6386 37bd
00000040: c8b9 2cbe 24de b5bd e47d cbbd 6b28 3e3e
00000050: 2bf5 cebd 3b7b c43d adcd 183e 4ffe 7b3d
00000060: e3eb 08be aa89 ccbc f05c 16bd 05db f63d
00000070: adeb 39bb cfcb fd3b bc24 153e 0337 1a3d
00000080: b8fa 743d e4c9 07bd c9be 073e 7abf 4a3d
00000090: cc97 46bd 77f7 653c af39 03be 14bd aaba
000000a0: 18ac 003e 7172 30be 645c a8bd 13eb ac3d
000000b0: 5e69 ae3c 91b9 be3a 42fa 273d 6457 a9bd
000000c0: 94b0 113e 06df f5bc 32ca a6bd fe56 fd3d
000000d0: df1b 1bbe 8ba2 a4bb 39a0 523c 5fbf 40bd
000000e0: 2109 cb3d 809b 26be 2769 7cbd 22d2 babd
000000f0: ef0e 2c3e a1e1 893d 2153 f6bd a99f 603d
00000100: 9d3b dfbc 4ceb 263e 5586 e83d 465c e4bd
00000110: dec4 243e 0ff5 06bd b3d3 2dbd 22d9 5f3d
00000120: 13bf 303e a34c 393d 2dd3 36be 13a7 1dbd
00000130: 2c8d 333e cb1b 88bd 612c a5bd 8af2 14be
00000140: 2211 f6bd bc75 c1bd 5b4f 583b 3960 b73c
00000150: dcd3 2d3e cd28 d53d cd90 f33b 5031 bb3d
00000160: 375c ac3d 6b20 14be 4fba ac3d f70b f9bd
00000170: ef4f 103e 878b aebd 89a1 223d d84d 6139
00000180: 92da 9c3d b8f4 073d 4fd5 05be 92dc a13d
00000190: 8dbd ce3d 72da c3bd c5a9 e3bd 60e3 dabd
000001a0: da2a 54bd 8afb d8bc 8127 023c 11da 3bbb
000001b0: ce33 80bd 0ef1 bc3d acc7 f43c 6ba8 b6bd
000001c0: 34f4 cabc 3ec2 e4bd 6243 3bbd c0ed 25be
000001d0: e562 8f3c 2c8a 05be b9a8 843d ba83 073e
000001e0: b506 03be 30e9 dbbd adf8 27be 3d88 773d
000001f0: 6877 0a3d 42b2 a3bd 5fdc fd3d 6766 733d
00000200: e0e2 16be 9f94 89bc f13a b6bd 4d80 bcbc
00000210: 6e3f ca3d a77b f1bc b08a c7bd c66d 063e
00000220: c746 24be b9aa a2bd 16fe 813d 2edd 0d3e
00000230: f5e6 293e c8fe 5cbd f622 9c3d c74d 20be
00000240: df07 1ebd 92bf 9cbd 8703 f43c f43a 2abe
00000250: 0024 153d 60fc 9e3d b15f 0f3e af98 ecbc
00000260: ac6b 323e ac2e 4fbe e07f 49bd 51c2 9a3d
00000270: 32cf 183d c490 9e3d 15cc e4bd 406e c23d
00000280: d56f 32be f21e e1bd 9586 643b e890 4ebe
00000290: 22fd 33be 62bd 25be 2dd9 193e d8b9 1c3d
000002a0: ecb6 7ebd d5ba 16bc 0e27 1bbe f8ed 2abe
000002b0: 9c45 dfbd 6403 32be cf84 003e 97c2 8ebd
000002c0: f75b 8fbd 9069 0fbe 26f8 6c3b 2957 8ebd
000002d0: 66a7 dfbd 9fe4 0b3e 652b 2a3e 2b30 02be
000002e0: a1a7 e13d c74e 1fbd 9c6b 0f3d 02ad b93d
000002f0: bf56 b0bc 4087 1f3e 7f04 d73d c12a e4bd
00000300: 11c2 fdbd c4c1 13be 8fef 113d 7ada bebd
00000310: d459 19be c20b fabd 168a 2bbe 8120 11be
00000320: 5ca6 433e dc1e 8d3d 0279 273e 3738 cdbd
00000330: faac b2bd 9cb8 81bd 61b4 823c 978f f8bd
00000340: a4a8 4a3d feec 01be cacf cf3d 1133 473e
00000350: 3a27 b43c 5c63 2d3e 0a3a 14be 02f6 d9bc
00000360: ee91 bbbd 9c69 adbc bedc c8bd d065 c1bd
00000370: 48c5 26be 17b5 50bd 2d6f e23c fc0a f4bc
00000380: c0e9 40be 4c01 0a3e d521 1d3e 3ff1 bdbd
00000390: b69a e43c 270b f33d e243 3abe 38b6 25be
000003a0: b7a5 cd3d 5ee9 bebb 906a 743d 90b1 95bd
000003b0: 88db 373d 1a34 fc3d be7a 59bd a1a1 93bd
000003c0: 6998 3cbe 45de 08bd 9994 963d a0c7 2abe
000003d0: 8f12 21bc d7f7 de3d 93a5 68bd 1a3e 93bd
000003e0: fd50 7dbd 578c 8ebd daae 073c bd5f 47be
000003f0: a913 853d 56ad 94bd 2727 f9bc 6762 1fbc

rowAttentions.0.proj_net.bias f4 [32]
0.123888634 0.15425178 0.091823995 -0.1347097 -0.05437064 0.14995944 0.11942374 -0.05505635
0.11836763 -0.1121341 0.04818745 0.11666791 0.0358282 -0.109297134 0.05551241 0.106486715
0.10398344 -0.12868503 -0.027025456 0.0024894022 -0.020998675 -0.031208904 -0.070928864 0.06093436
0.07809276 -0.012412426 0.13501139 -0.0099494355 0.044304986 0.052122615 -0.07325294 0.00473852
00000000: 53b9 fd3d 2ef4 1d3e 380e bc3d 57f1 09be
00000010: c0b3 5ebd f88e 193e 6f94 f43d c482 61bd
00000020: ba6a f23d 90a6 e5bd 3460 453d 96ef ee3d
00000030: 97c0 123d 2dd7 dfbd fb60 633d b515 da3d
00000040: 45f5 d43d 02c6 03be 7d64 ddbc 3d25 233b
00000050: 6a05 acbc d1a9 ffbc 2743 91bd 4f96 793d
00000060: 19ef 9f3d 7d5d 4bbc 6d40 0a3e f502 23bc
00000070: 2579 353d 867e 553d a305 96bd 9645 9b3b

rowAttentions.1.q_net.weight f4 [32, 32]
0.1366015 -0.020844173 0.11862748 0.099769786 -0.0299227 -0.0753922 -0.09289287 -0.14558494
-0.103453495 0.044785455 0.06519486 -0.054898642 -0.01623852 0.113028586 0.02697813 -0.12569314
0.15124635 0.1074071 0.024612658 0.086195916 -0.15336084 0.106323324 0.051286947 -0.0149512505
-0.050795555 0.14251775 0.046203144 -0.09547977 0.08225164 0.032100208 -0.06475524 0.12227929
0.19578491 -0.02188539 -0.07544812 -0.08727704 -0.102098264 0.08533699 0.122068726 -0.11074221
0.10478525 -0.005377601 -0.0016208716 -0.062103763 -0.16253214 -0.15532807 0.12946379 -0.039653633
-0.012132058 -0.10766773 -0.02417461 -0.06322393 0.015700873 -0.1657862 0.0037818728 -0.15379322
-0.12042466 -0.0039384416 -0.0060101394 -0.04528891 0.100050256 0.016548937 0.030960763 0.07156505
0.0041360687 -0.15566283 -0.06432205 0.11685338 0.11949521 0.0673091 0.14942299 -0.09361293
-0.03870411 -0.017956378 -0.038200926 0.17757557 -0.18351878 0.023164311 0.16153763 -0.106023125
0.1251419 -0.14932753 0.034000743 -0.0952652 0.06132479 0.04423472 0.03319294 -0.04295518
-0.047034245 -0.16979331 0.012164684 0.1713008 -0.1312142 -0.06491168 0.027117092 0.07785618
0.06008616 0.118691996 0.026158594 -0.04369427 -0.12987289 -0.16973276 -0.13399625 0.09252277
0.16765682 0.16784047 0.13206095 0.022287073 0.12039803 0.0729279 -0.1328438 -0.040111333
-0.18068081 0.15438767 0.052040264 0.15603562 -0.026211116 0.1498425 0.09413731 -0.02874632
-0.0046886504 0.12818338 -0.034517914 0.14505702 0.03185658 -0.06648174 -0.09718913 -0.09928165
0.107594386 0.13270932 -0.08628625 -0.16125555 0.09379312 -0.043960184 -0.1660932 0.0349207
-0.01990266 0.1314649 0.040371146 -0.11479584 -0.031310547 -0.11525162 0.08345445 0.046712834
0.11567796 -0.12524807 -0.102100104 -0.105824344 -0.15050861 -0.16785812 -0.14289577 0.12605833
-0.05003307 -0.034106947 0.053933006 0.040904775 0.08670445 -0.12123034 0.15389813 -0.009714963
-0.087759934 0.11224855 -0.1472177 -0.100580595 0.09150882 0.06674608 -0.07067978 -0.012808102
-0.032698844 0.07556191 0.040418684 0.051992215 0.14747722 -0.12853688 -0.13220769 -0.04500247
-0.07202506 -0.12574612 0.17085889 0.15031013 0.14424898 -0.114246726 -0.02704833 -0.13146594
-0.059089195 0.14678366 0.023268152 0.056844868 -0.17401713 0.07780696 0.11289715 -0.065863535
0.1349699 0.07999357 -0.1304054 -0.13294487 0.001673952 -0.17310314 -0.12669204 0.06783734
-0.059429243 -0.00487302 -0.07240505 0.114924796 0.14362079 0.1353952 -0.15841259 -0.05246312
0.09043392 0.10425328 -0.043076504 0.09776736 -0.0053335936 0.018151358 0.116696954 0.120969206
-0.12530997 -0.108619116 0.06812552 0.10437075 -0.04072842 0.15545082 -0.017940436 -0.087497465
-0.017594006 -0.14834213 0.05493447 -0.16244838 0.16391124 -0.13839659 0.10957428 -0.1340909
-0.028107235 -0.09522034 0.08961566 0.10278268 -0.16779424 -0.14359428 0.021109935 -0.002996931
0.005966661 0.05354402 -0.04074508 0.15212694 0.014288782 -0.08371075 0.05786064 -0.13692065
-0.0868362 0.049660258 -0.06552399 -0.17154576 0.086954385 0.043216612 0.05598048 0.06462654
00000000: 43e1 0b3e 66c1 aabc f7f2 f23d 1a54 cc3d
00000010: 7320 f5bc 3a67 9abd 9e3e bebd 3814 15be
00000020: 6ddf d3bd f470 373d e284 853d 66dd 60bd
00000030: a506 85bc 887b e73d 3d01 dd3c b4b5 00be
00000040: 53e0 1a3e 41f8 db3d 7ca0 c93c 7c87 b03d
00000050: a00a 1dbe 0bc0 d93d 4312 523d 17f6 74bc
00000060: 000f 50bd 2cf0 113e 823f 3d3d e68a c3bd
00000070: 8c73 a83d 827b 033d 659e 84bd 906d fa3d
00000080: d77b 483e fd48 b3bc 8b84 9abd 4ebe b2bd
00000090: e518 d1bd 29c5 ae3d 2bff f93d d0cc e2bd
000000a0: a699 d63d 9636 b0bb 6d73 d4ba 8460 7ebd
000000b0: d36e 26be 520e 1fbe 2892 043e d96b 22bd
000000c0: 8ac5 46bc e680 dcbd d509 c6bc 8c7b 81bd
000000d0: 1e9f 803c dcc3 29be 4cd9 773b f87b 1dbe
000000e0: 34a1 f6bd 0b0e 81bb b4f0 c4bb dd80 39bd
000000f0: 26e7 cc3d a391 873c 6da1 fd3c b290 923d
00000100: dc87 873b 1466 1fbe 47bb 83bd d350 ef3d
00000110: e8b9 f43d 5ad9 893d 5702 193e 23b8 bfbd
00000120: 3388 1ebd 4119 93bc 9378 1cbd 5fd6 353e
00000130: 59ec 3bbe 15c3 bd3c 1f6a 253e a722 d9bd
00000140: 3325 003e 51e9 18be 5d44 0b3d 671a c3bd
00000150: b42f 7b3d 772f 353d 52f5 073d c5f1 2fbd
00000160: fba6 40bd 4cde 2dbe 624e 473c 7a69 2f3e
00000170: 045d 06be 6af0 84bd aa24 de3c 1073 9f3d
00000180: e81c 763d ca14 f33d 8c4a d63c c3f8 32bd
00000190: 66fd 04be 6dce 2dbe 5036 09be 947c bd3d
000001a0: 3bae 2b3e 5fde 2b3e fc3a 073e 6193 b63c
000001b0: 3e93 f63d 395b 953d 3508 08be c84b 24bd
000001c0: 6404 39be cd17 1e3e 2c28 553d cdc7 1f3e
000001d0: b2b8 d6bc 5070 193e 10cb c03d 677d ebbc
000001e0: 40a3 99bb 8142 033e a862 0dbd d489 143e
000001f0: 0c7c 023d 9427 88bd 180b c7bd 2d54 cbbd
00000200: 725a dc3d f4e4 073e d8b6 b0bd 2d20 25be
00000210: 9b16 c03d 980f 34bd 5614 2abe 0209 0f3d
00000220: e70a a3bc bc9e 063e 375c 253d 151a ebbd
00000230: 7d3f 00bd 0b09 ecbd 2bea aa3d f555 3f3d
00000240: 91e8 ec3d 0841 00be dc19 d1bd 6fba d8bd
00000250: ee1e 1abe 00e3 2bbe 4553 12be 6f15 013e
00000260: 7aef 4cbd bab3 0bbd dbe8 5c3d c48b 273d
00000270: 1a92 b13d 9d47 f8bd 7997 1d3e 822b 1fbc
00000280: 7bbb b3bd 91e2 e53d 3dc0 16be 33fd cdbd
00000290: fa68 bb3d 2bb2 883d 8fc0 90bd 13d9 51bc
000002a0: 39ef 05bd 34c0 9a3d 108e 253d caf5 543d
000002b0: 4504 173e 2c9f 03be 7461 07be 8354 38bd
000002c0: e081 93bd 97c3 00be a2f5 2e3e e6ea 193e
000002d0: 01b6 133e 30fa e9bd 7694 ddbc 029f 06be
000002e0: 8307 72bd 754e 163e da9c be3c 2ad6 683d
000002f0: 8c31 32be 4159 9f3d 9f36 e73d 76e3 86bd
00000300: 8d35 0a3e abd3 a33d fe88 05be b322 08be
00000310: 8268 db3a f341 31be 8fbb 01be 4eee 8a3d
00000320: 146c 73bd dbad 9fbb 1949 94bd b15d eb3d
00000330: 5411 133e 0aa5 0a3e e936 22be 92e3 56bd
00000340: 6b35 b93d be82 d53d fd70 30bd 413a c83d
00000350: 6dc5 aebb 28b2 943c d0fe ee3d b4be f73d
00000360: 4251 00be b373 debd 6585 8b3d 55c0 d53d
00000370: d8d2 26bd 802e 1f3e d2f7 92bc df31 b3bd
00000380: 4e21 90bc 00e7 17be f802 613d de58 26be
00000390: 59d8 273e d6b7 0dbe 7b68 e03d 204f 09be
000003a0: 2541 e6bc e202 c3bd 6a88 b73d ba7f d23d
000003b0: 41d2 2bbe 610a 13be beee ac3c 2968 44bb
000003c0: fb83 c33b f950 5b3d 50e4 26bd 2ac7 1b3e
000003d0: 7f1b 6a3c 8b70 abbd 47ff 6c3d ed34 0cbe
000003e0: 2dd7 b1bd 8e68 4b3d 7131 86bd b1a9 2fbe
000003f0: 2415 b23d e703 313d ca4b 653d eb5a 843d

rowAttentions.1.q_net.bias f4 [32]
0.14744422 -0.103825845 -0.084564134 0.124638736 -0.021350674 -0.13260469 -0.08277757 0.12681377
-0.10523945 0.05704497 -0.15862283 0.11073094 0.043953277 0.11518865 0.005723908 0.091388054
0.13013616 -0.040955767 -0.13256688 -0.14232081 0.105128124 -0.11283298 -0.1596687 -0.1584557
-0.084982455 0.037097733 -0.17434317 -0.083685085 0.161773 -0.034287326 -0.06775767 0.08478245
00000000: 9efb 163e a5a2 d4bd f62f adbd 9842 ff3d
00000010: 9ce7 aebc 86c9 07be 4987 a9bd 78db 013e
00000020: c887 d7bd fda7 693d 066e 22be e7c6 e23d
00000030: 5a08 343d 07e8 eb3d 9f8f bb3b a929 bb3d
00000040: 6a42 053e 3cc1 27bd 9dbf 07be 8cbc 11be
00000050: 6a4d d73d fa14 e7bd 3180 23be 3642 22be
00000060: 480b aebd cbf3 173d 0487 32be 1663 abbd
00000070: d2a7 253e de70 0cbd 89c4 8abd 6ca2 ad3d

rowAttentions.1.k_net.weight f4 [32, 32]
-0.14473009 -0.13917182 0.024424508 0.054450635 -0.17398398 0.15635006 -0.066267416 0.025830902
0.1257199 0.066231236 0.054087363 -0.16182713 -0.16499346 0.06138711 0.0056651384 0.10883753
0.084932655 -0.14011785 0.035336208 -0.14058794 -0.10125835 0.050296422 -0.005897295 -0.11259523
0.06287243 0.12429402 -0.16967466 0.16738713 0.0978902 -0.015228294 -0.17417045 -0.07583383
0.053454816 -0.074442655 -0.05704808 -0.07176848 0.15132633 0.14888638 -0.1401044 -0.053362582
0.15986443 -0.009012184 -0.08537441 0.020423051 0.13991195 -0.019736676 -0.16560252 -0.059133615
0.09147588 -0.028042769 0.122881025 0.0626219 0.004799732 0.06619778 -0.026950235 -0.15162571
-0.1544205 -0.14031127 -0.031346917 -0.12935346 0.02536396 0.02062846 0.13713168 0.010980329
0.027470909 0.06287302 -0.048463017 -0.08386884 -0.1643533 -0.17045666 0.012534303 -0.08171753
0.050417144 0.045669764 0.13872068 -0.023645606 0.0008180652 0.12001752 0.029695088 0.07961125
-0.09879842 -0.12759459 0.1405983 0.12695636 -0.063337095 0.029013382 -0.16057926 0.013163848
-0.16133796 0.10035744 -0.18192033 -0.044064518 0.16286974 -0.058393393 -0.10817542 0.15674116
-0.086832814 0.03920601 0.09691254 0.04347227 -0.12466831 0.15854912 0.08325851 -0.11301429
-0.102446936 -0.042496916 0.057985187 0.06811388 0.021587446 0.11942863 0.17613968 0.037771005
0.07351604 0.10021079 0.030000335 0.009792073 0.15483056 0.12239178 0.11809836 -0.069545
-0.08763267 -0.09648972 -0.14090359 -0.016581804 0.10193922 0.024609294 -0.056658305 -0.02169138
-0.13610722 -0.11323314 0.016773477 -0.104668476 0.020035643 0.14554398 0.047268186 0.13659249
-0.11411483 0.002844333 -0.17375004 -0.0011536279 -0.12982035 0.16553612 -0.1510166 0.058483828
-0.10481622 0.052265488 -0.0018524657 -0.02434782 -0.07118564 0.112949744 -0.021468306 0.015080375
-0.051639963 -0.13016556 -0.07250403 0.15767434 0.16889091 -0.0826726 0.018214606 0.028286543
0.15588182 0.024701415 0.0080798725 -0.049425274 0.038655788 -0.17535493 -0.17794506 -0.021468215
-0.12081669 -0.12120814 -0.029894715 0.10021683 0.08715869 -0.06163885 -0.012284255 0.16597866
0.036951322 0.117289394 -0.0719901 -0.15699908 -0.07936728 0.015585508 -0.051984787 -0.096312396
0.16955148 -0.16217348 0.003187251 0.07102292 -0.04894526 0.07713714 5.055476e-05 -0.10481321
-0.09349886 -0.07734839 -0.17416938 0.10938996 0.16157198 -0.09176688 0.006521601 0.05792388
0.049431678 -0.098515175 -0.108335175 0.17417407 0.1020963 0.16989496 0.12307753 -0.0114150075
0.12540568 -0.005175826 -0.0054705124 -0.07729419 0.13653013 -0.03807949 0.023480216 -0.1412519
0.059796467 -0.084364586 -0.037434015 -0.0148428315 0.06675039 0.0065278024 0.03202716 -0.11334333
-0.13527858 0.062053937 -0.0716743 -0.15208 -0.072970845 -0.17300774 0.036519866 0.013961195
0.16351175 -0.0972372 -0.09087072 0.040436257 -0.04588229 0.13468277 0.027643744 -0.004899783
-0.06823968 0.10625776 -0.08013406 0.07169888 0.11446666 -0.13838357 -0.15477802 -0.09949608
0.08545741 -0.09740945 0.01535681 0.026198415 0.036426272 -0.08974398 0.0059095565 0.12160677
00000000: 2034 14be 0f83 0ebe e815 c83c a107 5f3d
00000010: db28 32be 3b1a 203e 36b7 87bd 549b d33c
00000020: b8bc 003e 3ea4 873d b68a 5d3d 03b6 25be
00000030: 0cf4 28be 0d71 7b3d a0a2 b93b 36e6 de3d
00000040: 2cf1 ad3d 0e7b 0fbe b3bc 103d 49f6 0fbe
00000050: 8a60 cfbd 9f03 4e3d 193e c1bb 5498 e6bd
00000060: 43c3 803d dd8d fe3d 32bf 2dbe 8867 2b3e
00000070: a87a c83d 1880 79bc bd59 32be c44e 9bbd
00000080: 70f3 5a3d 6475 98bd 3fab 69bd 5afb 92bd
00000090: 4af5 1a3e ac75 183e 8777 0fbe b992 5abd
000000a0: 80b3 233e d7a7 13bc c7d8 aebd 3e4e a73c
000000b0: 1445 0f3e cfae a1bc b593 29be 1736 72bd
000000c0: b557 bb3d f3b9 e5bc 0ca9 fb3d e93f 803d
000000d0: 1247 9d3b b492 873d bdc6 dcbc c543 1bbe
000000e0: 6820 1ebe c2ad 0fbe a065 00bd 3c75 04be
000000f0: 14c8 cf3c 04fd a83c 3f6c 0c3e d6e6 333c
00000100: ac0a e13c 92c3 803d 2881 46bd 6dc3 abbd
00000110: 3b4c 28be 318c 2ebe ad5c 4d3c 855b a7bd
00000120: 3582 4e3d 3810 3b3d cb0c 0e3e 6eb4 c1bc
00000130: 6d73 563a bfcb f53d 1d43 f33c 390b a33d
00000140: d356 cabd 28a8 02be 00f9 0f3e d900 023e
00000150: e1b6 81bd 79ad ed3c e46e 24be 2ead 573c
00000160: c735 25be 3488 cd3d 5349 3abe ff7c 34bd
00000170: 53c7 263e e92d 6fbd 138b ddbd c180 203e
00000180: 67d5 b1bd 7b96 203d 157a c63d fb0f 323d
00000190: 1952 ffbd b35a 223e 7083 aa3d 0974 e7bd
000001a0: b3cf d1bd 3f11 2ebd e081 6d3d 4a7f 8b3d
000001b0: 28d8 b03c ff96 f43d f65d 343e c5b5 1a3d
000001c0: 948f 963d 513b cd3d 43c3 f53c ee6e 203c
000001d0: e78b 1e3e 8ba8 fa3d 8edd f13d 9c6d 8ebd
000001e0: c278 b3bd 679c c5bd 0849 10be 90d6 87bc
000001f0: 83c5 d03d 6e99 c93c 8a12 68bd 1fb2 b1bc
00000200: b15f 0bbe c7e6 e7bd 8868 893c 6d5c d6bd
00000210: ca21 a43c 7b09 153e 499c 413d e7de 0b3e
00000220: 09b5 e9bd fd67 3a3b 88eb 31be 5435 97ba
00000230: a0ef 04be 4d82 293e 18a4 1abe bd8c 6f3d
00000240: e3a9 d6bd 5614 563d 6fce f2ba 1475 c7bc
00000250: c7c9 91bd 3252 e73d 4dde afbc ad13 773c
00000260: 6d84 53bd 1f4a 05be fe7c 94bd 6275 213e
00000270: bdf1 2c3e 4150 a9bd cc36 953c 2eb9 e73c
00000280: 7c9f 1f3e 9f5a ca3c 7161 043c 2872 4abd
00000290: 8855 1e3d 3e90 33be 3b37 36be 1cde afbc
000002a0: be6e f7bd f93b f8bd c3e5 f4bc 7b3e cd3d
000002b0: 4180 b23d 0579 7cbd e643 49bc 4ff6 293e
000002c0: 455a 173d 6c35 f03d 8c6f 93bd 5ec4 20be
000002d0: 508b a2bd 5c5a 7f3c 00ee 54bd 6f3f c5bd
000002e0: e79e 2d3e ce10 26be 33e1 503b 7774 913d
000002f0: d37a 48bd 14fa 9d3d c30a 5438 4fa8 d6bd
00000300: 557c bfbd d568 9ebd 7559 32be d807 e03d
00000310: 2073 253e 46f0 bbbd 28b3 d53b 9741 6d3d
00000320: df78 4a3d 53c2 c9bd d5de ddbd b05a 323e
00000330: dd17 d13d f2f8 2d3e 1210 fc3d 0306 3bbc
00000340: 596a 003e fa99 a9bb fc41 b3bb 6b4c 9ebd
00000350: 8ece 0b3e 3df9 1bbd 9559 c03c 57a4 10be
00000360: 24ed 743d 57c7 acbd 6954 19bd 592f 73bc
00000370: 6eb4 883d 2de7 d53b e92e 033d 8c20 e8bd
00000380: 7886 0abe 452c 7e3d fac9 92bd dcba 1bbe
00000390: bd71 95bd f128 31be db95 153d 7fbd 643c
000003a0: a06f 273e 4c24 c7bd 6e1a babd 7da0 253d
000003b0: 11ef 3bbd 48ea 093e 2275 e23c 5c8e a0bb
000003c0: 3fc1 8bbd ab9d d93d 531d a4bd ddd6 923d
000003d0: 7f6d ea3d 6cb4 0dbe 217e 1ebe 9ac4 cbbd
000003e0: 4b04 af3d 9b7e c7bd 219b 7b3c 0f9e d63c
000003f0: b733 153d b1cb b7bd f4a4 c13b f80c f93d

rowAttentions.1.k_net.bias f4 [32]
0.07993212 0.0135482615 -0.005609152 0.051135555 0.16491748 -0.015444536 -0.08352725 -0.12890488
0.14728345 -0.15683639 0.08728847 0.15623128 0.09429925 -0.0015571084 -0.028632192 0.1180985
-0.10257033 0.06774736 -0.050254636 0.08821768 -0.037290722 -0.11983767 -0.07421141 0.10741106
0.06548047 -0.12595223 -0.11455303 -0.03602109 -0.018961769 -0.047303896 0.118623786 0.01236166
00000000: 74b3 a33d 87f9 5d3c facc b7bb 8473 513d
00000010: 21e0 283e 140b 7dbc 5610 abbd a4ff 03be
00000020: 79d1 163e b899 20be 4cc4 b23d 18fb 1f3e
00000030: f71f c13d e317 ccba 0f8e eabc a0dd f13d
00000040: 6510 d2bd 21bf 8a3d ced7 4dbd 79ab b43d
00000050: 28be 18bd 746d f5bd 27fc 97bd 54fa db3d
00000060: a01a 863d 9ff9 00be c79a eabd da8a 13bd
00000070: b655 9bbc bbc1 41bd 07f1 f23d 8f88 4a3c

rowAttentions.1.v_net.weight f4 [32, 32]
-0.029701782 -0.007935484 0.08871418 -0.11945194 -0.21046199 -0.1493847 0.079720795 0.023238378
-0.16122735 0.12680167 0.08972895 -0.20906287 0.11276631 0.01809393 0.010355781 0.14076713
0.13506912 0.029770924 -0.0669549 0.13165763 0.14321415 -0.014880611 -0.14179115 0.16069423
-0.07102187 -0.09994661 -0.14000762 0.08354438 0.063355 -0.071211286 -0.16953953 0.11969364
0.022371914 0.15622044 -0.020084806 0.15208983 -0.04781496 -0.0811247 0.10517043 0.036750898
0.15091012 0.010950326 -0.13561124 -0.12226845 -0.03665536 -0.033720978 -0.09185637 0.16231342
-0.11110409 0.016165242 0.088093385 0.03125712 0.0038485294 0.053888194 -0.09456864 -0.17247179
0.05465621 -0.12590219 -0.15610527 -0.10941237 0.14996466 -0.119900696 0.14967635 0.12776034
0.01397323 -0.105676934 -0.15370809 -0.14268854 0.122658186 -0.1241452 -0.043360952 0.022015696
-0.025598885 0.058844145 -0.14736235 0.14663506 -0.12811202 -0.058210496 -0.14266242 0.11558995
-0.089187056 -0.0554829 0.08366379 -0.018588938 0.14413804 0.06345273 -0.01560335 -0.12465054
-0.17346182 0.044320196 0.010403954 0.16666576 -0.15395613 0.027462486 0.0783049 0.087156914
0.09114949 -0.04776029 -0.165944 -0.037874736 0.19602752 -0.14520384 -0.12746939 0.15966623
-0.010758131 -0.051639255 0.038786437 0.096049726 0.013354556 0.08746993 -0.0026444946 -0.07160949
-0.08319151 -0.0037168062 -0.04846094 0.1311941 0.090910636 0.11590514 0.17647833 0.16930448
-0.16417412 -0.04894345 -0.02554292 0.11953603 -0.0015825244 0.050546687 0.013713797 -0.1845761
0.015084762 -0.012810894 -0.11276842 0.16764691 -0.12853132 -0.15022531 -0.12781024 -0.1613557
-0.033850707 -0.07965161 0.14641297 0.10033606 0.087618165 0.14941162 -0.1486344 -0.11011722
0.149157 0.13347483 0.023255222 0.09742354 0.05346922 -0.01852077 -0.0721184 0.062163953
-0.13985205 0.17723106 -0.17075843 -0.13166974 0.13232255 -0.10542389 -0.08393946 -0.043910027
-0.17398833 -0.005680448 -0.026483538 -0.047032356 0.021932356 -0.12227326 -0.046230532 -0.03208915
-0.17813659 -0.124028824 0.13328059 -0.14912415 -0.04449146 -0.095328994 0.17799824 0.1232551
0.09843361 -0.07918088 -0.1810977 -0.019848218 0.101418085 0.025555965 -0.09224645 -0.15563308
0.14669724 0.026962742 0.12969236 -0.16230755 0.03622196 0.15203854 -0.15171546 -0.16477373
-0.16381311 -0.080623485 -0.01410371 0.09786273 -0.060483545 0.1361467 0.14851892 0.116930425
-0.144014 0.07440189 0.09896911 0.12224853 -0.16444454 -0.024629928 -0.10059617 -0.07493195
0.045464914 -0.00785132 0.07567613 -0.12627879 -0.05716051 0.08202221 -0.04937344 0.021179281
-0.10674482 0.14672199 -0.004107375 0.061945286 0.0081667015 0.017173013 0.15836883 -0.08115839
0.14474797 -0.079208314 -0.0070273806 -0.1109501 0.043412853 -0.18058392 0.038775586 -0.08503374
0.14542066 0.17298469 0.11073007 -0.17196445 0.07974485 -0.11459294 0.012504705 -0.107298456
0.1149603 -0.020229474 0.045692462 0.06120199 0.12086638 0.106969215 -0.0053398595 -0.1270215
0.062217392 -0.067498006 -0.0031631174 0.006059963 0.15465458 0.13260607 -0.011853284 -0.07652382
00000000: 2751 f3bc d503 02bc c8af b53d 38a3 f4bd
00000010: 5983 57be 4ef8 18be a844 a33d 695e be3c
00000020: c818 25be 4cd8 013e d0c3 b73d 9414 56be
00000030: 06f2 e63d b939 943c 4bab 293c 4225 103e
00000040: 8f4f 0a3e 27e2 f33c a71f 89bd 42d1 063e
00000050: bba6 123e cecd 73bc b331 11be 078d 243e
00000060: ea73 91bd cfb0 ccbd 285e 0fbe 5119 ab3d
00000070: 44c0 813d 39d7 91bd c59b 2dbe f021 f53d
00000080: 4e45 b73c 40f8 1f3e e488 a4bc 70bd 1b3e
00000090: 9fd9 43bd b524 a6bd 9863 d73d 1c88 163d
000000a0: 2f88 1a3e ff68 333c acdd 0abe e267 fabd
000000b0: ee23 16bd 021f 0abd 311f bcbd 7d35 263e
000000c0: 8b8a e3bd f86c 843c 4e6a b43d 7707 003d
000000d0: 9c37 7c3b deb9 5c3d 34ad c1bd 729c 30be
000000e0: 31df 5f3d 81ec 00be 0fda 1fbe 9813 e0bd
000000f0: 5690 193e 7f8e f5bd c244 193e 9bd3 023e
00000100: f9ef 643c 266d d8bd a765 1dbe f21c 12be
00000110: 3734 fb3d d73f febd 419b 31bd 435a b43c
00000120: c1b4 d1bc 8f06 713d 28e6 16be 8027 163e
00000130: cc2f 03be 216e 6ebd 1916 12be 6cba ec3d
00000140: b4a7 b6bd 0a42 63bd ec57 ab3d d447 98bc
00000150: ec98 133e 81f3 813d 31a5 7fbc c848 ffbd
00000160: fa9f 31be 1889 353d 5975 2a3c 6eaa 2a3e
00000170: ada6 1dbe 02f9 e03c 525e a03d 537f b23d
00000180: 95ac ba3d 4ba0 43bd 39ed 29be 8a22 1bbd
00000190: 70bb 483e 51b0 14be 5687 02be 8b7f 233e
000001a0: df42 30bc af83 53bd 87de 1e3d b8b5 c43d
000001b0: 11cd 5a3c 6f23 b33d 424f 2dbb ffa7 92bd
000001c0: 4f60 aabd a995 73bb fb7e 46bd bf57 063e
000001d0: 5b2f ba3d ad5f ed3d bcb6 343e 275e 2d3e
000001e0: 431d 28be ed78 48bd 633f d1bc 4ecf f43d
000001f0: b56c cfba 0b0a 4f3d d5af 603c 8401 3dbe
00000200: 1426 773c c9e4 51bc 21f3 e6bd a2ab 2b3e
00000210: b79d 03be aad4 19be b0e0 02be 6e3a 25be
00000220: 0aa7 0abd 6220 a3bd 48ed 153e fe7c cd3d
00000230: 2771 b33d 5cff 183e 9e33 18be 2385 e1bd
00000240: 9dbc 183e a0ad 083e bc81 be3c fe85 c73d
00000250: 8a02 5b3d dfb8 97bc d0b2 93bd a19f 7e3d
00000260: 6035 0fbe 0f7c 353e 4cdb 2ebe 6fd4 06be
00000270: 907f 073e 7be8 d7bd 74e8 abbd 00db 33bd
00000280: ff29 32be 0d23 babb 01f4 d8bc 00a5 40bd
00000290: 7cab b33c 676a fabd 3a5c 3dbd ea6f 03bd
000002a0: 7069 36be d302 febd b57a 083e 00b4 18be
000002b0: ad3c 36bd d93b c3bd 2c45 363e 2b6d fc3d
000002c0: 8f97 c93d 9629 a2bd ad71 39be bb98 a2bc
000002d0: 49b4 cf3d be5a d13c b5eb bcbd 475e 1fbe
000002e0: cd37 163e f8e0 dc3c 13ce 043e f333 26be
000002f0: 7a5d 143d feaf 1b3e 4c5b 1bbe 72ba 28be
00000300: a0be 27be ed1d a5bd 3f13 67bc 416c c83d
00000310: 98bd 77bd 0a6a 0b3e 5815 183e 3879 ef3d
00000320: 6878 13be 0560 983d 51b0 ca3d 705d fa3d
00000330: 2664 28be b4c4 c9bc 5d05 cebd ec75 99bd
00000340: 6b39 3a3d d3a2 00bc 16fc 9a3d 3a4f 01be
00000350: 2421 6abd 43fb a73d ce3b 4abd 2c80 ad3c
00000360: 079d dabd 4a3e 163e 2997 86bb 57ba 7d3d
00000370: a1cd 053c 6bae 8c3c 702b 223e 5f36 a6bd
00000380: d038 143e f837 a2bd f145 e6bb ce39 e3bd
00000390: add1 313d feea 38be 26d3 1e3d 2b26 aebd
000003a0: 27e9 143e e622 313e 72c6 e23d 7317 30be
000003b0: 4551 a33d b4af eabd 89e0 4c3c 4bbf dbbd
000003c0: 4e70 eb3d 48b8 a5bc 0528 3b3d f0ae 7a3d
000003d0: cb88 f73d ad12 db3d fdf9 aebb ed11 02be
000003e0: aad7 7e3d 653c 8abd 4e4c 4fbb a792 c63b
000003f0: c55d 1e3e e3c9 073e 4734 42bc 85b8 9cbd

rowAttentions.1.v_net.bias f4 [32]
-0.14330488 0.045564502 -0.112635195 0.15216753 -0.0064934646 -0.069196634 -0.11693812 -0.04765848
0.152549 -0.110837035 -0.16009983 0.048166245 0.06252092 -0.14796494 -0.08019557 0.15904304
-0.07552614 0.07531901 -0.09309642 -0.15551494 -0.17048493 0.13636011 0.051873345 0.03675573
0.06299973 0.07110064 0.108643405 0.13789807 0.13857326 0.060154047 0.027934425 0.034986023
00000000: 84be 12be d8a1 3a3d 48ad e6bd ced1 1b3e
00000010: 21c7 d4bb f7b6 8dbd 417d efbd 8a35 43bd
00000020: ce35 1c3e 87fe e2bd 36f1 23be f849 453d
00000030: f80a 803d 1f84 17be 933d a4bd 2edc 223e
00000040: 73ad 9abd da40 9a3d 56a9 bebd 4f3f 1fbe
00000050: 9a93 2ebe fca1 0b3e 2579 543d 2d8d 163d
00000060: 0106 813d 369d 913d 6f80 de3d 2735 0d3e
00000070: 26e6 0d3e 1764 763d bcd6 e43c 814d 0f3d
