train/checkpoints/uduta8zd/5mxfjdfs.checkpoint.pt (torch, 540514 bytes, 159 tensors)

rowAttentions.0.q_net.weight f4 [32, 32]
000000 19 ae 27 be 9b 79 5a 3d d6 f1 cc 3d a3 48 19 be
       -0.16375007 0.05333863 0.10007064 -0.14969115
000010 50 e8 74 3d 13 b1 1a 3e 1d 59 74 3c 4b f1 d5 bd
       0.059791863 0.15106611 0.014913824 -0.104464136
000020 4b c2 16 3e 4e f6 97 3d 69 52 f6 3d 71 96 0a be
       0.14722554 0.07420026 0.12027437 -0.13533951
000030 1e c2 dd 3d 22 ef dc bd fa 27 36 3e 57 7e 9b bd
       0.108280405 -0.107877985 0.17788687 -0.07592457
000040 2c cb e2 3d 66 a5 05 3d 41 46 48 3d 48 17 cd bc
       0.11073908 0.03262844 0.048895124 -0.025035515
000050 45 7a 98 3d 84 87 9a bd 0f 18 31 be ef 3d 88 bd
       0.07445196 -0.07545379 -0.17294334 -0.06652438
000060 52 86 08 3e 3f e6 37 bd 9f 87 57 3d b0 10 96 bd
       0.13332489 -0.044897314 0.052619573 -0.07327402
000070 b9 77 09 3e 37 da d9 3d 5d 7d 71 3d 65 a8 b5 bd
       0.13424577 0.10637324 0.058957446 -0.08870009
000080 7d 7a ff bd f3 ba 39 bc 3c 41 d9 bd bc 4f 15 3e
       -0.12474535 -0.011336076 -0.106081456 0.14581198
000090 44 ec 31 be 66 64 a4 3d 4e 9f 22 3e 2c f3 b5 3d
       -0.17375284 0.08026962 0.15881082 0.08884272
0000a0 f2 6d 7c 3d fc fa 1e be b4 74 30 3e f9 51 53 bd
       0.06162829 -0.1552543 0.17232019 -0.051591847
0000b0 5c 13 25 be c8 3e 43 3e 46 4b 81 bd 3f 28 81 bc
       -0.16120666 0.19066918 -0.063131854 -0.015766261
0000c0 af e1 38 3e ed e5 00 be 57 5d ff bd de 09 f5 3c
       0.18054841 -0.1258771 -0.12468975 0.029911932
0000d0 77 7b c4 bc d1 32 0b 3d 2f 3b 28 be ec 0b cd 3b
       -0.023984654 0.03398401 -0.16428827 0.0062575247
0000e0 2c 15 b0 bd 84 72 b1 bd 38 6e 1f be c6 96 a9 3d
       -0.08597788 -0.0866442 -0.15569389 0.08280711
0000f0 a3 e4 6d 3d c6 04 1b be b3 c8 08 3e 79 59 5a 3d
       0.058079373 -0.1513854 0.1335781 0.053307984
000100 f2 bc 0b 3d 01 de d0 bd d7 d2 00 3d a0 05 33 3e
       0.03411574 -0.10198594 0.031451073 0.17482615
000110 e3 f1 f7 3d d2 1e 08 be 22 8a 2c 3e 67 68 95 3c
       0.12106683 -0.13293007 0.16849568 0.01823826
000120 00 52 b7 3d 97 85 02 3e 61 4c 1f 3e 60 9c 19 be
       0.08951187 0.12746273 0.1555648 -0.15001059
000130 09 99 23 3e 4b 3d f2 bd 16 f0 4d 3c aa da f5 bd
       0.15976347 -0.11828097 0.012569448 -0.120045975
000140 86 7b 5d bd 30 2e e3 bb a3 2c 88 bc 4d 94 be bc
       -0.05407288 -0.006932996 -0.016622847 -0.023264075
000150 c4 e5 91 3c 2a 30 36 3e 38 7d cb 3d f3 c4 d2 3d
       0.017809756 0.1779181 0.09935993 0.10291471
000160 06 84 99 3d 9f 80 10 3e 38 f8 ac bc 70 86 54 3c
       0.074958846 0.14111565 -0.021114454 0.0129715055
000170 df c3 c3 3c 50 ca 18 be 44 3f 26 be 0e 8e c0 3c
       0.02389711 -0.14920926 -0.16235071 0.023505237
000180 5d 3a 89 bd 3b 28 81 3c bd 68 cf bc 59 ba 21 3d
       -0.06700585 0.015766254 -0.025318498 0.039484356
000190 15 28 eb 3d bf e2 3c bd 83 30 1f 3e d8 4b 1b 3e
       0.114822544 -0.04611468 0.1554585 0.15165651
0001a0 0a 98 fd bd b8 b7 20 be 8d 77 06 be 1d 15 10 be
       -0.12382515 -0.15695083 -0.13131543 -0.14070554
0001b0 09 b9 68 bd ca 98 cc bc 51 ea 2e bd 57 49 a5 bd
       -0.05681709 -0.0249752 -0.04270393 -0.08070629
0001c0 77 ab c8 bd 79 88 6b bd a6 ee 3d 3e 9c fa 5a bd
       -0.09798329 -0.057503197 0.18548068 -0.053461656
0001d0 e1 2a ee bd 9c 63 ad 3d 3a 78 03 bc 59 02 16 3e
       -0.11629272 0.084662646 -0.00802427 0.14649333
0001e0 23 16 f9 3d 36 84 36 3e 8d 8e 23 be 94 69 db 3d
       0.12162425 0.17823872 -0.15972348 0.10713497
0001f0 f4 ba e0 3d b1 48 9a bd f8 ba cf 3d 5c f4 0f 3e
       0.109731585 -0.07533396 0.10143083 0.1405806
000200 c6 f3 be ba e5 b9 b6 3d af b3 74 bd 00 ed 1b be
       -0.00145685 0.08922175 -0.059741672 -0.15227127
000210 03 33 23 3d 2c 48 5f 3d 38 9d e9 bd 32 7f b3 3d
       0.03984357 0.054512188 -0.1140694 0.08764495
000220 34 24 19 be a7 de 19 3e 6e bb 30 3e 54 f3 0e 3d
       -0.14955217 0.15026341 0.17258999 0.034900025
000230 23 ca df bd 21 7a ac 3d 5d e8 03 3d 09 4f 51 3d
       -0.109272264 0.08421732 0.03220402 0.051100764
000240 e8 25 7d 3d c5 57 09 3e 10 21 98 bd e5 96 1b bd
       0.06180373 0.13412388 -0.07428181 -0.0379857
000250 35 ab 49 3d 39 35 9e 3c d8 7c 13 3e ce de b9 bd
       0.04923554 0.019312488 0.14403093 -0.090757
000260 b0 7f 00 bc 8d 66 06 3d 6e 64 51 bd 6c d0 ec 3d
       -0.007842943 0.032812644 -0.051121168 0.11563191
000270 6e 41 8e 3c 9c 0c 25 be e9 f5 b9 bc cd 4d 9c bd
       0.017365184 -0.16118091 -0.022700267 -0.07632027
000280 a3 5f 7c 3c 21 db 90 bc df d6 32 be 60 bd fb bc
       0.015403661 -0.017682614 -0.1746478 -0.03072995
000290 27 f8 9f bc c4 10 50 bd ad 80 26 3e 1e dd 17 bd
       -0.019527508 -0.05079724 0.16260023 -0.03707611
0002a0 c8 0a eb 3d fe 52 2f 3d a9 9a 17 be 47 0e 08 3d
       0.11476666 0.042803757 -0.14805092 0.03321674
0002b0 30 0d 17 3e 53 99 f0 bd ed 35 e7 bd ef 6c 33 3e
       0.14751124 -0.11747994 -0.112895824 0.17522024
0002c0 59 23 13 3e ac d0 c7 bd a3 6f dc 3d eb de ad bc
       0.14368953 -0.09756598 0.107634805 -0.02122446
0002d0 44 8d 31 be 0c e4 5e 3c e3 5a 72 3d 31 c0 51 bd
       -0.17339045 0.013604175 0.059168708 -0.05120868
0002e0 47 a2 78 3d 63 dd 1a be d0 0a f1 3d 3a ae 17 3e
       0.060701635 -0.15123515 0.117696404 0.14812556
0002f0 0f ce c1 3d fc 02 02 3d b3 f9 5e 3d 71 77 00 be
       0.09463131 0.031741127 0.05443735 -0.12545563
000300 8f 4a ee bc 7e 5a 08 bc 9f 36 d0 bd 5f 99 07 be
       -0.029088287 -0.008322356 -0.10166668 -0.132421
000310 73 51 f7 3d ac 07 f1 3d 79 d9 1e be b5 fe 5e 3d
       0.12076082 0.117690414 -0.15512647 0.054442126
000320 0b 1c 8f 3d 98 0f 27 3e 6d 5a ce 3d 9f 8c 38 3e
       0.06987771 0.16314542 0.10075841 0.18022393
000330 24 90 78 bd 1c 29 12 3e 2b 1a 06 3e ce 8e 29 be
       -0.06068434 0.14273494 0.1309592 -0.16558382
000340 1a 3f 19 be 14 07 10 3d 7c 76 c0 3d bc d4 b3 bd
       -0.14965478 0.035163 0.09397599 -0.0878081
000350 b9 9d 94 3c 58 e4 dd 3b 80 b8 12 3d 4b c7 c4 bd
       0.018141614 0.0067716055 0.035820484 -0.096083246
000360 3c eb c8 3d 34 e8 f3 3d af c8 0c be c3 d4 06 3b
       0.098104924 0.119095236 -0.1374843 0.0020573593
000370 05 e1 2c 3c c9 50 64 3d e5 36 21 3e 8c 8a 40 3d
       0.010551696 0.055741105 0.15743597 0.04700713
000380 5a f9 eb bc c4 d7 29 3e e4 ef 8d bd 49 0c 58 bd
       -0.028805424 0.16586214 -0.06930521 -0.05274609
000390 d8 07 83 3c cd 82 0b be e4 4c d7 3c 65 70 f8 bd
       0.015994951 -0.13624115 0.026281781 -0.121308126
0003a0 d1 17 8a 3c 69 c6 52 3c 0d f6 c1 3c 24 2b 06 be
       0.01685706 0.0128646875 0.023676896 -0.13102394
0003b0 6a 0c 2e be 37 df bd 3d 5a 14 11 3e a7 4d 1f be
       -0.16996923 0.092710905 0.1416792 -0.15556966
0003c0 e7 86 5a 3d f9 f9 01 be 65 15 17 3c 07 2a 28 3e
       0.05335131 -0.12693013 0.009221409 0.16422282
0003d0 28 4d 08 3e 20 2b 01 be 7d 8f d5 3d 8f d8 bd 3d
       0.13310683 -0.12614107 0.10427759 0.09269821
0003e0 cd d6 e7 39 f4 dc 30 3e 35 57 ad bd aa 16 1b bd
       0.00044219792 0.17271787 -0.08463899 -0.03786341
0003f0 eb b4 ac bd f2 7f ca 3c 54 6b 0f 3d 26 a8 30 3c
       -0.08432945 0.024719212 0.035014465 0.010782277

rowAttentions.0.q_net.bias f4 [32]
000000 02 04 68 3d be e0 0c 3e 04 c2 15 3d eb 72 d1 3d
       0.056644447 0.13757607 0.03656198 0.10226997
000010 f0 de e6 3d 61 9f 45 3d 93 ed 74 3d 9f e9 61 3d
       0.11272991 0.0482477 0.05979688 0.05515444
000020 ba b8 11 3b c7 1a 11 3e 65 92 26 3e 7b 77 81 3d
       0.002223535 0.14170371 0.16266783 0.06321617
000030 82 2b 81 bc 39 c7 1d 3e 8f b7 0d be f9 b6 05 3e
       -0.015767816 0.15408029 -0.13839553 0.1305808
000040 91 1b bb 3d c9 1d d6 3d a9 89 82 bd 1f c0 12 be
       0.09136117 0.104549 -0.06373913 -0.14331101
000050 81 98 ed 3d 1c b6 a6 bd 7f 14 34 3d 98 f0 bc 3d
       0.116013534 -0.08140203 0.04396486 0.09225577
000060 e1 e9 34 be 9c 8b fe bb 45 33 8c bd 72 8b c2 3d
       -0.17667343 -0.0077681076 -0.068457164 0.09499253
000070 ba 04 f0 bd 4b 56 ce 3d c8 b7 de 3d 21 d4 cd 3d
       -0.117196515 0.10075053 0.10874897 0.10050226

rowAttentions.0.k_net.weight f4 [32, 32]
000000 0f 5f 2f 3e 46 81 bb 3c 50 2e 23 be d9 5f 02 3e
       0.17126106 0.02288879 -0.15935636 0.12731875
000010 41 f1 62 3c 98 65 94 3b 7e 9d 28 be f0 2a 1e bd
       0.013851465 0.0045287125 -0.16466329 -0.038615167
000020 4e 61 ad bd cd e2 2c 3e ee 30 02 3e da 0f 01 3e
       -0.08465825 0.16883393 0.12713978 0.12603703
000030 af 95 fb 3d ed 4e de bd bd 8d 9a bd 20 20 8d bd
       0.12284409 -0.10854898 -0.07546566 -0.06890893
000040 5c 5c 93 bd 0c 90 0b 3e c9 9a 7a 3d c3 1f 12 3e
       -0.071953505 0.13629168 0.06118277 0.14269929
000050 47 41 eb bb 5b 39 20 be f8 3b 54 bd 0c a8 ff 3d
       -0.0071794125 -0.1564688 -0.051815003 0.12483224
000060 5a 92 dd 3d a8 84 63 3d 00 c4 60 bd 32 8a 28 be
       0.1081893 0.055546433 -0.05487442 -0.16458967
000070 65 a6 c5 bd 4f 8a be 3d f1 39 94 bd e5 68 af 3d
       -0.09650878 0.09303724 -0.07237614 0.08564929
000080 cf 9f 3e 3d 1c cc 86 bd ad 9b db 3d 13 65 6b bd
       0.046539124 -0.065818995 0.10723052 -0.05746944
000090 ac 39 9a bb ab 17 8b bd 42 61 2d be 24 17 e4 3c
       -0.004706582 -0.06791624 -0.16931632 0.027843066
0000a0 0d 55 4e 3d fe 6b af bd de 7f dc 3d 34 bb 1f be
       0.05037408 -0.0856552 0.10766576 -0.15598756
0000b0 48 c1 2f be a8 cc e0 bd c8 df 79 bd 5b 2e a0 bc
       -0.17163575 -0.10976535 -0.06100443 -0.019553354
0000c0 5e 5b 09 bd 40 82 a6 3d 65 89 1f be ff 6e d0 3c
       -0.0335344 0.08130312 -0.15579756 0.025443552
0000d0 9d bc 1c 3b 7a 9b 3c 3d 1f 3b 35 3e 61 47 de 3d
       0.0023916133 0.04604671 0.17698334 0.10853458
0000e0 f3 d5 c8 bd eb 2c 15 be 29 bf 25 bd 27 1b b7 bd
       -0.098064326 -0.14567916 -0.040465508 -0.08940726
0000f0 22 f4 7d 3d 61 cc 95 3a 92 61 12 3e 60 ec 8c 3d
       0.0620004 0.0011428708 0.14295033 0.068810225
000100 8a 37 09 bd f5 ea 63 3b 7a 27 1c 3d c2 de c8 bc
       -0.03350023 0.0034777496 0.038123585 -0.024520282
000110 fe 7e 10 3e f5 69 10 be fd 1d a9 3d 3c 20 ec bd
       0.14110944 -0.1410292 0.08257673 -0.11529586
000120 63 79 21 be 36 73 05 bd d8 7f aa 3d 6b 70 09 3e
       -0.15768962 -0.032580577 0.083251655 0.1342179
000130 e6 82 2a 3d 5e 13 dc bb cc c5 3a bc de 55 96 bd
       0.04162874 -0.006716176 -0.0113996975 -0.073405966
000140 5b ee d1 ba e7 f4 7c bc 22 61 17 3e fa 71 ce 3d
       -0.001601647 -0.015439249 0.14783147 0.10080333
000150 6a 17 13 be 2a 3c 13 ba f6 14 e7 bd 24 81 f9 bc
       -0.143644 -0.000561657 -0.11283295 -0.030457087
000160 d0 69 14 be 6c 08 2b 3d a1 09 f2 bd 7c 62 31 3e
       -0.1449349 0.04175608 -0.11818243 0.17322725
000170 c4 b5 12 3e ae 89 fe bd 16 47 1c be 1c 2b a5 3b
       0.1432715 -0.12428604 -0.15261492 0.0050405394
000180 82 6e 42 bd b8 fd 5e 3d b6 50 ee bd 68 42 98 3d
       -0.04746867 0.054441184 -0.11636488 0.07434541
000190 26 cf 1b be 9c 88 ba bd ac 3b b8 bd 60 55 b3 3d
       -0.1521574 -0.091080874 -0.089957565 0.08756518
0001a0 19 c3 21 bb 89 48 32 be 5f 14 ca bd 3c b6 b7 bd
       -0.0024682938 -0.17410482 -0.09867167 -0.08970305
0001b0 90 e4 25 be 15 1c 83 3c 10 36 82 3d 02 72 fc bc
       -0.16200471 0.016004601 0.06357968 -0.030816082
0001c0 d4 06 a7 bd 04 a5 c6 3a d8 bf 0d be ec 2b d8 bd
       -0.08155599 0.001515538 -0.13842714 -0.105552524
0001d0 ea df 1c bb 13 dd 21 3e aa e3 50 bd c8 68 b7 3d
       -0.0023937174 0.1580699 -0.050998367 0.08955532
0001e0 4d 2b 88 bd ef 19 34 bd 21 56 32 be 6b 0b 18 3e
       -0.06648884 -0.043970045 -0.17415668 0.14848106
0001f0 63 60 27 3e ea 04 d4 ba f5 b8 d1 3d c1 eb 14 3e
       0.16345362 -0.0016175781 0.10240356 0.14543058
000200 92 d9 b0 3d 58 e9 b8 3d f0 b7 2c be f6 65 2a be
       0.08635248 0.09028882 -0.16867042 -0.16640458
000210 56 61 0a be b3 85 61 3d e9 0f 1c be e9 79 0a be
       -0.13513693 0.055059146 -0.15240444 -0.13523068
000220 00 05 b0 bd 0b 68 26 be 14 93 53 36 aa be e0 3c
       -0.08594704 -0.16250627 3.152706e-06 0.027434666
000230 00 4f d4 bd 4d d8 ee 3d 6c eb 8a bd 64 64 4c bd
       -0.103666306 0.1166235 -0.067831844 -0.049900427
000240 12 a0 09 3e dd 7c 1b 3e 95 85 a8 bc 33 38 02 be
       0.13439968 0.1518435 -0.02057151 -0.12716751
000250 35 21 b6 bd f8 8a b7 3c 9a 72 d5 3d 86 f3 b3 3d
       -0.088930525 0.022405133 0.10422249 0.08786683
000260 34 63 9f bd 58 5b 2b be b8 88 1d be 57 9f 66 bd
       -0.07782593 -0.16734064 -0.15384185 -0.056304302
000270 6a 5d 00 3b 51 38 a3 bd d7 3d 0d be ee 23 94 3c
       0.001958693 -0.07969726 -0.13793121 0.018083539
000280 16 2c 0e be 01 47 0a be 82 e6 12 be e4 81 43 bd
       -0.13884005 -0.13503648 -0.14345744 -0.047731295
000290 9b 52 1f 3e e4 c4 8d 3d 03 95 b0 bc 2c b7 15 3d
       0.15558855 0.069223195 -0.02155543 0.03655164
0002a0 17 75 90 3d 85 bf 42 3a 57 e1 11 be d5 c4 e2 bd
       0.07053583 0.00074290513 -0.14246117 -0.11072699
0002b0 0e be f5 bd 53 f1 a7 bb f4 05 25 be 9d a3 03 bd
       -0.11999141 -0.0051252036 -0.16115552 -0.032138456
0002c0 88 1c 83 bd 5c a2 31 3e df 4f 13 3e 6e 97 d2 3d
       -0.06401926 0.17347091 0.14385937 0.10282789
0002d0 8b 8e 24 3c 6d 7a 6a bd d0 1b 37 3d 9e 20 fa bd
       0.0100437505 -0.05724566 0.04470426 -0.122132525
0002e0 4b 35 9b bd 66 08 11 bd 42 26 2c bd b5 4a 2b be
       -0.07578524 -0.0354084 -0.042028673 -0.16727717
0002f0 dc cf 90 3d 71 3f 15 3e 3c 59 ca bd 45 f4 44 3d
       0.07070896 0.14574982 -0.09880301 0.048084516
000300 49 f3 81 bc 41 c5 cc bb cb 69 1e 3c 0b ff 1b 3e
       -0.015863078 -0.0062491004 0.009668778 0.1523401
000310 f3 6b c1 3c 8c 46 e6 bd ea d9 74 bd c9 1b af 3d
       0.023611045 -0.112439245 -0.05977813 0.085502215
000320 bf 95 5e 3d d1 33 2f bb 7e d3 c6 bc 69 71 8d bd
       0.054342028 -0.0026733766 -0.02427077 -0.06906397
000330 e7 ef 81 bd 04 77 c2 bd 41 14 f7 3c 50 db 45 3d
       -0.06344586 -0.09495357 0.030161025 0.048304856
000340 66 4d 0e 3e ea 29 27 bd 01 9d 3f 3c 34 66 e8 3d
       0.13896713 -0.040811457 0.0116951475 0.11347619
000350 7d a4 9b 3d 44 1f b0 3c b0 5b 47 3d 23 9f 08 3c
       0.07599733 0.021499284 0.048671424 0.008338722
000360 c1 e0 1b be a3 4c dd 3b 1a 76 03 bd 49 bb 24 3e
       -0.15222456 0.0067535206 -0.032095052 0.16087069
000370 19 62 23 3e 9d cf 0c 3d c2 28 28 3e b2 cf bb bd
       0.1595539 0.034377683 0.16421798 -0.09170474
000380 06 39 1a 3e c5 5a 1c 3e 25 01 cc bb 86 c5 10 be
       0.15060815 0.15269001 -0.0062257224 -0.14137849
000390 cf 08 61 bd 87 c9 40 bd 7c 16 48 38 c2 9d 23 be
       -0.05494004 -0.04706719 4.7704656e-05 -0.15978149
0003a0 29 e7 07 3d ab eb 89 bd 22 0b 37 bd 1a 18 b2 bd
       0.033179436 -0.06734403 -0.04468835 -0.08696003
0003b0 e5 10 17 bd be c5 25 be 01 88 c5 bd a1 1b 8e 3c
       -0.036881346 -0.16188714 -0.09645081 0.017347159
0003c0 0c c8 e1 3d bf af 26 3e 75 51 08 be d5 f7 98 3d
       0.11024484 0.1627798 -0.13312323 0.07469145
0003d0 26 e8 ca bd f0 fe 0a be 5e b1 2b bb ab ae ce bd
       -0.0990756 -0.13573813 -0.0026198248 -0.10091909
0003e0 41 1c 1c be 6d e6 28 be b7 35 02 be 1f 3c 14 3e
       -0.15245153 -0.1649415 -0.12715803 0.1447606
0003f0 52 a0 cb 3d 63 9d 8e bd c7 34 00 be 7e 06 0b be
       0.09942688 -0.06963613 -0.12520133 -0.13576695

rowAttentions.0.k_net.bias f4 [32]
000000 4c ef 9f bd 53 e3 1b 3e 64 9d 01 3e 1e a6 21 3e
       -0.07809314 0.15223436 0.12657696 0.15786025
000010 be 02 2f be 59 13 e4 3a 1d c1 64 bd c4 37 23 3d
       -0.1709089 0.0017400786 -0.05584823 0.039848104
000020 ff d6 11 be 0a e1 a4 3d 39 82 0b bc ef f1 aa bd
       -0.14242171 0.08050735 -0.008514934 -0.083469264
000030 30 50 21 be 94 cc bb 3d af 05 84 bd 28 37 06 3e
       -0.15753245 0.091698796 -0.064463966 0.13106978
000040 76 2a fd 3c fd 11 5b 3d 10 0f 02 bd 66 49 9a bc
       0.030904036 0.05348395 -0.031752646 -0.018833827
000050 75 07 83 bd 3a 96 17 be 9d f9 e6 3d b3 03 e6 bd
       -0.06397907 -0.148034 0.11278079 -0.11231174
000060 53 e6 d8 3d d5 b8 7f bd 68 89 01 3e 0d 0f 05 3e
       0.10590806 -0.06243213 0.12650073 0.12994023
000070 02 bd d5 bd 02 48 11 3e ad 64 64 3b 0f 7f 09 be
       -0.10436441 0.14187625 0.0034850047 -0.13427375

rowAttentions.0.v_net.weight f4 [32, 32]
000000 83 89 68 3d 80 dd b2 3d de ba 17 3e f2 3a 2c be
       0.056771766 0.08733654 0.14817378 -0.16819361
000010 54 a0 31 3e 9a f8 08 3e 2b b2 28 3e 5b 19 c5 3d
       0.17346317 0.13376084 0.16474216 0.09623977
000020 5f 68 b1 bd 1c 77 15 3e d3 de 23 3e d7 e8 8c bd
       -0.08662485 0.14596218 0.1600297 -0.06880348
000030 30 41 cd bc e2 34 28 3e c7 ef 1d 3e b2 be e1 3d
       -0.025055498 0.16426423 0.15423499 0.110227
000040 ca c9 12 3e 37 3a 8f bd a8 4a fa bc c6 92 8f bd
       0.14334789 -0.069935255 -0.030553177 -0.07010417
000050 f6 f7 b4 3d c8 eb 13 3d e6 ea 0a be 03 4d 19 bd
       0.08836357 0.03611353 -0.13566169 -0.03742696
000060 68 4d 2d be 4d cb 21 be 75 f8 3a 3e aa bb c9 bd
       -0.1692406 -0.1580021 0.18258841 -0.09850247
000070 19 b6 8a 3d b6 a1 20 bd c3 c2 ff bc b7 56 03 bb
       0.067730136 -0.03921672 -0.0312208 -0.00200407
000080 40 19 e9 3d 6d 4f a3 bc 90 b4 10 3e 50 33 e8 3d
       0.11381769 -0.019935334 0.14131379 0.11337912
000090 f5 04 cb 3d e2 1f 17 be db 94 a8 bd ae ba 09 be
       0.09913055 -0.14758256 -0.08231517 -0.13450119
0000a0 ca d5 bb bc c9 89 83 bd fc de 2b 3d 90 63 0a 3e
       -0.022929091 -0.06422765 0.0419607 0.13514543
0000b0 6c 1f a8 3d 04 cf 0f be d2 40 e1 bd d5 a5 10 3e
       0.08209118 -0.14043814 -0.109986916 0.1412576
0000c0 5c 13 15 3d 0b 29 25 3d 24 5a ab bd a8 5b 6f bc
       0.036395416 0.040322345 -0.08366802 -0.014609255
0000d0 21 b6 6a 3d e3 9e d4 bd e1 4c 04 3e e9 cb ae 3d
       0.057302598 -0.10381868 0.12919952 0.085349865
0000e0 22 9a eb bd b4 05 96 bd fc 49 24 bd 0a ef ee 3c
       -0.11504008 -0.073253065 -0.04010962 0.029166717
0000f0 38 0a cc bd 5f 0c 3a 3e 04 89 1c be 43 2d c3 bd
       -0.099628866 0.18168782 -0.15286642 -0.09530117
000100 79 fa 5f bd 9d 23 90 3d 2e fd e6 3c 68 7a 60 bd
       -0.05468223 0.07038043 0.028196897 -0.054804236
000110 ae 69 09 3e b8 51 1a be df a9 9f 3d 5b bd d0 bd
       0.1341922 -0.15070236 0.07796072 -0.10192367
000120 68 20 03 bd cf 10 70 be 23 bd 05 be 02 3e fc bd
       -0.032013327 -0.23443912 -0.13060431 -0.123165146
000130 b9 fb 8c 3d 7e ba 08 bd 75 ef 5e 3d ec 0b b8 bd
       0.0688395 -0.033380978 0.054427583 -0.08986649
000140 b1 a8 b7 bd 8d ff 4f 3d af 5e 13 3e 36 e8 3a bd
       -0.08967722 0.05078082 0.14391588 -0.04563161
000150 0d 1d c7 3d 51 12 50 3d c5 c4 e5 3d 9e a1 d8 3d
       0.09722338 0.050798718 0.112191714 0.10577701
000160 e3 fa 94 3d eb ef 8a bd 8d b6 4f bd 02 75 e7 3d
       0.07274415 -0.06784042 -0.050711203 0.11301614
000170 9d be 72 3d 29 58 47 bc 95 3c f2 3d ee 23 09 be
       0.059263814 -0.012167015 0.11827961 -0.13392612
000180 6b 27 fc 3d 31 56 d0 bb ec 85 c9 bd 5a f8 ae bd
       0.12312206 -0.006357931 -0.09839997 -0.08543463
000190 20 82 34 be 6b 90 23 3d ea ba bc bd c0 4e 4e bd
       -0.17627764 0.03993265 -0.092153385 -0.05036807
0001a0 b3 01 95 bb b7 22 03 be 6b 9f 0f 3c 8a 8f f8 bb
       -0.0045473217 -0.12806211 0.008766036 -0.0075854706
0001b0 06 0d 70 3d 09 6b 38 3e 04 b8 02 be 5a 81 ca 3d
       0.05860617 0.1800958 -0.12765509 0.09887953
0001c0 7e 89 97 bd 48 39 c8 bd e1 80 a3 bd e6 72 4d 3d
       -0.073992714 -0.097765505 -0.07983566 0.050158404
0001d0 f8 7d 04 3d bf 23 45 bb 5f e8 dc bd 39 1e ae 3d
       0.032346696 -0.003008112 -0.10786509 0.08501858
0001e0 e6 d5 3d 3d f2 bc 2c be 14 ea 52 bd 1d df 82 bc
       0.046346568 -0.16868952 -0.051492766 -0.01597553
0001f0 e2 15 e8 bd 56 36 c9 bd b9 58 01 be 13 1a 2c 3e
       -0.11332299 -0.09824817 -0.12631501 0.16806822
000200 52 9a 36 be 15 71 2e 3e 6a 43 15 be 32 ec 23 bd
       -0.17832306 0.17035325 -0.14576498 -0.040020175
000210 ab e1 9b bd 00 f5 ba bd 95 ea 7e 3d 49 db d7 3d
       -0.07611402 -0.09128761 0.062235434 0.10539872
000220 ad d7 e9 bd 83 56 9a bd f3 76 b8 3d 91 d0 0d bd
       -0.1141809 -0.07536032 0.09007063 -0.034622733
000230 3c 05 3b 3d 93 de b1 3d 83 ab 6e bd 4a fc c2 bd
       0.04565929 0.08685031 -0.058269035 -0.095207766
000240 cf d2 aa 3d fb f5 8d bd bd 5e ec bd 60 40 b3 bd
       0.0834099 -0.06931683 -0.115415074 -0.08752513
000250 2d 0c a3 bd a0 6f 36 3e 5d 93 e6 3c f6 d9 93 3d
       -0.07961307 0.17816019 0.02814644 0.07219307
000260 4c 0f be 3c bb 96 f0 bd f1 06 f7 3d 57 7d fa bc
       0.023200653 -0.117474996 0.12061871 -0.030577345
000270 f2 fa 44 bd 9c df 15 3e ae 1a b4 bd 8c 9f 19 3d
       -0.048090883 0.14636081 -0.08794151 0.03750567
000280 b9 03 2a be 82 3f c0 3d f3 02 98 3d 79 ce 12 be
       -0.16602983 0.09387113 0.074224375 -0.14336576
000290 6d b9 d7 3d 85 af b8 3c 92 11 b8 bd df 9f 1c 3e
       0.10533414 0.022544632 -0.08987726 0.15295361
0002a0 e3 74 9d 3d fa 0e 7c 3d cd 4c 83 bd 1a e3 dc bd
       0.0768831 0.06153772 -0.06411133 -0.10785504
0002b0 45 cd bd bd e9 80 53 3d 4b 68 52 3d e4 0a e6 bd
       -0.09267668 0.05163661 0.051368993 -0.11232546
0002c0 10 f0 20 3e 03 bb c6 3d 90 8a 83 bd 4a da c6 3d
       0.15716577 0.097036384 -0.06422913 0.09709604
0002d0 29 82 92 bd 2a 0b 86 3d 3f c6 1b 3e 76 c9 15 be
       -0.07153732 0.06545098 0.15212344 -0.14627632
0002e0 01 2b 93 bd 65 e9 37 bc 46 b8 01 3d 37 e3 29 be
       -0.07185937 -0.011225079 0.031669877 -0.16590582
0002f0 e7 98 eb bd 10 e7 7e bc 3b cb 39 bd 85 98 28 3d
       -0.11503773 -0.015558019 -0.04535983 0.04116108
000300 86 d8 ed 3a b5 a0 0d 3c 54 53 a7 3c 67 5e 27 3c
       0.0018146194 0.008644273 0.020425476 0.010215378
000310 c6 08 98 3b 15 b1 53 3d a9 bc c3 3d 84 10 c9 bd
       0.0046397178 0.05168255 0.095574684 -0.09817603
000320 8a cd c9 bd f7 70 f9 3d 8f 34 04 be df 22 f8 3d
       -0.098536566 0.121797495 -0.12910675 0.12116026
000330 9d 4e 9c 3d bd 1b 8b 3d e4 cb 7b bd cc e4 08 3c
       0.07632182 0.067924 -0.061473742 0.008355331
000340 48 43 3c be eb e2 2b be 4d 7a 22 3e f1 c4 24 be
       -0.18385041 -0.16785781 0.15866967 -0.16090752
000350 1f 6d 1c be b2 c5 56 bd ad 59 df 3c 0a 52 22 3d
       -0.15276001 -0.05243463 0.02726444 0.03962902
000360 dd c7 7f bd 02 43 b8 bc a6 5f 32 bd 75 f9 28 3e
       -0.062446464 -0.02249289 -0.04354825 0.1650141
000370 0a 58 18 3e c5 36 81 3d d3 02 38 3c de 1f 04 3e
       0.14877334 0.063092746 0.011231142 0.12902781
000380 3e 8f 06 be 62 43 a8 3d ab 6f 06 be 12 f3 0f 3e
       -0.1314058 0.08215977 -0.13128535 0.14057568
000390 bb 8e 27 be 3f 9d 80 3d 9a 3e 19 be 26 70 d8 3d
       -0.16363041 0.06279992 -0.14965287 0.105682656
0003a0 f8 b3 fe 3c b3 8e 06 3e f6 f7 0b be fd 9d 00 3e
       0.031091675 0.13140373 -0.13668808 0.12560268
0003b0 ad a6 ee bd dc d2 00 be 0a 06 98 3d 1a ba 1c bd
       -0.11652885 -0.12580436 0.07423027 -0.038263418
0003c0 2d cd a0 bd 0f 0a 0b be 57 11 3d bd 40 82 2d 3d
       -0.07851634 -0.13578056 -0.046159115 0.042360544
0003d0 a9 75 21 3e 84 7e d9 3d 15 cb 6b bc e5 fc f2 bd
       0.1576754 0.10619834 -0.01439168 -0.11864642
0003e0 63 87 3d be fb 43 29 3e 83 50 9b bd db e7 d6 bc
       -0.18508677 0.16529839 -0.07583716 -0.026233604
0003f0 09 cb f1 bd d4 07 ef bd c5 a7 15 3d 1a af 35 bd
       -0.11806304 -0.11671415 0.03653695 -0.044356443

rowAttentions.0.v_net.bias f4 [32]
000000 08 08 05 be 66 2e 01 3e f9 67 f8 3c 1f 77 c0 3a
       -0.12991345 0.12615356 0.030323016 0.0014683938
000010 d1 63 2e be 8e f7 14 3e 77 42 f8 bd 2d c5 ba 3d
       -0.17030264 0.1454756 -0.12122052 0.091196395
000020 10 7b ec bb 25 a8 bb 3b f6 fa 9d 3d da aa 52 bd
       -0.0072168186 0.0057268315 0.077138826 -0.051432468
000030 9c 01 46 bd 40 e9 0b 3e 67 31 11 be 2b 52 a8 3d
       -0.04834138 0.13663197 -0.14179002 0.08218797
000040 f8 26 7b bd bf 2e 4b bd f6 69 ef 3d 41 3c 5b 3d
       -0.06131646 -0.049605127 0.11690132 0.05352426
000050 88 67 1d be 4f d6 2d 3e 1c 53 c3 bd 00 94 25 3e
       -0.15371525 0.16976283 -0.09537336 0.16169739
000060 0c 79 72 bd fd 30 45 3e ab 1a 69 3d e7 43 19 bc
       -0.05919747 0.19256969 0.0569102 -0.009354568
000070 ad 50 85 3d 9c 48 c1 39 b9 bb ae bd 51 49 d0 3d
       0.06509528 0.00036865927 -0.08531899 0.10170234

rowAttentions.0.proj_net.weight f4 [32, 32]
000000 d5 d0 fc 3d 0a 15 96 bc c2 39 31 3e ee 35 c9 3c
       0.12344519 -0.01832058 0.17307189 0.024561848
000010 b8 10 d5 bd 7a 0a d6 bd 38 a4 07 3e 1e 05 9c bd
       -0.104035795 -0.10451217 0.13246238 -0.076181635
000020 d9 37 0a 3e d0 da 42 be e6 30 8c 3c de 55 07 be
       0.13497867 -0.19028783 0.01711316 -0.1321635
000030 c8 c6 78 3d 8b 6c 22 3e 62 05 8f 3d bc 65 37 bd
       0.060736448 0.15861718 0.069834486 -0.044774756
000040 89 b5 2c be c7 e6 b5 bd 28 77 cb bd 53 20 3e 3e
       -0.16866125 -0.08881908 -0.099348366 0.18567018
000050 2a f7 ce bd b2 95 c4 3d 22 cb 18 3e c4 f5 7b 3d
       -0.101057366 0.095988646 0.14921239 0.061513677
000060 7c e8 08 be 63 9e cc bc c7 58 16 bd 8d c2 f6 3d
       -0.13369936 -0.024977868 -0.03670576 0.12048826
000070 2e d6 35 bb 98 8e fd 3b 6c 20 15 3e 45 29 1a 3d
       -0.002774607 0.0077379458 0.14563149 0.037637014
000080 59 e9 74 3d ec c3 07 bd 95 c5 07 3e 08 0e 4b 3d
       0.05979285 -0.03314583 0.13258965 0.049573928
000090 9c 8f 46 bd 6f eb 65 3c 40 39 03 be 8f 9a ac ba
       -0.0484768 0.0140331825 -0.12814808 -0.0013168621
0000a0 13 c0 00 3e a4 67 30 be 88 4b a8 bd e8 d0 ac 3d
       0.1257327 -0.17227036 -0.082175314 0.08438283
0000b0 54 6c ae 3c e5 69 c1 3a 86 ec 27 3d 01 57 a9 bd
       0.02129189 0.001475629 0.04099705 -0.08268548
0000c0 2a ba 11 3e 12 06 f6 bc 4c cb a6 bd bd 63 fd 3d
       0.14231172 -0.030032191 -0.081442446 0.12372539
0000d0 bb 22 1b be 3e 24 a5 bb 59 7d 52 3c 9a b3 40 bd
       -0.15149967 -0.005039721 0.012847268 -0.04704628
0000e0 b8 09 cb 3d 02 9b 26 be 55 72 7c bd 8d d6 ba bd
       0.09913963 -0.16270068 -0.061632473 -0.091229536
0000f0 e0 0b 2c 3e 54 e0 89 3d 5f 54 f6 bd 2c 87 60 3d
       0.16801405 0.0673224 -0.12027811 0.05481641
000100 43 84 df bc c5 f1 26 3e 15 80 e8 3d 79 5a e4 bd
       -0.027284747 0.16303165 0.11352555 -0.11150069
000110 eb c5 24 3e 43 de 06 bd 0c e9 2d bd 65 df 5f 3d
       0.16091125 -0.03292681 -0.04245858 0.054656405
000120 24 b4 30 3e b2 98 39 3d 92 d5 36 be 64 7b 1d bd
       0.17256218 0.045311637 -0.17854908 -0.038447753
000130 6f 97 33 3e 4d 0d 88 bd 6e 36 a5 bd d9 ef 14 be
       0.17538236 -0.06643162 -0.08067022 -0.1454462
000140 68 06 f6 bd ab 72 c1 bd a9 ad 5e 3b ba b6 b7 3c
       -0.12012941 -0.09445699 0.0033978021 0.022425998
000150 ca dd 2d 3e d1 19 d5 3d d4 2c f3 3b 47 2e bb 3d
       0.16979137 0.10405315 0.0074211154 0.09139686
000160 ef 4e ac 3d bc 1a 14 be 26 b8 ac 3d d0 21 f9 bd
       0.08413493 -0.14463323 0.08433561 -0.12164652
000170 96 49 10 3e 49 a2 ae bd ca ab 22 3d 77 f3 73 39
       0.14090571 -0.08527047 0.039714612 0.00023264984
000180 e7 d7 9c 3d e3 f1 07 3d 7a c3 05 be 89 e3 a1 3d
       0.076583676 0.033189666 -0.1306285 0.07904727
000190 9d bc ce 3d d2 e2 c3 bd 77 a9 e3 bd d1 df da bd
       0.10094569 -0.09564747 -0.11116307 -0.10687221
0001a0 99 e2 53 bd d5 74 d8 bc b7 1a 02 3c 9b 05 3d bb
       -0.051729772 -0.026422897 0.00794094 -0.0028842452
0001b0 87 3f 80 bd 30 e6 bc 3d eb 14 f5 3c f2 a1 b6 bd
       -0.06262117 0.09223592 0.029917201 -0.08917607
0001c0 2f ea ca bc b8 d3 e4 bd 3e 41 3b bd 01 e8 25 be
       -0.02476987 -0.11173195 -0.045716517 -0.16201784
0001d0 58 1c 8f 3c 35 8a 05 be 7b a0 84 3d e1 86 07 3e
       0.01746957 -0.13041003 0.06475922 0.13235046
0001e0 a9 08 03 be 35 f7 db bd e6 15 28 be 46 85 77 3d
       -0.12796272 -0.107405104 -0.16414604 0.060429834
0001f0 bd 92 0a 3d 04 bb a3 bd 63 ef fd 3d 35 56 73 3d
       0.033831347 -0.07994655 0.12399175 0.059408385
000200 db d2 16 be e3 a4 89 bc 71 43 b6 bd b9 f9 bc bc
       -0.14728872 -0.016802257 -0.08899582 -0.023068296
000210 5c 47 ca 3d e1 4d f1 bc bb 84 c7 bd 93 6c 06 3e
       0.09876892 -0.02945608 -0.09742113 0.13127355
000220 5a 47 24 be 05 e1 a2 bd ba fb 81 3d 5a dd 0d 3e
       -0.16042843 -0.07953075 0.06346841 0.1385397
000230 b7 dc 29 3e 6b 25 5d bd 4c 1e 9c 3d 95 47 20 be
       0.16588102 -0.053990763 0.07622966 -0.15652306
000240 6b f5 1d bd 7e a8 9c bd 73 7b f3 3c 30 3b 2a be
       -0.038564127 -0.07649325 0.029721951 -0.1662414
000250 02 34 15 3d fe f5 9e 3d 1d 5f 0f 3e 76 72 ec bc
       0.03642655 0.07761763 0.14001127 -0.028863173
000260 c3 6e 32 3e 70 33 4f be 73 5b 49 bd 46 df 9a 3d
       0.17425065 -0.20234466 -0.04915948 0.07562117
000270 7d bf 18 3d b0 99 9e 3d 80 cc e4 bd 16 73 c2 3d
       0.037291992 0.07744157 -0.11171818 0.09494607
000280 2c 70 32 be 78 15 e1 bd 70 32 61 3b 2c 95 4e be
       -0.17425603 -0.10990423 0.0034362338 -0.20174092
000290 9e 01 34 be 03 c0 25 be 98 dc 19 3e 08 be 1c 3d
       -0.17578742 -0.16186528 0.15025556 0.038267165
0002a0 7e c5 7e bd 61 2d 17 bc 36 24 1b be c2 ee 2a be
       -0.062200062 -0.009227128 -0.15150532 -0.16692641
0002b0 40 47 df bd 99 08 32 be 4d 8a 00 3e c7 cb 8e bd
       -0.10902262 -0.17386092 0.12552758 -0.06972461
0002c0 39 5c 8f bd da 62 0f be 29 78 70 3b d0 68 8e bd
       -0.07000012 -0.14002553 0.0036692715 -0.06953585
0002d0 c4 ac df bd 20 f3 0b 3e 90 2e 2a 3e d4 30 02 be
       -0.10921624 0.13666964 0.16619325 -0.12713939
0002e0 6f ab e1 3d c9 6c 1f bd 88 c2 0f 3d 16 af b9 3d
       0.110190265 -0.038922105 0.03509763 0.09066598
0002f0 44 64 b0 bc 31 8c 1f 3e a9 ff d6 3d 09 25 e4 bd
       -0.021532185 0.15580823 0.10497982 -0.111398764
000300 32 cb fd bd 24 a7 13 be a0 1c 12 3d 19 de be bd
       -0.12392272 -0.14419228 0.03567183 -0.093197055
000310 68 5b 19 be ac 0c fa bd a8 81 2b be cb 1e 11 be
       -0.14976275 -0.12209448 -0.16748679 -0.14171903
000320 58 c4 43 3e 2e ea 8c 3d c5 7f 27 3e af 49 cd bd
       0.19117868 0.06880604 0.16357334 -0.1002382
000330 4e b3 b2 bd fa a7 81 bd 3d ca 82 3c a4 96 f8 bd
       -0.08725606 -0.06330867 0.015965575 -0.121381074
000340 e2 d6 4a 3d 34 ee 01 be f6 01 d0 3d 1f 20 47 3e
       0.049521334 -0.12688524 0.10156624 0.19445847
000350 bb 0c b4 3c b6 76 2d 3e 19 3b 14 be bf cb d9 bc
       0.021978727 0.16939816 -0.14475669 -0.026586412
000360 65 6d bb bd 46 5e ad bc 9f e4 c8 bd b5 3a c1 bd
       -0.09151725 -0.021163117 -0.09809231 -0.094350256
000370 52 c1 26 be e9 6f 50 bd 77 17 e2 3c 33 22 f4 bc
       -0.16284683 -0.050887976 0.02759908 -0.029801464
000380 0f ea 40 be e9 05 0a 3e 65 22 1d 3e 3b e3 bd bd
       -0.18839286 0.13478817 0.15345152 -0.092718564
000390 f9 83 e4 3c 63 01 f3 3d 30 42 3a be 57 b3 25 be
       0.02789496 0.11865499 -0.18189311 -0.16181694
0003a0 a8 bb cd 3d 3e e8 be bb e0 87 74 3d 55 c6 95 bd
       0.10045558 -0.0058260253 0.059699893 -0.073132195
0003b0 eb e7 37 3d 1d 24 fc 3d 23 56 59 bd 35 b2 93 bd
       0.04489891 0.123115756 -0.053060662 -0.07211725
0003c0 bb 97 3c be 91 f4 08 bd 65 76 96 3d 0a b0 2a be
       -0.18417256 -0.03343636 0.07346801 -0.16668716
0003d0 ae f2 20 bc e2 1e df 3d 08 af 68 bd fd 31 93 bd
       -0.009823484 0.10894562 -0.056807548 -0.07187269
0003e0 f8 54 7d bd e4 b1 8e bd 44 61 07 3c 4e 77 47 be
       -0.06184861 -0.06967524 0.008262936 -0.19479105
0003f0 f4 13 85 3d 97 ba 94 bd 9e 29 f9 bc bb 8d 1f bc
       0.064979464 -0.07262152 -0.030415352 -0.009738381

rowAttentions.0.proj_net.bias f4 [32]
000000 0f a8 fd 3d ac eb 1d 3e 9d 0a bc 3d b9 f6 09 be
       0.1238557 0.15421933 0.09181712 -0.13473023
000010 ca b0 5e bd 01 8d 19 3e 35 95 f4 3d 8d 8b 61 bd
       -0.054367818 0.14995195 0.119425215 -0.055064727
000020 17 72 f2 3d 65 ac e5 bd cf 56 45 3d 86 d2 ee 3d
       0.11838167 -0.11214522 0.04817849 0.11661248
000030 12 bf 12 3d 52 cb df bd b0 72 63 3d 76 22 da 3d
       0.03582675 -0.10927452 0.055529296 0.10651104
000040 2b e5 d4 3d 0d ca 03 be f9 bd dd bc 26 c6 26 3b
       0.10395273 -0.12870045 -0.027068125 0.0025447696
000050 4d f2 ab bc 52 c5 ff bc fa 3a 91 bd 3c a4 79 3d
       -0.020989561 -0.03122202 -0.07091327 0.06094764
000060 c0 f3 9f 3d a0 17 4b bc bc 48 0a 3e b5 26 23 bc
       0.078101635 -0.012395769 0.13504308 -0.009957959
000070 07 71 35 3d cd 85 55 3d ab f9 95 bd e2 a1 9c 3b
       0.044297244 0.052129555 -0.07323011 0.00478004

rowAttentions.1.q_net.weight f4 [32, 32]
000000 6b e2 0b 3e ba 53 ab bc b1 ee f2 3d 57 4d cc 3d
       0.1366059 -0.020913947 0.11861933 0.09975689
000010 80 27 f5 bc ec 64 9a bd c6 3b be bd 55 15 15 be
       -0.029926062 -0.075387806 -0.09288745 -0.14558919
000020 93 dd d3 bd 94 8b 37 3d 03 8a 85 3d a4 f7 60 bd
       -0.10344996 0.044810846 0.06520464 -0.05492367
000030 32 ed 84 bc d2 79 e7 3d 46 fb dc 3c 3d b6 00 be
       -0.016226385 0.11302532 0.026975285 -0.12569518
000040 da e5 1a 3e e0 f7 db 3d fd dc c9 3c 95 87 b0 3d
       0.15126744 0.10740638 0.024641508 0.0861961
000050 84 0d 1d be dd c6 d9 3d a4 51 52 3d 58 3d 75 bc
       -0.15337187 0.10633633 0.05134739 -0.014968239
000060 19 08 50 bd e4 ef 11 3e fe 3e 3d 3d c0 85 c3 bd
       -0.050788973 0.14251667 0.046202652 -0.09546995
000070 8d 77 a8 3d 22 7e 03 3d 59 ac 84 bd 14 66 fa 3d
       0.082259275 0.03210271 -0.06478185 0.12226501
000080 df 7d 48 3e 95 08 b4 bc 59 85 9a bd ed ad b2 bd
       0.19579266 -0.021976748 -0.07544965 -0.0872458
000090 fa 25 d1 bd 8a c7 ae 3d 38 1a fa 3d 29 c3 e2 bd
       -0.102123216 0.08534153 0.12212032 -0.1107238
0000a0 0c a2 d6 3d 15 3f b0 bb 0d 4f d1 ba 06 b3 7e bd
       0.10480127 -0.0053786137 -0.0015968994 -0.06218245
0000b0 f6 64 26 be 9e 1a 1f be d9 93 04 3e c2 7c 22 bd
       -0.16249451 -0.15537497 0.12947024 -0.03966976
0000c0 b8 a8 46 bc 2b 8b dc bd c6 1d c5 bc 82 79 81 bd
       -0.012125187 -0.10768732 -0.024062049 -0.06322004
0000d0 7d aa 80 3c 04 c1 29 be 59 e5 7a 3b 1c 80 1d be
       0.015706295 -0.16577536 0.0038283675 -0.15380901
0000e0 b4 9d f6 bd 32 25 81 bb 83 90 c4 bb 4b 82 39 bd
       -0.12041798 -0.0039412016 -0.0059986725 -0.045290273
0000f0 c4 df cc 3d 9f 98 87 3c 5a 41 fd 3c 36 84 92 3d
       0.100036174 0.016552268 0.030914951 0.071541235
000100 ed 2b 86 3b e9 6a 1f be 2b b5 83 bd 32 56 ef 3d
       0.004094592 -0.15568127 -0.064310394 0.11686362
000110 e9 cc f4 3d 8a dd 89 3d 45 ff 18 3e 74 b0 bf bd
       0.11953146 0.06731708 0.14941128 -0.09359828
000120 15 77 1e bd 5c 1f 93 bc ba 68 1c bd f1 e1 35 3e
       -0.038687784 -0.01795929 -0.038185813 0.17761971
000130 03 ef 3b be 0b 92 bd 3c 81 69 25 3e 99 2f d9 bd
       -0.18352894 0.023140928 0.16153528 -0.10604782
000140 9f 25 00 3e a0 e7 18 be c0 5f 0b 3d fb 11 c3 bd
       0.12514351 -0.14932108 0.03402686 -0.09524914
000150 0f 4b 7b 3d 95 27 35 3d ff 02 08 3d c7 ec 2f bd
       0.06135088 0.0442272 0.033205982 -0.042950418
000160 14 aa 40 bd 8c db 2d be 92 1d 47 3c 75 62 2f 3e
       -0.0470372 -0.16978282 0.012153046 0.17127402
000170 ef 5d 06 be e6 f2 84 bd eb 01 de 3c 90 5c 9f 3d
       -0.1312177 -0.06491642 0.027100524 0.07781327
000180 d6 07 76 3d e9 fa f2 3d fc 6c d6 3c 17 0c 33 bd
       0.060066067 0.118642636 0.026175015 -0.0437127
000190 e3 f3 04 be 5e cb 2d be ef 3c 09 be a0 84 bd 3d
       -0.1298366 -0.1697211 -0.1340215 0.09253812
0001a0 a9 b4 2b 3e 73 e0 2b 3e bc 3e 07 3e 75 ae b6 3c
       0.16768135 0.1678484 0.13207525 0.022299984
0001b0 8b 8f f6 3d 16 3e 95 3d d6 06 08 be c2 5f 24 bd
       0.120390974 0.072872326 -0.13283858 -0.040130384
0001c0 07 00 39 be 1d 15 1e 3e ce 86 55 3d 78 c9 1f 3e
       -0.18066417 0.15437742 0.052130513 0.15604198
0001d0 62 92 d6 bc dc 6f 19 3e 81 e2 c0 3d fd 6f eb bc
       -0.026192848 0.14984077 0.09418202 -0.028739924
0001e0 9a 73 9a bb 53 44 03 3e 13 63 0d bd b0 84 14 3e
       -0.004713488 0.12819032 -0.034518313 0.14503741
0001f0 73 78 02 3d c5 2b 88 bd 8d 13 c7 bd c3 67 cb bd
       0.03185315 -0.066489734 -0.09720526 -0.099319
000200 92 55 dc 3d 3a eb 07 3e 3e b8 b0 bd ff 1c 25 be
       0.10758509 0.13273326 -0.086288914 -0.16124342
000210 dc 0f c0 3d 07 0d 34 bd 04 16 2a be 2b 08 0f 3d
       0.09378025 -0.043957736 -0.16609961 0.0349199
000220 2e 2a a3 bc 07 9b 06 3e b7 5c 25 3d ff 16 eb bd
       -0.019917574 0.13145076 0.040371623 -0.114789955
000230 8f 39 00 bd 5c f8 eb bd 97 eb aa 3d 48 56 3f 3d
       -0.031304892 -0.1152198 0.083457164 0.046713144
000240 3b ed ec 3d 22 40 00 be 64 29 d1 bd 59 b8 d8 bd
       0.115686856 -0.12524465 -0.10212973 -0.105820365
000250 3e 1d 1a be 17 e3 2b be 05 65 12 be 44 14 01 3e
       -0.15050218 -0.16785847 -0.14296348 0.12605387
000260 49 eb 4c bd e9 b4 0b bd 96 df 5c 3d d8 87 27 3d
       -0.050029073 -0.034108076 0.053924166 0.040901035
000270 51 92 b1 3d b8 43 f8 bd 90 9b 1d 3e 4f ab 1e bc
       0.08670486 -0.12122291 0.15391374 -0.009684398
000280 79 b7 b3 bd b4 ea e5 3d 2d c0 16 be 0b f3 cd bd
       -0.08775229 0.11226407 -0.14721747 -0.100561224
000290 b2 5c bb 3d ab ac 88 3d 04 ba 90 bd 0f cc 51 bc
       0.091485396 0.06673559 -0.0706673 -0.012804999
0002a0 60 f8 05 bd cd bb 9a 3d 3d 8e 25 3d 52 da 54 3d
       -0.032707572 0.075553514 0.040418852 0.05196602
0002b0 80 07 17 3e 9d 9c 03 be 74 60 07 be 1f 55 38 bd
       0.14748955 -0.12852712 -0.13220388 -0.045003053
0002c0 57 80 93 bd 3c c4 00 be 32 f4 2e 3e 97 eb 19 3e
       -0.07202213 -0.12574857 0.1708534 0.15031277
0002d0 47 b7 13 3e 32 fd e9 bd dc f8 dd bc 68 9e 06 be
       0.14425384 -0.11425246 -0.027096204 -0.13146365
0002e0 a3 07 72 bd 16 4e 16 3e b4 9a be 3c 9c dd 68 3d
       -0.059089314 0.14678225 0.023267128 0.05685197
0002f0 5d 31 32 be 5f 5d 9f 3d b8 3c e7 3d a2 de 86 bd
       -0.17401643 0.07781481 0.11290878 -0.065854326
000300 2d 36 0a 3e 50 d6 a3 3d bd 88 05 be a5 23 08 be
       0.13497229 0.07999861 -0.13040443 -0.13294847
000310 5d ff da 3a d5 41 31 be f0 bc 01 be 71 ee 8a 3d
       0.0016708184 -0.17310269 -0.1266973 0.0678376
000320 08 6e 73 bd f3 d2 9f bb 65 48 94 bd 16 5e eb 3d
       -0.059431106 -0.004877442 -0.07240371 0.11492555
000330 e1 10 13 3e df a3 0a 3e 20 37 22 be 3f de 56 bd
       0.14361908 0.13539074 -0.15841341 -0.052458044
000340 1e 37 b9 3d da 81 d5 3d 8d 75 30 bd a1 39 c8 3d
       0.09043716 0.10425158 -0.043080855 0.09776617
000350 a2 bc ae bb ea af 94 3c c7 fa ee 3d 2b be f7 3d
       -0.0053325454 0.018150289 0.11668926 0.120968185
000360 ec 50 00 be 59 73 de bd 34 87 8b 3d 04 c1 d5 3d
       -0.12530869 -0.108618446 0.06812897 0.104372054
000370 ae d3 26 bd de 2d 1f 3e 5b e7 92 bc f4 2e b3 bd
       -0.040729217 0.1554484 -0.017932585 -0.0874919
000380 30 12 90 bc 3f e3 17 be 28 04 61 3d 75 5b 26 be
       -0.017586797 -0.14832781 0.054935604 -0.16245826
000390 05 d6 27 3e d1 b7 0d be 97 61 e0 3d 24 4f 09 be
       0.16390236 -0.13839652 0.10956114 -0.13409096
0003a0 2c 4c e6 bc 6a 07 c3 bd 92 88 b7 3d 06 7e d2 3d
       -0.028112493 -0.095228985 0.089615956 0.10277943
0003b0 ea d3 2b be f3 0d 13 be d4 f0 ac 3c a4 6b 43 bb
       -0.16780058 -0.1436079 0.02111093 -0.0029818797
0003c0 01 96 c3 3b bc 4b 5b 3d b8 f3 26 bd f6 c6 1b 3e
       0.0059688096 0.053539023 -0.040759772 0.15212616
0003d0 02 23 6a 3c bf 72 ab bd 97 ec 6c 3d 96 34 0c be
       0.014290573 -0.083714955 0.057842817 -0.13691935
0003e0 4f d4 b1 bd ab 69 4b 3d 40 2c 86 bd 05 a7 2f be
       -0.08683073 0.04966132 -0.06551409 -0.17153557
0003f0 19 14 b2 3d d6 ff 30 3d d7 60 65 3d fd 62 84 3d
       0.086952396 0.043212734 0.056000557 0.06464193

rowAttentions.1.q_net.bias f4 [32]
000000 98 f9 16 3e 44 b4 d4 bd 67 37 ad bd eb 3c ff 3d
       0.1474365 -0.103859454 -0.08457833 0.12462791
000010 95 e2 ae bc 2a cb 07 be aa 84 a9 bd 92 de 01 3e
       -0.021348277 -0.13261095 -0.08277257 0.1268256
000020 4b 91 d7 bd 0d 9e 69 3d 5d 6e 22 be e2 c3 e2 3d
       -0.10525759 0.057035495 -0.15862413 0.11072518
000030 31 0d 34 3d 2a e4 eb 3d f2 85 bb 3b 8b 23 bb 3d
       0.043957893 0.11518128 0.0057227546 0.09137639
000040 91 3b 05 3e 7f c9 27 bd a1 c0 07 be e3 c4 11 be
       0.13011004 -0.040963646 -0.13257076 -0.14235263
000050 bb 48 d7 3d a1 1d e7 bd c5 82 23 be 38 44 22 be
       0.10511919 -0.11284948 -0.15967853 -0.15846336
000060 b1 16 ae bd 51 f1 17 3d 4f 8a 32 be e2 64 ab bd
       -0.08500422 0.03709537 -0.17435573 -0.08368851
000070 ea a6 25 3e ca 74 0c bd 1d cd 8a bd 1f a6 ad 3d
       0.16176954 -0.034291066 -0.067774035 0.08478951

rowAttentions.1.k_net.weight f4 [32, 32]
000000 c7 32 14 be 83 88 0e be 1e 0d c8 3c 77 f9 5e 3d
       -0.14472495 -0.13919263 0.024420317 0.054437127
000010 c8 26 32 be fb 1b 20 3e 37 bb 87 bd f3 92 d3 3c
       -0.17397606 0.15635674 -0.06627505 0.025826907
000020 24 bd 00 3e 43 a9 87 3d c2 88 5d 3d d3 b2 25 be
       0.12572151 0.06624081 0.0540855 -0.16181497
000030 68 f4 28 be af 75 7b 3d 71 83 b9 3b 73 e6 de 3d
       -0.16499484 0.06139153 0.005661421 0.108837985
000040 60 ed ad 3d ba 78 0f be db c0 10 3d f2 f7 0f be
       0.08492541 -0.14010897 0.03534017 -0.14059427
000050 5b 65 cf bd 41 0b 4e 3d f0 86 c0 bb e5 9b e6 bd
       -0.10126754 0.0503037 -0.005875461 -0.11260203
000060 35 c5 80 3d c0 8e fe 3d 69 bf 2d be 8f 6b 2b 3e
       0.06287614 0.12429571 -0.16967548 0.16740249
000070 c5 7a c8 3d e8 79 79 bc d5 5d 32 be 56 51 9b bd
       0.097890414 -0.015226819 -0.17418607 -0.07583873
000080 3b f0 5a 3d e2 6b 98 bd c4 a7 69 bd 55 f6 92 bd
       0.053451758 -0.07442452 -0.05704476 -0.0717589
000090 22 f4 1a 3e 99 74 18 3e 91 76 0f be 65 90 5a bd
       0.15132192 0.14888228 -0.14010073 -0.05336036
0000a0 60 b3 23 3e 5f c8 13 bc 06 d8 ae bd e4 42 a7 3c
       0.15986395 -0.00901994 -0.08537297 0.020417638
0000b0 02 45 0f 3e 78 bd a1 bc 12 93 29 be c8 35 72 bd
       0.13991168 -0.019743666 -0.16560009 -0.05913332
0000c0 5a 5a bb 3d b6 c6 e5 bc 12 a6 fb 3d 76 42 80 3d
       0.091480926 -0.028048854 0.12287535 0.062626764
0000d0 53 86 9d 3b ad 8f 87 3d 38 ed dc bc 37 42 1b be
       0.0048072725 0.06619201 -0.026968583 -0.15161978
0000e0 0c 21 1e be 4b ae 0f be 27 65 00 bd 52 78 04 be
       -0.15442294 -0.14031331 -0.031346466 -0.12936524
0000f0 75 c7 cf 3c ad f9 a8 3c 94 6f 0c 3e 76 f8 33 3c
       0.025363663 0.020626867 0.13714439 0.010984531
000100 ac fa e0 3c 41 c0 80 3d 90 7f 46 bd 8d c3 ab bd
       0.02746328 0.062866695 -0.048461497 -0.08386908
000110 d6 4a 28 be a5 8c 2e be 5e 27 4d 3c 8a 59 a7 bd
       -0.16434798 -0.17045839 0.012521593 -0.08171375
000120 19 87 4e 3d 60 13 3b 3d 8d 0c 0e 3e 6a b1 c1 bc
       0.050421808 0.045672774 0.13871975 -0.023644168
000130 25 e0 56 3a 46 cd f5 3d 91 42 f3 3c ec 09 a3 3d
       0.0008196852 0.120020434 0.029694827 0.07960877
000140 e1 55 ca bd 35 a8 02 be 40 fb 0f 3e 6d 01 02 3e
       -0.09879661 -0.12759478 0.14060688 0.12695856
000150 70 b4 81 bd ba a5 ed 3c c2 6d 24 be e0 ba 57 3c
       -0.06333244 0.029009689 -0.16057494 0.013167113
000160 fc 35 25 be 5f 88 cd 3d ac 49 3a be 7b 82 34 bd
       -0.16133875 0.10035776 -0.18192166 -0.04406975
000170 73 c7 26 3e 25 2c 6f bd c9 8b dd bd ae 7f 20 3e
       0.16287021 -0.05839171 -0.108176775 0.15673706
000180 c4 d2 b1 bd c3 99 20 3d f6 78 c6 3d 5c 12 32 3d
       -0.086827785 0.03920914 0.0969104 0.04347454
000190 dc 53 ff bd 71 5b 22 3e 17 8a aa 3d ed 75 e7 bd
       -0.12467167 0.15855195 0.0832712 -0.113017894
0001a0 62 d0 d1 bd 26 12 2e bd 5e 84 6d 3d fa 7d 8b 3d
       -0.10244824 -0.042497776 0.057987563 0.068111375
0001b0 4f d6 b0 3c 89 90 f4 3d d7 5d 34 3e 13 b5 1a 3d
       0.021586565 0.119416304 0.17613922 0.037770342
0001c0 a9 8d 96 3d b3 3b cd 3d cf c6 f5 3c e3 62 20 3c
       0.07351238 0.10021152 0.030002026 0.009789201
0001d0 a4 8a 1e 3e a9 aa fa 3d 78 db f1 3d b2 6e 8e bd
       0.15482575 0.12239582 0.118094385 -0.06954707
0001e0 b2 76 b3 bd 61 9c c5 bd fc 48 10 be 14 c9 87 bc
       -0.08762874 -0.096489675 -0.14090341 -0.016575374
0001f0 f5 c4 d0 3d cc 9a c9 3c e7 15 68 bd d2 ad b1 bc
       0.101938166 0.024609946 -0.056661513 -0.02168933
000200 d0 5f 0b be 2d e3 e7 bd 8d 69 89 3c 6a 5d d6 bd
       -0.13610768 -0.11322627 0.016773963 -0.10467036
000210 3d 27 a4 3c 28 0a 15 3e ec 9c 41 3d 03 e0 0b 3e
       0.020038242 0.14554656 0.047268793 0.13659672
000220 0a b8 e9 bd b8 fe 39 3b 20 ec 31 be 49 d0 95 ba
       -0.11412056 0.0028380584 -0.17375231 -0.0011429872
000230 df ef 04 be e4 82 29 3e 96 a4 1a be 89 8a 6f 3d
       -0.12982129 0.16553837 -0.15101847 0.058481727
000240 23 ac d6 bd 38 1c 56 3d af 9e f3 ba 4e 7a c7 bc
       -0.10482051 0.052273005 -0.001858672 -0.024350312
000250 11 cc 91 bd 53 52 e7 3d a8 cb af bc 3c 05 77 3c
       -0.07119001 0.11294999 -0.021459416 0.015076932
000260 f2 84 53 bd c3 4a 05 be 36 7f 94 bd 13 76 21 3e
       -0.05164046 -0.130168 -0.07250826 0.15767698
000270 7e f1 2c 3e 8e 50 a9 bd fe 42 95 3c 04 b7 e7 3c
       0.16888997 -0.08267318 0.01822042 0.02828551
000280 fc 9f 1f 3e 0b 53 ca 3c 8a 63 04 3c a3 6f 4a bd
       0.15588373 0.024697801 0.008080373 -0.04942287
000290 5c 50 1e 3d 74 91 33 be 41 37 36 be 87 e6 af bc
       0.038650855 -0.17535955 -0.17794515 -0.021472229
0002a0 8e 6c f7 bd 31 39 f8 bd be e0 f4 bc 54 37 cd 3d
       -0.12081252 -0.121202834 -0.029892322 0.100203186
0002b0 32 81 b2 3d 54 7a 7c bd 6b 3a 49 bc 1f f7 29 3e
       0.08716048 -0.0616401 -0.012281994 0.16598175
0002c0 90 60 17 3d 90 30 f0 3d a8 6c 93 bd 88 c3 20 be
       0.036957324 0.117280126 -0.07198459 -0.15699589
0002d0 d9 88 a2 bd 8d 53 7f 3c e7 f9 54 bd f1 3c c5 bd
       -0.07936258 0.015583885 -0.051996138 -0.09630764
0002e0 aa 9e 2d 3e 2f 10 26 be af 31 51 3b 8c 72 91 3d
       0.16955057 -0.16217111 0.0031920483 0.07101926
0002f0 b8 78 48 bd 36 fa 9d 3d bf 29 46 38 85 a7 d6 bd
       -0.04894325 0.077137396 4.7245758e-05 -0.104811706
000300 b0 79 bf bd 0e 68 9e bd 00 5a 32 be f6 08 e0 3d
       -0.09349382 -0.077346906 -0.17417145 0.10939209
000310 c0 72 25 3e 71 f1 bb bd f2 a5 d5 3b 11 40 6d 3d
       0.16157055 -0.09176911 0.0065200264 0.057922427
000320 3b 79 4a 3d 86 c0 c9 bd ca df dd bd 5f 5b 32 3e
       0.04943202 -0.09851174 -0.108337 0.17417668
000330 0c 18 d1 3d 43 fb 2d 3e f0 0e fc 3d bc fd 3a bc
       0.10209665 0.1699038 0.123075366 -0.011413034
000340 1f 6a 00 3e 92 95 a9 bb 6e 86 b3 bb 89 4c 9e bd
       0.12540482 -0.005175301 -0.0054786718 -0.07729442
000350 59 ce 0b 3e c0 f9 1b bd 80 4e c0 3c 75 a4 10 be
       0.13652934 -0.038079977 0.023474932 -0.14125235
000360 91 ed 74 3d cc c7 ac bd 9a 54 19 bd 62 28 73 bc
       0.059796873 -0.08436546 -0.037434198 -0.014841171
000370 15 b5 88 3d 3f ea d5 3b 08 2d 03 3d 50 20 e8 bd
       0.06675164 0.0065281685 0.032025367 -0.11334288
000380 2a 87 0a be 1b 2a 7e 3d 5f c9 92 bd 7e bb 1b be
       -0.13528123 0.062051874 -0.07167315 -0.15208241
000390 63 71 95 bd a4 28 31 be 3d 96 15 3d 05 c2 64 3c
       -0.072970174 -0.1730066 0.03652023 0.0139622735
0003a0 83 6f 27 3e 78 25 c7 bd f4 19 ba bd 5c 9d 25 3d
       0.16351132 -0.097239435 -0.090869814 0.040433273
0003b0 ed ef 3b bd 74 e8 09 3e f9 77 e2 3c bf 93 a0 bb
       -0.045883108 0.1346758 0.027645098 -0.004900425
0003c0 be c0 8b bd 58 9d d9 3d 2f 1b a4 bd cd d6 92 3d
       -0.06823872 0.10625714 -0.08012997 0.07169876
0003d0 78 6d ea 3d 56 b4 0d be 7f 7c 1e be 84 c4 cb bd
       0.11446661 -0.13838324 -0.15477179 -0.09949592
0003e0 28 04 af 3d 4d 7e c7 bd c7 a0 7b 3c 5e 9e d6 3c
       0.085457146 -0.09740887 0.0153581565 0.026198562
0003f0 0d 33 15 3d 0d cc b7 bd 7c bb c1 3b f7 0c f9 3d
       0.03642564 -0.089744665 0.0059122425 0.12160676

rowAttentions.1.k_net.bias f4 [32]
000000 02 b4 a3 3d 12 fb 5d 3c 7a c4 b7 bb 62 6f 51 3d
       0.07993318 0.013548629 -0.0056081386 0.051131614
000010 ae e0 28 3e 5b 14 7d bc 9e 10 ab bd 5b ff 03 be
       0.16491958 -0.015446748 -0.08352779 -0.12890379
000020 78 d2 16 3e fa 9a 20 be 96 c4 b2 3d fd fb 1f 3e
       0.14728725 -0.15684119 0.08728902 0.1562347
000030 6e 1e c1 3d ee ed cb ba cd b0 ea bc 03 e5 f1 3d
       0.09429632 -0.001555858 -0.028648758 0.11811259
000040 8b 1a d2 bd b7 c6 8a 3d 7f e0 4d bd 2a af b4 3d
       -0.10258969 0.06776183 -0.050262924 0.088224724
000050 24 b7 18 bd 82 70 f5 bd 6a 01 98 bd 49 fb db 3d
       -0.03728403 -0.1198435 -0.07422145 0.10741288
000060 ce 17 86 3d 98 f8 00 be 8a 9d ea bd 47 85 13 bd
       0.06547509 -0.12594831 -0.114558294 -0.036015775
000070 ab 5c 9b bc 88 be 41 bd 1f ef f2 3d e1 98 4a 3c
       -0.018965086 -0.047300845 0.11862015 0.012365551
