train/checkpoints/uduta8zd/7j5qz9et.best_checkpoint.pt (torch, 465292 bytes, 137 tensors)

rowAttentions.0.q_net.weight f4 [32, 32]
000000 73 fb 4f be e7 d0 94 3d 36 99 cf 3d 44 7c 1a be
       -0.20310764 0.072664075 0.101366445 -0.15086466
000010 6a aa 9a 3d f5 89 1a 3e ad 12 69 3c ea 56 d8 bd
       0.07552035 0.15091689 0.014225644 -0.105634525
000020 67 75 16 3e ab 7a ab 3d 0b ea f5 3d 5a ac 29 be
       0.14693223 0.083730064 0.12007531 -0.16569653
000030 d1 46 e4 3d 74 ae fe bd 61 bf 30 3e 63 d5 94 bd
       0.1114632 -0.12435618 0.17260505 -0.07267263
000040 59 93 99 3d 51 64 4c 3d b1 1b 44 3d b9 87 d2 bc
       0.074988075 0.049900357 0.04787797 -0.025699483
000050 58 66 95 3d 01 02 57 bd a2 6f f2 bd 4c f3 83 bd
       0.07294911 -0.052492145 -0.118376985 -0.064428896
000060 b8 38 0e 3e 10 4b 69 bd 27 2e 2e 3d 52 b8 82 bd
       0.13888824 -0.05695635 0.042524483 -0.063828126
000070 c4 2a 07 3e 3c c0 dc 3d 29 a4 38 3d dc a8 a7 bd
       0.13199908 0.10778853 0.04507843 -0.08186504
000080 9c 6d 19 be 67 18 45 3b 73 97 d4 bd b5 69 11 3e
       -0.14983219 0.003007436 -0.10380449 0.1420048
000090 f1 28 24 be 61 22 9f 3d 8c f5 34 3e 0d 40 ae 3d
       -0.16031243 0.07770229 0.17671794 0.085083105
0000a0 9d cc 72 3d 99 e7 44 be 0c 84 2d 3e c3 3e 56 bc
       0.059277166 -0.19228972 0.16944903 -0.013076487
0000b0 56 5a 27 be c9 1f 42 3e b9 a5 de bd 5a ec 8e bc
       -0.16343054 0.18957438 -0.10871453 -0.017446686
0000c0 fe 3a 1b 3e 01 ba c0 bd d3 1a 03 be 95 48 e1 3c
       0.15159222 -0.094104774 -0.12803201 0.02750043
0000d0 b2 08 d9 bc 26 c6 25 3d 16 e3 0d be e1 11 a8 3b
       -0.026493404 0.040472172 -0.13856158 0.0051290845
0000e0 c4 b9 9e bd 8a d8 90 bd 23 e1 2b be 25 a5 da 3d
       -0.07750276 -0.070725515 -0.16785102 0.1067603
0000f0 75 21 01 3d be 44 1b be 48 be 09 3e af a1 81 3d
       0.031526048 -0.15162942 0.13451493 0.06329667
000100 85 d9 ea ba 4f 62 de bd c6 1e bc 3c 00 3c 28 3e
       -0.0017917609 -0.108585946 0.022963893 0.16429138
000110 79 f5 0f 3e b0 e0 12 be e0 39 22 3e 28 74 f9 3b
       0.14058484 -0.14343524 0.1584239 0.007612724
000120 4f 77 a3 3d 50 48 26 3e c7 3a 16 3e e6 de 01 be
       0.07981741 0.16238523 0.1467086 -0.12682685
000130 3c 66 20 3e 2c 8e e6 bd c4 30 fd 3b 5e 56 04 be
       0.15664 -0.11257586 0.0077267606 -0.12923571
000140 37 36 34 bd 64 0c 09 bb 16 f9 de bc 19 44 07 bd
       -0.043997016 -0.0020911926 -0.027218383 -0.033023927
000150 bf 52 ff 3b d8 bb 3e 3e a6 ec 08 3e fb 6e c2 3d
       0.0077918465 0.18626344 0.13371524 0.09493824
000160 9a e7 82 3d 42 01 18 3e 3d 70 36 bc 1b 3d 55 3c
       0.06391831 0.1484423 -0.011135158 0.013015057
000170 96 cd f3 3c 36 21 24 be 54 68 05 be 47 53 cf 3c
       0.029761117 -0.16028294 -0.1302808 0.025308264
000180 eb 6e a2 bd b4 e5 ca bb 09 fb 22 bd 8a ca cb 3c
       -0.07931312 -0.0061919335 -0.039790187 0.024876852
000190 a1 59 f4 3d 39 43 73 bd 39 cc 0d 3e 9b 2b 0c 3e
       0.11931158 -0.05939028 0.13847436 0.13688509
0001a0 cb 96 0b be f9 c1 3e be e4 90 12 be 9c ec de bd
       -0.13631742 -0.18628682 -0.14313084 -0.108849734
0001b0 35 6a 84 bd 77 03 a7 bb 2a 26 79 bd 86 59 be bd
       -0.0646557 -0.0050968486 -0.06082741 -0.09294419
0001c0 7a fc 81 bd 19 85 36 bd 1d 3c 2f 3e 4c 80 87 bd
       -0.06346984 -0.044560526 0.17112775 -0.066162676
0001d0 5a 34 04 be 2e 30 b2 3d d4 94 95 3c 98 ae 0c 3e
       -0.12910596 0.08700596 0.018259443 0.13738477
0001e0 00 6d e2 3d b2 8e 36 3e 31 78 f9 bd a8 18 08 3e
       0.11055946 0.17827871 -0.12181128 0.13290656
0001f0 a6 ad 15 3e 34 39 b5 bd 02 e1 1e 3e 6a 16 11 3e
       0.14617023 -0.08848801 0.15515521 0.14168707
000200 df 29 5c 3c 77 5f bd 3d b8 3f 74 bd cc 80 1c be
       0.013437717 0.09246724 -0.05963108 -0.15283507
000210 7a 6a 28 3d 67 3d 5e 3d f8 b5 ee bd 56 4e b2 3d
       0.04111717 0.054257777 -0.116558015 0.08706348
000220 c2 2a 19 be 1e 2a 3f 3e e4 a2 30 3e 91 50 02 3d
       -0.14957717 0.1866841 0.17249638 0.031815115
000230 86 51 e1 bd c7 96 a9 3d 52 f9 e6 3c 4b 70 4e 3d
       -0.110018775 0.082807116 0.028195057 0.05040006
000240 ae 43 39 3d 6b ae 0b 3e 17 d2 98 bd 80 d4 19 bd
       0.04523056 0.13640754 -0.074619465 -0.03755617
000250 dd fd 48 3d c9 5b ab 3c 8a e2 f8 3d e0 35 b9 bd
       0.049070228 0.02091779 0.12152584 -0.09043479
000260 10 84 44 bb 32 1a ba 3c c0 c6 7c bd fb bb f9 3d
       -0.0029985942 0.022717569 -0.06171298 0.121940576
000270 ac 3f a0 3c 30 af 25 be 85 bd 14 bd 15 4c 82 bd
       0.019561611 -0.1618011 -0.036313552 -0.06362168
000280 8a 25 c1 3c 1e e3 8f bc 36 0e 33 be 05 bf 04 bd
       0.02357747 -0.017564353 -0.1748589 -0.032408733
000290 ec 06 89 bc 37 56 55 bd 17 a0 26 3e 24 c1 1e bd
       -0.016726933 -0.052084174 0.16272007 -0.038758412
0002a0 95 a8 e8 3d cc 47 a2 3d 7b 03 19 be 6b ff 19 3d
       0.113602795 0.079238504 -0.14942734 0.0375971
0002b0 ac c4 15 3e a5 5a f3 bd b1 7f ef bd 93 d6 31 3e
       0.14625806 -0.118825234 -0.11694277 0.1736701
0002c0 e9 f0 03 3e e8 de c0 bd 53 76 d9 3d a4 7b b3 bc
       0.12884869 -0.09417516 0.10618272 -0.021909542
0002d0 9a f2 32 be c3 a4 93 3c 3d df 50 3d 38 7a 56 bd
       -0.17475358 0.0180229 0.050994147 -0.05236265
0002e0 7e fe 7f 3d 6b 2d 22 be 34 b5 d8 3d 91 2e 17 3e
       0.062498562 -0.15837638 0.10581437 0.14763857
0002f0 86 df c4 3d 5f 95 f7 3c b8 5e 4f 3d bb 0e f7 bd
       0.09612946 0.030222593 0.05062744 -0.120633565
000300 42 d5 be bc e2 6a 24 bc 45 aa c5 bd a7 39 05 be
       -0.023295049 -0.0100352485 -0.09651617 -0.13010274
000310 58 f6 e9 3d 5a f5 f6 3d 27 3e 26 be 36 45 68 3d
       0.114239395 0.12058516 -0.16234647 0.05670663
000320 13 94 94 3d 78 fc 74 3e 6a 05 d2 3d ec b8 12 3e
       0.072548054 0.23924434 0.10254939 0.14328355
000330 f7 fd 6c bd e9 08 f7 3d 81 6e 0a 3e b6 5a 29 be
       -0.057859387 0.12062246 0.13518716 -0.1653851
000340 98 86 26 be 6f e9 11 3d 58 96 c6 3d 6f 70 af bd
       -0.16262281 0.03562301 0.096966445 -0.08566367
000350 ad a3 9b 3c 15 60 c7 3c 90 5b ea 3c 00 84 be bd
       0.018998945 0.024337808 0.028608114 -0.09302521
000360 24 8d ce 3d 12 a6 d3 3d 85 0a 1c be 47 39 b5 bb
       0.10085514 0.1033441 -0.15238388 -0.0055305096
000370 cb 37 f4 ba 5e e1 6a 3d 55 8c 0d 3e e5 04 8e 3d
       -0.001863235 0.057343833 0.13823064 0.06934527
000380 5e 66 17 bd 06 d8 27 3e 60 64 86 bd c0 c5 4c bd
       -0.03696286 0.16391 -0.06562114 -0.049993277
000390 c9 9c 22 3c 98 30 08 be 75 0d 89 3c 4f 00 f3 bd
       0.009925076 -0.13299787 0.01673005 -0.11865293
0003a0 2e 7b a1 3c f9 5b 11 3d a0 d2 d2 3c 9b d4 26 be
       0.019712057 0.035488103 0.0257352 -0.1629204
0003b0 70 5c 2a be 1c a5 ac 3d 9e 7e 19 3e 0c 13 1e be
       -0.16636825 0.084299296 0.14989707 -0.15436953
0003c0 73 b5 81 3d 0e de 06 be 00 5d 4b 3c 05 aa 2a 3e
       0.06333437 -0.13170645 0.01241231 0.1666642
0003d0 fd 4c 0a 3e a9 57 f7 bd 1b 8f be 3d ca 75 c1 3d
       0.13505931 -0.12077267 0.09304639 0.094462946
0003e0 6a 78 14 3b 62 8d 27 3e 97 5e a2 bd c8 54 39 bd
       0.002265478 0.16362527 -0.07928198 -0.04524687
0003f0 10 75 b6 bd 81 56 e1 3c b6 ad f8 3c 79 a0 e4 3c
       -0.08909047 0.027507069 0.03035627 0.02790855

rowAttentions.0.q_net.bias f4 [32]
000000 4b a0 4d 3d 1f 48 0c 3e bd 8f 4d 3d c2 16 f8 3d
       0.050201695 0.13699387 0.050185908 0.12113716
000010 3f 30 de 3d 6a 36 40 3d ab 93 55 3d 6c e6 52 3d
       0.10849046 0.046926893 0.05214278 0.05148928
000020 bf 4f 9e 3c a5 a6 1d 3e 0f 83 24 3e 20 78 84 3d
       0.019325135 0.15395601 0.1606562 0.064682245
000030 88 35 9c bb fe ca 23 3e f0 e2 0e be 15 4e fc 3d
       -0.0047671236 0.15995404 -0.13953757 0.123195805
000040 30 21 9a 3d d3 4d 05 3e 0f b1 a6 bc 7d 6d 04 be
       0.07525861 0.13017969 -0.0203481 -0.12932391
000050 3d 1c f3 3d 80 5d a1 bd c0 61 28 3d c3 c4 ca 3d
       0.118706204 -0.07879162 0.041108847 0.099008106
000060 63 8d 2b be d7 ef 4d 3c 31 0f 7b bd 6c 71 ec 3d
       -0.16753154 0.012569389 -0.061293785 0.11545071
000070 ea 3b eb bd b4 8e d3 3d d0 06 d7 3d 0f 95 c1 3d
       -0.11486037 0.10329953 0.10499346 0.09452259

rowAttentions.0.k_net.weight f4 [32, 32]
000000 6e 69 2d 3e 44 96 00 3d 0a 14 21 be 3c c9 04 3e
       0.1693475 0.031393304 -0.157303 0.1296739
000010 00 b0 8b 3c ea 28 e9 3b f9 d1 26 be bc 77 14 bd
       0.017051697 0.007115473 -0.16291036 -0.036247
000020 45 d2 a8 bd fe d0 39 3e 35 4a 04 3e 21 4d e2 3d
       -0.08243231 0.1814613 0.12918933 0.110498674
000030 97 ac fd 3d 0e 80 ee bd 58 41 96 bd f2 b6 85 bd
       0.123864345 -0.11645518 -0.07336682 -0.06529035
000040 bf 62 af bd 36 61 0e 3e 13 17 82 3d 4c 0e 14 3e
       -0.08563756 0.1390427 0.06352057 0.14458579
000050 ff 88 ac bb 58 1c 1d be dd 11 36 bd 12 38 02 3e
       -0.0052653546 -0.15342844 -0.04445063 0.12716702
000060 3d 72 e1 3d bc 7b 3c 3d f0 d2 83 bd db 41 2f be
       0.11008117 0.04601644 -0.064367175 -0.17114966
000070 85 d2 bc bd 3c 5b c4 3d 61 92 b0 bd 20 10 af 3d
       -0.09219841 0.09587714 -0.086216696 0.085479975
000080 3b e7 56 3d 64 2a 7e bd 16 63 e0 3d 68 2d 60 bd
       0.052466612 -0.062052146 0.10956399 -0.054730803
000090 b5 22 13 bc e0 62 85 bd 5a d2 27 be 3b 4d fb 3c
       -0.008980443 -0.065129995 -0.16388837 0.030676475
0000a0 76 8a 59 3d 1f ea ed bd 80 e8 e1 3d cd 89 2f be
       0.053110562 -0.11616921 0.11030674 -0.1714241
0000b0 4b 92 2d be a0 d5 00 be ff 2e 8d bd 47 72 8f bc
       -0.16950338 -0.12581491 -0.068937294 -0.017510546
0000c0 47 90 5f bd 62 63 ad 3d 35 a4 1c be 4e 4c e5 3c
       -0.054580953 0.084662214 -0.15297015 0.027990486
0000d0 68 85 ae 3b 28 21 64 3d d8 26 48 3e 65 62 e1 3d
       0.005325962 0.055695683 0.19546068 0.110050954
0000e0 10 8c c2 bd d8 aa 12 be 41 58 35 bd b5 85 a2 bd
       -0.09499371 -0.14322984 -0.04427362 -0.07935659
0000f0 0d 75 82 3d 30 02 64 3b c4 b8 08 3e fe f5 a2 3d
       0.06369982 0.0034791343 0.13351732 0.079570755
000100 5c e1 2d bd 9d 96 3f 3b e7 2b 22 3d 5f cb c1 bc
       -0.042451248 0.002923406 0.03959265 -0.023656545
000110 ed f5 14 3e 67 d3 0f be 48 d2 ae 3d 56 5b ea bd
       0.14546938 -0.14045487 0.08536202 -0.11443202
000120 dd f1 20 be f0 6a a9 bb 26 34 ac 3d 4c c2 10 3e
       -0.15717264 -0.0051702186 0.08408384 0.14136618
000130 bb 0e 2d 3d 1d 9a 86 bb 08 00 3d bb 2b 34 95 bd
       0.042250376 -0.004107727 -0.002883913 -0.07285341
000140 c7 b7 cd 38 f1 ce 98 bc ae 18 18 3e 18 8b cf 3d
       9.809393e-05 -0.018653365 0.14853165 0.10133952
000150 b4 92 12 be 94 3c 47 bb b5 3a f3 bd 51 52 f3 bc
       -0.14313775 -0.0030401098 -0.11876432 -0.029702337
000160 ca 8f 13 be 68 dc 32 3d 98 68 02 be 89 f7 22 3e
       -0.1441032 0.043667227 -0.12735212 0.1591474
000170 16 d6 06 3e f2 26 fd bd 76 e2 21 be 95 bc 9d ba
       0.13167605 -0.12360944 -0.15809044 -0.0012034351
000180 63 09 52 bd 34 47 3f 3d 01 fc f7 bd 86 3e 8e 3d
       -0.051278483 0.046698764 -0.12108613 0.06945519
000190 86 60 1c be 7b d8 c4 bd 7b ac cd bd cd 1c a9 3d
       -0.15271196 -0.09611603 -0.10042664 0.082574464
0001a0 a8 ad e2 bb a4 e5 37 be bc cb d2 bd 6e 91 8f bd
       -0.006917674 -0.17958695 -0.102927655 -0.070101604
0001b0 36 09 28 be e4 c1 04 3d e0 68 77 3d 54 be 11 bd
       -0.16409764 0.03241147 0.06040275 -0.0355819
0001c0 98 66 6b bd c0 7f 8d 3a 47 af 12 be 27 a1 e0 bd
       -0.057470888 0.0010795519 -0.14324676 -0.10968237
0001d0 6f a0 e0 bb 3f e5 1e 3e 06 97 68 bd 7d 1e b1 3d
       -0.0068550627 0.15517138 -0.056784652 0.08648393
0001e0 d9 7a 93 bd 70 fa 1d bd 0b 49 24 be 0b 9d 20 3e
       -0.07201166 -0.038568914 -0.16043489 0.15684907
0001f0 30 63 2d 3e 44 82 ce bb 62 fd f7 3d bf 43 0f 3e
       0.16932368 -0.00630215 0.12108876 0.13990687
000200 11 28 b2 3d 4b 16 bb 3d e2 c0 2b be 57 59 29 be
       0.08699048 0.091351114 -0.16772798 -0.16537987
000210 78 90 09 be da 92 65 3d 63 ae 1e be 7b 78 09 be
       -0.13434017 0.05604825 -0.15496211 -0.13424866
000220 0f fe ad bd 12 f9 2d be 7c d9 7c 3a e3 49 db 3c
       -0.084957235 -0.16989544 0.0009645445 0.02676863
000230 09 4a d2 bd 2c 00 f2 3d 50 3c 8a bd e0 10 48 bd
       -0.10268027 0.11816439 -0.06749785 -0.04884422
000240 87 33 0f 3e 43 cd 18 3e 3c 2d a0 bc 4d 5a 01 be
       0.139845 0.14922051 -0.01955282 -0.12632103
000250 3b 19 b4 bd 32 a3 9f 3c fe b5 b9 3d bf d8 b5 3d
       -0.08793875 0.019486997 0.090679154 0.08879232
000260 dc 26 9e bd 22 f3 27 be e1 96 18 be 84 ab 6d bd
       -0.077222556 -0.16401342 -0.14901306 -0.0580249
000270 7b e6 58 3b 81 29 a1 bd 1a 0c 10 be 76 31 97 3c
       0.0033096361 -0.07869244 -0.14067116 0.018456202
000280 1f 18 10 be 84 43 08 be 7e 1f 10 be 9c 4d 35 bd
       -0.14071701 -0.13307005 -0.14074513 -0.044263467
000290 71 54 1f 3e 21 55 94 3d c5 c9 a5 bc ec 13 24 3d
       0.15559556 0.072427996 -0.020237813 0.04005806
0002a0 be d7 97 3d b1 3e fc bb 48 09 0e be 5c 8e fa bd
       0.074141964 -0.007697903 -0.13870728 -0.12234184
0002b0 8b 78 f0 bd 31 5d af bb 9a 5f 22 be 7c 37 eb bc
       -0.11741742 -0.0053516855 -0.15856782 -0.02871298
0002c0 34 ee 81 bd 9c 7f 2f 3e 36 f1 16 3e af 2e d9 3d
       -0.06344262 0.17138523 0.14740452 0.10604607
0002d0 97 6c 5e 3c 76 82 8a bd 03 3a 40 3d c2 f7 f2 bd
       0.0135756945 -0.06763165 0.046930324 -0.11863662
0002e0 1c 9f 92 bd d4 30 4c bd 50 61 3a bd 1d 3c 25 be
       -0.07159254 -0.049851254 -0.04550296 -0.16136213
0002f0 16 87 98 3d 6e d3 18 3e c3 01 eb bd 83 0f 49 3d
       0.074476406 0.14924404 -0.114749454 0.04908706
000300 04 5b cf bc 53 96 20 bc fe 1d f9 3b e2 f2 18 3e
       -0.025311954 -0.009801465 0.0076024523 0.14936402
000310 a3 9a b6 3c a2 57 ec bd 86 c8 83 bd 0b ff a8 3d
       0.022290533 -0.11540152 -0.06434731 0.082517706
000320 d7 33 52 3d 27 a8 97 3c aa ef e0 bc 6d 70 72 bd
       0.05131897 0.018512798 -0.02745803 -0.05918925
000330 38 d1 86 bd 7c 19 bb bd 8e 23 c8 3c 4a 54 3d 3d
       -0.06582874 -0.0913572 0.024431016 0.046222962
000340 47 ad 09 3e 08 16 1d bd ca 3f 10 3c ea f8 e2 3d
       0.13445006 -0.03835109 0.008804271 0.11082633
000350 c8 02 95 3d 9c 01 28 3d a8 8e 5e 3d b9 4c b5 3b
       0.07275921 0.04101716 0.054335266 0.0055328277
000360 3a 66 1f be 01 3d d2 3c 46 6c 1a bd 49 e9 18 3e
       -0.1556634 0.025663855 -0.037700914 0.14932741
000370 43 d8 1d 3e ac 11 fd 3c 77 da 32 3e 88 aa b4 bd
       0.15414529 0.030892216 0.1746615 -0.08821589
000380 23 6e 23 3e 89 a6 1c 3e 1f b0 f4 bb 75 97 11 be
       0.15959983 0.15297903 -0.0074672843 -0.14217933
000390 b5 a0 61 bd 29 bd 42 bd 0b 22 68 3b ff 69 24 be
       -0.055084903 -0.04754368 0.0035420682 -0.1605606
0003a0 7f 96 04 3d 3c 0f 9f bd d2 46 3a bd 09 60 b3 bd
       0.032370087 -0.077665776 -0.045477696 -0.087585516
0003b0 58 1a 18 bd 7f b9 2b be 7c 5e bd bd 4e 30 81 3c
       -0.0371345 -0.1676998 -0.09246537 0.015770104
0003c0 b6 31 e6 3d 58 71 25 3e d0 4c 09 be c8 56 97 3d
       0.1123995 0.16156518 -0.13408208 0.07389599
0003d0 47 1c cc bd 95 c4 10 be 7d ea 7e 39 63 39 d0 bd
       -0.09966331 -0.1413749 0.00024310681 -0.10167196
0003e0 c9 52 1c be 85 88 2e be 4c 91 f3 bd 7e b0 19 3e
       -0.15265955 -0.17044266 -0.118929476 0.15008733
0003f0 31 42 cb 3d be e6 8e bd 40 ee f0 bd bb 8d 0f be
       0.099247344 -0.06977604 -0.117641926 -0.1401891

rowAttentions.0.k_net.bias f4 [32]
000000 a3 d1 ac bd 4c 73 16 3e 59 3c 01 3e 91 90 2a 3e
       -0.084384225 0.1469242 0.12620677 0.1665671
000010 05 90 2f be 72 9f 87 bb 68 0f 54 bd a3 36 2b 3d
       -0.17144783 -0.0041388804 -0.051772505 0.041800153
000020 59 d9 09 be fd 25 a0 3d 84 6e 12 bc 25 69 b9 bd
       -0.13461818 0.07819746 -0.008937482 -0.09053258
000030 d4 dc 1f be 2a 76 ba 3d 5b ce 76 bd ce 84 ff 3d
       -0.15611583 0.09104569 -0.06025539 0.12476502
000040 64 c2 b4 3c 43 f7 61 3d ea 23 01 bd 96 b1 b6 bc
       0.022065349 0.055167448 -0.03152839 -0.022301476
000050 30 2c 73 bd 57 64 19 be 49 89 e0 3d ed aa ee bd
       -0.059368312 -0.14979683 0.10963685 -0.11653695
000060 76 8d d0 3d bb e3 5b bd d2 f4 e1 3d 52 08 1a 3e
       0.101832315 -0.053683978 0.11033024 0.15042236
000070 85 67 dd bd df 7b 16 3e 43 e3 1d 3b 80 6f 09 be
       -0.108107604 0.1469569 0.0024091757 -0.1342144

rowAttentions.0.v_net.weight f4 [32, 32]
000000 b9 ec 05 3e be d7 c2 3d 56 02 16 3e b3 14 36 be
       0.13078584 0.09513806 0.14649329 -0.17781334
000010 9b 80 4a 3e 7f 2e 01 3e 4a 3e 32 3e 6a 72 b1 3d
       0.19775622 0.12615393 0.17406574 0.08664401
000020 59 64 c0 bd a5 88 4d 3e dd 65 21 3e dd db 8a bd
       -0.0939414 0.20071657 0.15761514 -0.06780217
000030 e0 1e 24 bd 43 7d b3 3d 14 f4 eb 3d 87 91 df 3d
       -0.040068507 0.08764126 0.115211636 0.10916429
000040 0a ae 16 3e 0a a1 ea bc dc e4 23 bd 8e 68 9d bd
       0.14714828 -0.028641243 -0.04001318 -0.07685958
000050 82 ee 9f 3d a5 57 ec bc 3a a8 39 be 14 0d 18 bd
       0.07809164 -0.028850386 -0.1813058 -0.037121847
000060 45 bd 23 be a2 90 2e be d6 03 38 3e 54 cb 5b bd
       -0.1599017 -0.1704736 0.17970213 -0.053660706
000070 49 27 82 3d 63 a5 53 bd e1 d1 2d 3d f5 c2 f4 bc
       0.06355149 -0.051671397 0.042436484 -0.029878119
000080 7c 7b 07 3e 64 ca f3 bc 09 66 12 3e 6a 9f d6 3d
       0.132307 -0.029759593 0.14296736 0.104796246
000090 75 31 17 3e 03 1f 23 be 0a 38 b9 bd e9 66 11 be
       0.1476496 -0.15929799 -0.09043892 -0.14199413
0000a0 a0 31 1b bd 5c bf dc bc 3a dd 00 3d 7d 3e 2c 3e
       -0.037889123 -0.026946716 0.031460978 0.16820712
0000b0 08 59 8f 3d 3c a9 d9 bd 6a 2b bb bd e2 f3 f8 3d
       0.06999403 -0.10627982 -0.0913914 0.12155892
0000c0 15 cc 83 3d 1c 71 af 3b b7 31 be bd 47 4b d7 bc
       0.0643541 0.00535406 -0.09286826 -0.026281012
0000d0 12 3d 4f 3d 94 35 de bd 34 70 e8 3d 84 c2 a4 3d
       0.05059535 -0.10850063 0.11349526 0.080449134
0000e0 a0 54 e9 bd 11 60 af bd 43 34 23 bd 8e f9 ca 3b
       -0.11393094 -0.08563245 -0.039844763 0.0061943
0000f0 5b 8c 69 bd 30 49 29 3e d0 b2 1c be 77 a9 d9 bd
       -0.05701862 0.16531825 -0.15302587 -0.10628026
000100 c4 58 b8 bd cd 18 30 3d 48 5f bd 3c 64 93 6a bd
       -0.09001306 0.042992402 0.023116723 -0.05726947
000110 8b 8a 30 3e a4 c5 21 be 4c 72 8b 3d 4d de d4 bd
       0.1724035 -0.1579805 0.0680891 -0.10393963
000120 3a b7 3d bd 82 8c 02 be f9 7e 0d be 8f f5 11 be
       -0.046317317 -0.12748912 -0.13817967 -0.1425383
000130 bc 41 94 3d 94 a9 4d bd 8b 90 59 3d b0 7c d0 bd
       0.072391 -0.05021055 0.053116363 -0.10180032
000140 6d 87 6c bd a7 b7 63 3b 4f f6 0f 3e c3 c5 64 bd
       -0.05774634 0.0034746916 0.14058803 -0.055852663
000150 b6 c6 c1 3d b2 eb 93 3d d3 ff 9f 3d 82 25 b8 3d
       0.09461729 0.0722269 0.078124665 0.08991529
000160 25 aa 76 3d 10 02 9b bb b9 7e 12 3c d0 32 45 3d
       0.060220856 -0.0047304705 0.008941346 0.04814416
000170 21 a0 ba 3d 2d cc b1 bc 68 38 0b 3e e9 6f 1a be
       0.091125734 -0.021703804 0.13595736 -0.15081753
000180 3d 06 5d 3d 88 85 8f 3b 93 77 ea bd d9 a1 b7 bd
       0.053961027 0.004379932 -0.11448588 -0.08966417
000190 88 1b de bd ce 1a 20 3d 57 25 cb bd d5 c4 5c bd
       -0.10845095 0.039088063 -0.099192314 -0.05389865
0001a0 5f 9b 2b bc f0 15 fb bd 21 98 ab 3b 6b 33 83 bc
       -0.010474055 -0.122600436 0.005236641 -0.016015729
0001b0 27 52 9b 3d d4 c0 2b 3e 7d d9 22 be 86 0e bb 3d
       0.07584029 0.16772777 -0.15903278 0.091336295
0001c0 98 3b 96 bd b4 ed 3c bd 26 0c ab bd 31 c8 52 3d
       -0.07335585 -0.04612513 -0.083519265 0.05146045
0001d0 76 81 0b 3d 5e 86 3b 3c f0 0d 48 bd 23 2b bd 3d
       0.03405901 0.01144561 -0.048841417 0.09236743
0001e0 60 aa 26 3d 17 bd 25 be 9e 9e 70 bd 81 6a 95 bd
       0.040689826 -0.16185413 -0.05874502 -0.07295705
0001f0 a5 4c 9e bd 31 11 c6 bd 46 c7 3b be bf a0 4a 3e
       -0.077294625 -0.09671248 -0.18337736 0.19787882
000200 29 dd 39 be 66 2a 24 3e 67 4c 17 be 96 8c 53 bd
       -0.18150772 0.16031799 -0.14775239 -0.051647745
000210 43 99 8a bd 0b 00 cd bd 7f 7c 64 3d ee ed bf 3d
       -0.067675136 -0.10009774 0.05578279 0.09371553
000220 84 f8 fa bd 0b 67 07 be 52 8d aa 3d e0 43 fd 3a
       -0.12254432 -0.13222902 0.08327736 0.0019322596
000230 db f2 17 3d fb c0 e4 3d ef ec 4a bd 74 05 d0 bd
       0.03709684 0.111696206 -0.049542364 -0.1015729
000240 26 65 b9 3d f4 7c 71 bd 0e ba 00 be aa 07 c2 bd
       0.09052496 -0.058957055 -0.12570974 -0.09474118
000250 80 db ba bd 72 d8 5a 3e 93 7b 83 3d e7 f6 94 3d
       -0.091238976 0.2137163 0.06420054 0.072736554
000260 36 5d 74 3c 7a 9c f3 bd 08 b2 fd 3d 76 b3 87 bc
       0.014914801 -0.1189508 0.123874724 -0.016565066
000270 a4 b1 62 bd ea dc 0e 3e e6 61 be bd bb 9b 7f 3d
       -0.055345193 0.1395146 -0.092960164 0.062404376
000280 f0 32 f4 bd f3 0d bd 3d 81 00 9f 3d 79 d2 16 be
       -0.11923778 0.09231176 0.07763768 -0.14728726
000290 b4 9e b9 3d fc d2 b6 3c a4 09 bf bd d3 97 17 3e
       0.09063473 0.022317402 -0.09328011 0.1480401
0002a0 14 65 9d 3d 6c ce ab 3d 85 8d 85 bd fd 7a bc bd
       0.07685295 0.08388981 -0.06521133 -0.09203146
0002b0 f1 62 b6 bd fe 84 24 3d 60 8b 86 3d 11 81 cc bd
       -0.0890559 0.040165894 0.065695524 -0.09985555
0002c0 79 01 10 3e 34 02 b3 3d f4 59 8a bd 26 5a bc 3d
       0.14063062 0.087406546 -0.067554384 0.09196882
0002d0 da 2e 95 bd c8 cb 73 3d 58 33 32 3e 07 90 12 be
       -0.07284327 0.059520513 0.17402399 -0.14312755
0002e0 09 bf 94 bd 2f 61 7e bd ef 5c f6 3b f1 77 f6 bd
       -0.072629996 -0.0621044 0.0075184028 -0.12034596
0002f0 a2 09 01 be 66 6a 43 bc 37 32 c5 bd c9 26 95 3d
       -0.12601331 -0.011927223 -0.09628718 0.07282788
000300 b3 0c 58 3d f2 f8 54 3d 64 ba a0 3c 87 64 a0 3c
       0.052746486 0.051995225 0.019620128 0.019579185
000310 04 21 15 3c 72 36 75 3d 76 89 08 3e 47 3c b5 bd
       0.00910211 0.059866376 0.13333687 -0.088493876
000320 98 0d be bd 60 48 ba 3d 03 4e 05 be 19 65 0a 3e
       -0.092799366 0.09095836 -0.1301804 0.13515128
000330 9b d6 a9 3d 08 40 fa 3c cd 3f be bd 5a 4f dc 3b
       0.08292886 0.03054811 -0.09289513 0.0067233266
000340 c8 5d 2b be af a0 22 be 6d 2c 2a 3e de 9c 26 be
       -0.16734993 -0.15881608 0.1661851 -0.16270778
000350 52 4f 0f be 43 a4 e2 bd b0 ed ea bc 0f 89 20 3d
       -0.13995102 -0.11066487 -0.028677791 0.03919321
000360 fe 46 86 bd 5b 90 c1 bc 2e d2 7c bd ea 77 16 3e
       -0.065565094 -0.023628404 -0.06172388 0.14694181
000370 89 31 1b 3e 4d d7 94 3d 87 41 74 3c dc 9e 02 3e
       0.15155615 0.07267628 0.014908201 0.12755913
000380 59 5f 45 be 7b f4 7e 3d fd df d5 bd fa 14 17 3e
       -0.19274653 0.062244873 -0.10443113 0.14754096
000390 71 33 0e be 13 31 91 3d fc 6a 13 be 13 fd e7 3d
       -0.13886811 0.07089438 -0.1439628 0.11327567
0003a0 29 05 23 3d af 4e df 3d 4a fd ff bd 7c 09 cf 3d
       0.039799843 0.109036796 -0.12499483 0.10109231
0003b0 23 02 f5 bd 9a ca c1 bd 47 47 7d 3d 5a 17 e6 bc
       -0.11963298 -0.09462471 0.061835553 -0.028087307
0003c0 6d f9 ae bd 22 9f 32 be e5 55 1b bd 66 27 4e 3d
       -0.08543668 -0.17443517 -0.037923712 0.050330542
0003d0 52 4e 26 3e 38 aa 1a 3e 0e 83 a5 bc bc e5 eb bd
       0.16240814 0.15103996 -0.020204093 -0.11518428
0003e0 af 3a 31 be cd 06 3e 3e fa 50 69 bd 3d e9 84 bd
       -0.17307542 0.18557282 -0.05696199 -0.06489799
0003f0 99 15 09 be d8 e7 ed bd 6a 0a 78 3d 9f 91 a5 bd
       -0.13387145 -0.11616486 0.060556807 -0.08084416

rowAttentions.0.v_net.bias f4 [32]
000000 64 06 dc bd 0f 3e 13 3e 7a 10 1d 3d be 3f 4c bc
       -0.107434064 0.14379142 0.03834579 -0.012466369
000010 41 0d 2a be 6b 92 09 3e a9 1b f5 bd 90 03 bd 3d
       -0.16606618 0.1343476 -0.119681664 0.09229195
000020 f5 24 85 bc 21 76 d5 3b 41 b0 9a 3d f7 2a 90 bd
       -0.016252974 0.006514326 0.07553149 -0.07039445
000030 1a e9 1d bd 82 db 14 3e 7b 52 07 be 94 5b 99 3d
       -0.03855238 0.1453686 -0.13215058 0.0748817
000040 a7 21 69 bd d0 c1 45 bd 53 20 d9 3d f2 89 8f 3c
       -0.05691686 -0.048280537 0.106018685 0.017521832
000050 31 81 24 be 50 50 2f 3e 3c 6b a9 bd 2d d2 34 3e
       -0.16064908 0.1712048 -0.082724065 0.176583
000060 70 55 a5 bd 3c 9b 34 3e 08 28 40 3d b5 bc 86 bc
       -0.080729365 0.17637342 0.046913177 -0.016447404
000070 53 dd a5 3d 65 9c 16 bc 90 6a c1 bd cf e2 d8 3d
       0.08098855 -0.009192561 -0.09444153 0.10590135

rowAttentions.0.proj_net.weight f4 [32, 32]
000000 c0 dc 09 3e 52 cd 72 bc 5f db 06 3e 6f f9 79 bc
       0.13463116 -0.01481946 0.13169621 -0.0152572235
000010 f0 43 fd bd fc 8d ec bd 85 e9 11 3e 81 c6 a3 bd
       -0.12366474 -0.11550519 0.14249237 -0.07996846
000020 22 85 ef 3d 09 ef 3e be 96 dd ce bc fa 4e f4 bd
       0.11695315 -0.18645872 -0.025252145 -0.11929126
000030 bd e5 fe 3c 83 50 f3 3d 5d bb f0 3d a4 08 74 bd
       0.031115407 0.11880591 0.11754487 -0.059578553
000040 14 0c 0c be 89 72 19 be c1 d8 f5 bd 55 af 1e 3e
       -0.13676482 -0.14985098 -0.12004233 0.15496571
000050 53 d2 b9 bd 91 2a c2 3d c0 87 2b 3e f1 bf b1 3d
       -0.09073319 0.09480775 0.16751003 0.08679188
000060 e0 34 17 be ea c3 be bc 29 ef 7c bd c9 0d 0b 3e
       -0.14766264 -0.023286778 -0.06175152 0.13579477
000070 06 ed 08 bd 70 ad 19 bc 2b 9b 1a 3e 23 55 95 3c
       -0.03342917 -0.00937973 0.15098254 0.018229073
000080 0e 78 cd 3d 57 a8 88 bd 53 c0 01 3e 5b 07 f5 3c
       0.10032664 -0.06672733 0.12671022 0.029910734
000090 32 b7 3a bd bf b3 b3 3c 18 10 0e be 78 62 06 bb
       -0.045584865 0.021936296 -0.13873327 -0.002050547
0000a0 3b a8 be 3d b3 2c 29 be 66 ad bb bd 9b 87 e1 3d
       0.09309431 -0.16520958 -0.091639325 0.11012193
0000b0 f8 45 3a 3c f8 f4 f0 3b 35 04 3d 3c df 8b 83 bd
       0.011369221 0.0073534213 0.011536648 -0.06423163
0000c0 57 0c 07 3e 33 5c 0a 3c a5 95 96 bd 72 75 a2 3d
       0.13188301 0.008444834 -0.07352761 0.07932557
0000d0 5f 2e 1f be e7 eb 05 bd 08 fb 79 3c 3b e5 3e bd
       -0.15545033 -0.032695677 0.015257604 -0.04660533
0000e0 90 13 a7 3d 76 74 0e be 88 a2 5b bd 95 6f a6 bd
       0.08158028 -0.13911614 -0.0536218 -0.08126751
0000f0 97 3a 28 3e 8c 27 a5 3d 03 26 fc bd 20 fb 8a 3d
       0.164286 0.080641836 -0.12311938 0.067861795
000100 40 7b e0 3c 0c 74 1b 3e e9 90 87 3d 40 37 db bd
       0.02740252 0.15180987 0.06619436 -0.107038975
000110 9f 45 36 3e 70 0a b4 bc 91 a2 45 bd ec b9 8a 3d
       0.17799996 -0.021977633 -0.04825074 0.06773743
000120 60 5f 27 3e e3 bd e8 3c e8 60 44 be 4c 84 01 bd
       0.16344976 0.028410858 -0.19177592 -0.03162031
000130 a8 94 0d 3e cc 7d bd bd e3 7e 9f bd 6b 4a 0f be
       0.13826239 -0.092525095 -0.077878736 -0.13993232
000140 77 b6 e8 bd be 49 95 bd 84 a0 3a bd 0c 75 11 3d
       -0.113629274 -0.07289456 -0.045563236 0.035512015
000150 4b a5 19 3e 31 58 f0 3d b1 b7 1b 3d 18 2b ce 3d
       0.1500446 0.11735571 0.03801698 0.10066813
000160 10 9e c2 3d 56 09 37 be b7 cd e1 3d 60 68 e4 bd
       0.09502804 -0.17874655 0.11025565 -0.111527205
000170 f5 08 11 3e 14 3e 85 bd bb 24 7b 3c ed 7f 97 3c
       0.14163573 -0.06505981 0.015328581 0.018493617
000180 39 5c 9b 3d 33 0e 27 3d 68 0d fb bd af ac 6b 3d
       0.075859495 0.040785026 -0.122584164 0.05753773
000190 09 8b d0 3d 04 84 a9 bd ec 28 f7 bd bc 96 e0 bd
       0.10182769 -0.08277133 -0.12068352 -0.1096625
0001a0 3b 27 99 bd 00 d4 19 bc 3b 8d 8a 3c 4c 87 07 3c
       -0.07478186 -0.009388924 0.016913047 0.008272003
0001b0 bd ac 2c bd 7b 50 ce 3d fd d7 13 3a 05 ef c5 bd
       -0.042156924 0.10073944 0.000563979 -0.0966473
0001c0 23 6a 28 bd c9 d1 8d bd 35 ee 19 bd e9 b1 39 be
       -0.041116845 -0.06924779 -0.037580688 -0.18134274
0001d0 4d 1f 97 3c c2 b3 1a be 6b 3f ac 3d 94 2a 0c 3e
       0.018447543 -0.15107635 0.084105335 0.13688117
0001e0 ed 66 01 be ae 18 b7 bd 07 22 09 be a5 b0 23 3d
       -0.1263692 -0.08940254 -0.13391887 0.039963383
0001f0 9d 34 35 3d d9 0a ac bd a3 f1 fc 3d 6b 85 ad 3d
       0.04423963 -0.084005065 0.12350776 0.08472713
000200 57 b5 41 be 08 0b 0b bc d5 7b 93 bd d6 1a bc bc
       -0.18916832 -0.008486517 -0.072013535 -0.022962015
000210 d7 31 e2 3d fb 15 59 bc ed b7 fd bd fb 3c 12 3e
       0.110446624 -0.013249869 -0.12388597 0.14281075
000220 9c 1b 2d be 85 51 7d bd 82 e1 c5 3d 63 93 13 3e
       -0.16905063 -0.06184532 0.09662153 0.14411692
000230 04 6e 40 3e 5a 5d 30 bd d8 dc 4d 3d cf 76 18 be
       0.18791968 -0.043057777 0.05025944 -0.14889072
000240 db 1a 5a bd b5 c7 60 bd 6f c7 f7 3c 7d 2c d9 bd
       -0.053248268 -0.054877955 0.030246465 -0.106041886
000250 dc 0c 30 3d 1b f4 a4 3d 6d 0b 09 3e f5 f2 20 bd
       0.042981014 0.08054372 0.13383265 -0.039294202
000260 fc 3f 2f 3e 03 4c 39 be cd f2 32 bd 41 51 84 3d
       0.17114252 -0.18095402 -0.043688584 0.064608105
000270 d0 6a 18 3d c7 4c d1 3d 8c 63 e0 bd cc 9d f2 3d
       0.03721124 0.10219722 -0.10956487 0.118465036
000280 63 ed 3e be d2 b0 fd bd 24 0a 0a bc d7 93 29 be
       -0.18645243 -0.123872414 -0.008425269 -0.16560303
000290 03 92 30 be a1 2c 2e be c2 5f 12 3e e8 0b 2c 3d
       -0.17243199 -0.17009212 0.14294341 0.042003542
0002a0 42 aa 32 bd 76 24 bc 3b a5 ce 1d be 6e fc 27 be
       -0.0436194 0.005741651 -0.1541086 -0.16404888
0002b0 ea 39 05 be 7f b1 36 be 62 e8 e3 3d c0 cf 8c bd
       -0.13010374 -0.17841147 0.11128308 -0.06875563
0002c0 67 45 70 bd 78 61 06 be 66 fc 65 3c 6c 3b 2f bd
       -0.058659937 -0.13123119 0.014037227 -0.04278128
0002d0 5f 89 03 be 75 39 d7 3d 36 5a 16 3e 7b 0e 0e be
       -0.12845372 0.10509006 0.1468285 -0.13872711
0002e0 a0 40 bd 3d 26 eb b8 bc 87 cc 84 3b 78 c8 8d 3d
       0.09240842 -0.022573065 0.004052702 0.06923002
0002f0 c2 b4 9d bc c2 08 09 3e 5d fe cc 3d f1 9a d9 bd
       -0.019251231 0.13382247 0.100094534 -0.10625256
000300 34 db d2 bd 38 f4 3b be 0f e1 39 3d fc 6d 31 be
       -0.10295716 -0.18354881 0.04538065 -0.17327112
000310 b2 9b 24 be f2 a3 e1 bd 60 b8 35 be fc 89 05 be
       -0.16075018 -0.11017598 -0.17746115 -0.13040918
000320 c2 f2 1e 3e 12 62 d9 3d 90 52 13 3e fa 68 81 bd
       0.15522292 0.106144086 0.14386964 -0.06318851
000330 63 e2 ae bd c5 65 a4 bd a3 ae f9 3c 9d a9 01 be
       -0.085392736 -0.080272235 0.030478781 -0.12662359
000340 89 df 1b 3d 2f a5 f5 bd da e9 42 3c 21 cd 20 3e
       0.038054977 -0.11994397 0.011896575 0.1570325
000350 ef 28 19 3d 0d 72 f5 3d 63 4a d5 bd f8 ef 0d bc
       0.037392553 0.11984644 -0.10414579 -0.00866317
000360 9e 56 d7 bd 6c 0e 01 bc 6a f4 8a bd e6 fd ad bd
       -0.10514568 -0.007876974 -0.067848995 -0.08495693
000370 4c 4e 3f be 4b 60 98 bd 76 d9 54 3b ce 6d e2 bc
       -0.18682212 -0.074402414 0.003247825 -0.02764025
000380 a5 87 1c be 00 02 f8 3d 7e 1a 07 3e be 0c f0 bd
       -0.1528612 0.121097565 0.131937 -0.117211804
000390 fc e9 86 3c 52 ac f6 3d a1 31 2f be 69 f0 11 be
       0.016468994 0.12044586 -0.17108776 -0.14251865
0003a0 bd fd a7 3d 1f d5 cc bb fc a3 59 3d 5a 3e 52 bd
       0.082026936 -0.006250992 0.053134903 -0.051328994
0003b0 bb ab 2c 3d e8 ea ed 3d aa 21 60 bd a9 da 39 bd
       0.042155962 0.116170704 -0.054719605 -0.045374546
0003c0 68 e6 2f be b5 d5 83 bc a3 03 09 3e aa a3 2b be
       -0.17177737 -0.016093114 0.13380294 -0.16761652
0003d0 b9 cd 04 bc c6 9c 05 3e c7 8f 81 bd 94 67 9b bd
       -0.008105689 0.13048086 -0.063262515 -0.07588115
0003e0 fd cd 83 bd 20 9a 9a bd 54 4c af 3c 3c e9 39 be
       -0.064357735 -0.07548928 0.0213987 -0.18155378
0003f0 f0 6b a1 3d 48 32 65 bd bc cd c6 bc 3e 36 48 3c
       0.078819156 -0.055956155 -0.024268024 0.012219964

rowAttentions.0.proj_net.bias f4 [32]
000000 87 26 e3 3d 96 ee 2a 3e 54 a5 c1 3d d8 45 cf bd
       0.11091333 0.16692576 0.09455362 -0.101207435
000010 07 fa 27 bd 07 bf 1f 3e 44 36 08 3e 9b bd 2c bd
       -0.04100993 0.15600215 0.1330195 -0.04217301
000020 a3 30 07 3e f4 36 ee bd 29 0a 2d 3d 1f fa d6 3d
       0.13202147 -0.11631575 0.042246018 0.104969256
000030 76 8a 4d 3d 3c 30 e2 bd f6 27 6d 3d 86 9c dd 3d
       0.050180875 -0.11044356 0.057899438 0.1082087
000040 11 88 c1 3d 6d 8f ee bd 8c 82 b0 bc f7 04 d0 3c
       0.09449781 -0.1164845 -0.021546625 0.025392992
000050 af fd b3 bc 8f 60 46 bd f3 73 d3 bd 57 3e 83 3d
       -0.021971552 -0.04843193 -0.1032485 0.06408375
000060 a7 0a c6 3d ce 5a 1c bd 6d 72 ff 3d 38 ff d7 bc
       0.096700005 -0.038172536 0.12472997 -0.026366815
000070 27 42 4d 3d a5 5d 7b 3d 51 fa bf bd fc c5 fb bc
       0.050111916 0.061368603 -0.09373916 -0.030734055

rowAttentions.1.q_net.weight f4 [32, 32]
000000 39 b4 09 3e 9a ec 31 bc cb a5 f1 3d 7b ef d3 3d
       0.13447656 -0.010859633 0.117992006 0.10348412
000010 93 2a d4 bc 15 e9 98 bd 8b ab bc bd ca 0e 12 be
       -0.025899207 -0.07466332 -0.09212407 -0.14263454
000020 7d 80 e0 bd f5 dd 2c 3d d1 1a 7a 3d b5 e6 52 bd
       -0.10962007 0.042203862 0.06106073 -0.05148955
000030 02 06 83 bc 42 7c f3 3d c5 45 b0 3c b6 fc fe bd
       -0.015994076 0.11888935 0.021517644 -0.124505445
000040 c2 29 10 3e a7 4e e5 3d 17 3c 9d 3c e0 17 a8 3d
       0.1407843 0.11196642 0.019193692 0.08207679
000050 e7 cb 1b be 64 60 e3 3d dd 5e 45 3d 1c 6c 84 bc
       -0.15214501 0.111023694 0.04818617 -0.016164832
000060 72 10 66 bd 41 22 13 3e 5f 4e 1b 3d 87 12 c0 bd
       -0.056168027 0.14368536 0.037916537 -0.09378534
000070 7b ae a7 3d a5 b3 08 3d c3 bf 6b bd c8 63 01 3e
       0.081875764 0.033374447 -0.057555925 0.1263572
000080 eb 7a 32 3e 0e 38 c3 bb 20 40 ac bd 9c 76 e8 bd
       0.17429702 -0.00595761 -0.084106684 -0.11350748
000090 03 57 b2 bd 9e a9 b0 3d b1 a3 e3 3d 6f 06 dd bd
       -0.087080024 0.08626102 0.11115206 -0.10792243
0000a0 68 56 ab 3d c4 0f e5 bb 28 20 9d bc 13 37 39 bd
       0.0836609 -0.006990405 -0.019180372 -0.04521854
0000b0 68 d4 28 be 97 ff 2a be a5 2b 06 3e ce f0 ec bc
       -0.16487277 -0.16699062 0.13102587 -0.028923418
0000c0 06 24 e1 bc 25 f1 ae bd a4 50 51 bd a3 f1 8f bd
       -0.027482998 -0.085420884 -0.051102296 -0.070285104
0000d0 c5 78 04 3c f1 36 2a be f9 e6 06 3d 93 a8 25 be
       0.008085434 -0.16622521 0.032935116 -0.16177587
0000e0 1a b4 f6 bd d5 39 11 3c c7 45 42 bc 4f 17 4b bd
       -0.120460704 0.008863886 -0.0118574565 -0.049582776
0000f0 cf 10 d3 3d f5 93 63 3c 9f 59 b9 3d 66 92 a5 3d
       0.1030594 0.013890256 0.09050297 0.08084564
000100 9e a1 2f 3c 55 d8 1f be 01 29 92 bd 59 eb d6 3d
       0.010719685 -0.15609868 -0.07136727 0.10494108
000110 ff 9a cb 3d 8b 6c 73 3d 91 dd 21 3e 29 a5 b7 bd
       0.099416725 0.059429687 0.15807177 -0.08967049
000120 c2 9e 81 bd 4f 0a 1c bd ee 7f 51 bd 4f ca 10 3e
       -0.06329109 -0.03809577 -0.051147394 0.14139675
000130 68 91 36 be 23 6b 77 3c 98 23 32 3e 86 ab cb bd
       -0.17828906 0.015101227 0.1739639 -0.09944825
000140 2a 02 01 3e c2 6f 12 be 22 d5 e4 3c f0 18 d3 bd
       0.12598482 -0.14300445 0.02793366 -0.10307491
000150 55 e1 51 3d 84 54 43 3d 10 e5 71 3d e4 bf 28 bd
       0.051240284 0.047688022 0.05905634 -0.041198626
000160 8c b3 5b bd a0 2a 2b be f5 50 0e 3d d8 d5 34 3e
       -0.053638026 -0.16715479 0.034745175 0.176597
000170 b4 9d 04 be 68 ec 85 bd 26 90 8c 3d 2c a6 ca 3d
       -0.12950784 -0.065392315 0.06863432 0.09894976
000180 ff cb 87 3d 1f 0f eb 3d 7d ad 83 3c f2 0e 44 bd
       0.06630706 0.114774935 0.016073937 -0.047865815
000190 53 31 16 be f6 1e 35 be 58 3e 05 be 1b 1a af 3d
       -0.14667253 -0.17687592 -0.13012064 0.08549901
0001a0 52 c0 1d 3e 31 3e 27 3e 49 ff 01 3e 70 58 39 3c
       0.15405396 0.16332318 0.1269504 0.011312589
0001b0 e9 7e f9 3d 6e c8 66 3d 2f ed f6 bd 10 b6 0b bd
       0.12182409 0.05634349 -0.12056958 -0.034109175
0001c0 1f 3d 39 be 90 57 29 3e af dd ff 3c 6e 94 23 3e
       -0.18089722 0.16537309 0.031233637 0.1597459
0001d0 dd c8 cb bc a2 5a 16 3e db d8 ab 3d 29 d3 c3 bc
       -0.024876053 0.14683011 0.08390971 -0.0239044
0001e0 c1 81 7e bb 82 56 09 3e 82 00 bc bc a9 fe 0e 3e
       -0.0038834664 0.13411906 -0.02294946 0.13964333
0001f0 1f 9f 28 3d 51 e8 88 bd c9 4a 7a bd 4f ca ac bd
       0.041167375 -0.06684936 -0.061106477 -0.08437025
000200 c4 f7 df 3d 4f 98 07 3e be ea b3 bd 3e c4 2a be
       0.109359294 0.13241695 -0.08785008 -0.16676423
000210 d4 5b ca 3d 73 19 37 bd a8 d3 26 be ca 16 0f 3d
       0.09880796 -0.044702005 -0.16291678 0.034933843
000220 81 d5 b4 bc e8 94 03 3e 4d af 0c 3d d1 30 fa bd
       -0.022074463 0.12849772 0.034346867 -0.12216342
000230 56 b0 fc bc 7c af f0 bd 39 de ae 3d 4c 19 4f 3d
       -0.030845802 -0.11752221 0.08538479 0.050561234
000240 67 f4 eb 3d bf 76 04 be df 01 d0 bd 1e 77 de bd
       0.115212254 -0.12935923 -0.10156607 -0.108625636
000250 c9 55 19 be 6b db 22 be b0 e3 0d be a9 65 f9 3d
       -0.1497413 -0.15904014 -0.13856387 0.12177593
000260 b5 8b 64 bd 3c 9c d0 bc 7d 26 72 3d 8e c0 30 3d
       -0.055797298 -0.025465123 0.059118737 0.043152384
000270 6a a8 a0 3d 0b f8 fe bd bc f5 2c 3e e9 50 2d bc
       0.078446224 -0.12449654 0.16890615 -0.0105783725
000280 a5 55 b1 bd 03 40 eb 3d e7 88 1a be b2 62 d9 bd
       -0.086589135 0.11486819 -0.15091287 -0.10614528
000290 28 10 c8 3d 3e 59 85 3d cf d8 89 bd 10 b2 89 bc
       0.097687066 0.06511162 -0.06730806 -0.01680854
0002a0 a9 5a 10 bd ab 24 97 3d a6 aa 0e 3d 21 ff 4b 3d
       -0.03524271 0.07380041 0.03483071 0.049803857
0002b0 38 c1 17 3e f5 29 dd bd 78 a2 0d be cc 6e 34 bd
       0.14819801 -0.10799018 -0.13831508 -0.044050977
0002c0 5e a4 98 bd 4d b5 fa bd a7 34 25 3e ec 4e 15 3e
       -0.074532256 -0.12241612 0.16133367 0.14580888
0002d0 42 56 0f 3e 4f e7 d1 bd 03 e7 a0 bc 36 e7 0d be
       0.13997748 -0.10249197 -0.019641405 -0.13857731
0002e0 01 67 86 bd a9 8b 1c 3e 43 08 c6 3c 70 b5 73 3d
       -0.06562615 0.15287651 0.024173861 0.059499204
0002f0 22 84 34 be a3 2a 98 3d 32 ec fd 3d 4c 72 86 bd
       -0.1762853 0.07430007 0.12398566 -0.06564769
000300 cb ec 03 3e 0e f4 a1 3d f7 a0 09 be 9e 7b 0b be
       0.12883298 0.07907878 -0.1344031 -0.13621375
000310 04 e2 96 39 39 49 33 be d7 1f 00 be c8 14 88 3d
       0.00028778624 -0.17508401 -0.12512146 0.06644589
000320 22 03 7b bd 92 52 a8 bb 04 8a 99 bd 7a 7b cd 3d
       -0.061282285 -0.0051367963 -0.074970275 0.10033317
000330 50 27 16 3e 81 b6 0a 3e b3 30 20 be b7 f1 5d bd
       0.14663434 0.13546182 -0.15643577 -0.054185595
000340 39 5c c9 3d 58 fd d8 3d 3c 88 2c bd 03 43 c1 3d
       0.09832043 0.105951965 -0.04212211 0.094366096
000350 6a e0 0b bc 2a a0 f0 3c 0f 76 f4 3d 79 6c f5 3d
       -0.008537391 0.029373247 0.119365804 0.1198358
000360 7b 6c 02 be 65 23 cd bd 79 bc 86 3d 28 54 d4 3d
       -0.12736695 -0.100165166 0.06578917 0.10367614
000370 14 32 2a bd 22 4a 21 3e 5f 3a 18 bc 70 81 a4 bd
       -0.041551664 0.15750936 -0.0092912605 -0.08032501
000380 f4 40 a2 bc 51 18 1a be 87 ac 4d 3d 2f b8 29 be
       -0.019806363 -0.15048338 0.050213363 -0.16574167
000390 60 63 25 3e 70 ce 0d be 03 03 e7 3d e4 ff 0b be
       0.1615119 -0.13848281 0.11279871 -0.13671833
0003a0 1f 06 e6 bc ae 9a c4 bd b2 a5 b3 3d f9 e6 b3 3d
       -0.02807909 -0.09599815 0.08771838 0.08784289
0003b0 41 2d 27 be ce ce 09 be 51 b3 d1 3c 6e d3 bd bb
       -0.16325857 -0.13457796 0.0255982 -0.0057930266
0003c0 e4 7b 85 3c 33 75 5a 3d ff 52 26 bd 23 ed 17 3e
       0.016294427 0.053334426 -0.040606495 0.14836554
0003d0 48 2a 2c 3c ba 37 a0 bd 9f d8 50 3d 49 54 0f be
       0.0105081275 -0.07823129 0.050987836 -0.13996996
0003e0 17 4c b2 bd c8 70 73 3d 03 39 89 bd 70 93 2f be
       -0.08705919 0.05943373 -0.06700327 -0.17146087
0003f0 58 12 af 3d 05 b3 3c 3d f6 73 82 3d e0 21 90 3d
       0.08548421 0.046069164 0.06369774 0.07037711

rowAttentions.1.q_net.bias f4 [32]
000000 47 9c 14 3e 6f 7a ba bd 57 3a a0 bd 61 50 04 3e
       0.1451274 -0.091053836 -0.078236274 0.12921287
000010 ff eb 95 bc 9f dc 03 be 50 78 a5 bd 3c 88 03 3e
       -0.018301008 -0.12877129 -0.080795884 0.12844938
000020 28 b0 e7 bd 59 4d 52 3d 05 30 1f be 4c f5 e3 3d
       -0.11312896 0.051343296 -0.15545662 0.11130771
000030 36 12 27 3d 1b 39 eb 3d 07 49 85 3c 26 b3 a4 3d
       0.04078885 0.114855014 0.016270174 0.08041982
000040 2c d9 0f 3e d7 f0 fa bc 2e 16 1a be 6c 2c 26 be
       0.14047688 -0.03063242 -0.15047523 -0.16227883
000050 09 f8 d5 3d 0e 34 e7 bd 80 f9 1d be d0 66 16 be
       0.104476996 -0.112892255 -0.15427208 -0.14687657
000060 2f 5a c0 bd 5e 7d 0a 3d c4 76 21 be af c3 92 bd
       -0.09392201 0.033810966 -0.15767962 -0.0716623
000070 29 c3 27 3e cd db dc bc 69 a0 7b bd 53 8d 8e 3d
       0.16383041 -0.026960278 -0.061432276 0.06960549

rowAttentions.1.k_net.weight f4 [32, 32]
000000 86 8c 14 be be b3 0d be 14 08 c8 3c d5 15 6c 3d
       -0.1450673 -0.13838097 0.024417914 0.05763801
000010 ec d0 33 be 50 66 1e 3e 94 80 8f bd 72 b2 ea 3c
       -0.17560166 0.15468717 -0.07006946 0.028649542
000020 b5 11 fd 3d 31 bc 87 3d 0f 2c 5d 3d 54 98 2b be
       0.12356893 0.066276915 0.053997096 -0.16757327
000030 52 c3 29 be f8 8c 8b 3d db 14 ec 3b cc 4c dd 3d
       -0.16578415 0.06813997 0.0072046346 0.108056635
000040 d9 a0 b7 3d 5f d8 12 be 55 15 0f 3d 1b e4 0e be
       0.08966226 -0.14340352 0.034932453 -0.13954203
000050 c3 0b c9 bd 24 e0 55 3d 74 38 aa bb d8 79 e6 bd
       -0.098166965 0.05221571 -0.005194718 -0.112537086
000060 86 83 72 3d 06 ea f5 3d 5b 29 31 be f3 f3 2c 3e
       0.05920746 0.12007527 -0.17300932 0.16889934
000070 3a 88 ca 3d 9a 2a 71 bc 7e b5 31 be 9b 60 95 bd
       0.098892644 -0.01471963 -0.1735439 -0.07293817
000080 c1 dc 57 3d 74 a2 96 bd c4 3a 71 bd 0a 08 9b bd
       0.05270076 -0.07355204 -0.058893934 -0.07569893
000090 bb c1 1d 3e da 3a 18 3e 7a c1 0f be 91 5a 69 bd
       0.15405934 0.148662 -0.14038649 -0.056971136
0000a0 e3 98 24 3e 57 fe 05 bc 63 42 af bd 3b 8a 02 3d
       0.16073947 -0.008178315 -0.08557584 0.031870108
0000b0 dd f6 0e 3e 5a ff cf bc d2 4d 2b be d1 a6 6f bd
       0.13961358 -0.025390316 -0.16728905 -0.058508698
0000c0 8b de ac 3d 6e 80 c3 bc cb 09 f7 3d 05 d6 7c 3d
       0.08440884 -0.023864951 0.12062415 0.061727542
0000d0 06 46 c6 3a da 3c 87 3d 45 46 e1 bc 61 52 1c be
       0.001512707 0.066034034 -0.027499327 -0.152658
0000e0 57 b6 19 be 8d cc 0e be db df d9 bc 01 00 06 be
       -0.15010963 -0.13945217 -0.026596 -0.13085939
0000f0 65 8e c6 3c fa 35 a2 3c a4 82 0f 3e 5f e6 5e 3c
       0.02423782 0.019801129 0.14014679 0.013604729
000100 f2 b9 03 3d 84 8e 84 3d 53 15 48 bd 9d c7 b0 bd
       0.032159753 0.06472495 -0.04884846 -0.08631823
000110 de 5c 2a be d2 b5 2e be dc 5f 73 3c c6 ae aa bd
       -0.16636989 -0.17061546 0.014854398 -0.08334117
000120 f6 01 4c 3d 20 79 2a 3d 8f 4e 0c 3e e3 5c d1 bc
       0.049806558 0.04161942 0.13701843 -0.025556987
000130 a3 9f 56 3a 8f 5c fc 3d df 4c d1 3c c9 ff a3 3d
       0.000818724 0.12322342 0.02554935 0.080077715
000140 5b 6a cf bd 17 5e 02 be 83 c2 0b 3e 33 b4 ff 3d
       -0.101277076 -0.12731205 0.13648419 0.12485542
000150 5c e9 89 bd 8b 7a ec 3c 58 39 24 be 1c b2 4b 3c
       -0.06733963 0.028867027 -0.160375 0.012432601
000160 f3 7b 27 be 46 a7 d9 3d 45 e8 36 be 57 6a 2a bd
       -0.16355877 0.10627608 -0.17862041 -0.04160532
000170 5c 02 2a 3e 8a de 70 bd 61 b8 d3 bd a7 71 21 3e
       0.16602463 -0.05880598 -0.10337902 0.15766011
000180 9f 04 b8 bd 96 ae 14 3d 47 77 ca 3d 95 34 43 3d
       -0.089852564 0.03629931 0.098860316 0.047657568
000190 29 6e fd bd 48 80 24 3e fd 25 b0 3d d3 71 e3 bd
       -0.12374527 0.1606456 0.08600996 -0.111056946
0001a0 99 6e ce bd 1e b1 24 bd ad da 74 3d 7d 24 81 3d
       -0.100796886 -0.040207975 0.059778858 0.06305788
0001b0 f9 60 bd 3c 88 e0 eb 3d a7 75 37 3e dd 0b 15 3d
       0.02311753 0.11517435 0.17915975 0.036388267
0001c0 3f 8b 99 3d 92 f0 cc 3d 4c 3b 13 3d fe 06 34 3c
       0.07497262 0.10006823 0.03594522 0.010987995
0001d0 ca 8b 23 3e 71 7c fa 3d d8 79 f1 3d 60 64 8c bd
       0.15971294 0.122307666 0.11790818 -0.068550825
0001e0 10 02 b0 bd 73 91 c8 bd 7a 4c 16 be ac 7b 90 bc
       -0.085941434 -0.09793367 -0.14677611 -0.017637096
0001f0 be a5 cb 3d e9 36 d0 3c 4c 32 86 bd e7 60 d4 bc
       0.09943722 0.025416808 -0.06552562 -0.025925113
000200 59 28 0c be bb 39 eb bd 48 0c 74 3c 0b b9 d3 bd
       -0.13687266 -0.114856206 0.014895506 -0.103380285
000210 b3 13 ad 3c 59 08 13 3e f3 93 2b 3d a2 21 09 3e
       0.021127557 0.14358653 0.041889142 0.13391736
000220 63 7c e6 bd 77 6f 8f 3b 43 0b 34 be 9c 8f 27 bb
       -0.11254194 0.0043773013 -0.17582421 -0.0025567776
000230 45 e6 04 be 2b fe 32 3e 5b 09 19 be 1f 4b 75 3d
       -0.12978466 0.1747977 -0.14944975 0.059886094
000240 9a 77 c8 bd 17 44 3b 3d b6 5a 28 bb 89 0c b5 bc
       -0.09788437 0.045719232 -0.0025688834 -0.022100704
000250 c5 2f 8c bd 35 0c ee 3d eb 7b 2b bd af 40 55 3c
       -0.06845049 0.11623422 -0.041866224 0.01301591
000260 9b ba 5e bd 5d 57 fc bd e4 0b 8f bd 89 30 20 3e
       -0.05437718 -0.12321351 -0.0698469 0.15643515
000270 e5 cb 2a 3e b9 1f a8 bd ae 39 c7 3c 32 8d 09 3d
       0.16679342 -0.082091756 0.024319496 0.03358192
000280 a2 da 20 3e 3d b7 d7 3c e1 00 1e 3c a5 6c 4b bd
       0.15708402 0.026332492 0.009643764 -0.04966416
000290 35 b4 16 3d a3 39 33 be 31 f6 33 be 64 7a a2 bc
       0.036792953 -0.17502455 -0.17574383 -0.019833751
0002a0 c7 9d f8 bd 0a 1c fb bd bc 91 ec bc 39 a4 c6 3d
       -0.12139469 -0.122612074 -0.028878085 0.09699292
0002b0 ea c3 b2 3d 09 dd 81 bd 94 8c 4b bc fd 16 29 3e
       0.08728774 -0.06340987 -0.012423653 0.16512676
0002c0 b1 c4 14 3d 2c e5 f4 3d c1 0f 92 bd 8b c3 21 be
       0.036320392 0.119577736 -0.07131911 -0.1579725
0002d0 de 08 a6 bd ad 0d 59 3c 8e c0 31 bd c3 bb c2 bd
       -0.0810716 0.0132478895 -0.043396525 -0.09508469
0002e0 87 12 2e 3e 03 07 2b be 93 2d 7a 3b ee ce 90 3d
       0.16999255 -0.16701894 0.0038174137 0.07070719
0002f0 9a ae 3f bd 76 ec 9c 3d 6f c5 41 bb 13 b2 d9 bd
       -0.046797372 0.07662289 -0.0029567142 -0.10629668
000300 e6 36 c7 bd eb 33 a5 bd 21 be 30 be 48 73 de 3d
       -0.09727268 -0.08066543 -0.17260028 0.10861832
000310 4b e1 27 3e 60 67 b6 bd 28 3b 19 3c b5 9a 73 3d
       0.16394536 -0.08906436 0.009352483 0.059473712
000320 b9 2d 50 3d 19 b9 c6 bd 09 d5 db bd 63 eb 3a 3e
       0.050824855 -0.09703273 -0.107339926 0.18253855
000330 ad 00 d2 3d f1 69 1e 3e f4 c5 fe 3d 40 63 5b bc
       0.10254035 0.15470101 0.124401 -0.013390362
000340 d3 fd f2 3d c1 e2 5b bb 16 1b e8 ba 72 5f 9c bd
       0.118648194 -0.0033551904 -0.0017708268 -0.07635392
000350 d5 b8 0d 3e c3 2d 1f bd dd 1f f9 3c 80 a9 10 be
       0.13840039 -0.038862 0.030410701 -0.14127159
000360 4e 12 7f 3d ab 19 ae bd 8f 17 34 bd 4a e3 77 bc
       0.062273316 -0.085009895 -0.04396778 -0.0151298735
000370 0f 13 87 3d bc 49 dd 3b ee 88 fc 3c 4e 20 ed bd
       0.06595432 0.0067531746 0.030827012 -0.11578427
000380 ec 7b 07 be ea 51 84 3d 7d 51 95 bd e6 b6 1a be
       -0.13230866 0.06460936 -0.07290933 -0.15108833
000390 48 ca 97 bd 88 44 32 be 75 c0 1b 3d 06 ef 55 3c
       -0.07411629 -0.17408955 0.03802534 0.013057476
0003a0 04 2c 26 3e d9 e4 c7 bd 75 a3 b8 bd aa 9e 12 3d
       0.16227728 -0.09760446 -0.09015552 0.035795845
0003b0 c1 2b 3d bd ca 63 12 3e 54 0c c9 3c c8 b5 8b bb
       -0.046184305 0.14295879 0.024542011 -0.0042636134
0003c0 b3 bf 8a bd 5d 69 dd 3d 44 d0 a8 bd de 66 8f 3d
       -0.06774845 0.10811112 -0.082428485 0.07002042
0003d0 59 ac e5 3d 70 8e 0c be 6c 76 1c be 32 61 ca bd
       0.11214513 -0.1372621 -0.1527955 -0.0988182
0003e0 99 c2 ac 3d a6 2e ca bd bd e7 8e 3c 5e e6 e4 3c
       0.08435554 -0.09872179 0.017444486 0.027941879
0003f0 f2 6c 18 3d 3c a4 b7 bd 1a e7 10 3b da 68 f6 3d
       0.037213273 -0.08966872 0.0022110404 0.120317176

rowAttentions.1.k_net.bias f4 [32]
000000 08 5b a0 3d 60 55 80 3c 44 d9 3c bb 32 3c 41 3d
       0.07829863 0.01566571 -0.0028816024 0.047176547
000010 d7 53 29 3e fc c3 78 bc 5c 0c ad bd e0 a9 04 be
       0.16535889 -0.015183445 -0.08449623 -0.12955427
000020 e2 aa 13 3e 6d 2c 22 be e4 a1 b5 3d fb 8d 1e 3e
       0.14420655 -0.1583726 0.08868769 0.15483849
000030 32 ca b4 3d 4f 2f 3e 3b 1d ed 8f bc 43 30 df 3d
       0.08827628 0.0029019897 -0.01756912 0.10897877
000040 2f ea b4 bd b4 56 71 3d dc 84 32 bd 1b be 8d 3d
       -0.088337295 0.058920577 -0.043583736 0.06921025
000050 98 9c 20 bd 5a 47 f5 bd 25 a7 8c bd 5b 4d d4 3d
       -0.03921184 -0.119765 -0.06867818 0.10366317
000060 02 15 6b 3d 90 cc 00 be f4 75 eb bd 06 e6 f7 bc
       0.05739308 -0.12578034 -0.11497107 -0.03026105
000070 57 61 61 bc ac 33 34 bd 18 1e ea 3d f2 06 7a 3b
       -0.013756118 -0.04399459 0.11431521 0.0038151112
