train/checkpoints/uduta8zd/dzswi7ou.checkpoint.pt (torch, 540514 bytes, 159 tensors)

rowAttentions.0.q_net.weight f4 [32, 32]
0	0xbe358bf6	-0.17729172
1	0x3d86bd83	0.06579115
2	0x3dc95f86	0.09832673
3	0xbe1af31b	-0.151318
4	0x3d75fa42	0.060053118
5	0x3e19492c	0.14969319
6	0x3c16955b	0.009190883
7	0xbdd944de	-0.106088385
8	0x3e150d77	0.14555918
9	0x3d9bbf92	0.076048985
10	0x3df25aa0	0.118336916
11	0xbdeb6df3	-0.114955805
12	0x3ddbad97	0.10726469
13	0xbdef51c0	-0.116855145
14	0x3e30cc0f	0.17265342
15	0xbd9cf772	-0.07664384
16	0x3dd19981	0.10234357
17	0x3d01c65f	0.031683322
18	0x3d41b6d9	0.047293518
19	0xbcdaa127	-0.026688172
20	0x3d963a59	0.07335348
21	0xbd9804bb	-0.07422777
22	0xbe29011a	-0.16504326
23	0xbd8bf368	-0.068335354
24	0x3e1007b7	0.14065443
25	0xbd34c94d	-0.044137288
26	0x3d5029e8	0.050821215
27	0xbd887454	-0.06662813
28	0x3e0afd11	0.135731
29	0x3dd9d673	0.10636606
30	0x3d8006e1	0.06251312
31	0xbdb8d842	-0.09025623
32	0xbe168a07	-0.14701091
33	0x3bbfac17	0.005849372
34	0xbdd021f4	-0.10162726
35	0x3e181766	0.14852676
36	0xbe366f08	-0.17815793
37	0x3da8e58a	0.08246906
38	0x3e35d7fb	0.17758171
39	0x3dbbcf97	0.09170454
40	0x3d81b98e	0.0633422
41	0xbe2a50f6	-0.16632447
42	0x3e32449e	0.17408988
43	0xbcf8321b	-0.03029733
44	0xbe21fa9a	-0.15818253
45	0x3e348269	0.17627873
46	0xbd97f0c2	-0.07418968
47	0xbc80a1a2	-0.015702073
48	0x3e1a0c77	0.15043817
49	0xbe02fe34	-0.12792283
50	0xbdf98739	-0.12183995
51	0x3d04ffdc	0.03247057
52	0xbcab3dee	-0.020903554
53	0x3d1d1e6b	0.038359087
54	0xbe1ae3e0	-0.1512599
55	0x3bfe68a9	0.0077639413
56	0xbd8f360a	-0.06992729
57	0xbdaafc18	-0.08348864
58	0xbe35bac6	-0.1774703
59	0x3daf5cc8	0.085626185
60	0x3d158225	0.03650107
61	0xbe1594d4	-0.14607555
62	0x3e093df3	0.13402538
63	0x3d6eee15	0.05833252
64	0x3d0ae1f2	0.033906884
65	0xbdd2dc9a	-0.10295983
66	0x3cc6d015	0.024269143
67	0x3e2f7645	0.1713496
68	0x3df50015	0.11962906
69	0xbe0bb0f2	-0.13641718
70	0x3e24ba24	0.16086632
71	0x3c725bf0	0.014792427
72	0x3dae967d	0.08524797
73	0x3e13e1f7	0.14441667
74	0x3e1c1b32	0.15244749
75	0xbe10eb93	-0.14152364
76	0x3e1de362	0.15418771
77	0xbe0052e9	-0.12531628
78	0x3c881ba4	0.016614743
79	0xbdfb687b	-0.122757874
80	0xbd3afd78	-0.045651883
81	0xbc40fe28	-0.011779346
82	0xbca55338	-0.020181283
83	0xbcdd234f	-0.026994376
84	0x3c71096a	0.014711717
85	0x3e33fd22	0.17577031
86	0x3dd92e4c	0.106045336
87	0x3dcce379	0.100043245
88	0x3d924dc1	0.07143737
89	0x3e0d30e1	0.13788177
90	0xbc70d474	-0.01469909
91	0x3c896986	0.01677395
92	0x3d1181ce	0.035524182
93	0xbe1de137	-0.15417944
94	0xbe105d01	-0.14097978
95	0x3ca8d129	0.020607548
96	0xbd993283	-0.074803375
97	0xbb52c861	-0.0032162892
98	0xbd461242	-0.048357256
99	0x3ceef1dc	0.029168062
100	0x3ddce627	0.107860856
101	0xbd66f230	-0.05638331
102	0x3e0cc24f	0.13745998
103	0x3e10c73d	0.14138503
104	0xbe0c0f03	-0.13677602
105	0xbdf3a7c9	-0.11897237
106	0xbe0fb486	-0.14033708
107	0xbdc0b668	-0.09409791
108	0xbd8d8ded	-0.06911836
109	0xbc74ecb3	-0.014949012
110	0xbd02fe51	-0.031980816
111	0xbdb8c92f	-0.09022748
112	0xbd8095f7	-0.062786035
113	0xbd9d63d7	-0.076850586
114	0x3e32f4f2	0.17476252
115	0xbd835020	-0.06411767
116	0xbe004647	-0.12526809
117	0x3d99e893	0.07515063
118	0xbbe4bd5c	-0.006980581
119	0x3e0c8c60	0.13725424
120	0x3de3fdbd	0.11132381
121	0x3e29c0d2	0.16577461
122	0xbe210d27	-0.15727673
123	0x3dfca9b6	0.12337057
124	0x3e235715	0.15951188
125	0xbdb42de6	-0.08797817
126	0x3e2cef70	0.16888213
127	0x3e02716e	0.12738582
128	0x3ad74cd3	0.0016426094
129	0x3dae6ff2	0.085174456
130	0xbd7cff4b	-0.061766904
131	0xbe1dbfbb	-0.1540517
132	0x3d3ebe10	0.046567976
133	0x3d5878e8	0.05284968
134	0xbdee7e1d	-0.11645148
135	0x3dafe370	0.08588302
136	0xbe1a5ca1	-0.15074398
137	0x3e1b31a4	0.15155655
138	0x3e2f617b	0.1712703
139	0x3d3b04d6	0.04565891
140	0xbde2990c	-0.110643476
141	0x3dade303	0.08490565
142	0x3cf7395f	0.030178724
143	0x3d475e73	0.04867406
144	0x3d7c092d	0.06153219
145	0x3e0ba1cd	0.13635941
146	0xbd9b99fe	-0.07597731
147	0xbd2136e2	-0.03935898
148	0x3d437ba1	0.047725324
149	0x3c9d152b	0.019175133
150	0x3e13c2cc	0.14429778
151	0xbdbdda0a	-0.09270103
152	0xbbe069c2	-0.006848545
153	0x3d00c111	0.031434122
154	0xbd3ac901	-0.04560185
155	0x3df1c637	0.118053846
156	0x3c91cfa6	0.01779921
157	0xbe26d222	-0.16291097
158	0xbcb9b717	-0.022670312
159	0xbd9ea91e	-0.077471
160	0x3c8f3122	0.017479483
161	0xbca35f14	-0.019942798
162	0xbe350801	-0.17678834
163	0xbd01dd56	-0.031705223
164	0xbc8b48ea	-0.017002542
165	0xbd5336c1	-0.05156589
166	0x3e238c16	0.15971407
167	0xbd1bd20a	-0.038042106
168	0x3de9f45a	0.114235595
169	0x3d2de500	0.04245472
170	0xbe1855d4	-0.14876491
171	0x3d209bbd	0.039211024
172	0x3e16bdc9	0.14720835
173	0xbdef7f57	-0.1169421
174	0xbde71450	-0.11283171
175	0x3e3224a8	0.17396796
176	0x3e15e94f	0.14639781
177	0xbdc90cf1	-0.098169215
178	0x3dda9618	0.10673159
179	0xbcb3433c	-0.021882646
180	0xbe3267d6	-0.17422423
181	0x3c61c334	0.01377945
182	0x3d6b6e2f	0.057478126
183	0xbd57a95a	-0.05265174
184	0x3d7d8e4e	0.06190329
185	0xbe1b7099	-0.15179671
186	0x3df7ff3b	0.12109228
187	0x3e18dbc4	0.14927584
188	0x3dc61332	0.0967163
189	0x3cfc5004	0.030799873
190	0x3d5c0cb6	0.05372306
191	0xbe006e2f	-0.12542032
192	0xbd3ffc72	-0.04687161
193	0xbc67a172	-0.014137613
194	0xbdd03c1b	-0.10167714
195	0xbe04b4ee	-0.12959644
196	0x3df70a26	0.120624825
197	0x3df84218	0.121219814
198	0xbe259cdd	-0.1617312
199	0x3d6a590d	0.05721383
200	0x3d92b1f4	0.07162848
201	0x3e326706	0.17422113
202	0x3dd24baf	0.10268342
203	0x3e321efc	0.17394632
204	0xbd702a6a	-0.0586342
205	0x3e033e23	0.12816672
206	0x3e046dd3	0.1293252
207	0xbe28f017	-0.16497837
208	0xbe1f48c4	-0.15555102
209	0x3d1c599b	0.038171392
210	0x3dc60376	0.09668629
211	0xbdb25a2f	-0.087086074
212	0x3ca3307f	0.019920586
213	0x3b291530	0.0025799982
214	0x3d46c36c	0.048526213
215	0xbdc0e98b	-0.09419545
216	0x3dce46c4	0.10072091
217	0x3df6938a	0.120398596
218	0xbe0e8fd8	-0.1392206
219	0x3bcf2d7d	0.0063225613
220	0x3c849140	0.016182542
221	0x3d6f115e	0.058366172
222	0x3e19ba2f	0.1501243
223	0x3d50a5d0	0.05093938
224	0xbd2bc14f	-0.0419324
225	0x3e24e9a9	0.1610476
226	0xbd8c2532	-0.06843032
227	0xbd4acab0	-0.049509704
228	0x3c3a3a8c	0.011366498
229	0xbe077a41	-0.1323023
230	0x3caefbff	0.021360395
231	0xbdf1e238	-0.11810726
232	0x3c9e8570	0.019350737
233	0x3ca54483	0.02017427
234	0x3cd604de	0.026125368
235	0xbe12280c	-0.14273089
236	0xbe2bf527	-0.16792737
237	0x3da5dc1f	0.080986254
238	0x3e0f4ae0	0.13993406
239	0xbe1d8d9e	-0.15386054
240	0x3d5d6a9d	0.054056752
241	0xbe035569	-0.1282555
242	0x3c4b64c9	0.012414166
243	0x3e2a06e2	0.16604188
244	0x3e0aedc4	0.13567263
245	0xbe018f68	-0.12652361
246	0x3de75aa1	0.11296583
247	0x3dc36abd	0.09541843
248	0x3b2e9c98	0.002664363
249	0x3e31fd95	0.1738189
250	0xbdb455f9	-0.088054605
251	0xbd1b3e66	-0.037901305
252	0xbda9561a	-0.08268376
253	0x3ce405b0	0.027834743
254	0x3d02096c	0.031747267
255	0x3c6e4dce	0.014544917

rowAttentions.0.q_net.bias f4 [32]
0	0x3d6e167f	0.058126923
1	0x3e097ccf	0.13426517
2	0x3d2d657c	0.04233311
3	0x3df5581c	0.11979696
4	0x3de94c99	0.11391563
5	0x3d481654	0.04884942
6	0x3d6f0c82	0.058361538
7	0x3d59023b	0.052980643
8	0x3cb365ee	0.02189919
9	0x3e1789e5	0.14798696
10	0x3e275ada	0.16343251
11	0x3d84d270	0.0648545
12	0xbc606ea8	-0.0136982575
13	0x3e1dec94	0.15422279
14	0xbe0d68d1	-0.13809516
15	0x3e07e7e1	0.13272049
16	0x3dbfd861	0.09367443
17	0x3decbd5f	0.11559557
18	0xbd1a3972	-0.03765244
19	0xbe09d30e	-0.13459417
20	0x3dfd489d	0.123673655
21	0xbd9a8241	-0.07544375
22	0x3d367224	0.044542447
23	0x3dcb1b74	0.09917346
24	0xbe2e60fb	-0.17029183
25	0x3c151c61	0.009101004
26	0xbd7c6638	-0.06162092
27	0x3e008f4f	0.12554668
28	0xbde7cb49	-0.113180704
29	0x3dd27284	0.10275748
30	0x3de19037	0.11013835
31	0x3dccc8b2	0.09999217

rowAttentions.0.k_net.weight f4 [32, 32]
0	0x3e2bfc37	0.16795431
1	0x3cd7d719	0.026347684
2	0xbe2401cc	-0.1601631
3	0x3e018474	0.12648183
4	0x3c788c8c	0.015170228
5	0x3b75c9d9	0.0037504344
6	0xbe2c1563	-0.16805033
7	0xbd219046	-0.03944423
8	0xbdaefac5	-0.08543924
9	0x3e325253	0.17414217
10	0x3e017794	0.12643272
11	0x3e07594f	0.13217662
12	0x3dfa2574	0.12214175
13	0xbdddda25	-0.108326234
14	0xbd9d789d	-0.07689021
15	0xbd8dfe30	-0.06933248
16	0xbd933b6c	-0.07189068
17	0x3e0b3969	0.13596119
18	0x3d772f7b	0.060348015
19	0x3e113da2	0.14183667
20	0xbc01191a	-0.00787952
21	0xbe2130d7	-0.15741287
22	0xbd4bede4	-0.049787417
23	0x3dfe7422	0.12424494
24	0x3ddb9da1	0.10723425
25	0x3d623bb5	0.055232722
26	0xbd5f2226	-0.054475926
27	0xbe2969d2	-0.16544273
28	0xbdc102eb	-0.09424385
29	0x3dbda6c5	0.092603244
30	0xbd924d58	-0.071436584
31	0x3dae6b0a	0.0851651
32	0x3d4aebb7	0.0495412
33	0xbd8a1586	-0.067423865
34	0x3ddc8124	0.10766819
35	0xbd6981c4	-0.05700852
36	0xbbaa2ab9	-0.005193081
37	0xbd8a32ff	-0.06748008
38	0xbe2be8db	-0.16788046
39	0x3ce7cc69	0.028295713
40	0x3d5017fd	0.050804127
41	0xbdb7a68f	-0.089673154
42	0x3ddd3ab1	0.1080221
43	0xbe229a94	-0.1587928
44	0xbe2f52fa	-0.17121497
45	0xbde19e0b	-0.110164724
46	0xbd77de9f	-0.060515042
47	0xbc9eec83	-0.019399887
48	0xbd097e0f	-0.033567484
49	0x3da7b365	0.08188514
50	0xbe1f11b5	-0.15534098
51	0x3cd47b81	0.025937798
52	0x3b34975a	0.0027556033
53	0x3d3ee547	0.046605375
54	0x3e32a274	0.17444783
55	0x3ddf02d9	0.10889215
56	0xbdc7c8a7	-0.09755068
57	0xbe14ab4c	-0.1451847
58	0xbd2715af	-0.040792163
59	0xbdb4f931	-0.08836592
60	0x3d7a13ec	0.061054155
61	0x3aac60d5	0.0013151417
62	0x3e118ac4	0.14213091
63	0x3d8d8502	0.06910135
64	0xbcff1c24	-0.031141348
65	0x3badab82	0.0052999863
66	0x3d3d5377	0.046222176
67	0xbcb4ceac	-0.022071205
68	0x3e140849	0.14456286
69	0xbe0dd816	-0.13851961
70	0x3db655de	0.089030966
71	0xbde7213e	-0.11285637
72	0xbe1e0f5a	-0.15435544
73	0xbd276179	-0.04086444
74	0x3dafa092	0.08575548
75	0x3dfe542f	0.124184005
76	0x3d36f4ca	0.044667043
77	0xbc7935f2	-0.0152106155
78	0xbc7fe9d6	-0.015619716
79	0xbd921034	-0.07131997
80	0xbc9436ec	-0.018092595
81	0xbbe772e7	-0.007063258
82	0x3e1a0ba6	0.15043506
83	0x3dd3c484	0.10340217
84	0xbe10fb78	-0.14158428
85	0xba438e16	-0.0007459832
86	0xbddceb28	-0.1078704
87	0xbce51ba8	-0.02796729
88	0xbe0f6a75	-0.14005454
89	0x3d39163a	0.045187213
90	0xbdfc3c24	-0.123161584
91	0x3e30115a	0.17194119
92	0x3e05ec30	0.1307838
93	0xbdf8121f	-0.12112831
94	0xbe2c0a2c	-0.16800755
95	0x3c093298	0.008373879
96	0xbd49ce96	-0.04926928
97	0x3d56d63c	0.052450404
98	0xbdfb84fd	-0.12281225
99	0x3d9713cf	0.07376825
100	0xbe21a3c9	-0.15785135
101	0xbdbbe14e	-0.09173833
102	0xbdc3afb5	-0.09554998
103	0x3db22c6f	0.08699881
104	0xbb6f0ac3	-0.003647492
105	0xbe27b333	-0.16376953
106	0xbdcb4d45	-0.09926847
107	0xbdb25b80	-0.087088585
108	0xbe277f00	-0.1635704
109	0x3ca2e5ed	0.019885028
110	0x3d88fec0	0.06689215
111	0xbd010997	-0.031503286
112	0xbd9387c7	-0.07203632
113	0xbb93dc94	-0.004512379
114	0xbe0e7a6c	-0.13913888
115	0xbdd9cb0d	-0.10634432
116	0xbb30c841	-0.002697483
117	0x3e222943	0.15836053
118	0xbd5a4b95	-0.053294737
119	0x3db5b7a0	0.08872914
120	0xbd8bab48	-0.06819779
121	0xbd3a559c	-0.0454918
122	0xbe3434a5	-0.17598207
123	0x3e17b54e	0.14815256
124	0x3e320b25	0.17387064
125	0xbb442b4c	-0.0029933034
126	0x3de16040	0.11004686
127	0x3e13ea91	0.14444949
128	0x3db36803	0.08760073
129	0x3dba2f86	0.090910956
130	0xbe2cdb6d	-0.1688058
131	0xbe2a0dec	-0.16606873
132	0xbe0b2960	-0.13590002
133	0x3d62ba88	0.05535367
134	0xbe1c3a7d	-0.15256687
135	0xbe0a2357	-0.13490044
136	0xbdaf9197	-0.08572691
137	0xbe262c0b	-0.16227739
138	0x3992cc22	0.0002799938
139	0x3cd6bc42	0.026212815
140	0xbdd3e1a3	-0.10345771
141	0x3dee8cc6	0.11647944
142	0xbd8ac069	-0.067749806
143	0xbd4be999	-0.049783323
144	0x3e091a90	0.13389039
145	0x3e1b1b83	0.15147214
146	0xbca5c9a3	-0.02023775
147	0xbe01fbe3	-0.12693743
148	0xbdb58595	-0.088633694
149	0x3cb856cf	0.022502331
150	0x3dd56684	0.10419944
151	0x3db494c8	0.0881744
152	0xbd9ffd1d	-0.078119494
153	0xbe2aea98	-0.16691053
154	0xbe1ea1b5	-0.15491374
155	0xbd66d509	-0.05635551
156	0x3b1fd184	0.0024386356
157	0xbda2baaf	-0.07945763
158	0xbe0eee21	-0.13958026
159	0x3c93b7ed	0.018032039
160	0xbe0f760d	-0.14009877
161	0xbe0ae122	-0.13562444
162	0xbe129fdf	-0.14318798
163	0xbd445c9f	-0.047939893
164	0x3e201ed0	0.15636754
165	0x3d8d6a57	0.06905048
166	0xbcae6ddb	-0.021292618
167	0x3d14df06	0.036345504
168	0x3d90423a	0.07043882
169	0x39c3975a	0.00037306064
170	0xbe120b95	-0.1426223
171	0xbde08dc9	-0.10964543
172	0xbdf5ed88	-0.12008196
173	0xbbaaf161	-0.005216763
174	0xbe250df8	-0.1611861
175	0xbd039de8	-0.032133013
176	0xbd82bf3b	-0.063841306
177	0x3e31f0cb	0.17377011
178	0x3e131909	0.14365019
179	0x3dd25e29	0.10271866
180	0x3c21a85e	0.009866802
181	0xbd6a69df	-0.057229873
182	0x3d365685	0.044516105
183	0xbdfa7d09	-0.1223088
184	0xbd9a4f9a	-0.07534714
185	0xbd124c7e	-0.03571748
186	0xbd293413	-0.041309427
187	0xbe2b626e	-0.16736767
188	0x3d8f6e42	0.07003452
189	0x3e151fbf	0.14562891
190	0xbdc81dc6	-0.09771304
191	0x3d45a90b	0.048256915
192	0xbcb77b42	-0.022397641
193	0xbc07e833	-0.008295107
194	0x3c24a255	0.010048469
195	0x3e1b4b8f	0.15165542
196	0x3ce6c2c9	0.028169053
197	0xbde7d4c5	-0.113198794
198	0xbd8216be	-0.06351994
199	0x3dada51b	0.08478757
200	0x3d5a472d	0.053290535
201	0x3b685312	0.0035449904
202	0xbccd7980	-0.02508235
203	0xbd8579f4	-0.06517401
204	0xbd83e42b	-0.06440004
205	0xbdbbeb5f	-0.09175753
206	0x3cea9904	0.028637417
207	0x3d4494bc	0.047993407
208	0x3e0b2256	0.13587317
209	0xbd20f65e	-0.039297454
210	0x3c337a31	0.010954426
211	0x3de6e314	0.112737805
212	0x3d9a03ff	0.075202934
213	0x3ca84532	0.020540807
214	0x3d575ab2	0.05257673
215	0x3bfc056a	0.007691075
216	0xbe1ca259	-0.15296306
217	0x3bc5f8fd	0.0060416446
218	0xbd01dbb5	-0.03170367
219	0x3e25ed7b	0.16203873
220	0x3e281cad	0.16417189
221	0x3d0ac83f	0.033882376
222	0x3e2756a8	0.1634165
223	0xbdbb81d3	-0.091556214
224	0x3e1fea49	0.15616716
225	0x3e1e1a62	0.15439752
226	0xbbd91e14	-0.0066259
227	0xbe0f8c92	-0.14018467
228	0xbd7db2ca	-0.061938085
229	0xbd3b6dad	-0.04575889
230	0x3b33c9b1	0.002743345
231	0xbe225cea	-0.15855756
232	0x3d0e5977	0.03475329
233	0xbd97259c	-0.0738022
234	0xbd31a5b4	-0.043370917
235	0xbdc07eb2	-0.09399165
236	0xbd1256b1	-0.035727207
237	0xbe298390	-0.16554093
238	0xbdc05370	-0.093909144
239	0x3c9465fd	0.018115038
240	0x3debc131	0.11511458
241	0x3e237485	0.15962417
242	0xbe070ab5	-0.13187678
243	0x3d9b62f7	0.075872354
244	0xbdc84674	-0.09779063
245	0xbe099abc	-0.13437933
246	0xbbca40bc	-0.0061722677
247	0xbdcc61fe	-0.09979628
248	0xbe1a532f	-0.15070795
249	0xbe281234	-0.16413194
250	0xbe01932e	-0.12653801
251	0x3e12614f	0.14294933
252	0x3dc13e90	0.09435761
253	0xbd8c9830	-0.06864965
254	0xbdffcec5	-0.1249061
255	0xbe0af731	-0.13570859

rowAttentions.0.k_net.bias f4 [32]
0	0xbd9ee2d0	-0.07758105
1	0x3e1b9b01	0.15195848
2	0x3df91896	0.121628925
3	0x3e233c8a	0.15941063
4	0xbe2f7847	-0.17135726
5	0x3b0239c9	0.0019870868
6	0xbd61c017	-0.05511483
7	0x3d1eb4ca	0.038746633
8	0xbe0c2466	-0.1368576
9	0x3d99ce2e	0.07510029
10	0xbc10df09	-0.008842238
11	0xbdaa53aa	-0.08316739
12	0xbe256881	-0.16153146
13	0x3dc29350	0.09500754
14	0xbd84c30a	-0.06482513
15	0x3e066f24	0.13128334
16	0x3cfa8227	0.03057964
17	0x3d5e4f63	0.054274928
18	0xbcda1df9	-0.02662562
19	0xbcc8a18d	-0.024491096
20	0xbd811aca	-0.06303938
21	0xbe19d261	-0.1502166
22	0x3de12506	0.1099339
23	0xbde1bcf7	-0.1102237
24	0x3dd3a3f0	0.10334003
25	0xbd75d800	-0.060020447
26	0x3de4e404	0.11176303
27	0x3e19657d	0.14980121
28	0xbddf5b85	-0.10906128
29	0x3e16252f	0.14662622
30	0x3b871158	0.0041219406
31	0xbe09e807	-0.13467418

rowAttentions.0.v_net.weight f4 [32, 32]
0	0x3d905380	0.07047176
1	0x3dd04671	0.10169686
2	0x3e186c9c	0.14885181
3	0xbe31dbe6	-0.17369041
4	0x3e3aa66c	0.18227547
5	0x3e04dc3b	0.12974636
6	0x3e31e1ac	0.17371243
7	0x3db998c6	0.09062342
8	0xbdbb91f8	-0.09158701
9	0x3e05cfb8	0.1306752
10	0x3e1d5661	0.15364982
11	0xbd8bcdb5	-0.06826345
12	0xbcda6870	-0.026661128
13	0x3e21c8bc	0.1579923
14	0x3e119d9c	0.1422028
15	0x3ddf3e84	0.10900596
16	0x3e1a3bdc	0.15061897
17	0xbd9a5b32	-0.075369254
18	0xbd11c203	-0.035585415
19	0xbd9a9075	-0.07547084
20	0x3dac5fff	0.08416747
21	0x3d1a01f7	0.03759953
22	0xbe28acbf	-0.16472147
23	0xbcfcb087	-0.030845894
24	0xbe21bbfe	-0.1579437
25	0xbe1ea5b2	-0.15492895
26	0x3e498375	0.19679053
27	0xbdaf0a0c	-0.08546838
28	0x3d9fa956	0.0779597
29	0xbd34ed70	-0.04417175
30	0xbcdb5243	-0.026772624
31	0xbbc032db	-0.0058654374
32	0x3e092e90	0.13396668
33	0xbd0045e4	-0.031316653
34	0x3e031ec4	0.12804705
35	0x3dd03f62	0.10168339
36	0x3df94234	0.1217083
37	0xbe222931	-0.15836026
38	0xbd9a22d9	-0.07526178
39	0xbe157241	-0.14594366
40	0xbd11dcd5	-0.035610992
41	0xbd199754	-0.037497833
42	0x3d08947c	0.03334473
43	0x3e297313	0.16547804
44	0x3da316c6	0.07963328
45	0xbdcaea36	-0.099079534
46	0xbdebeb6b	-0.11519512
47	0x3e02c2f9	0.12769689
48	0x3d28216e	0.041047506
49	0x3d4bc918	0.049752325
50	0xbdc24c59	-0.094872184
51	0xbcb11144	-0.021614678
52	0x3d3b85a9	0.045781765
53	0xbde2bea0	-0.11071515
54	0x3dfac17e	0.12243937
55	0x3daf282c	0.08552584
56	0xbdf331b9	-0.11874718
57	0xbdacb0df	-0.08432173
58	0xbd27c754	-0.04096158
59	0x3c87deb9	0.016585695
60	0xbd786a8c	-0.060648486
61	0x3e2b2853	0.16714601
62	0xbe187aa4	-0.14890534
63	0xbdd28196	-0.10278623
64	0xbdcc8061	-0.09985424
65	0x3d01b23f	0.03166413
66	0x3c95d185	0.018288383
67	0xbd604c28	-0.05476013
68	0x3e0b8225	0.13623865
69	0xbe1a5c36	-0.15074238
70	0x3d41ea19	0.047342394
71	0xbdd04b73	-0.10170641
72	0xbcf22c43	-0.029562121
73	0xbe4ea370	-0.20179534
74	0xbe09abac	-0.13444394
75	0xbe1fa061	-0.15588523
76	0x3d7f65ba	0.062352873
77	0xbd89358a	-0.06699665
78	0x3dd1ac59	0.10237951
79	0xbdc5500f	-0.096344106
80	0xbcda2891	-0.026630672
81	0x3d473278	0.048632115
82	0x3e1438e3	0.14474826
83	0xbd4609fd	-0.04834937
84	0x3dcd0036	0.10009806
85	0x3d315d6a	0.043301977
86	0x3e04627c	0.12928194
87	0x3dda746b	0.10666736
88	0x3da8cf22	0.082426324
89	0xbd8b43e5	-0.06800059
90	0xbd11b582	-0.03557349
91	0x3da2f0c5	0.079560794
92	0x3db3ba6b	0.08775791
93	0xbc027d7f	-0.007964491
94	0x3dd22abb	0.102620564
95	0xbdc9cee1	-0.09853912
96	0x3dcf1feb	0.1011351
97	0xbd068f7c	-0.03285168
98	0xbe021866	-0.1270462
99	0xbdaeceaa	-0.08535512
100	0xbe0cfa2f	-0.13767312
101	0x3d195e8c	0.037443683
102	0xbde99f7e	-0.11407374
103	0xbd4d950b	-0.050190967
104	0xbc1fc74f	-0.009752109
105	0xbdbe0dfd	-0.09280012
106	0x3bf1f2f1	0.007383697
107	0xbd1796da	-0.037009098
108	0x3d5dc9ca	0.05414752
109	0x3e042f41	0.12908651
110	0xbdd2ec9a	-0.102990344
111	0x3dbc2af0	0.09187877
112	0xbc660712	-0.014039772
113	0xbde059f9	-0.10954661
114	0xbda3a460	-0.079903364
115	0x3d38e0b0	0.045136154
116	0x3d120cc6	0.035656713
117	0xbba392f5	-0.004991884
118	0xbd94fc4d	-0.07274685
119	0x3db2502a	0.08706696
120	0x3ceb37f6	0.028713208
121	0xbe2b40ff	-0.16724013
122	0xbd64c6ed	-0.055853773
123	0xbd063df3	-0.032773923
124	0xbd814556	-0.06312053
125	0xbdcadd50	-0.09905493
126	0xbe0008d0	-0.12503362
127	0x3e323f68	0.17407
128	0xbe251ca0	-0.16124201
129	0x3e25bd16	0.16185412
130	0xbe18b52f	-0.14912866
131	0xbd3117b5	-0.0432355
132	0xbd90e80b	-0.07075509
133	0xbdc12756	-0.09431331
134	0x3d84da83	0.0648699
135	0x3dd0ef58	0.10201901
136	0xbdf1983a	-0.11796613
137	0xbdb39bbf	-0.087699406
138	0x3db5e5cd	0.08881722
139	0xbc220846	-0.009889668
140	0x3d3e6e3f	0.046491858
141	0x3de57737	0.11204379
142	0xbd73f920	-0.059563756
143	0xbdc882d7	-0.09790581
144	0x3d9b265e	0.07575677
145	0xbd7fe9c6	-0.062478803
146	0xbdf3600f	-0.11883556
147	0xbdb73628	-0.08945876
148	0xbdaab751	-0.08335746
149	0x3e35507c	0.17706484
150	0x3cdcc45f	0.026949106
151	0x3d89eb49	0.0673433
152	0x3c596db5	0.013270785
153	0xbdf80429	-0.121101685
154	0x3dfe6536	0.12421648
155	0xbce96e15	-0.028494874
156	0xbd29bd3c	-0.041440234
157	0x3e11b617	0.14229618
158	0xbda85e9f	-0.082211725
159	0x3cd5ddee	0.0261068
160	0xbe20c344	-0.15699488
161	0x3dcf9ceb	0.101373516
162	0x3d9ffd99	0.07812042
163	0xbe12aa2c	-0.14322728
164	0x3da3984a	0.07988031
165	0x3cb6881a	0.022281695
166	0xbdb6c3e9	-0.08924086
167	0x3e1c7ecb	0.15282743
168	0x3d9de89c	0.07710382
169	0x3dafe525	0.08588628
170	0xbd812227	-0.06305342
171	0xbde15b24	-0.11003712
172	0xbdbc0283	-0.091801666
173	0x3d68b9a9	0.056817684
174	0x3d35a44d	0.044346143
175	0xbdd97450	-0.10617888
176	0x3e190a5b	0.14945357
177	0x3dc81923	0.097704194
178	0xbd840903	-0.06447031
179	0x3dc28ba5	0.09499291
180	0xbd980052	-0.07421936
181	0x3d88cfbf	0.066802494
182	0x3e17c97b	0.14822952
183	0xbe1c7ac9	-0.15281214
184	0xbdac4c1d	-0.08412955
185	0xbc2471b9	-0.010036879
186	0x3cbad2ae	0.022805538
187	0xbe1c5ccd	-0.15269776
188	0xbdf8be05	-0.12145618
189	0xbc78a763	-0.015176627
190	0xbd0c755c	-0.03429161
191	0x3d2ea23b	0.042635184
192	0xbb813b15	-0.0039438107
193	0x3d2edc5c	0.04269062
194	0x3ce7a2ce	0.028275874
195	0x3c06c436	0.008225491
196	0x3c86cce1	0.016455116
197	0x3d4fb0a4	0.050705567
198	0x3e003443	0.12519936
199	0xbdcd28e7	-0.10017567
200	0xbdc555c3	-0.096354984
201	0x3e001d80	0.12511253
202	0xbe0c3cfc	-0.13695139
203	0x3de49f37	0.1116318
204	0x3da7e00b	0.0819703
205	0x3c5a9ae8	0.013342597
206	0xbdce8ba2	-0.100852266
207	0x3b3600a1	0.002777137
208	0xbe27014e	-0.16309091
209	0xbe36f0b9	-0.17865266
210	0x3e20b282	0.15693095
211	0xbe2c2f2c	-0.1681487
212	0xbe208407	-0.15675364
213	0xbd41d7eb	-0.047325056
214	0x3c90b6a8	0.017665222
215	0x3d342814	0.043983534
216	0xbdb3f92f	-0.087877624
217	0xbc64f07a	-0.01397335
218	0x3bb9f17f	0.0056745405
219	0x3e130630	0.14357829
220	0x3dfaf21d	0.12253211
221	0x3d7c090b	0.06153206
222	0x3d326a02	0.04355813
223	0x3e15b498	0.14619672
224	0xbe0b5063	-0.13604884
225	0x3d9558da	0.07292338
226	0xbe064e66	-0.13115844
227	0x3e0dda2b	0.13852756
228	0xbe201a75	-0.15635093
229	0x3d75494b	0.05988435
230	0xbe18c30e	-0.14918157
231	0x3dd49753	0.10380425
232	0x3cf77ab3	0.030209875
233	0x3e24713d	0.16058822
234	0xbe0b9e4c	-0.13634604
235	0x3dd3190e	0.10307513
236	0xbdf74a38	-0.12074703
237	0xbdd0409c	-0.10168573
238	0x3d8b65dc	0.068065375
239	0xbd154a18	-0.036447614
240	0xbdf46eca	-0.11935194
241	0xbdf9d9c9	-0.12199742
242	0xbd44d4a1	-0.04805434
243	0x3d3f0f2a	0.04664532
244	0x3e1d92ba	0.15388003
245	0x3de3cf81	0.111235626
246	0x3b7b63f4	0.0038359137
247	0xbde94e54	-0.11391893
248	0xbe283550	-0.16426587
249	0x3e1fd0b2	0.15606955
250	0xbd83c518	-0.06434077
251	0xbcd45c9e	-0.02592307
252	0xbe0dd09f	-0.13849114
253	0xbdf798b6	-0.12089674
254	0x3d0170b9	0.03160164
255	0xbd329551	-0.04359943

rowAttentions.0.v_net.bias f4 [32]
0	0xbe053c26	-0.13011226
1	0x3e05fc30	0.13084483
2	0x3cc59a77	0.024121506
3	0xbbc2fd6f	-0.005950622
4	0xbe2b9325	-0.1675535
5	0x3e18b4ae	0.14912674
6	0xbde11406	-0.10990147
7	0x3db5d2e0	0.08878112
8	0xbc9f4bf7	-0.019445403
9	0x3b9de8fa	0.0048190327
10	0x3daef4cc	0.08542785
11	0xbd53935e	-0.051654212
12	0xbd455359	-0.04817519
13	0x3e107a59	0.14109172
14	0xbe109349	-0.14118685
15	0x3da21c74	0.07915583
16	0xbd66dd66	-0.056363486
17	0xbd6976aa	-0.056997932
18	0x3de3ae9a	0.11117287
19	0x3d00f51b	0.03148375
20	0xbe1b20b5	-0.15149195
21	0x3e253928	0.16135085
22	0xbdb7eec9	-0.089810915
23	0x3e23e18c	0.16004008
24	0xbd790eec	-0.060805246
25	0x3e37cb3a	0.17948619
26	0x3d68e1a3	0.05685581
27	0xbc05146a	-0.008122543
28	0x3d894f59	0.067045875
29	0x3aeb9df2	0.0017976149
30	0xbdb32ac4	-0.08748391
31	0x3dca308d	0.098725416

rowAttentions.0.proj_net.weight f4 [32, 32]
0	0x3dedce03	0.11611559
1	0xbcf72902	-0.030170921
2	0x3e3c822c	0.18409032
3	0x3c8dda49	0.017316
4	0xbdbf76ca	-0.09348829
5	0xbdc79fd2	-0.0974728
6	0x3de8b7cb	0.11363181
7	0xbda7b681	-0.08189107
8	0x3e10c213	0.14136533
9	0xbe2f9644	-0.17147166
10	0x3c67220d	0.014107239
11	0xbe015de1	-0.12633468
12	0x3d637bca	0.055537976
13	0x3e24a7af	0.16079591
14	0x3d6b75ee	0.057485513
15	0xbd3239a8	-0.043512017
16	0xbe33ebf7	-0.17570482
17	0xbdb0af75	-0.08627216
18	0xbdd46a07	-0.103717856
19	0x3e5dd65a	0.216638
20	0xbdde3a12	-0.1085092
21	0x3d80fda1	0.06298376
22	0x3e12405a	0.1428236
23	0x3d89dd93	0.06731715
24	0xbe220306	-0.15821466
25	0xbc412912	-0.011789577
26	0xbd34c2cd	-0.04413109
27	0x3debf847	0.115219645
28	0xbbdaf4a7	-0.006681997
29	0xbc41683d	-0.0118046375
30	0x3e1b5cca	0.15172115
31	0x3d3b1ac2	0.045679815
32	0x3d7c6527	0.061619904
33	0xbd07db1e	-0.03316795
34	0x3df47b1b	0.11937543
35	0x3d093a4b	0.033502858
36	0xbd3f1fd2	-0.046661206
37	0x3cb55445	0.02213491
38	0xbe0aa214	-0.1353839
39	0xbab663f4	-0.0013915286
40	0x3dce28da	0.100663856
41	0xbe378918	-0.17923391
42	0xbdb04169	-0.08606226
43	0x3dc2d414	0.09513107
44	0x3c898756	0.016788166
45	0x3b9f669e	0.004864528
46	0x3d024451	0.031803433
47	0xbdb1eabc	-0.0868735
48	0x3e1ddd33	0.15416412
49	0xbd05106b	-0.03248636
50	0xbd158f2a	-0.036513485
51	0x3de9c21d	0.11413977
52	0xbe11a8a3	-0.14224486
53	0xbca9b3a9	-0.020715551
54	0x3c2eaa4d	0.01066072
55	0xbd53a930	-0.05167502
56	0x3dd46bc3	0.103721164
57	0xbe1801f1	-0.1484449
58	0xbd3e4054	-0.046448067
59	0xbdb88c7e	-0.09011172
60	0x3e1ea162	0.1549125
61	0x3d853921	0.06505037
62	0xbe053c41	-0.13011266
63	0x3d6820b7	0.056671824
64	0xbc5a2965	-0.013315533
65	0x3e28e635	0.16494067
66	0x3dcd67dc	0.10029575
67	0xbdc4d2a5	-0.0961049
68	0x3e1cd2e2	0.1531482
69	0xbd4842b8	-0.048891753
70	0xbd464dd1	-0.048414055
71	0x3d3dc503	0.046330463
72	0x3e498afd	0.19681926
73	0x3cdda38f	0.02705553
74	0xbe2def3b	-0.1698579
75	0xbd5000b7	-0.05078193
76	0x3e1ef421	0.15522815
77	0xbd930ea5	-0.071805276
78	0xbda3a988	-0.0799132
79	0xbe15fc73	-0.14647083
80	0xbde38f4c	-0.11111316
81	0xbdb9b70e	-0.09068118
82	0x3d3e6f00	0.046492577
83	0x3db4fd72	0.08837403
84	0x3e1df284	0.15424544
85	0x3e08b4e1	0.1335025
86	0x3be56606	0.0070006875
87	0x3db3f9b1	0.08787859
88	0x3dbb3cc6	0.09142451
89	0xbe1a07ac	-0.15041989
90	0x3dc08e16	0.09402101
91	0xbde561e0	-0.11200309
92	0x3e1c53e1	0.15266372
93	0xbda13a08	-0.07872397
94	0x3d0a0d05	0.033703823
95	0xbb8117f5	-0.0039396235
96	0x3da58005	0.080810584
97	0x3cf951e4	0.030434556
98	0xbdf315fd	-0.11869428
99	0x3d901c79	0.07036681
100	0x3dd028d6	0.10164039
101	0xbdc918c2	-0.09819175
102	0xbde85a3d	-0.113453366
103	0xbe0130fc	-0.12616342
104	0xbd813039	-0.06308026
105	0xbd747eea	-0.059691347
106	0x3cddd17f	0.027077435
107	0xbba347f9	-0.004982945
108	0xbd557586	-0.052114032
109	0x3dd49616	0.10380189
110	0x3b305ed0	0.0026911981
111	0xbdd85ed7	-0.10564964
112	0xbd24ae02	-0.04020501
113	0xbdcef22e	-0.10104786
114	0xbd7753a4	-0.0603825
115	0xbe25e8f6	-0.16202149
116	0x3cd53d88	0.026030317
117	0xbdf9ca92	-0.1219684
118	0x3d8b0a60	0.06789088
119	0x3e088ca6	0.13334903
120	0xbe0e3a81	-0.13889505
121	0xbdbcbcbf	-0.09215688
122	0xbe0a68c8	-0.13516533
123	0x3d40c635	0.047064025
124	0x3d141b45	0.03615882
125	0xbda6c868	-0.08143693
126	0x3dd1088f	0.102067105
127	0x3d8cb239	0.06869931
128	0xbe3b8cb1	-0.18315388
129	0xbaf246f0	-0.0018484276
130	0xbd98e4d9	-0.07465524
131	0xbca19d18	-0.019728228
132	0x3dc44ef0	0.09585369
133	0xbd0c8c36	-0.034313403
134	0xbdd8e86b	-0.10591205
135	0x3e0103cf	0.12599109
136	0xbe12cce4	-0.14335972
137	0xbdaeed88	-0.08541399
138	0x3db45385	0.088049926
139	0x3dfdf862	0.12400891
140	0x3e31fa01	0.17380525
141	0xbd15eb3f	-0.0366013
142	0x3d69012c	0.056885883
143	0xbe27b53c	-0.16377729
144	0xbd3d6d7d	-0.046246994
145	0xbd8fc26b	-0.07019504
146	0x3d894fb4	0.06704655
147	0xbde0c64a	-0.10975321
148	0x3cfa23be	0.030534621
149	0x3dadf641	0.08494235
150	0x3e0777d0	0.13229299
151	0xbcbb880c	-0.02289202
152	0x3e2e5eb1	0.1702831
153	0xbe29d9bd	-0.16586967
154	0xbd24c93e	-0.040230982
155	0x3d86f072	0.0658883
156	0x3d0d1fad	0.034454037
157	0x3da18f0f	0.078886144
158	0xbe020981	-0.12698938
159	0x3dc28b89	0.094992705
160	0xbe2981e7	-0.1655346
161	0xbdf1af6a	-0.11801036
162	0xbcec20e6	-0.028824281
163	0xbe2d3f43	-0.16918664
164	0xbe297058	-0.16546762
165	0xbe210553	-0.15724687
166	0x3e13c29b	0.14429705
167	0x3d5beb2a	0.053691067
168	0xbd991c5e	-0.07476114
169	0x3ccdae2b	0.025107464
170	0xbe2cbf79	-0.16869916
171	0xbe268e94	-0.16265327
172	0xbdeff280	-0.11716175
173	0xbe34a2fe	-0.17640302
174	0x3e0de38a	0.1385633
175	0xbd68026f	-0.056642946
176	0xbd30e297	-0.043184843
177	0xbe2028c9	-0.15640558
178	0x3c9fa775	0.01948903
179	0xbd0c2913	-0.03421886
180	0xbdd64c5b	-0.104637824
181	0x3df32e4b	0.11874064
182	0x3e13577c	0.14388841
183	0xbe09500c	-0.13409442
184	0x3dcb9058	0.09939641
185	0xbd1f144b	-0.038837712
186	0xbc13db66	-0.009024477
187	0x3d9e5371	0.07730759
188	0xbd149d99	-0.03628311
189	0x3e11a3d7	0.14222656
190	0x3dfc629f	0.12323498
191	0xbde58847	-0.112076335
192	0xbe066054	-0.13122684
193	0xbe2bfa51	-0.16794707
194	0x3d82e243	0.06390812
195	0xbdf061ba	-0.1173739
196	0xbe1b5c17	-0.15171848
197	0xbdf9ce01	-0.12197495
198	0xbe47dd21	-0.19517948
199	0xbe177548	-0.14790833
200	0x3e307d81	0.17235376
201	0x3dcdfef3	0.10058393
202	0x3e252172	0.1612604
203	0xbdbd6cc6	-0.092492625
204	0xbd978776	-0.07398884
205	0xbd79c865	-0.060982127
206	0x3a878913	0.0010340534
207	0xbe04ed0d	-0.12981053
208	0x3cdf99ef	0.027295081
209	0xbdf9a235	-0.12189142
210	0x3d9ac34f	0.075567834
211	0x3e50f288	0.20405018
212	0x3cef810b	0.029236337
213	0x3e168527	0.14699231
214	0xbe0cc15b	-0.13745634
215	0xbd0ef5c4	-0.03490235
216	0xbdedbee0	-0.11608672
217	0xbc45eab9	-0.012079888
218	0xbd930a9d	-0.07179759
219	0xbdf807ea	-0.121108845
220	0xbe290fc2	-0.16509917
221	0xbda3ce37	-0.07998317
222	0x3ce5ffbc	0.028076045
223	0xbd100676	-0.03516241
224	0xbe2e3c03	-0.1701508
225	0x3e095242	0.13410285
226	0x3e079925	0.13242014
227	0xbdd1b1ae	-0.10238968
228	0x3ca836f6	0.02053402
229	0x3df27ddd	0.11840413
230	0xbe2c67e8	-0.16836512
231	0xbe28a0b2	-0.1646755
232	0x3dc4f196	0.09616391
233	0xbcac4f1a	-0.021033812
234	0x3d8f80dc	0.07007
235	0xbdb0d495	-0.08634297
236	0x3d165971	0.03670639
237	0x3e0526e0	0.13003111
238	0xbd4a59d0	-0.049402058
239	0xbd83636e	-0.06415449
240	0xbe2b983e	-0.16757295
241	0xbd12d7e3	-0.035850417
242	0x3df77880	0.120835304
243	0xbe225269	-0.1585175
244	0xbc98e15c	-0.018662147
245	0x3e012701	0.12612535
246	0xbd54de6b	-0.051969927
247	0xbd7f5440	-0.062336206
248	0xbd4b7f67	-0.049682047
249	0xbd863316	-0.065527126
250	0x3cc8a6b4	0.024493553
251	0xbe2d5acf	-0.16929172
252	0x3d880ce3	0.06643083
253	0xbd3f1bf9	-0.046657536
254	0xbd117bf1	-0.03551859
255	0xbc89267a	-0.01674198

rowAttentions.0.proj_net.bias f4 [32]
0	0x3e042b72	0.12907198
1	0x3e1f34ad	0.15547438
2	0x3db00d04	0.085962325
3	0xbdf297f7	-0.11845391
4	0xbd2d8818	-0.042366117
5	0x3e071ea6	0.13195285
6	0x3df226cb	0.118238054
7	0xbd76fd84	-0.060300365
8	0x3dfac0d1	0.12243808
9	0xbdd78f8e	-0.10525428
10	0x3d39d551	0.04536945
11	0x3e0fcfc3	0.14044099
12	0x3d3ca75d	0.046058048
13	0xbe0830e5	-0.13299902
14	0x3d4d8f6c	0.050185606
15	0x3dc0fd74	0.09423342
16	0x3de0238a	0.109442785
17	0xbddf9981	-0.109179504
18	0xbcf9cfb6	-0.030494552
19	0xbad0b2f4	-0.0015922473
20	0xbccb5b41	-0.024823787
21	0xbd2b8ba0	-0.041881204
22	0xbd8efdd9	-0.06982011
23	0x3d8bca44	0.068256885
24	0x3db9956d	0.09061704
25	0xbd0eee19	-0.034895036
26	0x3e0af432	0.13569716
27	0xbbf3643c	-0.0074277204
28	0x3d2584dc	0.040409908
29	0x3d3cf2a3	0.046129834
30	0xbd86be54	-0.06579271
31	0xbb2e85ed	-0.002663012

rowAttentions.1.q_net.weight f4 [32, 32]
0	0x3e08d526	0.1336256
1	0xbc4f812c	-0.012665074
2	0x3dfc3192	0.12314142
3	0x3dd606b6	0.10450499
4	0xbd02f650	-0.031973183
5	0xbd98e0f7	-0.07464784
6	0xbdc0cf76	-0.0941457
7	0xbe0fc001	-0.14038087
8	0xbddc7e1e	-0.107662424
9	0x3d43d758	0.04781279
10	0x3d8485a1	0.064708
11	0xbd811fee	-0.06304918
12	0xbc668f42	-0.014072241
13	0x3df08666	0.117443845
14	0x3cd778eb	0.026302775
15	0xbe00627b	-0.12537567
16	0x3e1aafe9	0.15106167
17	0x3dd85d25	0.10564641
18	0x3cd7368e	0.02627113
19	0x3dad77c8	0.08470112
20	0xbe17a328	-0.14808333
21	0x3dd9483f	0.10609483
22	0x3d3ab470	0.045582235
23	0xbc8bc103	-0.017059809
24	0xbd673b7f	-0.056453224
25	0x3e15352b	0.14571063
26	0x3d21257a	0.03934238
27	0xbdc6af62	-0.0970142
28	0x3da04476	0.07825558
29	0x3d07f258	0.0331901
30	0xbd78435b	-0.06061111
31	0x3df87f60	0.1213367
32	0x3e3a9b66	0.18223342
33	0xbc48a1cd	-0.012245608
34	0xbd87fc0b	-0.0663987
35	0xbdc07d75	-0.09398929
36	0xbdd92afa	-0.106039
37	0x3dbda4ce	0.092599496
38	0x3dde660f	0.1085931
39	0xbdcef8a4	-0.10106018
40	0x3dbce65b	0.09223624
41	0x3bd00ab7	0.0063489336
42	0x3a0e6b40	0.00054328516
43	0xbdb80605	-0.08985523
44	0xbe26eda1	-0.16301586
45	0xbe435943	-0.1907702
46	0x3e068311	0.13135935
47	0xbd0e5b29	-0.034754906
48	0xbc7d034c	-0.015442681
49	0xbdd6a354	-0.10480371
50	0xbc95b8dc	-0.018276624
51	0xbd90d644	-0.07072118
52	0x3c61f202	0.013790609
53	0xbe23e9d0	-0.16007161
54	0x3d2f0ec5	0.042738695
55	0xbe23f24c	-0.16010398
56	0xbdf29e65	-0.118466176
57	0x3b4c3b7e	0.003116339
58	0xbc896741	-0.016772868
59	0xbd19449d	-0.03741895
60	0x3dcb8943	0.0993829
61	0x3ca4ea67	0.020131303
62	0x3d477cad	0.048702884
63	0x3d7abe42	0.0612166
64	0x3bb90232	0.0056460137
65	0xbe1f379b	-0.15548556
66	0xbd8d5d91	-0.06902612
67	0x3de146a6	0.10999803
68	0x3dd2be7c	0.10290238
69	0x3d770797	0.060309973
70	0x3e1e87b0	0.15481448
71	0xbdb7b120	-0.08969331
72	0xbd7c975a	-0.061667778
73	0xbc0d4853	-0.0086232005
74	0xbd3e42e6	-0.046450518
75	0x3e33b947	0.17551146
76	0xbe392a89	-0.18082632
77	0x3d6cdad0	0.057825863
78	0x3e2bd7d3	0.16781549
79	0xbdd7bfc4	-0.10534623
80	0x3df63e81	0.120236404
81	0xbe1a607b	-0.15075867
82	0x3caeba91	0.021329196
83	0xbdd0fb58	-0.1020419
84	0x3d5c21ff	0.05374336
85	0x3d3e34b4	0.04643698
86	0x3d7de3d3	0.06198485
87	0xbd56fbc4	-0.052486196
88	0xbd386926	-0.045022152
89	0xbe2e8541	-0.1704302
90	0x3b682e02	0.0035427813
91	0x3e36b4f2	0.17842463
92	0xbdeaffbb	-0.11474558
93	0xbd956813	-0.07295241
94	0x3d450839	0.048103545
95	0x3d8cebc3	0.068809055
96	0x3d4105a2	0.047124512
97	0x3df2c26c	0.11853489
98	0x3c64ff04	0.013976816
99	0xbd58d241	-0.05293489
100	0xbe0cf5c9	-0.13765635
101	0xbe2f36f1	-0.17110802
102	0xbe1636c0	-0.14669323
103	0x3db96b29	0.09053642
104	0x3e1f1811	0.15536524
105	0x3e32d0be	0.17462441
106	0x3e0669fe	0.1312637
107	0x3ce04121	0.027374806
108	0x3de86b65	0.11348609
109	0x3da0d8df	0.07853865
110	0xbdf462c7	-0.11932903
111	0xbd016316	-0.031588636
112	0xbe2cccfb	-0.16875069
113	0x3e140cc0	0.14457989
114	0x3cfb4e04	0.03067685
115	0x3e221683	0.158289
116	0xbcd65d04	-0.0261674
117	0x3e153d36	0.14574131
118	0x3dcf438c	0.101203054
119	0xbcfefd84	-0.031126745
120	0x3b9e0f0d	0.0048235715
121	0x3dffaed8	0.12484521
122	0xbd2bb620	-0.041921735
123	0x3e187beb	0.14891021
124	0x3d535564	0.051595107
125	0xbd939fec	-0.07208237
126	0xbd95c97e	-0.07313822
127	0xbdb2406c	-0.08703694
128	0x3def5544	0.11686185
129	0x3e06c4ef	0.13161062
130	0xbda0ac7d	-0.078453995
131	0xbe218851	-0.15774657
132	0x3db35f8b	0.08758458
133	0xbd2de323	-0.042452943
134	0xbe1c0dfc	-0.1523971
135	0x3d1858e5	0.03719415
136	0xbc9b38ea	-0.018948037
137	0x3e018969	0.12650074
138	0x3d26c116	0.040711485
139	0xbdf1338a	-0.117774084
140	0xbcf394f6	-0.029734116
141	0xbe1433c0	-0.14472866
142	0x3dae9e5b	0.08526298
143	0x3d4e1ebb	0.050322276
144	0x3def6e04	0.11690906
145	0xbe022bbb	-0.12711994
146	0xbdbdc10c	-0.092653364
147	0xbddf95d5	-0.1091725
148	0xbe152c68	-0.14567721
149	0xbe260d2c	-0.16215962
150	0xbe0a22e6	-0.13489875
151	0x3e021c54	0.12706119
152	0xbd56aa4e	-0.05240851
153	0xbd0ca0b9	-0.034332965
154	0x3d7b4910	0.061348975
155	0x3d10f3d4	0.035388783
156	0x3d8f368b	0.06992825
157	0xbdfd733f	-0.12375497
158	0x3e1e6e9b	0.1547188
159	0xbc986bd0	-0.018606097
160	0xbd9da548	-0.076975405
161	0x3de68cb6	0.11257307
162	0xbe146e74	-0.1449526
163	0xbdd337ac	-0.10313353
164	0x3dbdffff	0.09277343
165	0x3d81d9d1	0.06340373
166	0xbd85f027	-0.06539946
167	0xbc747d51	-0.014922456
168	0xbd013303	-0.03154279
169	0x3d826fc5	0.063689746
170	0x3d117b4f	0.035517987
171	0x3d8b552b	0.06803354
172	0x3e15eece	0.14641878
173	0xbe07688f	-0.1322348
174	0xbe074248	-0.13208878
175	0xbd2242f7	-0.039614644
176	0xbd914c11	-0.07094587
177	0xbdfa2e36	-0.12215845
178	0x3e289fbe	0.16467187
179	0x3e165eca	0.14684597
180	0x3e10b1bf	0.14130305
181	0xbdda675e	-0.10664247
182	0xbcab1b97	-0.02088718
183	0xbe069eea	-0.13146558
184	0xbd841263	-0.064488195
185	0x3e113ce4	0.14183384
186	0x3d1bb5cd	0.038015176
187	0x3d48c34a	0.049014367
188	0xbe3c402b	-0.18383853
189	0x3d93c7c6	0.07215838
190	0x3df30f92	0.11868204
191	0xbd8c8ec1	-0.06863166
192	0x3e08b2fe	0.1334953
193	0x3da12818	0.078689754
194	0xbe052401	-0.13002016
195	0xbe05305c	-0.13006729
196	0xb98e91db	-0.0002719302
197	0xbe302605	-0.17202003
198	0xbdfd55e9	-0.12369902
199	0x3d8a9ac5	0.06767801
200	0xbd754f93	-0.05989034
201	0x3a6ed351	0.0009110468
202	0xbd948371	-0.07251633
203	0x3dd2eb0d	0.10298739
204	0x3e149b30	0.14512324
205	0x3dfec7a3	0.124404214
206	0xbe1fff1d	-0.15624662
207	0xbd55060f	-0.05200773
208	0x3da900d1	0.08252109
209	0x3dd5ca31	0.104389556
210	0xbd1f8eab	-0.03895442
211	0x3dcbd7eb	0.099532925
212	0xbb8085f3	-0.003922218
213	0x3c9e2d27	0.01930864
214	0x3dfcd2fc	0.123449296
215	0x3df6b1ef	0.12045657
216	0xbdfea3ac	-0.12433562
217	0xbddd5a65	-0.10808257
218	0x3d917f25	0.07104329
219	0x3dd7704b	0.10519465
220	0xbd2fe8bb	-0.04294656
221	0x3e2033f0	0.15644813
222	0xbc967fef	-0.01837155
223	0xbdb50c5c	-0.08840248
224	0xbcade11e	-0.021225508
225	0xbe199c6f	-0.15001081
226	0x3d6011a1	0.054704312
227	0xbe236c2b	-0.15959232
228	0x3e299eeb	0.16564529
229	0xbe0d2699	-0.13784255
230	0x3de70bfe	0.11281584
231	0xbe0b45ca	-0.13600841
232	0xbcd99476	-0.02656005
233	0xbdb7b0d0	-0.08969271
234	0x3db44f6f	0.08804213
235	0x3dc4f3f3	0.09616842
236	0xbe298705	-0.16555412
237	0xbe1cdd9a	-0.1531891
238	0x3cbf96fd	0.023387427
239	0xbb80d6a0	-0.0039318353
240	0xbb3fe38d	-0.0029279918
241	0x3d60171b	0.054709535
242	0xbd14c73d	-0.03632282
243	0x3e1dde2d	0.15416785
244	0x3c66e4fb	0.014092679
245	0xbda7f6a8	-0.08201343
246	0x3d87ac2d	0.06624637
247	0xbe0c70d4	-0.13714916
248	0xbdb319bf	-0.08745145
249	0x3d4b9318	0.049700826
250	0xbd767296	-0.06016787
251	0xbe3158b5	-0.17318995
252	0x3dafaee6	0.08578281
253	0x3d319792	0.04335744
254	0x3d5b125c	0.053484306
255	0x3d816c83	0.06319525

rowAttentions.1.q_net.bias f4 [32]
0	0x3e15e163	0.1463676
1	0xbdd813ef	-0.10550677
2	0xbdaa5a70	-0.08318031
3	0x3e0586cd	0.13039704
4	0xbccfe8d1	-0.02537957
5	0xbe02bf78	-0.12768352
6	0xbdb1da8a	-0.08684261
7	0x3dfc82c2	0.123296276
8	0xbdcb938f	-0.09940254
9	0x3d8370ce	0.06418
10	0xbe23ab34	-0.15983278
11	0x3de3809f	0.11108517
12	0x3d5ae192	0.053437777
13	0x3df0a964	0.11751059
14	0x3c4266ce	0.011865331
15	0x3dc64a97	0.09682196
16	0x3e176b8b	0.14787118
17	0xbccb80f9	-0.024841772
18	0xbe0963a5	-0.13416918
19	0xbe061ddc	-0.13097328
20	0x3dd59675	0.10429088
21	0xbde3e4e6	-0.11127643
22	0xbe1b9ebf	-0.15197276
23	0xbe1d0901	-0.15335466
24	0xbda54c93	-0.08071246
25	0x3cb8d3f9	0.022562014
26	0xbe2abeb4	-0.1667431
27	0xbdaf5996	-0.08562009
28	0x3e28a59d	0.16469426
29	0xbcfe732b	-0.031060776
30	0xbd793fe6	-0.060851954
31	0x3daf5acb	0.08562239

rowAttentions.1.k_net.weight f4 [32, 32]
0	0xbe118252	-0.1420987
1	0xbe0c1105	-0.13678367
2	0x3ccdb4b4	0.02511058
3	0x3d6dceab	0.058058422
4	0xbe343afb	-0.17600624
5	0x3e1f1230	0.15534282
6	0xbd8b79eb	-0.068103634
7	0x3cda6f1b	0.026664307
8	0x3e00b0de	0.1256747
9	0x3d8c5862	0.06852795
10	0x3d6459ff	0.05574989
11	0xbe2881c8	-0.16455758
12	0xbe29dc93	-0.16588049
13	0x3d88f4a0	0.066872835
14	0x3b842410	0.0040326193
15	0x3ddfb0de	0.109224066
16	0x3db5e513	0.08881583
17	0xbe1248ad	-0.14285536
18	0x3d0dee83	0.03465129
19	0xbe0e5d07	-0.13902675
20	0xbdc7d74b	-0.09757861
21	0x3d4fcc2e	0.05073183
22	0xbc9267bb	-0.017871728
23	0xbde78397	-0.11304396
24	0x3d72ef1c	0.059310064
25	0x3e005d8e	0.12535688
26	0xbe31576e	-0.17318508
27	0x3e2b2b11	0.16715647
28	0x3dc851df	0.09781241
29	0xbc66be28	-0.014083423
30	0xbe330d27	-0.17485486
31	0xbd99ca91	-0.075093396
32	0x3d51b6f9	0.051199887
33	0xbd9c7e9e	-0.07641338
34	0xbd6daae8	-0.058024317
35	0xbd98edc0	-0.07467222
36	0x3e1cfa56	0.1532987
37	0x3e191c97	0.14952312
38	0xbe0dc9c5	-0.138465
39	0xbd5dc15a	-0.054139473
40	0x3e23c4b8	0.15993011
41	0xbc2d459c	-0.010575678
42	0xbdb1e10f	-0.08685505
43	0x3cbe09d9	0.023198055
44	0x3e100e40	0.14067936
45	0xbcc0269c	-0.02345591
46	0xbe28babd	-0.16477485
47	0xbd741e4b	-0.059599202
48	0x3db2da57	0.08733051
49	0xbcce8cca	-0.025213618
50	0x3dfc4492	0.12317766
51	0x3d7ab758	0.061210006
52	0x3ad7c77c	0.0016462649
53	0x3d8696ad	0.06571708
54	0xbc8a1761	-0.016856851
55	0xbe1b39ad	-0.1515872
56	0xbe1a97e4	-0.15097004
57	0xbe10a87b	-0.1412677
58	0xbcea8478	-0.02862762
59	0xbe03d57c	-0.12874407
60	0x3cd4fee5	0.02600045
61	0x3ca0c7fc	0.01962661
62	0x3e0ca6fc	0.13735574
63	0x3c26fab9	0.010191613
64	0x3cf1d6b5	0.029521326
65	0x3d793b61	0.060847644
66	0xbd46c3da	-0.048526622
67	0xbdb4fec5	-0.08837656
68	0xbe2f9c5c	-0.1714949
69	0xbe33210f	-0.1749308
70	0x3c71e414	0.014763851
71	0xbdaa5129	-0.08316261
72	0x3d31be5d	0.043394435
73	0x3d470591	0.048589293
74	0x3e0c443d	0.13697906
75	0xbcf03bf1	-0.029325457
76	0x3acc035b	0.0015564965
77	0x3e04a7d2	0.12954643
78	0x3cfc8f13	0.030829942
79	0x3da010f8	0.078157365
80	0xbdc8cdac	-0.09804854
81	0xbe009fe6	-0.12560996
82	0x3e069d3d	0.13145919
83	0x3e01c5fc	0.12673181
84	0xbd87b88f	-0.06626999
85	0x3d03722c	0.032091305
86	0xbe15c906	-0.14627466
87	0x3c3139a3	0.010816964
88	0xbe261409	-0.1621858
89	0x3dcbd2ec	0.099523395
90	0xbe3656f6	-0.1780661
91	0xbd35bfe5	-0.044372458
92	0x3e2cb692	0.1686652
93	0xbd7927a9	-0.06082884
94	0xbdca376b	-0.098738514
95	0x3e1d6bca	0.1537315
96	0xbdb6571b	-0.08903333
97	0x3d26f982	0.040765293
98	0x3dc78085	0.0974131
99	0x3d43ac8a	0.047771968
100	0xbdeff641	-0.11716891
101	0x3e274e1d	0.16338392
102	0x3da73439	0.081642576
103	0xbde4299a	-0.11140747
104	0xbdc35167	-0.09537011
105	0xbd3923f9	-0.04520032
106	0x3d76cfad	0.06025665
107	0x3d960c75	0.07326595
108	0x3ca9d534	0.020731546
109	0x3ddb699e	0.10713504
110	0x3e33672e	0.17519829
111	0x3d2017d8	0.03908524
112	0x3d934a0a	0.07191856
113	0x3dc98b91	0.09841073
114	0x3d1f8797	0.038947668
115	0x3c27f64e	0.010251595
116	0x3e22653f	0.15858935
117	0x3df46896	0.11934011
118	0x3dd7bd4a	0.10534151
119	0xbd8962d5	-0.06708304
120	0xbdb0ce2d	-0.08633075
121	0xbdc327a8	-0.09529048
122	0xbe153e45	-0.14574535
123	0xbc85382f	-0.016262142
124	0x3dc38699	0.09547157
125	0x3cde2a94	0.027119912
126	0xbd87e10f	-0.066347234
127	0xbc995155	-0.01871554
128	0xbe05e2f3	-0.13074856
129	0xbde83709	-0.11338622
130	0x3c87e6a1	0.016589465
131	0xbdd45fb6	-0.10369818
132	0x3c8f6551	0.017504366
133	0x3e1405e4	0.14455372
134	0x3d3f704b	0.04673795
135	0x3e09189d	0.13388295
136	0xbde52b80	-0.111899376
137	0x3aed07f6	0.0018084038
138	0xbe306f28	-0.17229903
139	0xbb04d0b9	-0.002026601
140	0xbe056d29	-0.13029923
141	0x3e21cbcd	0.158004
142	0xbe19beb4	-0.15014154
143	0x3d7579f0	0.05993074
144	0xbdd4309e	-0.103608355
145	0x3d57633a	0.052584864
146	0xba463734	-0.00075613265
147	0xbcc61dbb	-0.024184098
148	0xbd90d341	-0.070715435
149	0x3de82bc4	0.11336473
150	0xbcf450ab	-0.029823622
151	0x3c8d039a	0.017213631
152	0xbd51aa7a	-0.05118797
153	0xbe0525e9	-0.13002743
154	0xbd86bf0a	-0.065794066
155	0x3e205f7f	0.15661429
156	0x3e2a0a36	0.16605458
157	0xbda59577	-0.08085149
158	0x3c8fbe00	0.017546654
159	0x3ceeb006	0.029136669
160	0x3e1cc971	0.15311219
161	0x3cccb6f0	0.024989575
162	0x3beddbc9	0.0072588664
163	0xbd512d7d	-0.05106877
164	0x3d27e2dc	0.040987834
165	0xbe337acd	-0.17527314
166	0xbe366f1f	-0.17815827
167	0xbca1f5cc	-0.019770525
168	0xbdfb33de	-0.12265752
169	0xbdf94623	-0.12171581
170	0xbd00710a	-0.031357802
171	0x3dd0fcc6	0.10204463
172	0x3db23509	0.08701522
173	0xbd61ce75	-0.055128533
174	0xbc58d361	-0.01323399
175	0x3e2927cb	0.16519086
176	0x3d0f95ce	0.035054974
177	0x3df1bff7	0.118041925
178	0xbd987fd9	-0.0744626
179	0xbe21054e	-0.1572468
180	0xbda63e80	-0.0811739
181	0x3c804e08	0.015662208
182	0xbd36600f	-0.044525202
183	0xbdc87469	-0.097878285
184	0x3e2d495a	0.16922513
185	0xbe26a9e9	-0.16275753
186	0x3a3c1fd4	0.00071763736
187	0x3d936acd	0.07198105
188	0xbd3c83a8	-0.046023995
189	0x3d9a9c4c	0.075493425
190	0x3a991ba0	0.0011681207
191	0xbdd6fa9a	-0.10497017
192	0xbdc2fa32	-0.09520377
193	0xbda10959	-0.07863111
194	0xbe315bde	-0.17320201
195	0x3de23416	0.11045091
196	0x3e25071e	0.16115996
197	0xbdb9a417	-0.09064501
198	0x3c040823	0.008058581
199	0x3d7149e2	0.05890835
200	0x3d4c7a83	0.049921524
201	0xbdcac543	-0.09900906
202	0xbddbab72	-0.1072606
203	0x3e30d46b	0.17268531
204	0x3dd207c5	0.10255388
205	0x3e29444c	0.1652996
206	0x3dfd4223	0.1236613
207	0xbc54c4c9	-0.01298637
208	0x3e013b72	0.12620333
209	0xbbc1eb91	-0.0059179743
210	0xb981ca37	-0.0002475546
211	0xbd9e752f	-0.07737195
212	0x3e0c5dea	0.137077
213	0xbd18de1e	-0.037321202
214	0x3cbd36af	0.023097364
215	0xbe100ee6	-0.14068183
216	0x3d766450	0.06015426
217	0xbdaa8e7c	-0.08327958
218	0xbd1f4348	-0.038882524
219	0xbc79812e	-0.015228553
220	0x3d866fe5	0.06564311
221	0x3bf7a422	0.007557408
222	0x3cf6da21	0.030133309
223	0xbde9ea21	-0.1142161
224	0xbe094731	-0.13406064
225	0x3d80d53d	0.06290672
226	0xbd94294b	-0.072344385
227	0xbe1c4bca	-0.15263286
228	0xbd94a615	-0.0725824
229	0xbe31ce93	-0.17363958
230	0x3d126564	0.035741225
231	0x3c589232	0.013218449
232	0x3e27244a	0.16322437
233	0xbdc5e1aa	-0.09662183
234	0xbdbb973e	-0.091597065
235	0x3d28d3fa	0.04121778
236	0xbd3d0c30	-0.0461542
237	0x3e0d5f38	0.13805854
238	0x3cdfb1bf	0.027306436
239	0xbb822d5c	-0.0039726924
240	0xbd8d9406	-0.06912999
241	0x3ddab08d	0.10678206
242	0xbdaaf38a	-0.08347233
243	0x3d930b09	0.07179839
244	0x3de9fe65	0.11425475
245	0xbe0e3d16	-0.1389049
246	0xbe1e7e43	-0.15477853
247	0xbdccb4a7	-0.09995394
248	0x3dae8845	0.08522085
249	0xbdc8e9db	-0.098102294
250	0x3c84b590	0.016199857
251	0x3cd70145	0.026245723
252	0x3d18732b	0.037219208
253	0xbdb91363	-0.09036901
254	0x3be12dd4	0.006871918
255	0x3df9eabc	0.12202975

rowAttentions.1.k_net.bias f4 [32]
0	0x3da2b3ed	0.07944474
1	0x3c62cdf3	0.013843047
2	0xbb9a1730	-0.004702471
3	0x3d4cbecf	0.049986657
4	0x3e292f7c	0.1652202
5	0xbc6b8b30	-0.014376447
6	0xbdad9dc8	-0.0847736
7	0xbe0371d5	-0.12836392
8	0x3e12f741	0.14352132
9	0xbe1d9577	-0.15389048
10	0x3db73ce2	0.08947159
11	0x3e1ab722	0.15108922
12	0x3dc80147	0.09765869
13	0xbbc6423b	-0.0060503758
14	0xbcb5d369	-0.022195535
15	0x3de34afb	0.11098286
16	0xbdc04059	-0.09387273
17	0x3d80474b	0.06263598
18	0xbd6076e7	-0.054800894
19	0x3dbd7fcb	0.0925289
20	0xbd1e7fdb	-0.03869615
21	0xbdf31117	-0.11868494
22	0xbd846451	-0.06464446
23	0x3dd00a9a	0.10158272
24	0x3d834be6	0.06410961
25	0xbdfedd08	-0.12444502
26	0xbde9be62	-0.11413266
27	0xbd18263d	-0.037145842
28	0xbc8dd8a2	-0.017315213
29	0xbd44166d	-0.04787295
30	0x3df25d8c	0.11834249
31	0x3c580929	0.013185778
