train/checkpoints/uduta8zd/ihi8n5kf.checkpoint.pt (torch, 692506 bytes, 203 tensors)

rowAttentions.0.q_net.weight f4 [32, 32]
000000 3c 05 33 be 9d 25 89 3d ed 40 cb 3d 93 6a 1b be
       -0.17482466 0.06696627 0.09924493 -0.15177374
000010 b8 50 82 3d 9c ff 18 3e 19 08 2e 3c ec 20 da bd
       0.06363052 0.14941257 0.010622048 -0.106508106
000020 22 62 14 3e d7 8e 9a 3d 06 cf ef 3d e8 77 f4 bd
       0.1449056 0.07546776 0.117094085 -0.11936933
000030 62 03 d3 3d 0b 7f f7 bd 0c e6 32 3e cd 82 99 bd
       0.103033796 -0.120847784 0.17470568 -0.074956514
000040 8c 1a da 3d c5 07 11 3d 0f d9 3f 3d cd 2e de bc
       0.10649595 0.0354078 0.046837863 -0.027121926
000050 1b a7 94 3d 5f 3c 97 bd 88 77 2a be 11 26 8b bd
       0.07258435 -0.07384562 -0.1664716 -0.0679437
000060 bb c1 0d 3e 9c 84 3e bd 97 ef 62 3d 81 b5 85 bd
       0.13843434 -0.046513185 0.055404272 -0.0652876
000070 b8 ca 07 3e 17 9e d8 3d de 01 80 3d 0c 16 b9 bd
       0.13260925 0.10577028 0.06250356 -0.09037408
000080 78 d2 13 be cf 0e d8 3b 18 d4 d3 bd e0 e2 14 3e
       -0.14435756 0.006593562 -0.10343188 0.14539671
000090 33 a6 2d be 0f d3 a1 3d 58 6d 34 3e 02 6c b5 3d
       -0.16957931 0.07901584 0.17619836 0.088584915
0000a0 3c fc 76 3d 56 47 2e be 1e 32 2e 3e 9b 25 f6 bc
       0.060299143 -0.170194 0.17011306 -0.030047229
0000b0 2e f1 28 be bc 73 32 3e 4b 58 94 bd da c9 4c bc
       -0.16498253 0.17426962 -0.07243403 -0.012499297
0000c0 05 a8 25 3e cc cf fa bd 53 0a 00 be 65 d7 eb 3c
       0.16177376 -0.12246665 -0.12503938 0.028789232
0000d0 ea 0b c2 bc 4f fc 24 3d 31 97 17 be f7 21 b0 3b
       -0.023687322 0.040279683 -0.14803769 0.0053751427
0000e0 d2 18 a1 bd d4 d8 b1 bd b0 31 26 be d0 e9 bf 3d
       -0.07866062 -0.08683935 -0.16229892 0.09370768
0000f0 51 f7 0b 3d 76 01 19 be 5a 96 0f 3e b5 89 5a 3d
       0.034171406 -0.14941964 0.14022198 0.053353984
000100 f1 81 06 3d 4e 83 d4 bd 68 9c da 3c 35 7c 2e 3e
       0.032838766 -0.10376607 0.026685908 0.17039569
000110 01 19 f8 3d e8 e8 0c be 48 42 25 3e 22 8a 61 3c
       0.12114144 -0.13760722 0.16138566 0.013765844
000120 ba 33 ae 3d 5e 67 0c 3e 3c 5e 1a 3e 23 38 0d be
       0.0850596 0.13711306 0.1507501 -0.13790946
000130 8d 8b 1e 3e 6f ee f5 bd 60 1f 59 3c df dd fc bd
       0.15482922 -0.12008368 0.013252109 -0.12347006
000140 2a 7f 1e bd 70 c5 02 bc ae d5 ac bc 66 43 e4 bc
       -0.03869549 -0.007981643 -0.021097984 -0.02786417
000150 bb 1c 65 3c 6f 9f 32 3e 11 39 d2 3d 1c be ca 3d
       0.013983901 0.17443632 0.10264791 0.09899542
000160 32 f4 90 3d ce 12 0c 3e 60 6f 06 bc a8 5a 62 3c
       0.070778266 0.13679048 -0.008205265 0.013815559
000170 3a 3c 15 3d 6e cf 1d be f8 18 12 be a4 13 b2 3c
       0.03643439 -0.1541116 -0.14267337 0.021737881
000180 24 8f 8d bd e8 22 50 bb d2 d7 25 bd 82 13 e2 3c
       -0.069120675 -0.0031759087 -0.040489025 0.027597193
000190 94 75 eb 3d 77 9f 6f bd 29 ff 10 3e 84 02 0f 3e
       0.114970356 -0.058501687 0.14159836 0.13965803
0001a0 90 dd 0a be 53 fb 0b be 9e 60 12 be 9e 5a c6 bd
       -0.13561082 -0.13670091 -0.14294669 -0.096852526
0001b0 e6 ce 8c bd 5c 4e 5b bc e2 ab 30 bd 5d ca b6 bd
       -0.068754 -0.013385382 -0.04313267 -0.089253165
0001c0 a8 f1 65 bd 2c d0 82 bd 18 a6 31 3e f1 05 86 bd
       -0.056138664 -0.06387362 0.17348516 -0.06544102
0001d0 9b 8f 01 be 6b 68 96 3d 39 65 27 bc 23 b3 0a 3e
       -0.12652437 0.07344135 -0.010217004 0.13544898
0001e0 1a 51 e2 3d 42 4d 26 3e bc ab 04 be 50 0e e8 3d
       0.11050625 0.16240409 -0.12956136 0.11330855
0001f0 4c ff 17 3e 0e 9e b2 bd 19 da 25 3e 6a c8 07 3e
       0.14843482 -0.08721553 0.16196479 0.13260046
000200 c5 9a 00 3b 63 a4 ae 3d e2 0e 7e bd e9 da 1d be
       0.00196235 0.08527448 -0.062025912 -0.15415539
000210 54 9c 36 3d 13 f1 57 3d 22 96 ec bd 2b a4 af 3d
       0.04458268 0.05272014 -0.11552073 0.085762344
000220 10 99 1a be 73 c5 1b 3e e0 51 2f 3e fa 43 45 3d
       -0.15097451 0.1521204 0.17121077 0.04816053
000230 13 25 e3 bd 0d 3d b0 3d 38 93 f6 3c 96 f6 44 3d
       -0.11091056 0.086053945 0.030099496 0.048086725
000240 ac 0a 6e 3d a8 d5 09 3e cf a2 9b bd 57 c3 22 bd
       0.058115646 0.1346041 -0.07599413 -0.03973707
000250 fe ba 45 3d ee 53 9e 3c 74 f7 11 3e 02 2b be bd
       0.048274033 0.01932713 0.14254552 -0.09285547
000260 24 7a d2 bb b1 66 07 3d c9 dc 3f bd 28 8e f6 3d
       -0.0064232517 0.03305692 -0.046841417 0.12038833
000270 a0 a6 9e 3c fa 44 27 be 3d 6e 9e bc 1e 26 a4 bd
       0.019366562 -0.16334906 -0.019339675 -0.08015083
000280 f3 1b 8d 3c 16 d9 a7 bc ec da 33 be df c8 03 bd
       0.017225241 -0.020489257 -0.17563981 -0.032173987
000290 5c fc 8b bc 63 64 55 bd 93 59 26 3e 06 d4 1d bd
       -0.017088108 -0.05209769 0.16245107 -0.03853228
0002a0 97 ad e8 3d d6 2d 33 3d 3e c5 18 be e0 59 2a 3d
       0.11361235 0.043744884 -0.14918992 0.041589618
0002b0 ca 08 16 3e 9d c4 ec bd 26 16 ea bd 27 3b 31 3e
       0.1465179 -0.115609385 -0.11430006 0.17307721
0002c0 03 7b 11 3e 52 e9 c9 bd 41 dc d9 3d a6 e9 b8 bc
       0.14207081 -0.098589554 0.10637713 -0.02257235
0002d0 ca 63 32 be ad 7a 5a 3c 3d eb 69 3d 54 20 59 bd
       -0.17420879 0.013334912 0.057109106 -0.053009346
0002e0 2c 0a 7c 3d e5 c2 1a be 59 05 fb 3d 31 27 1a 3e
       0.06153314 -0.15113409 0.12256879 0.15054013
0002f0 d8 bd c7 3d 46 d5 f5 3c 4e 77 6d 3d 06 ef 02 be
       0.09753007 0.030008923 0.057975106 -0.12786493
000300 30 07 34 bd 95 45 88 bc 17 e9 ca bd 4e 75 05 be
       -0.043952167 -0.016634742 -0.099077396 -0.1303303
000310 96 b3 f2 3d 36 0a f6 3d ab 48 24 be 5d 65 67 3d
       0.118506595 0.12013666 -0.16043346 0.056493152
000320 aa c9 93 3d 83 6d 2b 3e 9b dd d1 3d f8 3f 26 3e
       0.07216199 0.16740994 0.10247346 0.1623534
000330 03 56 6d bd 74 63 fd 3d b7 71 13 3e ce b5 2a be
       -0.057943355 0.12372485 0.14398848 -0.16670915
000340 1e 24 11 be e8 c7 13 3d 9c eb c5 3d 71 57 b3 bd
       -0.14173934 0.036079317 0.096640795 -0.087569125
000350 75 1b a3 3c 26 40 b7 b7 77 03 37 3d e5 19 c2 bd
       0.019910553 -2.1845171e-05 0.04468104 -0.09477595
000360 09 30 cd 3d 96 b0 f0 3d cc ab fc bd a1 85 6e 3a
       0.100189276 0.11752431 -0.12337455 0.0009098892
000370 74 27 ce 39 7b 8e 69 3d 58 7f 27 3e d5 33 55 3d
       0.00039320777 0.057020646 0.16357172 0.052051384
000380 2b 0f 24 bd 93 b4 22 3e 79 b7 8a bd b4 de 51 bd
       -0.040053528 0.15889196 -0.06773276 -0.051237777
000390 58 bb 41 3c 78 c6 09 be 10 a5 9e 3c 21 71 f5 bd
       0.011824451 -0.13454616 0.019365817 -0.11984468
0003a0 0e e5 95 3c 92 bd 87 3c 0d 36 c9 3c a6 ae 18 be
       0.018297698 0.016569886 0.024561906 -0.14910373
0003b0 e3 fd 2b be 0e 70 a6 3d 21 54 1b 3e d5 82 20 be
       -0.16796069 0.081268415 0.15168811 -0.15674908
0003c0 51 35 86 3d 66 fb 04 be 02 dd 35 3c e5 84 28 3e
       0.06553138 -0.12986526 0.011100056 0.16456945
0003d0 56 92 09 3e 19 3f 04 be e2 f6 df 3d a6 80 bd 3d
       0.13434729 -0.12914695 0.10935761 0.09253053
0003e0 81 2f c4 38 76 51 2f 3e 9f 48 90 bd ef 4b 2a bd
       9.3548566e-05 0.17120919 -0.070451014 -0.041576322
0003f0 25 16 b7 bd 45 52 d1 3c 88 60 3d 3d 0b f4 67 3c
       -0.089397706 0.025551924 0.046234637 0.0141573055

rowAttentions.0.q_net.bias f4 [32]
000000 42 06 72 3d 9d a8 0e 3e be 39 34 3d ea c0 fb 3d
       0.059088 0.13931508 0.04400038 0.12292655
000010 e6 87 ea 3d 4b 7e 4c 3d 61 44 7a 3d a6 15 69 3d
       0.11451702 0.04992513 0.061100367 0.05690541
000020 ef 15 8b 3c b1 d2 18 3e 20 12 27 3e 4e cb 80 3d
       0.016978232 0.14924122 0.16315508 0.06288777
000030 5c dd 11 bc be 36 22 3e ab 8f 0d be 22 49 04 3e
       -0.008902874 0.15841195 -0.13824336 0.12918523
000040 c6 ec bf 3d 28 be e8 3d 01 06 54 bc a6 c5 06 be
       0.09371333 0.113643944 -0.012940885 -0.13161334
000050 e6 f1 00 3e c8 b4 9e bd 9f 67 3e 3d 8e 0e cd 3d
       0.12592277 -0.07749325 0.04648554 0.10012542
000060 c9 2e 29 be 56 3e 3f 3c eb f4 80 bd 12 31 00 3e
       -0.16521753 0.011672577 -0.062967144 0.12518719
000070 cb dc e5 bd be 4e dd 3d 67 85 e2 3d 8c 8b c8 3d
       -0.112237535 0.108060345 0.11060601 0.097922415

rowAttentions.0.k_net.weight f4 [32, 32]
000000 22 c4 2d 3e 75 07 db 3c 2d fa 23 be c6 35 01 3e
       0.1696935 0.026736954 -0.16013403 0.12618169
000010 10 5e 85 3c 29 91 64 3b f0 73 2c be 34 c8 22 bd
       0.016280204 0.0034876561 -0.16841102 -0.03974171
000020 94 c0 af bd 18 4e 31 3e a6 e6 00 3e c0 18 07 3e
       -0.08581653 0.17314947 0.12587985 0.13193035
000030 85 08 f8 3d 1b 78 e0 bd 72 a3 9b bd 20 bf 8d bd
       0.12111 -0.10960408 -0.07599534 -0.0692122
000040 92 28 91 bd f0 ec 0c 3e 30 fa 75 3d c4 0b 11 3e
       -0.07087816 0.1376226 0.06005305 0.14164644
000050 9e c2 07 bc 00 69 21 be 68 d5 51 bd 06 6a fe 3d
       -0.008286146 -0.1576271 -0.05122891 0.12422566
000060 d2 59 dc 3d df 22 60 3d f6 9e 54 bd 29 ec 28 be
       0.10759319 0.054720756 -0.05190941 -0.16496338
000070 1d 90 c2 bd de ba bc 3d 51 ec 91 bd 30 27 ad 3d
       -0.09500144 0.092153296 -0.07125152 0.0845474
000080 2a bb 45 3d f1 fc 8a bd 25 5e dc 3d 75 a8 68 bd
       0.048274197 -0.06786526 0.10760144 -0.05680128
000090 57 06 c3 bb 7c df 89 bd 82 b2 2b be 08 85 e9 3c
       -0.0059516835 -0.067320794 -0.16767314 0.028505817
0000a0 1d 44 51 3d 83 49 b6 bd d4 0e de 3d 42 70 22 be
       0.05109035 -0.0890074 0.10842672 -0.15863135
0000b0 52 8b 2e be 48 92 df bd 34 f5 79 bd dd a5 a0 bc
       -0.17045334 -0.10916573 -0.06102486 -0.01961034
0000c0 78 e8 0b bd 7b 33 a5 3d ec db 1e be 1c 44 d5 3c
       -0.034157246 0.0806646 -0.15513581 0.026033454
0000d0 c0 4d 49 3b 89 64 3f 3d 78 e4 33 3e 4e d5 de 3d
       0.0030716509 0.046726737 0.17567623 0.108805284
0000e0 71 68 c8 bd 15 57 14 be 18 06 2f bd b2 a4 b5 bd
       -0.097855456 -0.14486344 -0.04273042 -0.08869304
0000f0 ce fb 7c 3d 2f 4d d5 3a bd 90 11 3e b5 38 8e 3d
       0.061763577 0.0016273613 0.1421537 0.0694441
000100 dc 29 05 bd 87 c2 c6 3b 34 67 2d 3d 53 dc b3 bc
       -0.032510623 0.00606567 0.04233475 -0.021955645
000110 62 17 12 3e 7a 93 0d be cb 70 b0 3d 58 d2 e6 bd
       0.14266732 -0.13825789 0.086152636 -0.11270589
000120 48 9c 1e be 7a 7e 14 bd 85 5f b0 3d 1d c6 ff 3d
       -0.15489304 -0.03625343 0.08611969 0.12488959
000130 6f a7 35 3d 30 12 7a bc f7 ca 21 bc 02 ca 92 bd
       0.04434913 -0.015263125 -0.009875051 -0.07167436
000140 5a ff 81 bc 6b 5c 48 bc 10 07 1a 3e f3 d6 d3 3d
       -0.015868831 -0.012229065 0.15041757 0.10343733
000150 ad df 10 be 6d a6 3f 3a ca ae de bd 86 15 e6 bc
       -0.14147826 0.0007310871 -0.10873182 -0.028086435
000160 75 e1 0f be 4f 3b 3c 3d a7 8c 02 be 28 ce 32 3e
       -0.14050849 0.045955 -0.12748967 0.17461455
000170 f0 af 08 3e b5 41 f9 bd bb 43 2a be ad 5e e1 3b
       0.13348365 -0.12170736 -0.166274 0.0068777413
000180 ad 1a 4a bd 0e 93 54 3d cb 17 f5 bd a3 3b 94 3d
       -0.049341846 0.051898055 -0.11967429 0.07237937
000190 d3 61 1c be 71 04 bf bd 47 4e be bd 02 39 af 3d
       -0.15271692 -0.09327019 -0.09292274 0.08555795
0001a0 a4 43 97 bb 51 00 2e be b3 b9 ce bd 1f 8c a7 bd
       -0.0046162177 -0.16992308 -0.10094013 -0.08181023
0001b0 d2 f1 27 be ea 5f b9 3c 47 fa 80 3d 29 d0 04 bd
       -0.16400841 0.022628743 0.062977366 -0.03242508
0001c0 3e 0c 90 bd c0 ef 8a ba d1 c5 0f be 34 69 dc bd
       -0.07033585 -0.0010600016 -0.14040305 -0.107622534
0001d0 b1 c2 83 bb 80 d3 20 3e a6 aa 5e bd 82 7e b3 3d
       -0.0040210118 0.15705681 -0.05436196 0.08764364
0001e0 ad 77 8e bd cf c8 40 bd 45 4b 2c be 0b e4 15 3e
       -0.0695642 -0.047066506 -0.16825588 0.14637773
0001f0 67 47 30 3e 73 3f 72 bb dd ce e5 3d 91 15 14 3e
       0.17214738 -0.0036964088 0.11221097 0.14461352
000200 0c d8 b3 3d 8f 78 ba 3d 6f 59 2c be 84 17 2a be
       0.08781442 0.09105026 -0.16830991 -0.16610533
000210 df f4 0a be 9b 85 62 3d db 90 1c be 63 2c 0a be
       -0.13569973 0.055303197 -0.15289633 -0.13493495
000220 25 77 af bd a6 d9 26 be 7e 41 81 39 e1 e5 d0 3c
       -0.08567647 -0.16293964 0.00024653593 0.02550024
000230 e4 dd d3 bd c2 0b ed 3d a0 73 89 bd 37 ce 4b bd
       -0.10345057 0.11574508 -0.06711507 -0.04975721
000240 74 eb 09 3e 24 6b 1b 3e 80 0d a6 bc 86 f1 01 be
       0.13468724 0.1517759 -0.02027011 -0.1268979
000250 d3 9d b5 bd b2 57 b8 3c db 3a d4 3d 57 43 b4 3d
       -0.08867993 0.022502754 0.10362788 0.088019066
000260 4c d7 9f bd 7d 22 2b be 70 75 1e be 01 76 66 bd
       -0.078047365 -0.16712375 -0.15474486 -0.05626488
000270 55 bb 10 3b 28 9a a2 bd 7a 2b 0f be a7 b0 98 3c
       0.0022084315 -0.07939559 -0.13981429 0.018638922
000280 7f b0 0f be 6a 03 0b be 6b 23 13 be b2 3d 44 bd
       -0.14032172 -0.13575521 -0.1436898 -0.0479104
000290 58 e7 1f 3e 35 82 8d 3d 71 d5 ab bc d1 fc 14 3d
       0.15615594 0.06909601 -0.0209758 0.036373917
0002a0 c1 26 90 3d 39 dd 87 3a 88 02 12 be d4 0c df bd
       0.07038642 0.0010365612 -0.14258778 -0.10891119
0002b0 53 f3 f5 bd f0 f8 92 bb d2 b3 25 be bf b1 03 bd
       -0.12009301 -0.004485242 -0.16181877 -0.032151934
0002c0 e6 65 84 bd 98 a4 31 3e 54 21 13 3e 71 46 d2 3d
       -0.06464748 0.17347944 0.14368182 0.10267342
0002d0 b8 5d 22 3c 3d 68 6a bd 31 ac 38 3d d5 2a fa bd
       0.00991004 -0.057228316 0.04508609 -0.12215201
0002e0 a0 70 9a bd eb 6e 11 bd b4 f5 29 bd a6 75 2b be
       -0.07541013 -0.03550617 -0.041494086 -0.16744098
0002f0 97 ef 8f 3d 61 0f 15 3e 70 9d c7 bd f9 26 43 3d
       0.0702812 0.14556648 -0.09746826 0.04764459
000300 59 83 a7 bc 25 78 d2 bb 0b 8e 27 3c a9 ed 1c 3e
       -0.020448374 -0.0064230138 0.010226737 0.15325035
000310 86 94 c1 3c a7 f6 e4 bd 1c 33 82 bd 3a fc b0 3d
       0.023630392 -0.11179858 -0.063574046 0.086418584
000320 c0 36 62 3d 3c 0f 5a 3b dc bd be bc 42 02 8d bd
       0.055227995 0.003327324 -0.023283891 -0.06885196
000330 de 79 80 bd 8a 08 bf bd 59 81 ed 3c a2 8f 4b 3d
       -0.06273244 -0.093278006 0.028992342 0.049697526
000340 10 a9 0a 3e 6b 3f 23 bd b1 12 50 3c ba 1a ea 3d
       0.13541055 -0.039855402 0.012699769 0.11430879
000350 37 98 9d 3d 39 10 ba 3c 96 67 5e 3d 54 0d 17 3c
       0.07695048 0.022712814 0.054298006 0.009219486
000360 a3 3c 1b be a6 c6 de 3b f7 2a 1f bd c5 33 23 3e
       -0.1515985 0.006798583 -0.038859334 0.15937717
000370 f9 68 23 3e 23 e2 0f 3d 7b 97 21 3e 6d 59 ba bd
       0.15958013 0.03512777 0.15780441 -0.09099088
000380 4f 45 1d 3e fd cf 1b 3e b8 e2 d9 bb 7d 58 11 be
       0.1535847 0.1521606 -0.0066493414 -0.14193912
000390 9c 5d 69 bd b5 de 41 bd 08 d8 3d 3b 8b 32 24 be
       -0.05697404 -0.04733153 0.0028967876 -0.16034906
0003a0 95 e0 05 3d 2f 53 96 bd 3d a2 39 bd 46 d0 ba bd
       0.03268488 -0.07340085 -0.045320738 -0.09121756
0003b0 9d eb 18 bd 44 16 28 be d4 02 c0 bd fa df 84 3c
       -0.037334073 -0.16414744 -0.093755394 0.016220082
0003c0 c5 1e ed 3d 5c 6b 24 3e 4e fd 08 be a0 df 97 3d
       0.115781344 0.1605658 -0.13377878 0.074157
0003d0 ba 37 cc bd d2 f6 0b be 20 19 fe bb a6 ca cf bd
       -0.099715665 -0.13668373 -0.00775446 -0.10146074
0003e0 10 f4 1b be 24 26 29 be 93 d0 f1 bd 1b f2 14 3e
       -0.15229821 -0.16518456 -0.118073605 0.14545481
0003f0 07 e5 c9 3d b3 75 8f bd 47 c9 f1 bd 4e 51 0b be
       0.098581366 -0.07004871 -0.11805969 -0.13605234

rowAttentions.0.k_net.bias f4 [32]
000000 37 9a 9d bd f0 27 1b 3e 8a 2c f9 3d 61 6b 25 3e
       -0.0769543 0.15151954 0.12166698 0.16154243
000010 73 78 2f be d3 c7 02 3b cd 86 6e bd 94 f1 2c 3d
       -0.17135791 0.001995553 -0.058234025 0.042222574
000020 54 65 09 be 47 a6 95 3d 72 98 09 bc f3 13 ab bd
       -0.1341756 0.073071055 -0.008398162 -0.083534144
000030 47 e1 22 be 27 6e bd 3d a9 bc 82 bd 84 6d 05 3e
       -0.15906249 0.092495255 -0.0638364 0.13030058
000040 aa d4 00 3d c4 41 5c 3d c6 7a da bc 23 c1 c9 bc
       0.031452812 0.053773656 -0.026669871 -0.024628228
000050 99 9d 76 bd b5 9f 1c be 01 9c e3 3d eb fb e3 bd
       -0.06020889 -0.15295298 0.1111374 -0.11132034
000060 ff 04 d3 3d 1f 3f 74 bd b2 11 e3 3d 15 fe 1a 3e
       0.10303687 -0.05963051 0.110873595 0.15135987
000070 60 ed dd bd b8 c0 15 3e 46 e4 8c 3b 9a 47 0a be
       -0.10836291 0.14624298 0.0042996733 -0.13503876

rowAttentions.0.v_net.weight f4 [32, 32]
000000 3b f0 92 3d 79 8f cc 3d d7 a2 1f 3e 52 d7 2c be
       0.071747266 0.09988303 0.15589462 -0.16879013
000010 8e e7 23 3e c2 dc 08 3e ad d0 31 3e 5e 43 c4 3d
       0.160063 0.13365462 0.1736476 0.09583162
000020 f2 dc b0 bd e4 9b 09 3e 2a 09 25 3e 99 5e 88 bd
       -0.08635892 0.13438374 0.16116777 -0.06658668
000030 6b e3 eb bc 7a a1 0d 3e 16 ab 11 3e 86 7d ee 3d
       -0.028794965 0.1383113 0.1422542 0.116450354
000040 d0 38 0a 3e bd 95 ba bd a6 2e fe bc bd a8 91 bd
       0.13498235 -0.091105916 -0.031028103 -0.071122624
000050 b3 ad bb 3d 8c 0f 35 3d 86 bb 0b be 6e 4f b8 bc
       0.0916399 0.04420428 -0.13645753 -0.022498813
000060 e1 c1 13 be 6b d3 29 be ac 5d 27 3e 8f 0c b4 bd
       -0.14429428 -0.16584556 0.16344327 -0.08791458
000070 e7 73 a1 3d 69 25 23 bd 11 93 0e bd 3f 62 1d ba
       0.07883435 -0.0398306 -0.034808222 -0.00060037145
000080 e1 d6 0e 3e d3 eb c3 bc 41 61 13 3e 19 a2 d7 3d
       0.13949157 -0.02391616 0.14392568 0.105289645
000090 f2 a0 f3 3d 11 85 22 be 57 ce a6 bd 27 92 11 be
       0.11895932 -0.15871073 -0.08144825 -0.14215909
0000a0 53 39 12 bd ef 41 1c bd 57 96 19 3d a0 c2 1f 3e
       -0.0356992 -0.038148817 0.03749689 0.15601587
0000b0 1e 3b a3 3d 1a 93 fc bd a7 a3 e4 bd d6 51 0a 3e
       0.0797026 -0.12332745 -0.11164027 0.1350778
0000c0 5f ae 9c 3c dc 01 53 3d b9 18 ba bd 3a ea a1 bc
       0.019126115 0.051515445 -0.09086747 -0.019765008
0000d0 b8 c9 50 3d e7 7e ef bd e5 f1 eb 3d a8 e3 b7 3d
       0.050973624 -0.116941266 0.11520747 0.08978969
0000e0 55 6b d2 bd 45 5b 96 bd 2b 2b 46 bd 00 79 c0 3c
       -0.10274378 -0.07341627 -0.048381012 0.023495197
0000f0 5a cf 82 bd 3b f3 2e 3e 22 b1 33 be f0 0a c9 bd
       -0.063872054 0.17084973 -0.1754804 -0.09816539
000100 39 22 dc bd 62 9d 42 3d 19 5c ce 3c f9 7d 4f bd
       -0.10748715 0.047513373 0.0251904 -0.050657246
000110 18 b6 1a 3e 90 a0 1c be d9 04 7f 3d 3c cb c7 bd
       0.15108526 -0.15295625 0.062260482 -0.09755561
000120 7a cf 25 bd 31 ac 2d be 7d 5f 07 be 04 9a 19 be
       -0.04048107 -0.16960217 -0.1322002 -0.15000159
000130 a9 9b 9d 3d f8 5f 87 bd 3d d5 bd 3d 30 ab c4 bd
       0.076957054 -0.066101015 0.092691876 -0.09602964
000140 58 e4 33 bd 0b be ac 3c 1a 72 17 3e a9 55 44 bd
       -0.043918937 0.021086713 0.1478962 -0.047933254
000150 23 97 d1 3d 7d 29 48 3d 73 65 dc 3d e9 f7 e3 3d
       0.10233905 0.04886769 0.107615374 0.111312695
000160 77 a0 92 3d c3 03 5b bd 6f 08 49 bd 51 db 8e 3d
       0.071595125 -0.053470384 -0.04908031 0.06975425
000170 59 ed c4 3d 7e c6 1f bc 56 fe b8 3d 82 5a da bd
       0.09615583 -0.009751914 0.09032886 -0.10661794
000180 c1 44 cc 3d 34 df b0 bc 44 7f f8 bd ad ad af bd
       0.09974051 -0.021590807 -0.12133649 -0.08578048
000190 94 41 0a be 78 f1 12 3d 19 9c d6 bd fc e4 4e bd
       -0.13501579 0.035874814 -0.10478992 -0.050511345
0001a0 51 98 34 bc 2f c3 dd bd b5 4f 98 3b b9 98 b8 bc
       -0.011022643 -0.10828244 0.0046481737 -0.022533761
0001b0 22 a2 65 3d 81 84 02 3e ba 0b db bd d3 24 c6 3d
       0.056062825 0.12745859 -0.10695596 0.096749924
0001c0 62 ec 72 bb 8a b2 ce bd e9 f7 a3 bd 87 c0 38 3d
       -0.0037067165 -0.100926474 -0.080062695 0.045105483
0001d0 03 25 17 3d d2 e1 bf bb e5 3b b4 bd 52 11 b7 3d
       0.03690053 -0.0058557773 -0.088004865 0.089388505
0001e0 7e 05 d8 3c eb 11 30 be 33 63 00 bd f1 8b 46 bd
       0.026369806 -0.17194335 -0.031344604 -0.048473302
0001f0 81 40 9a bd f0 8d c8 bd d9 8a 13 be 45 68 32 3e
       -0.075318344 -0.097926974 -0.14408435 0.17422588
000200 cf c9 24 be 84 60 28 3e 32 4c 0f be 81 5d 2d bd
       -0.16092609 0.16443068 -0.1399391 -0.0423255
000210 c1 be 95 bd 03 e6 c0 bd 5b a1 81 3d d9 fe d2 3d
       -0.07311774 -0.09418871 0.06329604 0.103025146
000220 07 9d ec bd 30 69 a9 bd 4a cf b9 3d be a8 b3 bc
       -0.11553388 -0.08272016 0.090727404 -0.021931048
000230 0f c8 30 3d 96 25 bd 3d c7 d2 86 bd 4a f8 c7 bd
       0.04315954 0.092356846 -0.06583171 -0.09764154
000240 a2 2a 86 3d a7 9a 83 bd 8d 12 f0 bd 52 81 b5 bd
       0.065511 -0.06425982 -0.11722288 -0.088625565
000250 88 ab a7 bd 17 e6 33 3e d9 b1 0b 3d f0 f4 9c 3d
       -0.08187014 0.17568241 0.034105156 0.076639056
000260 b7 97 c4 3c 2a 95 f4 bd 00 3d 00 3e b4 55 eb bc
       0.023998125 -0.11942513 0.1252327 -0.02872739
000270 23 00 3a bd 12 0d 14 3e ac 67 bb bd 98 2a 15 3d
       -0.045410287 0.14458111 -0.09150633 0.036417574
000280 d2 f0 19 be 35 c4 b9 3d 44 40 90 3d 0e bb 14 be
       -0.15033272 0.09070627 0.07043508 -0.1452448
000290 e3 60 c9 3d 63 6f a0 3c 5b 02 bb bd 91 76 1a 3e
       0.09832933 0.019584363 -0.09131309 0.15084292
0002a0 7b 75 9b 3d 3f 23 7d 3d e5 69 86 bd a9 f0 c6 bd
       0.07590767 0.06180119 -0.065631665 -0.09713871
0002b0 3a 97 c2 bd 2c f1 87 3d bf 82 42 3d 9e 83 d8 bd
       -0.095015004 0.06637797 0.04748797 -0.10571979
0002c0 08 d6 24 3e 7d f7 d2 3d ac fa 89 bd 90 8f bb 3d
       0.16097271 0.10301111 -0.06737265 0.09158242
0002d0 6d 00 99 bd 2a 41 64 3d ef 66 16 3e 58 fe 1f be
       -0.07470784 0.055726208 0.14687704 -0.15624368
0002e0 65 dc b3 bd 70 83 27 bc b1 a3 da 3c 7b 8f 15 be
       -0.08782271 -0.010224208 0.026689382 -0.14605515
0002f0 03 b4 ed bd 9c ac 89 bc c7 5d d5 bc ac b3 1c 3d
       -0.116066 -0.01680594 -0.026045693 0.038257286
000300 db 72 a5 3c ca f3 0e 3d 0b 24 74 3c e2 b7 8d 3c
       0.020196369 0.034900464 0.014901171 0.017299596
000310 1f 6b 03 bc a0 07 7a 3d 60 70 f4 3d b3 de ba bd
       -0.008021145 0.061042428 0.11935496 -0.09124508
000320 f7 43 c1 bd 38 cd a2 3d 1e 93 05 be b7 5b f0 3d
       -0.094367914 0.079492986 -0.13044402 0.11736243
000330 52 18 a5 3d 34 5a d5 3c 0c c4 9a bd 65 bc 4f 3b
       0.08061279 0.026043989 -0.07556924 0.0031697985
000340 2c 59 11 be 4f 35 25 be 36 e3 27 3e 21 60 25 be
       -0.14194173 -0.16133617 0.16395268 -0.16149952
000350 df 3b 17 be 67 1d 88 bd 7f 08 1f 3c f9 85 1d 3d
       -0.14768933 -0.06646233 0.0097066155 0.038457844
000360 41 73 b3 bd 78 b2 86 bc cc 8e e9 bc 7a 33 1e 3e
       -0.08762217 -0.016442522 -0.028510474 0.15449324
000370 45 9e 1c 3e ab ed 8e 3d 57 10 13 3c 8a d6 04 3e
       0.1529475 0.06978925 0.008976064 0.12972465
000380 12 86 11 be 0a 27 98 3d aa e2 d5 bd 4a fb 0d 3e
       -0.142113 0.07429321 -0.10443623 0.1386539
000390 23 ac 20 be 3e 88 87 3d e4 50 14 be 3d ef d4 3d
       -0.15690665 0.06617783 -0.14483982 0.103971936
0003a0 57 9a 08 3d dc 12 1b 3e a9 b0 07 be 33 e7 e8 3d
       0.033350315 0.15143913 -0.13250984 0.11372223
0003b0 72 44 f1 bd 4a 2c c3 bd a6 2b 89 3d 16 f7 ef bc
       -0.11780633 -0.09529932 0.066977784 -0.029292624
0003c0 f7 5b 0e be 11 1a 19 be 44 a6 39 bd d3 9d 4b 3d
       -0.1390227 -0.1495135 -0.04532458 0.04971106
0003d0 63 32 1f 3e ab f8 03 3e 79 af 60 3b 88 5b dd bd
       0.15546565 0.12887828 0.0034284277 -0.10808474
0003e0 be 03 21 be 04 af 21 3e 36 be d0 bd 52 0c 06 bd
       -0.15724084 0.1578942 -0.1019253 -0.032726593
0003f0 f8 0a 12 be 77 ac f8 bd 15 5a 00 3d f8 fe 2f bd
       -0.14261997 -0.1214227 0.03133591 -0.042967767

rowAttentions.0.v_net.bias f4 [32]
000000 d4 07 0e be de ba ff 3d dd 14 a2 3c b1 01 2d ba
       -0.13870174 0.12486814 0.019785339 -0.00065996783
000010 c2 de 2f be af 9a 1e 3e 1a b0 e5 bd c3 2c 9f 3d
       -0.17174819 0.15488695 -0.11215229 0.077722095
000020 9a e9 ad bc 5a d3 07 3b db 46 b0 3d 79 59 41 bd
       -0.021229554 0.002072534 0.086072646 -0.04720447
000030 a7 c1 47 bd 3d b3 10 3e 09 d0 09 be fc d9 a9 3d
       -0.048768666 0.14130874 -0.13458265 0.0829353
000040 05 36 36 bd d8 0d 6c bd 2c 02 f1 3d 21 43 04 3d
       -0.04448511 -0.05763039 0.117679924 0.03229058
000050 16 6f 2a be d6 66 20 3e ab cb b1 bd 09 90 1c 3e
       -0.16643938 0.15664229 -0.08681425 0.1528932
000060 32 52 63 bd 3d 8b 31 3e d0 16 55 3d bc 3f d9 bb
       -0.05549831 0.17338271 0.05202371 -0.006629912
000070 9d d2 88 3d c1 4f ec bb b2 c2 b0 bd 67 8b c4 3d
       0.06680796 -0.007211656 -0.08630885 0.095969014

rowAttentions.0.proj_net.weight f4 [32, 32]
000000 65 f7 eb 3d 15 b2 bd bc 7e b5 2b 3e fb de 07 3c
       0.11521796 -0.023156205 0.16768453 0.008292909
000010 05 3c c1 bd fe d1 c3 bd 8c 20 f5 3d 6e da 90 bd
       -0.09435276 -0.09561537 0.119690984 -0.07072912
000020 35 90 e2 3d f7 5f 34 be a3 84 ab 3b 19 58 f5 bd
       0.110626616 -0.17614733 0.0052343174 -0.11979694
000030 3c 36 7f 3d 1b 27 13 3e 09 f8 8a 3d cf 0d 6f bd
       0.06230758 0.14370386 0.0678559 -0.05836278
000040 89 5e 2c be f4 21 a7 bd 7c c8 d9 bd 1d 0c 2a 3e
       -0.16832937 -0.08160773 -0.106339425 0.16606183
000050 1f 5c c5 bd b2 d0 8b 3d 76 ec 11 3e 52 d0 82 3d
       -0.09636711 0.06826915 0.14250359 0.0638739
000060 24 99 1f be 8a 5f a1 bc 27 41 55 bd 4a 3c ec 3d
       -0.15585762 -0.019698877 -0.052064087 0.11534937
000070 61 18 83 bc b2 62 e9 bb 7c f1 1f 3e 88 5d 34 3d
       -0.016002836 -0.007122361 0.15619463 0.04403451
000080 ac a7 a6 3d 6b 9a 68 bd b0 02 ed 3d d2 cd cf 3c
       0.081374496 -0.05678789 0.11572778 0.025366697
000090 a3 a6 12 bd 23 08 0b 3d b1 7c 0e be c2 47 d9 3b
       -0.03580345 0.033943307 -0.13914753 0.0066308687
0000a0 f5 90 a6 3d 6e 8f 29 be a2 45 c0 bd 17 0b e3 3d
       0.08133117 -0.1655862 -0.093882814 0.110860996
0000b0 0f 54 8b 3b 7e 95 bd bb c5 13 94 3c 1a 08 a2 bd
       0.004251964 -0.005785643 0.018075833 -0.079117015
0000c0 aa 7a 15 3e 67 84 92 bc 3e d3 82 bd 15 af be 3d
       0.14597574 -0.0178854 -0.063879475 0.09310738
0000d0 c8 e3 16 be 9f c2 05 bd 57 7c 91 3c 67 af 60 bd
       -0.14735329 -0.03265631 0.017759485 -0.054854777
0000e0 f5 f6 c4 3d d7 6f 1a be 05 58 51 bd 32 45 98 bd
       0.09617416 -0.15081726 -0.051109333 -0.07435073
0000f0 f4 61 27 3e 5e de 90 3d de b4 06 be d9 d6 8b 3d
       0.1634596 0.07073663 -0.13154933 0.06828088
000100 d5 0c a1 bb f9 0a 26 3e 41 d8 c5 3d 33 60 cf bd
       -0.00491486 0.16215123 0.09660388 -0.101257704
000110 49 db 21 3e 61 d1 04 bd 3f 54 26 bd df b4 56 3d
       0.15806307 -0.03242624 -0.040607687 0.052418586
000120 a6 d2 34 3e c0 6b 64 3d 90 c0 2d be e7 6c 6d bd
       0.17658481 0.05576682 -0.16967988 -0.057965185
000130 e9 45 29 3e ae d6 7e bd 22 0a ac bd 86 08 12 be
       0.16530575 -0.062216453 -0.0840037 -0.14261064
000140 37 a2 c4 bd cb 14 ca bd 59 f1 33 3d d9 93 93 3d
       -0.096012525 -0.09867247 0.04393134 0.07205934
000150 fe 55 2d 3e 65 cb ec 3d d8 00 12 3b 46 50 c3 3d
       0.16927335 0.11562232 0.0022278335 0.09536795
000160 24 c3 cf 3d 20 3b 1c be a0 f4 b5 3d 07 d4 f9 bd
       0.10144642 -0.1525693 0.08884549 -0.12198644
000170 dc ab 0a 3e 3a 36 a0 bd 77 cc 19 3d e9 e4 6d bb
       0.13542122 -0.07822843 0.03754851 -0.003629977
000180 ba ac a7 3d 2e 8e e8 3c 5d 6a 04 be 3e 29 97 3d
       0.08187242 0.028388109 -0.129312 0.07380913
000190 10 8b d6 3d fe 4c bd bd c1 eb eb bd 38 f1 f7 bd
       0.10475743 -0.09243201 -0.11519576 -0.12106556
0001a0 8d 63 ae bd 03 4b 99 bc a1 53 61 3c 5b 66 49 bb
       -0.085150816 -0.018712526 0.013752849 -0.0030731175
0001b0 cb 72 3e bd 13 52 e0 3d ee 0b 30 3c 05 0f d6 bd
       -0.046496194 0.109531544 0.010745032 -0.104520835
0001c0 6e 04 37 bd 24 3a d8 bd 0d 77 78 bd 4a 76 28 be
       -0.04468196 -0.105579644 -0.06066041 -0.16451374
0001d0 be 64 03 3d ff ff 0b be 58 cf 8a 3d 59 ed f7 3d
       0.032078497 -0.13671874 0.06777829 0.12105817
0001e0 96 ee 05 be 26 f9 bf bd c0 3c 0f be ca ea 3b 3d
       -0.13079295 -0.09373693 -0.13988018 0.04587821
0001f0 b2 39 0a 3d 66 51 be bd 0f 69 dc 3d b7 1e 93 3d
       0.03374643 -0.09292869 0.10762226 0.07183593
000200 17 55 24 be bb d8 12 bc ba 57 9d bd 5d 8f ef bc
       -0.16048084 -0.008962805 -0.07682748 -0.029243166
000210 9a 99 c9 3d d2 af 9d bc 03 eb fb bd 6a fa fd 3d
       0.0984375 -0.019248877 -0.12300684 0.12401278
000220 a8 83 24 be be 89 6f bd c5 54 8c 3d bf d3 1e 3e
       -0.16065848 -0.05848097 0.06852106 0.15510462
000230 a0 1f 30 3e a6 dd 29 bd 88 b7 76 3d 57 24 20 be
       0.17199564 -0.041471146 0.060233623 -0.15638863
000240 f4 ec 05 bd f7 69 69 bd 4a a5 57 3d 30 44 e9 bd
       -0.03269668 -0.05698582 0.052647866 -0.11389959
000250 9e 23 1f 3d cb f6 ba 3d 0f 78 0c 3e 60 b8 f4 bc
       0.038852327 0.09129103 0.13717674 -0.029873073
000260 19 27 26 3e 93 54 2b be 29 12 4e bd 67 cf 86 3d
       0.16225852 -0.16731481 -0.050310288 0.065825276
000270 39 ea 35 3d bf 6d a8 3d f1 54 ee bd 25 9b db 3d
       0.044412825 0.082240574 -0.11637295 0.10722951
000280 df b4 29 be 12 c5 f8 bd cf a8 3b bc c3 64 31 be
       -0.16572903 -0.12146963 -0.011453821 -0.17323594
000290 95 5d 2c be 9c 31 20 be 80 ab 11 3e 60 77 21 3d
       -0.16832574 -0.15643924 0.14225578 0.039420485
0002a0 27 06 6a bd d4 40 16 bc 99 4a 1e be fd b9 29 be
       -0.057134774 -0.00917073 -0.15458144 -0.16574855
0002b0 0a a9 fd bd da 63 2f be 54 8e ec 3d 77 b1 78 bd
       -0.12385757 -0.17127934 0.115505844 -0.06071612
0002c0 06 64 47 bd 7f f5 1a be 02 d4 e6 3c 36 97 e5 bc
       -0.048679374 -0.15132712 0.028177265 -0.028026205
0002d0 fb 18 f7 bd 59 e9 e8 3d 8c ee 18 3e 64 1b 01 be
       -0.120653115 0.113726325 0.14934748 -0.12608105
0002e0 4b b4 cc 3d 8d 44 e9 bc dd 48 cc ba ae fa 9b 3d
       0.09995326 -0.02847507 -0.001558568 0.07616173
0002f0 79 1b 01 bd 7a 0d 1b 3e 4b 8e dd 3d a1 a2 e8 bd
       -0.03152034 0.1514186 0.10818156 -0.11359144
000300 3f 2a db bd 41 0f 33 be 66 04 67 3d 04 0e 08 be
       -0.10701417 -0.17486288 0.05640068 -0.13286597
000310 8e 9b 17 be 27 9c e7 bd a2 27 33 be 4c 65 13 be
       -0.14805433 -0.113090806 -0.17495587 -0.1439411
000320 1f 4a 21 3e 02 51 cb 3d ac 2b 20 3e bd 9c af bd
       0.15750931 0.099275604 0.1564166 -0.08574817
000330 dd 02 95 bd 36 32 7f bd 6e 3d 75 3b 74 1a 02 be
       -0.07275937 -0.062303744 0.0037420648 -0.12705404
000340 b6 3a d8 3c 36 d9 e7 bd 7f d8 e5 3c d5 bf 25 3e
       0.026395183 -0.113207266 0.028057335 0.1618646
000350 f0 c1 f7 3c fd 7d 04 3e 70 ea 00 be c0 ff cc bc
       0.030243844 0.12938686 -0.12589431 -0.025024295
000360 18 30 df bd 10 e1 a1 bc a9 fa 8f bd 96 75 cd bd
       -0.10897845 -0.019760638 -0.070302315 -0.10032193
000370 cb 73 2e be 86 95 86 bd e7 86 c1 3c b3 9b fd bc
       -0.17036359 -0.06571488 0.023623897 -0.030958032
000380 b4 df 28 be 9c 69 08 3e 67 34 05 3e d8 81 d5 bd
       -0.16491586 0.13321537 0.13008271 -0.10425156
000390 f5 a9 96 3c 64 70 ef 3d 3a 57 2c be 68 9e 20 be
       0.018391589 0.11691359 -0.1683015 -0.15685427
0003a0 08 f6 ca 3d 55 cb 25 b9 54 45 69 3d ba 36 9a bd
       0.09910208 -0.00015811373 0.056950882 -0.075299695
0003b0 12 ca 05 3d 39 7f f0 3d 0a 34 2b bd f2 01 70 bd
       0.032663412 0.11743016 -0.041797675 -0.058595605
0003c0 5c 62 2a be 24 d5 ed bc 05 c2 ea 3d 24 48 28 be
       -0.16639084 -0.029032297 0.114627875 -0.1643377
0003d0 0e 01 53 bc ac be 03 3e 28 af 51 bd cf b9 85 bd
       -0.012878669 0.12865704 -0.051192433 -0.06529581
0003e0 f7 26 58 bd 9d b0 93 bd 41 b6 aa 3c 3f df 2f be
       -0.052771535 -0.07211421 0.020838859 -0.17175005
0003f0 06 5d 88 3d b4 df 3d bd f5 4b ae bc 18 72 62 bc
       0.06658368 -0.046355918 -0.021276454 -0.013821147

rowAttentions.0.proj_net.bias f4 [32]
000000 9d 0b 05 3e 96 9c 2b 3e 80 ab 8e 3d 9b 67 03 be
       0.12992711 0.16758952 0.06966305 -0.12832491
000010 32 c2 28 bd c6 ec 13 3e 2a 2e 03 3e 20 b0 7d bd
       -0.041200824 0.1444579 0.12810579 -0.061935544
000020 90 0c f0 3d 7a 57 f5 bd a6 8a 41 3d e4 16 22 3e
       0.11721146 -0.119795755 0.047251366 0.15829045
000030 fb 17 16 3d bf 12 10 be 31 db 5f 3d 43 84 cb 3d
       0.036643963 -0.14069651 0.054652397 0.09937336
000040 ab d5 fd 3d 2c 24 ec bd 1f 88 1e bd 16 1c fc bb
       0.123942696 -0.11530337 -0.038704034 -0.007693778
000050 d1 53 11 bd f5 c3 23 bd bd f4 82 bd 20 54 81 3d
       -0.035480324 -0.0399818 -0.063943364 0.06314874
000060 f6 64 ab 3d 70 f0 05 bd 66 9a 11 3e cc 66 33 ba
       0.08368866 -0.032700002 0.14219055 -0.0006843626
000070 a0 5c 37 3d d7 a8 3d 3d 91 a6 7a bd 6f ae f6 bb
       0.04476607 0.046303596 -0.061194006 -0.0075281183

rowAttentions.1.q_net.weight f4 [32, 32]
000000 b7 29 07 3e 51 5c 37 bc 0c 0a f8 3d 16 5e d0 3d
       0.13199507 -0.011191444 0.12111291 0.101741955
000010 20 a4 d8 bc b5 4e 97 bd 87 0c c0 bd 05 d2 11 be
       -0.026445448 -0.07388059 -0.093773894 -0.14240272
000020 5e 6f d8 bd 19 5c 3c 3d e4 26 81 3d ab eb 4f bd
       -0.105681166 0.04598627 0.06306246 -0.05076186
000030 2b 29 6e bc e7 a0 fa 3d 37 03 d7 3c f3 08 fb bd
       -0.014536182 0.12237721 0.02624665 -0.12257566
000040 69 73 19 3e 61 80 da 3d ab dc a6 3c d3 af ac 3d
       0.14985432 0.106690176 0.020368895 0.08431973
000050 a3 01 19 be 0f 81 d4 3d 99 63 2f 3d 4a 84 7e bc
       -0.1494203 0.103761785 0.042819593 -0.01553447
000060 7d cb 68 bd 3e 36 12 3e 31 b1 1c 3d 93 91 ca bd
       -0.056834687 0.14278504 0.03825492 -0.09891047
000070 cb db a2 3d 64 54 00 3d 13 f7 7d bd 16 bb ff 3d
       0.079520784 0.03133048 -0.062003206 0.12486856
000080 84 47 34 3e ac 1c 00 bc ba bb 95 bd 10 18 c2 bd
       0.17605406 -0.007819336 -0.073111966 -0.09477246
000090 06 41 bd bd 7a ad b9 3d fb f3 e2 3d d6 68 db bd
       -0.09240918 0.09066291 0.11081692 -0.10713355
0000a0 ee 68 c8 3d 3c 3e dc 3b 55 fb c9 bb 5e 2d 66 bd
       0.09785639 0.006721286 -0.0061639943 -0.05619561
0000b0 37 a2 26 be f7 4f 1b be cc cf 04 3e 14 44 ec bc
       -0.16272818 -0.15167223 0.12969893 -0.028841056
0000c0 a7 05 fb bb 7b 54 da bd 05 73 04 bd d6 0b 8d bd
       -0.007660586 -0.106606446 -0.032336254 -0.06887023
0000d0 25 26 82 3c 5b a1 2c be 3b 78 8a 3c c9 19 20 be
       0.01588733 -0.16858427 0.016903033 -0.15634836
0000e0 65 ce 00 be 80 6b 72 bb 03 da 96 bc 26 66 4c bd
       -0.12578733 -0.0036990345 -0.018414503 -0.049902104
0000f0 b8 8f d2 3d 62 77 52 3c 0f f4 15 3d 5d 5c 94 3d
       0.102813184 0.012845846 0.036609706 0.072441794
000100 1e ce 24 3c 49 62 20 be 54 6f 86 bd f0 c8 e3 3d
       0.010058908 -0.15662493 -0.06564203 0.1112231
000110 2d 4f cf 3d 96 79 7a 3d 10 fa 1f 3e 5f f9 bb bd
       0.101225235 0.06115111 0.15622735 -0.09178423
000120 4d 99 57 bd 83 1e d8 bc c4 ca 31 bd d7 fb 1b 3e
       -0.052636433 -0.026381737 -0.043406263 0.15232788
000130 d6 bd 34 be f0 77 09 3d 3b a1 31 3e 8a 5d c9 bd
       -0.17650542 0.033561647 0.17346661 -0.09832294
000140 21 fb 0f 3e 47 d8 1b be 26 33 f6 3c 98 15 ce bd
       0.14060642 -0.15219222 0.030053686 -0.100627124
000150 7d 24 65 3d 3e e8 1d 3d 5f 34 1f 3d c3 e9 23 bd
       0.055943 0.03855156 0.038868304 -0.040017854
000160 0c 42 60 bd 09 62 2f be 52 60 ed 3c c7 91 2c 3e
       -0.054750487 -0.17127241 0.028976593 0.16852485
000170 05 31 08 be 4f 1e 8b bd e1 44 3d 3d 70 f0 b8 3d
       -0.1329995 -0.0679289 0.046208266 0.09030235
000180 dc 9b 83 3d 5c 8a ea 3d b6 e4 b7 3c c2 74 31 bd
       0.06426212 0.11452171 0.022447925 -0.04332424
000190 cc 0a 17 be d4 f0 34 be 53 7e 0a be 34 0b b6 3d
       -0.14750212 -0.17669994 -0.13524751 0.088888556
0001a0 1d bb 22 3e 15 47 2c 3e e4 97 07 3e a7 21 13 3c
       0.1589169 0.1682399 0.13241535 0.008980191
0001b0 ab 7b f9 3d 95 c0 89 3d 2b 2b f5 bd 26 08 08 bd
       0.12181791 0.06726185 -0.11971124 -0.033210896
0001c0 d8 e7 27 be 28 78 1b 3e f7 e1 1d 3d 2c 41 26 3e
       -0.16397035 0.15182555 0.038545575 0.16235799
0001d0 7f 67 af bc 67 a8 0f 3e 76 60 a9 3d c6 15 b0 bc
       -0.021411655 0.14029084 0.082703516 -0.021494757
0001e0 52 32 c0 bb 9a f2 00 3e f4 64 c0 bc 78 93 0c 3e
       -0.0058653736 0.12592545 -0.023485638 0.1372813
0001f0 6f fd 1e 3d a1 b3 8d bd 6a 19 a8 bd bc 45 b0 bd
       0.03881591 -0.06919027 -0.08207972 -0.08607051
000200 aa 6d e8 3d 8a b3 08 3e b7 39 aa bd 2e 7e 25 be
       0.11349042 0.13349739 -0.083117895 -0.16161415
000210 4d ab cd 3d 37 40 24 bd 52 30 26 be 16 35 18 3d
       0.10042439 -0.040100303 -0.1622937 0.03716
000220 a7 4d 90 bc 8f a4 02 3e d9 a5 19 3d df 73 df bd
       -0.017615153 0.12758087 0.03751168 -0.109107725
000230 f7 af 02 bd ea 08 02 be c2 60 a9 3d e4 32 54 3d
       -0.031906094 -0.12698713 0.08270408 0.051806346
000240 36 bc d5 3d c6 e8 05 be 6a 0a ca bd b0 63 dc bd
       0.10436289 -0.13077077 -0.098652676 -0.107612014
000250 f3 50 16 be 9e f9 28 be 78 da 11 be c1 8b fb 3d
       -0.14679317 -0.16501471 -0.14243495 0.12282515
000260 eb 43 5b bd 29 04 06 bd 14 18 58 3d 5e 1d 41 3d
       -0.05353157 -0.03271881 0.052757338 0.047147147
000270 b5 02 a3 3d 86 ec ff bd b7 72 21 3e 82 38 66 bc
       0.07959501 -0.12496285 0.15766416 -0.014051558
000280 12 c4 ab bd 91 4b e9 3d 27 6e 16 be 01 0e d8 bd
       -0.08387007 0.11391366 -0.14690457 -0.10549546
000290 98 6f cc 3d 4f 83 8c 3d 64 2e 8f bd d2 17 65 bc
       0.09982222 0.068609826 -0.0699127 -0.01398273
0002a0 48 29 04 bd 37 c0 93 3d 2c 51 11 3d 9a 37 84 3d
       -0.03226593 0.072143964 0.035477802 0.06455918
0002b0 6c a9 15 3e e9 00 f9 bd e6 3b 0b be 5c ab 2b bd
       0.1461541 -0.12158377 -0.13597068 -0.041911468
0002c0 7a c0 a4 bd 82 98 00 be 04 e7 27 3e 55 32 17 3e
       -0.080445245 -0.12558177 0.16396719 0.14765294
0002d0 96 fa 11 3e 1c 65 df bd c2 fe a9 bc 55 1c 0d be
       0.14255747 -0.10907957 -0.02075136 -0.13780339
0002e0 3f 02 83 bd b0 b7 16 3e c1 84 af 3c a5 44 7d 3d
       -0.06396913 0.14718509 0.021425607 0.061833043
0002f0 42 d8 33 be 34 f2 94 3d 49 fa f4 3d e0 17 8b bd
       -0.17562965 0.07272759 0.119618006 -0.06791663
000300 33 7e 09 3e 56 88 a3 3d 3d 49 04 be af f4 07 be
       0.13427047 0.079849884 -0.12918563 -0.13276933
000310 7d 1b 20 3b 21 92 2e be 4b 97 fd bd 39 0b 8d 3d
       0.0024430447 -0.17047931 -0.123823725 0.06886906
000320 25 88 6e bd e9 b1 d3 bb 63 08 94 bd 0a d7 ea 3d
       -0.058235306 -0.0064604175 -0.07228162 0.11466797
000330 6c 6c 14 3e 8d 84 02 3e a4 d9 20 be ca 88 55 bd
       0.14494485 0.12745877 -0.15708023 -0.052132405
000340 cf 23 af 3d 61 ab d5 3d 06 2a 23 bd e8 2b c6 3d
       0.08551752 0.104330786 -0.039835 0.09676343
000350 4d 60 ae bb 31 8b a2 3c 9f d8 f3 3d 57 c8 f7 3d
       -0.0053215385 0.019841762 0.119065516 0.12098759
000360 1b 7e ff bd b8 98 db bd 26 00 82 3d 36 ce d9 3d
       -0.124752246 -0.10722488 0.063476846 0.10635035
000370 c8 9a 28 bd f0 76 20 3e 83 e7 a5 bc 26 2e b7 bd
       -0.041163236 0.15670371 -0.020251995 -0.08944349
000380 97 ba 94 bc 78 93 19 be 26 ca 5f 3d 63 f3 26 be
       -0.01815538 -0.14997661 0.054636143 -0.16303782
000390 e9 d8 27 3e b5 4d 09 be f3 81 ea 3d fe 5f 08 be
       0.16391338 -0.13408549 0.11450567 -0.13317868
0003a0 c0 0e d4 bc cf 50 c9 bd 00 bb b8 3d a7 c1 d2 3d
       -0.02588594 -0.09829866 0.090200424 0.102908425
0003b0 96 bb 29 be ca a0 1b be bd 2f c1 3c 0e ec 66 bb
       -0.16575465 -0.15198055 0.023582334 -0.0035235914
0003c0 f4 8c 5e 3a 1b 47 5a 3d 39 d5 10 bd 33 b4 18 3e
       0.00084896316 0.053290468 -0.035359595 0.1491249
0003d0 95 69 4a 3c bb e5 a5 bd f7 b6 7a 3d ef 4a 0c be
       0.012354274 -0.08100458 0.061209645 -0.1370046
0003e0 a9 fe ac bd 95 d9 53 3d 3f 70 94 bd e6 97 2c be
       -0.0844701 0.051721174 -0.07247972 -0.1685482
0003f0 e6 4f b5 3d 63 d4 39 3d f5 aa 53 3d f4 54 7d 3d
       0.0885313 0.045368563 0.05167671 0.061848596

rowAttentions.1.q_net.bias f4 [32]
000000 a8 1c 19 3e 2d 72 cb bd 0d 75 9d bd b9 5b 04 3e
       0.14952338 -0.09933887 -0.07688341 0.12925614
000010 d4 d6 ba bc ca 56 05 be f3 e4 ac bd f0 2e ff 3d
       -0.022807516 -0.13021389 -0.08442106 0.124601245
000020 42 e4 cd bd dd a6 7e 3d 72 94 17 be e2 8f ee 3d
       -0.10053302 0.062170852 -0.14802721 0.11648537
000030 3e eb 45 3d 3e 09 f9 3d a2 6e cc 3b 65 f2 b8 3d
       0.048320048 0.12159966 0.0062387744 0.09030608
000040 b0 40 14 3e ba a0 b8 bc 37 dd 08 be 3f e1 ff bd
       0.14477801 -0.022537578 -0.13365637 -0.12494134
000050 8a 9b d3 3d 0f a1 e7 bd a6 86 1e be b4 90 19 be
       0.10332401 -0.11310016 -0.15481052 -0.14996606
000060 c1 bb 9f bd 4b 6f 07 3d 56 4b 23 be 7b 27 a6 bd
       -0.07799483 0.03306512 -0.15946707 -0.08112999
000070 c2 54 2d 3e 6b 5c f5 bc 14 0c 73 bd fe a4 ab 3d
       0.16926864 -0.029951295 -0.05933769 0.08381079

rowAttentions.1.k_net.weight f4 [32, 32]
000000 db f6 14 be 78 57 0d be 30 de ce 3c d8 b7 64 3d
       -0.14547293 -0.13802898 0.025252432 0.05583939
000010 6f 5d 32 be 3f 0f 1f 3e c7 fd 8c bd f6 10 dd 3c
       -0.17418455 0.1553316 -0.06884342 0.026985627
000020 90 ac 00 3e d0 89 8a 3d 24 d5 60 3d e7 1e 25 be
       0.12565827 0.06764567 0.054890767 -0.1612507
000030 56 e6 28 be fe 97 86 3d a5 3d d7 3b 1d 59 de 3d
       -0.16494116 0.06571959 0.006568628 0.10856841
000040 22 23 b5 3d ac 3c 11 be b9 18 05 3d 49 05 0e be
       0.08844592 -0.141833 0.03249428 -0.13869204
000050 18 31 c8 bd e2 01 47 3d 6e 78 21 bc 08 3c e7 bd
       -0.09774989 0.04858578 -0.009855373 -0.11290747
000060 d7 88 75 3d 42 45 fb 3d d0 d9 31 be f2 d3 29 3e
       0.059944954 0.12269069 -0.17368245 0.16584757
000070 3b dc c7 3d 05 6b 74 bc 52 81 2f be 98 34 99 bd
       0.097588025 -0.014918094 -0.17139176 -0.074807346
000080 16 ff 5c 3d 3c 42 9a bd 80 e9 6d bd 84 6a 95 bd
       0.053954206 -0.075321645 -0.05808401 -0.07295707
000090 94 9d 1b 3e 16 2e 19 3e 5b 2e 0d be fd 4c 5f bd
       0.1519683 0.14958987 -0.13787214 -0.05451678
0000a0 8e f6 23 3e 28 7a 26 bc 9a 44 b0 bd 4c cb ae 3c
       0.16012022 -0.01016096 -0.08606835 0.021337174
0000b0 32 3e 0f 3e 74 0e b8 bc e7 d0 2a be 4a 23 72 bd
       0.1398857 -0.02246783 -0.16681252 -0.059115686
0000c0 ba 38 b4 3d 99 d7 d5 bc ab e2 ff 3d 02 16 79 3d
       0.08799882 -0.026103782 0.12494405 0.060812004
0000d0 43 b0 cf 3a d5 46 8a 3d df b1 c3 bc a4 2a 1b be
       0.0015845377 0.067517914 -0.023888526 -0.15152985
0000e0 1b 23 1b be 3a 67 0e be 53 0f e7 bc f1 ed 02 be
       -0.1515011 -0.13906565 -0.02820555 -0.1278608
0000f0 a1 31 d4 3c 84 35 a6 3c cf b3 09 3e 19 65 22 3c
       0.025902571 0.02028919 0.13447498 0.009911799
000100 13 f1 f6 3c 81 b2 80 3d 25 b3 4c bd ed 54 b4 bd
       0.03014425 0.06284047 -0.049975533 -0.08805261
000110 e7 4b 2a be f1 4f 30 be b5 ce 3e 3c 33 24 ab bd
       -0.16630517 -0.17217995 0.0116459625 -0.08356514
000120 e8 78 48 3d f3 f9 33 3d 86 2f 0d 3e d8 f1 b0 bc
       0.04894343 0.043939542 0.1378766 -0.021599695
000130 80 09 3a ba 25 e9 f9 3d 6d 61 f5 3c 23 b0 a5 3d
       -0.00070967525 0.12202672 0.029953683 0.08090236
000140 fc 77 c3 bd 4d ce 02 be cb 09 0a 3e 1e 0c 01 3e
       -0.095443696 -0.1277401 0.13480298 0.12602279
000150 d7 10 89 bd d9 62 f0 3c f2 fe 20 be b5 9d 4a 3c
       -0.06692665 0.02934401 -0.15722254 0.012366702
000160 ae 16 28 be 02 a4 cc 3d 68 7c 33 be cb be 2e bd
       -0.16414902 0.099922195 -0.17527926 -0.042662423
000170 15 e3 28 3e 5f 40 75 bd fd eb d1 bd 76 46 23 3e
       0.16492875 -0.059875842 -0.10250089 0.15944847
000180 82 27 b7 bd cf c2 1f 3d 49 55 ca 3d cb 67 42 3d
       -0.089430824 0.039004143 0.09879548 0.047462266
000190 bc 19 fa bd 9c 4c 24 3e 77 8e ad 3d a0 b9 e3 bd
       -0.1221194 0.16044849 0.08474439 -0.111193895
0001a0 13 a3 ce bd 83 03 27 bd 0c 87 71 3d 83 ef 88 3d
       -0.10089698 -0.040774833 0.05896668 0.06686308
0001b0 5a 1d ba 3c 65 61 ed 3d a8 19 34 3e ac 04 15 3d
       0.022719074 0.11590842 0.17587912 0.03638141
0001c0 68 c7 8d 3d 70 d5 cd 3d c6 72 0f 3d dd 89 32 3c
       0.06922799 0.100504756 0.035021566 0.010897127
0001d0 26 bf 22 3e 9c fb f9 3d b5 75 ec 3d a9 df 8c bd
       0.1589323 0.12206194 0.11545888 -0.06878597
0001e0 53 0d ad bd 71 52 c4 bd 45 84 17 be b6 f5 92 bc
       -0.08449807 -0.09586037 -0.1479655 -0.01793943
0001f0 7b fc cb 3d ac 13 d4 3c 3f fc 7f bd 8e 25 c8 bc
       0.09960266 0.025888287 -0.06249642 -0.02443197
000200 6b ad 0a be bb af e8 bd c5 11 85 3c 79 78 d2 bd
       -0.13542716 -0.11361643 0.016243825 -0.102768846
000210 e1 01 b3 3c e1 50 15 3e 4c 86 39 3d ba 9b 0a 3e
       0.021851482 0.14581634 0.04529409 0.13535967
000220 f7 6d e5 bd c4 19 98 3b e3 d3 31 be 3f b5 98 3a
       -0.11202615 0.0046417434 -0.17365985 0.0011650695
000230 51 50 05 be 22 df 29 3e ec bf 1a be 59 ac 77 3d
       -0.1301892 0.16589025 -0.15112275 0.060467098
000240 9d 8a d8 bd 15 8e 48 3d 26 3b 82 ba 99 3a b9 bc
       -0.105733134 0.048963625 -0.000993584 -0.02261095
000250 87 89 8c bd 97 b6 e8 3d ff 9d 02 bd 84 f8 74 3c
       -0.06862169 0.11362951 -0.031888958 0.014951829
000260 01 6e 5a bd 48 f0 03 be e8 49 97 bd 23 7d 22 3e
       -0.053327564 -0.12884629 -0.073871434 0.15868048
000270 be 56 2c 3e 38 48 a8 bd 02 0b 92 3c e1 2b eb 3c
       0.16829965 -0.082169 0.017827515 0.028707447
000280 2b a7 1f 3e c3 6d ca 3c be 6f 07 3c 0d 3e 52 bd
       0.15591113 0.024710542 0.0082663875 -0.051328707
000290 61 76 18 3d 4f 45 34 be 97 9d 34 be 1e e2 a7 bc
       0.03722227 -0.17604564 -0.17638241 -0.020493563
0002a0 69 0d fb bd 22 7f fb bd 39 aa f5 bc df f1 c8 3d
       -0.12258417 -0.12280108 -0.029988395 0.09811758
0002b0 03 28 b3 3d b3 70 7b bd 7c e8 4c bc 4c fe 27 3e
       0.08747866 -0.061386775 -0.0125066005 0.164056
0002c0 0a a4 1c 3d d9 2e f6 3d 56 bc 95 bd 47 fc 21 be
       0.038242377 0.12020654 -0.07311313 -0.15818892
0002d0 8b c2 a7 bd 0a a4 7e 3c 77 76 2f bd a5 78 c5 bd
       -0.08191403 0.01554204 -0.042837586 -0.09642152
0002e0 31 20 2e 3e c3 0e 27 be 6c 5f 97 3b 6a dc 8f 3d
       0.17004468 -0.16314225 0.0046195295 0.070244625
0002f0 de 88 43 bd a1 20 9d 3d 5e cd c9 39 04 4d d7 bd
       -0.04773795 0.07672239 0.00038490718 -0.105127364
000300 c7 d2 c4 bd f1 d2 a2 bd 20 c4 30 be 45 ae e1 3d
       -0.09610515 -0.0795039 -0.17262316 0.110195674
000310 04 e1 25 3e 5e fa b9 bd 0c 7e 0f 3c 96 f9 71 3d
       0.16199118 -0.09080957 0.008758079 0.059075914
000320 0a 0f 4d 3d 82 eb c8 bd 1a 00 dc bd f4 33 30 3e
       0.05006317 -0.098105446 -0.10742207 0.17207319
000330 28 db d2 3d 20 40 29 3e 22 1f fe 3d 47 37 57 bc
       0.10295707 0.16528368 0.12408282 -0.013135738
000340 65 e9 fe 3d ad 70 b9 bb 18 f0 8d ba 11 e4 9c bd
       0.1244686 -0.005659184 -0.0010829 -0.07660688
000350 0d 2a 0d 3e 75 09 1a bd 60 61 d2 3c df 56 10 be
       0.13785572 -0.037606675 0.025681198 -0.14095639
000360 2f 59 78 3d ca 2d ac bd 42 80 23 bd 1f 9e 81 bc
       0.060631927 -0.08407171 -0.039917238 -0.015822468
000370 88 2e 86 3d 03 8a ec 3b f7 16 fc 3c 3d 28 eb bd
       0.06551844 0.0072186007 0.03077267 -0.11482284
000380 62 ca 08 be 8a 59 82 3d 2f 09 95 bd 38 18 1c be
       -0.13358453 0.063647345 -0.07277142 -0.15243614
000390 4f 52 95 bd 10 96 31 be 2b 98 10 3d 35 f3 56 3c
       -0.0729109 -0.173424 0.03530137 0.0131195085
0003a0 52 28 27 3e 83 a9 c7 bd a8 3c bb bd 1b ed 2c 3d
       0.16323975 -0.09749129 -0.09142429 0.04221831
0003b0 4b 51 3e bd 67 09 0d 3e 39 67 dc 3c 14 c8 7c bb
       -0.046464246 0.13773118 0.02690469 -0.0038571404
0003c0 3c ee 8a bd fe b8 da 3d 63 7f a9 bd af 9a 91 3d
       -0.06783721 0.10679816 -0.0827625 0.07109582
0003d0 4a 96 e8 3d 79 f8 0d be b9 64 20 be c0 2e cc bd
       0.1135679 -0.13864316 -0.15663423 -0.09969854
0003e0 65 bf ad 3d 82 a9 c7 bd 99 ef 88 3c 9a c1 da 3c
       0.08483771 -0.09749128 0.016715812 0.026703645
0003f0 47 17 18 3d 55 9f b8 bd 31 3c cb 3b 10 e0 fa 3d
       0.037131574 -0.09014765 0.0062022437 0.12249768

rowAttentions.1.k_net.bias f4 [32]
000000 63 05 a5 3d ec f1 56 3c 95 9c f2 ba 82 fb 41 3d
       0.08057668 0.013119202 -0.00185098 0.047358997
000010 5e 36 27 3e 19 0d 61 bc a6 da ad bd ae 47 03 be
       0.16329333 -0.013736033 -0.084889695 -0.12820312
000020 5d 8e 15 3e 80 f1 1f be 0a fb b0 3d 48 3a 1e 3e
       0.14605089 -0.15619469 0.08641632 0.1545192
000030 89 75 c1 3d 30 db b8 ba 27 96 bc bc 9a 80 e5 3d
       0.09446246 -0.0014103409 -0.023020817 0.112061694
000040 54 72 c0 bd 95 e0 7f 3d 6f b7 5f bd 59 ba be 3d
       -0.09396806 0.062470037 -0.054618295 0.09312887
000050 6b 6b 20 bd a6 8f f1 bd db 46 8a bd 8c ed d4 3d
       -0.03916494 -0.11794977 -0.06751796 0.10396871
000060 72 3d 84 3d c7 bb ff bd 4a 84 eb bd 9e 6d 14 bd
       0.06457032 -0.124869876 -0.114998415 -0.03623735
000070 d5 69 8a bc 34 91 4b bd 2f 7d f3 3d c5 5b 48 3c
       -0.016896168 -0.049699023 0.11889111 0.012228911
