train/checkpoints/uduta8zd/ihi8n5kf.best_checkpoint.pt (torch, 693610 bytes, 203 tensors)

rowAttentions.0.q_net.weight f4 [32, 32]
00000000: 5307 33be b225 893d 8b39 cb3d fa6d 1bbe
00000010: f85b 823d 35fe 183e a322 2e3c ca28 dabd
00000020: 2e61 143e d08d 9a3d 65cf ef3d e066 f4bd
00000030: cdfe d23d ea80 f7bd 7ae5 323e 2788 99bd
00000040: 8313 da3d 770b 113d d5c8 3f3d 124d debc
00000050: a4a0 943d b740 97bd c773 2abe aa28 8bbd
00000060: 86c3 0d3e f067 3ebd 4825 633d 38a6 85bd
00000070: 80c8 073e d59a d83d b105 803d ea1d b9bd
00000080: 74d6 13be 51e7 d73b 67e2 d3bd 0fe0 143e
00000090: 2ca1 2dbe 2ece a13d a26d 343e ab66 b53d
000000a0: 5afe 763d 3345 2ebe 2c34 2e3e a3f8 f5bc
000000b0: 3af4 28be bc76 323e eb4d 94bd 2d1a 4dbc
000000c0: 9ca7 253e b8cd fabd 1d0d 00be e4c4 eb3c
000000d0: b529 c2bc 2702 253d 7a8f 17be bc86 af3b
000000e0: fc1a a1bd f7d1 b1bd 8729 26be 3bfa bf3d
000000f0: efdd 0b3d 4603 19be 9e94 0f3e 787f 5a3d
00000100: e585 063d 4a7f d4bd ac72 da3c ef7c 2e3e
00000110: 5c19 f83d 0fe8 0cbe 0342 253e 4b9a 613c
00000120: fb37 ae3d eb6b 0c3e 075f 1a3e b432 0dbe
00000130: 2a8b 1e3e d6ee f5bd cae1 583c 1cdd fcbd
00000140: 0980 1ebd 18c4 02bc a9cf acbc 063b e4bc
00000150: 0e2e 653c 509b 323e 3a3c d23d 5bba ca3d
00000160: 4df4 903d 4a16 0c3e d1d3 06bc 9643 623c
00000170: 503e 153d 7fce 1dbe 3220 12be e41a b23c
00000180: f38a 8dbd 98e3 4fbb f6f6 25bd 7e2f e23c
00000190: fc6c eb3d a89b 6fbd 66ff 103e 7405 0f3e
000001a0: 9dda 0abe 74f7 0bbe 995e 12be 7b63 c6bd
000001b0: afce 8cbd d72d 5bbc 91a5 30bd 5fc6 b6bd
000001c0: 2ce1 65bd 07ce 82bd 7da8 313e 1fff 85bd
000001d0: 3b8e 01be 7e67 963d 8a7a 27bc 15b2 0a3e
000001e0: f84c e23d f94c 263e 9fb7 04be cf04 e83d
000001f0: 3cff 173e 1e98 b2bd f3d1 253e 39cb 073e
00000200: e3aa 003b cda6 ae3d 3904 7ebd 6dda 1dbe
00000210: 1795 363d 89f3 573d d293 ecbd 89a5 af3d
00000220: 4e99 1abe 75c5 1b3e e151 2f3e 1738 453d
00000230: 3a25 e3bd e23c b03d 1995 f63c 70fa 443d
00000240: a80d 6e3d 19d6 093e 8fa0 9bbd aec0 22bd
00000250: c8ba 453d cf4d 9e3c c4f6 113e 8727 bebd
00000260: bd3b d2bb 955d 073d b4ee 3fbd f789 f63d
00000270: 009d 9e3c 7b44 27be fa7b 9ebc f424 a4bd
00000280: 251d 8d3c 27ce a7bc 64d7 33be d5c3 03bd
00000290: cc13 8cbc 6f60 55bd 455a 263e 26cf 1dbd
000002a0: 98ad e83d a830 333d fac4 18be 3f44 2a3d
000002b0: 4e08 163e bec3 ecbd ce14 eabd ad3b 313e
000002c0: f17b 113e 8ae8 c9bd 64df d93d bddf b8bc
000002d0: e863 32be 5a81 5a3c fbe5 693d e519 59bd
000002e0: 370e 7c3d 83c5 1abe 5bfb fa3d 5924 1a3e
000002f0: 0cbb c73d fadf f53c 246c 6d3d 3fee 02be
00000300: 2c10 34bd 944d 88bc a5d7 cabd 4575 05be
00000310: 45b3 f23d 5207 f63d 2e4c 24be cc65 673d
00000320: a9c2 933d 3d77 2b3e 58dd d13d 8736 263e
00000330: 924d 6dbd 3d74 fd3d 9574 133e 0ab7 2abe
00000340: 4623 11be a1a6 133d fcef c53d 7c58 b3bd
00000350: b300 a33c 2572 e7b6 a5e6 363d 7323 c2bd
00000360: f318 cd3d 8cad f03d a28c fcbd bc79 6f3a
00000370: 4651 c839 078a 693d ab87 273e e236 553d
00000380: 7511 24bd 41b5 223e dea7 8abd 46d3 51bd
00000390: 7dc4 413c a6c5 09be 5870 9e3c a06b f5bd
000003a0: 99de 953c de06 883c be3d c93c 96b6 18be
000003b0: 21fb 2bbe 027d a63d 6457 1b3e aa82 20be
000003c0: 433a 863d 2505 05be 3b1f 363c 2b87 283e
000003d0: 2992 093e e33a 04be 20e6 df3d e871 bd3d
000003e0: 5d60 4a38 e251 2f3e b347 90bd 5457 2abd
000003f0: 8e19 b7bd 175d d13c 4f62 3d3d 5c2a 683c
-0.17483263 0.06696643 0.09923085 -0.15178671 0.06365198 0.14940722 0.010628375 -0.10652311
0.14490196 0.0754658 0.11709479 -0.11933684 0.10302506 -0.12085135 0.17470351 -0.07496672
0.10648253 0.035411324 0.046822388 -0.02713636 0.07257202 -0.0738539 -0.16645728 -0.067948654
0.13844118 -0.04648584 0.055455476 -0.06525844 0.13260078 0.10576407 0.062510855 -0.09038909
-0.14437276 0.0065888544 -0.10345917 0.14538597 -0.16956013 0.07900654 0.17619947 0.08857473
0.060301162 -0.17018585 0.1701209 -0.030025786 -0.16499415 0.17428106 -0.07241424 -0.012518448
0.16177219 -0.12246269 -0.12505002 0.028780408 -0.023701528 0.040285256 -0.14800826 0.0053566378
-0.07866475 -0.08682626 -0.16226779 0.093738995 0.0341472 -0.14942655 0.14021537 0.05334422
0.032842536 -0.10375841 0.026666008 0.17039846 0.12114212 -0.13760398 0.16138463 0.0137696965
0.08506771 0.13713042 0.15075313 -0.13788873 0.15482774 -0.12008445 0.013237426 -0.12346861
-0.038696323 -0.007981323 -0.021095114 -0.027860176 0.013988031 0.1744206 0.102653936 0.09898826
0.07077847 0.13680378 -0.008229212 0.013810059 0.03643638 -0.15410803 -0.14270094 0.021741338
-0.06911268 -0.003172135 -0.040518723 0.027610537 0.114953965 -0.058498055 0.14159927 0.13966924
-0.13559957 -0.13668615 -0.14293899 -0.09686943 -0.06875359 -0.013377628 -0.043126646 -0.08924555
-0.056122944 -0.06386953 0.1734943 -0.06542801 -0.12651913 0.07343958 -0.010222087 0.13544495
0.11049837 0.162403 -0.12960671 0.11329042 0.14843458 -0.0872042 0.1619337 0.13261117
0.0019633106 0.085279085 -0.062015746 -0.15415354 0.044575777 0.052722488 -0.11551632 0.08576495
-0.15097544 0.15212043 0.17121078 0.048149195 -0.11091085 0.086053625 0.030100392 0.0480904
0.058118492 0.13460578 -0.075989835 -0.039734535 0.04827383 0.019324211 0.1425429 -0.09284883
-0.0064158128 0.03304823 -0.046858504 0.120380335 0.019361973 -0.16334717 -0.019346226 -0.08014861
0.017225811 -0.020484043 -0.17562634 -0.03216918 -0.017099284 -0.05209392 0.16245373 -0.03852763
0.113612354 0.043747574 -0.1491889 0.04156899 0.14651605 -0.11560772 -0.114297494 0.17307921
0.14207436 -0.098588064 0.106383115 -0.022567624 -0.17420924 0.013336504 0.057104092 -0.05300321
0.061536994 -0.15114407 0.122549735 0.15052928 0.09752473 0.030014027 0.05796446 -0.12786196
-0.043960735 -0.016638555 -0.09904412 -0.13033016 0.11850599 0.12013115 -0.16044685 0.056493565
0.07214863 0.16744705 0.10247296 0.16231738 -0.057935305 0.12375686 0.14399941 -0.16671386
-0.14173612 0.03604758 0.09664914 -0.087571114 0.019897794 -6.8976246e-06 0.044653554 -0.09479418
0.10014524 0.117518514 -0.12331511 0.00091352663 0.00038207526 0.0570164 0.16360347 0.052054293
-0.04005571 0.15889455 -0.067702994 -0.051226877 0.011826632 -0.13454303 0.019340679 -0.119834185
0.01829462 0.016604837 0.024565574 -0.14913401 -0.16795017 0.08129312 0.15170056 -0.15674844
0.06554081 -0.12990244 0.011115844 0.16457812 0.13434662 -0.12913089 0.10932565 0.092502415
4.82503e-05 0.1712108 -0.070449255 -0.04158719 -0.08940421 0.025557084 0.046236333 0.0141702555

rowAttentions.0.q_net.bias f4 [32]
00000000: b31d 723d 16ad 0e3e 1637 343d bcbb fb3d
00000010: c485 ea3d 5777 4c3d 0c45 7a3d 4d05 693d
00000020: ef5d 8b3c e2d5 183e 1d12 273e c8cd 803d
00000030: 4eb9 11bc 0439 223e 9284 0dbe 6c50 043e
00000040: 65f1 bf3d d4c1 e83d 59bb 53bc d0c6 06be
00000050: 00f3 003e 9db1 9ebd 9168 3e3d cd0d cd3d
00000060: 902d 29be d661 3f3c b9f5 80bd 9a32 003e
00000070: 2cdd e5bd ee43 dd3d 4684 e23d e586 c83d
0.059110355 0.13933215 0.043997847 0.12291667 0.11451295 0.0499185 0.061101004 0.05688982
0.017012564 0.1492534 0.16315503 0.0628925 -0.008894278 0.15842062 -0.13820103 0.12921304
0.09372214 0.11365095 -0.012923085 -0.13161778 0.12592697 -0.07748721 0.04648644 0.10012398
-0.16521287 0.011681041 -0.06296868 0.12519303 -0.11223826 0.10803972 0.110603854 0.09791354

rowAttentions.0.k_net.weight f4 [32, 32]
00000000: 90c4 2d3e 9c0a db3c 9bfb 23be 0836 013e
00000010: e25e 853c 7383 643b 1174 2cbe 94c9 22bd
00000020: 2dc0 afbd 1a4d 313e 9de6 003e f818 073e
00000030: 3407 f83d 0e78 e0bd 90a3 9bbd bbbe 8dbd
00000040: ef28 91bd 22ed 0c3e a6f8 753d 100c 113e
00000050: 64c5 07bc fe68 21be fcd5 51bd 946a fe3d
00000060: 445b dc3d c92a 603d 6296 54bd 79eb 28be
00000070: 998f c2bd 28bb bc3d 1bed 91bd b226 ad3d
00000080: c5ba 453d b4fd 8abd 8760 dc3d 9ea6 68bd
00000090: f60f c3bb a0df 89bd 77b2 2bbe c789 e93c
000000a0: 4d44 513d 5848 b6bd 700f de3d 7570 22be
000000b0: e68a 2ebe 4e92 dfbd 30f5 79bd d8a4 a0bc
000000c0: 87e6 0bbd 4d33 a53d 13dc 1ebe 7648 d53c
000000d0: 0560 493b 1f66 3f3d 34e5 333e eed4 de3d
000000e0: c069 c8bd d057 14be 5210 2fbd 10a7 b5bd
000000f0: 9cfa 7c3d 4968 d53a dc90 113e 3f39 8e3d
00000100: cf2d 05bd 659e c63b 8e6c 2d3d cce6 b3bc
00000110: 5018 123e 8093 0dbe 6c70 b03d 78d4 e6bd
00000120: 869c 1ebe 7a80 14bd 665e b03d 25c9 ff3d
00000130: 5ba5 353d b612 7abc 6ac6 21bc b1cb 92bd
00000140: 8009 82bc 956b 48bc bd06 1a3e ded4 d33d
00000150: d6df 10be b34f 403a 56ae debd 6d17 e6bc
00000160: 2fe1 0fbe 623c 3c3d 0387 02be e4cf 323e
00000170: bfaf 083e a043 f9bd 6040 2abe 6633 e13b
00000180: 7817 4abd c297 543d 7419 f5bd 113d 943d
00000190: 9062 1cbe c703 bfbd 174e bebd 733a af3d
000001a0: d91f 97bb ffff 2dbe fbb8 cebd 488d a7bd
000001b0: b6f1 27be 5f5d b93c c5f8 803d 86cc 04bd
000001c0: 480b 90bd 5194 8aba 6cc5 0fbe c767 dcbd
000001d0: 4da7 83bb 19d3 203e 2eab 5ebd 937e b33d
000001e0: 6d77 8ebd 6fc7 40bd f54f 2cbe 9ae2 153e
000001f0: b847 303e d9f7 71bb 02c7 e53d de15 143e
00000200: 17d8 b33d 7c78 ba3d 8459 2cbe 8917 2abe
00000210: eef4 0abe f684 623d e990 1cbe 672c 0abe
00000220: 1777 afbd a7d9 26be 1abb 8039 03e5 d03c
00000230: a2dd d3bd e80b ed3d 3d74 89bd 97ce 4bbd
00000240: 6feb 093e 2c6b 1b3e 420e a6bc 87f1 01be
00000250: 969d b5bd 395c b83c 903a d43d 0743 b43d
00000260: 02d8 9fbd 7b22 2bbe b674 1ebe 4f76 66bd
00000270: ebf1 103b 279a a2bd d42a 0fbe 31b0 983c
00000280: 77b0 0fbe 6803 0bbe 5623 13be b13d 44bd
00000290: 67e7 1f3e 6c82 8d3d 5bd1 abbc d9fc 143d
000002a0: b326 903d 66d7 873a 8e02 12be bc0c dfbd
000002b0: 95f3 f5bd 5200 93bb 78b3 25be 61b1 03bd
000002c0: 0366 84bd 91a4 313e 5f21 133e 5b46 d23d
000002d0: d35b 223c f069 6abd 70ad 383d 832a fabd
000002e0: e86f 9abd f06e 11bd 2afa 29bd 6e75 2bbe
000002f0: cdee 8f3d 680f 153e 1e9f c7bd f126 433d
00000300: 8d84 a7bc 4254 d2bb de7b 273c feed 1c3e
00000310: b182 c13c a7f7 e4bd 2b33 82bd 2cfd b03d
00000320: 2934 623d 08a4 5a3b 70bb bebc 2a08 8dbd
00000330: 077c 80bd fd04 bfbd 7188 ed3c a98f 4b3d
00000340: 8fa9 0a3e 8747 23bd 851c 503c 731b ea3d
00000350: 7598 9d3d cc1c ba3c 6f65 5e3d 620c 173c
00000360: cd3c 1bbe f1bc de3b e921 1fbd fc33 233e
00000370: 0d68 233e 6ce3 0f3d 0297 213e 5858 babd
00000380: 8b45 1d3e 8bcf 1b3e 1cce d9bb 8f58 11be
00000390: 8154 69bd 06dc 41bd 0cdd 3d3b 9732 24be
000003a0: dde3 053d 3957 96bd f0a2 39bd 95ca babd
000003b0: 52e7 18bd 6217 28be 0d04 c0bd 05e2 843c
000003c0: a81d ed3d 766c 243e 7bfd 08be 79df 973d
000003d0: 7337 ccbd 90f7 0bbe bf0b febb 52ca cfbd
000003e0: b3f3 1bbe f225 29be 79d6 f1bd 87f1 143e
000003f0: 9ce6 c93d c375 8fbd 94c9 f1bd 7851 0bbe
0.16969514 0.026738457 -0.16013949 0.12618268 0.016280595 0.003486839 -0.16841151 -0.03974302
-0.085815765 0.17314568 0.12587972 0.13193119 0.12110749 -0.109603986 -0.075995564 -0.069211446
-0.070878856 0.13762334 0.060051583 0.14164758 -0.008286808 -0.15762708 -0.051229462 0.12422672
0.10759595 0.054728303 -0.05190123 -0.16496076 -0.09500045 0.09215385 -0.071253024 0.08454646
0.04827382 -0.06786671 0.10760599 -0.056799524 -0.0059528304 -0.06732106 -0.16767298 0.02850808
0.051090527 -0.08900517 0.10842788 -0.15863211 -0.17045173 -0.10916577 -0.061024845 -0.019609854
-0.034155395 0.080664255 -0.15513639 0.026035529 0.0030727398 0.04672825 0.17567903 0.10880457
-0.09785795 -0.14486623 -0.042740174 -0.08869755 0.061762437 0.001628169 0.14215416 0.069445126
-0.03251439 0.0060613626 0.042339854 -0.021960638 0.14267087 -0.13825798 0.08615193 -0.11270994
-0.15489396 -0.036255337 0.08611755 0.12489537 0.04434715 -0.01526325 -0.009873966 -0.07167757
-0.01587367 -0.012232681 0.15041633 0.103433356 -0.14147887 0.0007336095 -0.10873096 -0.028087342
-0.14050744 0.045956023 -0.12746815 0.17462116 0.13348292 -0.121711016 -0.1662612 0.0068725822
-0.049338788 0.05190254 -0.119677454 0.0723821 -0.15271974 -0.09326892 -0.09292238 0.0855607
-0.004611951 -0.16992186 -0.10093876 -0.08181244 -0.16400799 0.02262753 0.06297449 -0.03242161
-0.07033402 -0.0010572766 -0.14040154 -0.107619815 -0.0040177465 0.15705527 -0.05436247 0.087643765
-0.069563724 -0.047065195 -0.16827376 0.14637223 0.17214859 -0.003692141 0.11219598 0.14461467
0.0878145 0.09105012 -0.16831023 -0.1661054 -0.13569996 0.055302583 -0.15289654 -0.134935
-0.085676365 -0.16293965 0.00024553464 0.025499826 -0.103450075 0.115745366 -0.06711624 -0.049757566
0.13468717 0.15177602 -0.02027047 -0.12689792 -0.08867948 0.022504913 0.103627324 0.08801847
-0.07804872 -0.16712372 -0.15474209 -0.05626517 0.002211685 -0.079395585 -0.13981181 0.018638702
-0.1403216 -0.13575518 -0.14368948 -0.047910396 0.15615617 0.069096416 -0.020973852 0.036373947
0.07038631 0.0010363876 -0.14258787 -0.10891101 -0.1200935 -0.004486122 -0.16181743 -0.032151584
-0.0646477 0.17347933 0.14368199 0.102673255 0.009909588 -0.057229936 0.045087278 -0.1221514
-0.07540876 -0.03550619 -0.04149834 -0.16744015 0.070279695 0.14556658 -0.09747146 0.04764456
-0.020448947 -0.0064187357 0.010222403 0.15325162 0.023621889 -0.111800484 -0.06357416 0.08642039
0.055225525 0.003336193 -0.023282737 -0.06886323 -0.06273656 -0.09327123 0.028995724 0.049697552
0.13541244 -0.039863136 0.012702112 0.11431017 0.076950945 0.02271881 0.054295953 0.009219261
-0.15159912 0.006797426 -0.0388507 0.15937799 0.15957661 0.035128996 0.15780261 -0.090988815
0.1535856 0.1521589 -0.0066468846 -0.14193939 -0.056965355 -0.04732897 0.0028970866 -0.16034923
0.03268801 -0.07340855 -0.045321405 -0.09120671 -0.03732998 -0.1641517 -0.093757726 0.016221056
0.11577922 0.16057 -0.13377945 0.07415671 -0.099715136 -0.13668656 -0.007752865 -0.101460114
-0.15229683 -0.16518381 -0.118084855 0.1454526 0.098584384 -0.07004883 -0.11806026 -0.13605297

rowAttentions.0.k_net.bias f4 [32]
00000000: 6c99 9dbd e927 1b3e 2a2f f93d 946a 253e
00000010: 8478 2fbe 8dc2 023b 1489 6ebd 51f2 2c3d
00000020: 5f5e 09be 0e98 953d 1697 09bc de13 abbd
00000030: d1e0 22be bf6c bd3d 87be 82bd 456e 053e
00000040: dbd3 003d 3944 5c3d 5579 dabc 99c3 c9bc
00000050: e299 76bd 8aa0 1cbe 939c e33d 46fc e3bd
00000060: 7605 d33d 2240 74bd 9f10 e33d a9fe 1a3e
00000070: 5dea ddbd f4bf 153e 25f0 8c3b a047 0abe
-0.076952785 0.15151943 0.12167199 0.16153938 -0.17135817 0.0019952387 -0.058236197 0.04222328
-0.13414906 0.07304393 -0.008397838 -0.08353399 -0.15906073 0.09249257 -0.063839965 0.13030346
0.03145204 0.053776 -0.026669184 -0.024629401 -0.060205348 -0.15295616 0.111138485 -0.11132102
0.10303776 -0.059631474 0.110871546 0.15136208 -0.10835717 0.14624006 0.0043010884 -0.13503885

rowAttentions.0.v_net.weight f4 [32, 32]
00000000: 9dfb 923d 1b98 cc3d 12b0 1f3e dfd1 2cbe
00000010: c3eb 233e 1fe2 083e 04d9 313e c04e c43d
00000020: 9ecf b0bd 4099 093e 610e 253e 5177 88bd
00000030: f02d ecbc e29c 0d3e 6ba4 113e e882 ee3d
00000040: ca3c 0a3e 7f91 babd 64f6 fdbc ab9d 91bd
00000050: 96bb bb3d 8ef6 343d d2b7 0bbe fa2d b8bc
00000060: f6ba 13be 37dd 29be b441 273e 4236 b4bd
00000070: c069 a13d ff0d 23bd 58d6 0ebd d7bd 17ba
00000080: bccd 0e3e bc7f c3bc 377c 133e 2caa d73d
00000090: df77 f33d 2e8c 22be 17fa a6bd d08e 11be
000000a0: 8e74 12bd edec 1bbd db5f 193d e3b3 1f3e
000000b0: fb53 a33d 8761 fcbd c06e e4bd 6850 0a3e
000000c0: 37e8 9c3c 0ed3 523d ec0a babd 75c0 a1bc
000000d0: b8f6 503d 9834 efbd a49c eb3d b5b7 b73d
000000e0: b885 d2bd f48c 96bd 6476 45bd 6296 bf3c
000000f0: aad0 82bd 6df4 2e3e 4eb8 33be c7fe c8bd
00000100: 3d2a dcbd 40ad 423d 48bb ce3c 779f 4fbd
00000110: 8fc4 1a3e 18a2 1cbe 9902 7f3d 9ddb c7bd
00000120: 94e2 25bd 31b4 2dbe 5564 07be 6481 19be
00000130: 3099 9d3d 2975 87bd cbbd bd3d 53b8 c4bd
00000140: 3312 34bd 35b4 ac3c f56a 173e 5f75 44bd
00000150: cc8e d13d b313 483d a36c dc3d 3dfe e33d
00000160: 0ead 923d 9aca 5abd fba6 48bd 36f2 8e3d
00000170: 7fee c43d 792e 20bc 7a0a b93d 8d6a dabd
00000180: 7744 cc3d 3ede b0bc 9e99 f8bd 11a7 afbd
00000190: a642 0abe fbea 123d 4ea0 d6bd 15d7 4ebd
000001a0: aa21 34bc 37ad ddbd 09ae 983b a570 b8bc
000001b0: 45a1 653d 4d8a 023e 8807 dbbd 1323 c63d
000001c0: a0ce 71bb 3bb0 cebd 43f4 a3bd 6acd 383d
000001d0: dd24 173d a30e c0bb ed3b b4bd 1104 b73d
000001e0: 7fdb d73c 770e 30be beb4 00bd 878e 46bd
000001f0: ec3b 9abd db8a c8bd d393 13be df6a 323e
00000200: 2bcd 24be 2265 283e 9844 0fbe 8855 2dbd
00000210: 51d0 95bd b4e7 c0bd 2a95 813d 7f02 d33d
00000220: 7da9 ecbd 8357 a9bd a9c9 b93d da09 b4bc
00000230: 29df 303d 8f35 bd3d 9fba 86bd a9f3 c7bd
00000240: 412f 863d 929f 83bd b40b f0bd b57c b5bd
00000250: 1aad a7bd ebf4 333e f37b 0b3d 31e7 9c3d
00000260: 7536 c43c 54a1 f4bd 504f 003e d588 ebbc
00000270: fe19 3abd 9c0e 143e c372 bbbd 5535 153d
00000280: 48ee 19be 36d0 b93d 071b 903d c5b7 14be
00000290: 2a62 c93d 7b80 a03c 1ff4 babd e879 1a3e
000002a0: 7987 9b3d d043 7d3d ae5b 86bd 98e0 c6bd
000002b0: 509f c2bd fdec 873d 978d 423d cc7c d8bd
000002c0: bed5 243e e806 d33d 45f6 89bd 1e96 bb3d
000002d0: 3d0a 99bd 45ee 633d 9476 163e 56fc 1fbe
000002e0: bfd0 b3bd 2425 27bc d36e d93c d288 15be
000002f0: 4dc9 edbd 438c 89bc 6216 d6bc 11be 1c3d
00000300: 7bc0 a53c bd0a 0f3d dada 723c ecce 8d3c
00000310: 526c 02bc a33e 7a3d c895 f43d 76d8 babd
00000320: 1d18 c1bd 70a2 a23d 8588 05be 9a9d f03d
00000330: 640c a53d 076c d43c 2afb 9abd bf78 513b
00000340: 4e5a 11be b026 25be 14e2 273e 985d 25be
00000350: 153f 17be 8b80 88bd 71ae 203c 0ee5 1d3d
00000360: d340 b3bd 980f 86bc 8833 ebbc 3b2c 1e3e
00000370: 3da1 1c3e edf9 8e3d 2230 103c 46d8 043e
00000380: b88c 11be fd1e 983d 0088 d5bd 28f5 0d3e
00000390: e4ab 20be 818a 873d 825f 14be 6ee2 d43d
000003a0: ef2b 083d 4e10 1b3e debf 07be 5ba9 e83d
000003b0: 7939 f1bd 4935 c3bd a535 893d 0601 f0bc
000003c0: 665f 0ebe 0f33 19be 92ad 39bd 0d88 4b3d
000003d0: a037 1f3e 692c 043e 6d6d 573b dd5b ddbd
000003e0: 0216 21be ada7 213e bf10 d0bd 2f0e 06bd
000003f0: a70b 12be 6abb f8bd 99e0 003d 3e0f 30bd
0.07176898 0.09989949 0.15594509 -0.16876934 0.16007905 0.13367508 0.17367941 0.09585333
-0.0863335 0.13437366 0.16118766 -0.06663383 -0.028830498 0.13829377 0.14222877 0.11646062
0.13499752 -0.091097824 -0.031001277 -0.07110151 0.091666386 0.044180445 -0.1364434 -0.02248286
-0.14426789 -0.16588293 0.16333658 -0.08799411 0.07881498 -0.03980827 -0.034872383 -0.0005788481
0.13945669 -0.02386462 0.14402853 0.105305046 0.11888098 -0.15873787 -0.081531696 -0.14214635
-0.035755686 -0.038067747 0.03744493 0.15595965 0.079750024 -0.12323289 -0.111539364 0.13507235
0.019153697 0.05147081 -0.090841144 -0.019745091 0.05101654 -0.11679953 0.11504486 0.08970586
-0.10279411 -0.073511034 -0.04820861 0.023387138 -0.06387456 0.17085429 -0.17550775 -0.0981422
-0.10750244 0.047528505 0.025235787 -0.050689187 0.15114044 -0.15296209 0.062258337 -0.09758685
-0.040499285 -0.16963269 -0.13221867 -0.14990765 0.07695234 -0.066141434 0.09264716 -0.096054696
-0.04396267 0.021082023 0.14786895 -0.047963496 0.102323145 0.04884691 0.10762908 0.111324765
0.07161914 -0.053415872 -0.04898737 0.06979792 0.09615802 -0.009776705 0.09035201 -0.10664854
0.09973996 -0.021590348 -0.12138675 -0.08576787 -0.13501987 0.035868626 -0.104797944 -0.050498087
-0.010994354 -0.10824054 0.0046594185 -0.02251465 0.056062 0.1274807 -0.10694796 0.096746586
-0.003689684 -0.10092207 -0.080055736 0.045117773 0.03690039 -0.00586112 -0.088004924 0.089363225
0.026349781 -0.17193018 -0.03142237 -0.04847577 -0.075309604 -0.097921096 -0.14411859 0.1742358
-0.1609389 0.16444829 -0.1399101 -0.042317897 -0.07315124 -0.09419194 0.06327279 0.103032105
-0.11555765 -0.08268645 0.09071667 -0.021977354 0.043181572 0.09238731 -0.06578564 -0.09763271
0.06551982 -0.0642692 -0.11720982 -0.088616766 -0.081873134 0.17573898 0.034053754 0.07661284
0.023951748 -0.119448334 0.12530255 -0.02875177 -0.045434944 0.14458698 -0.091527484 0.036427815
-0.15032303 0.09072916 0.07036405 -0.14523228 0.098331764 0.019592514 -0.09128594 0.15085566
0.07594199 0.06183225 -0.06560455 -0.097108066 -0.09503043 0.06636999 0.04749831 -0.10570678
0.16097161 0.10304052 -0.06736425 0.09159492 -0.07472656 0.055647153 0.14693671 -0.15623602
-0.087800495 -0.010201726 0.026542103 -0.14602974 -0.11610661 -0.016790515 -0.02613372 0.0382672
0.020233383 0.03492235 0.014822686 0.017310582 -0.007960396 0.06109489 0.11942631 -0.09123318
-0.09428427 0.07941139 -0.1304036 0.1174881 0.08059004 0.025930418 -0.07567437 0.003196284
-0.14194605 -0.1612804 0.16394836 -0.16148984 -0.14770158 -0.066651426 0.009807215 0.03854852
-0.087525986 -0.016364858 -0.028711095 0.1544656 0.15295883 0.06981263 0.008800538 0.12973127
-0.14213836 0.074277855 -0.104263306 0.13863051 -0.15690571 0.066182144 -0.14489558 0.103947505
0.033245023 0.15142938 -0.13256785 0.11360427 -0.1177854 -0.09531648 0.06699685 -0.029297363
-0.13903579 -0.14960884 -0.045331545 0.049690295 0.15548563 0.12907566 0.003287162 -0.10808537
-0.15731052 0.1578662 -0.10159444 -0.03272837 -0.14262258 -0.121451214 0.031464193 -0.042983286

rowAttentions.0.v_net.bias f4 [32]
00000000: 3a13 0ebe 0db8 ff3d 5d64 a23c b58a 2bba
00000010: a5e2 2fbe 0297 1e3e cbbc e5bd cb28 9f3d
00000020: 4497 adbc 957d 083b 284f b03d 1d6c 41bd
00000030: b7ba 47bd 01b0 103e d6d5 09be 7ed0 a93d
00000040: ca2f 36bd ab0a 6cbd a9f9 f03d 1860 043d
00000050: b580 2abe 5f68 203e 9ac6 b1bd 328f 1c3e
00000060: 4764 63bd 108e 313e aff7 543d 5d27 d9bb
00000070: 9dcb 883d da78 ecbb 9aca b0bd db81 c43d
-0.13874522 0.12486277 0.019823248 -0.0006543801 -0.17176302 0.15487292 -0.1121765 0.077714525
-0.021190293 0.0020826806 0.08608848 -0.047222245 -0.04876205 0.1412964 -0.13460478 0.0829172
-0.04447917 -0.05762736 0.11766369 0.032318205 -0.1665066 0.15664814 -0.08680458 0.15289
-0.055515554 0.17339349 0.051994022 -0.006627007 0.06679461 -0.007216555 -0.08632393 0.095950805

rowAttentions.0.proj_net.weight f4 [32, 32]
00000000: e49a eb3d ff45 bcbc f8c3 2b3e 055b 073c
00000010: 9d50 c1bd 09f2 c3bd 762a f53d 8902 91bd
00000020: 32ad e23d f455 34be d17c ab3b 686c f5bd
00000030: dd51 7f3d 7626 133e 7f1d 8b3d 8482 6fbd
00000040: 825e 2cbe 0953 a7bd bdee d9bd 9204 2a3e
00000050: 424e c5bd 3fda 8b3d 7df1 113e efbe 823d
00000060: 758a 1fbe 8e05 a1bc e737 55bd 6b46 ec3d
00000070: 5972 82bc c22a ebbb e6e6 1f3e 7f62 343d
00000080: 30e3 a63d 8a07 69bd 7612 ed3d 3c93 cf3c
00000090: ae84 12bd 9c18 0b3d 047a 0ebe 4c92 d83b
000000a0: 257c a63d e5a3 29be 084a c0bd ac1f e33d
000000b0: 49da 8a3b bfd1 bdbb 0b72 933c bff8 a1bd
000000c0: 7b6c 153e 0d26 91bc 351e 83bd fd86 be3d
000000d0: 70ed 16be 82e4 05bd 7ab3 913c 2ea3 60bd
000000e0: 47de c43d 3572 1abe 693d 51bd 8d38 98bd
000000f0: de65 273e 5fe7 903d 08bf 06be 7bf9 8b3d
00000100: a340 97bb a3e4 253e 03d3 c53d 2f5a cfbd
00000110: cae6 213e 5976 04bd 4283 26bd d0cf 563d
00000120: 0bba 343e 0679 643d 5ccf 2dbe c630 6dbd
00000130: b234 293e bec6 7ebd f533 acbd a6e2 11be
00000140: 0dbd c4bd 109a c9bd e89d 333d 11ad 933d
00000150: a150 2d3e 50ce ec3d af07 123b e455 c33d
00000160: 3d96 cf3d 2e42 1cbe 7aea b53d acc5 f9bd
00000170: 60bb 0a3e 751a a0bd 26e4 193d 9215 68bb
00000180: 36cb a73d f5f9 e73c fb6c 04be 3b2f 973d
00000190: 0790 d63d 4e3b bdbd 6ef8 ebbd 7cdf f7bd
000001a0: f66f aebd 6496 99bc d05a 613c fb87 46bb
000001b0: ee5e 3ebd ba6c e03d 9424 2f3c 20df d5bd
000001c0: 5e19 37bd c025 d8bd 7e29 78bd 136e 28be
000001d0: 5243 033d 6605 0cbe 7ec8 8a3d 32f5 f73d
000001e0: 29f9 05be 52f6 bfbd e541 0fbe fada 3b3d
000001f0: 2c0a 0a3d 393a bebd b97e dc3d 1419 933d
00000200: 6432 24be 70df 14bc eb44 9dbd 2f8a efbc
00000210: 19ae c93d 638d 9dbc 7ff4 fbbd c7fe fd3d
00000220: 148e 24be 69bc 6fbd 4254 8c3d 08df 1e3e
00000230: bd1e 303e efb1 29bd a533 763d 8f08 20be
00000240: 6567 06bd c78e 68bd 3c12 573d a254 e9bd
00000250: 52e1 1e3d 0fe8 ba3d b879 0c3e 08a8 f4bc
00000260: 0e0e 263e 0552 2bbe e512 4ebd 92de 863d
00000270: b81c 363d 2080 a83d 3c56 eebd fec6 db3d
00000280: 9bc3 29be f0b8 f8bd 76b6 3abc 626a 31be
00000290: b965 2cbe a93e 20be a7b8 113e d83f 213d
000002a0: 69d7 69bd 101b 17bc f546 1ebe 9dbf 29be
000002b0: 388a fdbd 4e5b 2fbe b296 ec3d 97d0 78bd
000002c0: fcac 47bd 9df2 1abe b73f e63c c6c0 e5bc
000002d0: 2431 f7bd 4dd4 e83d 6ff0 183e 751b 01be
000002e0: 96ac cc3d b939 e9bc e4ab c9ba a0f3 9b3d
000002f0: 721e 01bd a405 1b3e 9a88 dd3d 0b9f e8bd
00000300: 765c dbbd a912 33be 5529 673d 061c 08be
00000310: e1a0 17be b9a8 e7bd ba1c 33be 5e67 13be
00000320: ea4e 213e f710 cb3d 1732 203e f892 afbd
00000330: faf3 94bd 3224 7fbd 747e 723b b919 02be
00000340: abaf d73c 5adf e7bd 5e84 e53c 85b4 253e
00000350: 175d f73c ba72 043e 3ee6 00be 13e3 ccbc
00000360: 8034 dfbd 39af a1bc 34ef 8fbd 1c6f cdbd
00000370: d681 2ebe bb87 86bd b04b c13c 8daa fdbc
00000380: b6c6 28be 6f52 083e aa33 053e 7c91 d5bd
00000390: abdc 963c 1f86 ef3d 695b 2cbe 5e90 20be
000003a0: d1dd ca3d 5558 81b9 ac38 693d e913 9abd
000003b0: 41a2 053d 6c81 f03d 20a6 2bbd db97 6fbd
000003c0: 3372 2abe d0d6 ecbc 969c ea3d 4258 28be
000003d0: fe8d 53bc e7bf 033e 94a3 51bd 5bb3 85bd
000003e0: 0f5f 58bd e5a9 93bd 89b1 aa3c bad2 2fbe
000003f0: 0b67 883d b08d 3dbd cd68 aebc 8c7a 61bc
0.115041524 -0.022982595 0.16773975 0.008261447 -0.09439204 -0.09567649 0.119709894 -0.07080562
0.11068191 -0.17610914 0.005233385 -0.119835675 0.06233393 0.1437014 0.06792735 -0.05847408
-0.16832927 -0.081701346 -0.10641239 0.16603306 -0.09634067 0.068287365 0.14252277 0.06384074
-0.15580161 -0.019655969 -0.052055266 0.11536869 -0.015923666 -0.007176728 0.15615425 0.044039246
0.08148801 -0.056891955 0.11575787 0.025338762 -0.035771064 0.033959016 -0.13913733 0.006609237
0.081291474 -0.16566427 -0.0938912 0.11090025 0.0042374474 -0.005792826 0.017998716 -0.07908773
0.14592163 -0.01771834 -0.06402246 0.09303091 -0.14739013 -0.032688625 0.017785776 -0.05484312
0.096127085 -0.15082629 -0.051083956 -0.07432661 0.16347453 0.070753805 -0.1315881 0.06834694
-0.0046158596 0.16200499 0.09659388 -0.10124623 0.15810695 -0.032339428 -0.04065252 0.05244428
0.17649095 0.05577948 -0.16973633 -0.057907842 0.16524008 -0.062201254 -0.084083475 -0.14246616
-0.09606371 -0.09843838 0.043851763 0.07210744 0.16925289 0.115627885 0.0022282412 0.09537867
0.101360776 -0.1525962 0.088826135 -0.12195906 0.1354804 -0.07817546 0.037571095 -0.0035413248
0.08193056 0.028317431 -0.12932198 0.07382055 0.1047669 -0.09239827 -0.115219936 -0.12103173
-0.085174486 -0.01874847 0.013754562 -0.0030293453 -0.04647725 0.10958238 0.010689873 -0.10442948
-0.044701926 -0.10554075 -0.060586445 -0.1644824 0.032046624 -0.13673934 0.06776522 0.12107314
-0.13083328 -0.09373154 -0.1398998 0.04586313 0.033701107 -0.09288449 0.10766358 0.07182518
-0.16034847 -0.009086475 -0.07679161 -0.029240696 0.098476596 -0.019232458 -0.12302493 0.124021105
-0.16069824 -0.05852929 0.068520084 0.15514767 0.17199226 -0.041429456 0.060107846 -0.15628265
-0.03281345 -0.056776788 0.052507624 -0.113930956 0.0387891 0.09126293 0.13718307 -0.02986528
0.16216299 -0.16730507 -0.050310988 0.06585421 0.044460982 0.08227563 -0.11637542 0.10731314
-0.16578524 -0.12144649 -0.011396041 -0.17325738 -0.16835679 -0.15648903 0.14230596 0.039367527
-0.057090197 -0.009222761 -0.15456755 -0.16577001 -0.12379879 -0.17124674 0.1155218 -0.0607458
-0.048748955 -0.15131612 0.028106553 -0.028046023 -0.1206992 0.11368618 0.14935468 -0.1260813
0.09993856 -0.028469907 -0.001538631 0.07614827 -0.031523176 0.1513887 0.1081707 -0.1135846
-0.10710995 -0.17487587 0.0564359 -0.1329194 -0.14807464 -0.11311478 -0.17491427 -0.143949
0.1575276 0.09915345 0.15644108 -0.08572954 -0.07273097 -0.062290378 0.0037001641 -0.12705125
0.026328882 -0.11321898 0.02801722 0.16182144 0.030195756 0.1293439 -0.1258783 -0.025010621
-0.108986855 -0.019736873 -0.07028046 -0.10030958 -0.17041716 -0.06568857 0.02359566 -0.030965114
-0.16482052 0.13312696 0.1300799 -0.104281396 0.01841577 0.116955034 -0.16831745 -0.15680072
0.09905589 -0.0002467061 0.056938812 -0.07523329 0.03262544 0.11743435 -0.041906476 -0.05849443
-0.16645126 -0.028911024 0.11455648 -0.16439918 -0.012912272 0.12866174 -0.05118139 -0.0652835
-0.05282503 -0.07210139 0.020836608 -0.1717023 0.06660279 -0.0462777 -0.021290207 -0.013762128

rowAttentions.0.proj_net.bias f4 [32]
00000000: a51d 053e 05a8 2b3e 4a98 8e3d 3b69 03be
00000010: b86d 28bd f4f1 133e 1344 033e 9142 7dbd
00000020: 09dc ef3d 0069 f5bd 59f7 403d da16 223e
00000030: 6f1b 163d 261d 10be 2dfe 5f3d 8594 cb3d
00000040: b5d7 fd3d e732 ecbd 3cb2 1ebd f623 fdbb
00000050: 6371 11bd e4ed 23bd 9e15 83bd 9750 813d
00000060: 8574 ab3d 79d9 05bd e0a9 113e 68ed 26ba
00000070: 3344 373d db96 3d3d afb8 7abd 8550 f6bb
0.1299959 0.16763313 0.069626406 -0.12833111 -0.04112026 0.14447767 0.12818937 -0.06183106
0.1171189 -0.11982918 0.04711089 0.1582903 0.036647256 -0.14073619 0.05468576 0.09940437
0.123946585 -0.11533146 -0.038744196 -0.007725234 -0.035508525 -0.040021792 -0.064006075 0.063141994
0.08371834 -0.0326781 0.14224958 -0.0006367774 0.044742774 0.046286445 -0.061211284 -0.007516923

rowAttentions.1.q_net.weight f4 [32, 32]
00000000: 232a 073e 478f 37bc 2818 f83d a16a d03d
00000010: 078a d8bc 474f 97bd 99fe bfbd c7cc 11be
00000020: e968 d8bd e477 3c3d fe29 813d a9f6 4fbd
00000030: 2815 6ebc 1ca5 fa3d 51d7 d63c df11 fbbd
00000040: 7f73 193e d787 da3d 621e a73c 0dae ac3d
00000050: bcfc 18be a46f d43d a170 2f3d 1798 7ebc
00000060: 16c0 68bd bc32 123e 1d61 1c3d 809c cabd
00000070: f5d7 a23d 2b58 003d cb0f 7ebd c4ae ff3d
00000080: 1a48 343e 2a52 00bc 4fa7 95bd aa08 c2bd
00000090: 013e bdbd d0ae b93d ea07 e33d 7559 dbbd
000000a0: cf73 c83d dc09 de3b b9eb c9bb fe4a 66bd
000000b0: 5ca2 26be 774a 1bbe 3ccb 043e b37b ecbc
000000c0: 33ca fabb 0e4b dabd 1e3f 04bd 5a0f 8dbd
000000d0: ab5e 823c 9aab 2cbe f399 8a3c 0b1b 20be
000000e0: 48ca 00be a69e 73bb d0ec 97bc 3578 4cbd
000000f0: 318e d23d 8282 523c 73ce 153d 1d48 943d
00000100: eecc 243c fe65 20be ef69 86bd 32db e33d
00000110: 4c43 cf3d b263 7a3d 2bfb 1f3e eaee bbbd
00000120: 7d9c 57bd 84db d7bc 60cf 31bd 33f2 1b3e
00000130: 34ba 34be db94 093d 36a1 313e 4668 c9bd
00000140: 0a00 103e bad4 1bbe ab73 f63c e50d cebd
00000150: 5144 653d a1e5 1d3d 8523 1f3d 32ea 23bd
00000160: 7749 60bd c467 2fbe 55f9 ec3c df8c 2c3e
00000170: 8c30 08be 0717 8bbd 673f 3d3d d1e5 b83d
00000180: ce9c 833d cf84 ea3d 6def b73c 1e5b 31bd
00000190: 250e 17be 4bf3 34be 6d7d 0abe 1412 b63d
000001a0: 9fba 223e ed4a 2c3e 7697 073e 3da6 123c
000001b0: 5781 f93d acc8 893d 512b f5bd e314 08bd
000001c0: 76e5 27be e07a 1b3e b7f4 1d3d 3442 263e
000001d0: 433e afbc 79a7 0f3e 8d5c a93d 3d18 b0bc
000001e0: 884d c0bb 07ef 003e 90a5 c0bc 7590 0c3e
000001f0: cdfe 1e3d c3af 8dbd 9019 a8bd 8b4b b0bd
00000200: 3869 e83d cdb8 083e 9b3b aabd 6082 25be
00000210: d7ae cd3d 1a34 24bd 7533 26be ee1c 183d
00000220: 0338 90bc 2b9c 023e 9ea7 193d bd5d dfbd
00000230: 5ac6 02bd ae0e 02be 465f a93d bb33 543d
00000240: e2b3 d53d 67ed 05be 820c cabd 6b68 dcbd
00000250: df56 16be 86f5 28be e8d9 11be 429a fb3d
00000260: 6635 5bbd fcec 05bd eb68 583d c30f 413d
00000270: 98ff a23d 8eee ffbd 556b 213e e7fc 65bc
00000280: 0ec8 abbd d556 e93d 9970 16be 6318 d8bd
00000290: a774 cc3d 7b87 8c3d e337 8fbd d181 65bc
000002a0: 6223 04bd 25af 933d ba50 113d 914e 843d
000002b0: 36a4 153e 940b f9bd bc3b 0bbe 8ba7 2bbd
000002c0: 80c8 a4bd 959d 00be 6de3 273e 1b31 173e
000002d0: 28f6 113e 265a dfbd 5007 aabc dc17 0dbe
000002e0: d7fb 82bd b4bc 163e c62a b03c fe3a 7d3d
000002f0: f1d8 33be 13f0 943d 92f2 f43d 900e 8bbd
00000300: ab7e 093e 0a89 a33d 6c4a 04be 39f6 07be
00000310: 79b7 203b a98e 2ebe d38b fdbd 170d 8d3d
00000320: e27c 6ebd 29cf d3bb 1907 94bd 78e2 ea3d
00000330: c26b 143e f182 023e 30dc 20be 8883 55bd
00000340: e61c af3d 42ac d53d eb2b 23bd 9e24 c63d
00000350: 72cd aebb 0474 a23c 0ee0 f33d b4c8 f73d
00000360: fc74 ffbd d195 dbbd 01f4 813d e5ce d93d
00000370: d59f 28bd 3a75 203e e905 a6bc 202e b7bd
00000380: 6fb5 94bc 1d92 19be 93b1 5f3d 35f7 26be
00000390: 90dc 273e 7c44 09be 3f9a ea3d 9e5d 08be
000003a0: cae0 d3bc 9557 c9bd 61bf b83d f7d9 d23d
000003b0: 41bf 29be 02a5 1bbe cd07 c13c ac25 66bb
000003c0: 1847 563a 7747 5a3d 04d9 10bd b3ab 183e
000003d0: f6ec 493c acf2 a5bd 2ddb 7a3d 604b 0cbe
000003e0: 5fe5 acbd 07e7 533d b683 94bd 2695 2cbe
000003f0: a048 b53d c3c4 393d 0c8f 533d 765a 7d3d
0.13199668 -0.011203594 0.121139824 0.10176588 -0.026433004 -0.07388168 -0.093747325 -0.14238273
-0.10566885 0.046012774 0.063068375 -0.050772343 -0.014531411 0.12238523 0.026225718 -0.12259268
0.14985465 0.10670441 0.02040023 0.08431635 -0.1494016 0.10372856 0.04283202 -0.015539191
-0.056823812 0.14277166 0.038178552 -0.09893131 0.07951347 0.031334084 -0.06202678 0.12484506
0.1760563 -0.007832089 -0.07307302 -0.09474309 -0.09240342 0.09066546 0.11085494 -0.10710422
0.09787714 0.0067760777 -0.0061621335 -0.056223862 -0.16272873 -0.15165125 0.12968153 -0.028867578
-0.0076534986 -0.10658847 -0.032286756 -0.06887694 0.015914282 -0.16862336 0.016919112 -0.15635316
-0.12577164 -0.003717342 -0.018545538 -0.049919326 0.10281027 0.012848498 0.03657384 0.07240317
0.010058625 -0.15663907 -0.06563174 0.111257926 0.10120258 0.061130233 0.15623157 -0.091764286
-0.052639473 -0.02634979 -0.04341066 0.1522911 -0.17649156 0.033589225 0.17346653 -0.09834342
0.14062515 -0.15217867 0.030084452 -0.10061244 0.055973355 0.03854907 0.038852233 -0.040018268
-0.05475756 -0.17129427 0.028927485 0.16850613 -0.13299769 -0.067915015 0.046203043 0.09028209
0.064263925 0.114511125 0.022453034 -0.043299787 -0.1475149 -0.17670934 -0.13524409 0.08890167
0.15891503 0.16825457 0.13241372 0.008950767 0.12182873 0.06727728 -0.119711526 -0.033223044
-0.16396126 0.15183592 0.038563456 0.16236192 -0.021391993 0.1402873 0.08269606 -0.021495933
-0.0058686174 0.12591182 -0.023516446 0.13726981 0.038817216 -0.069182895 -0.08208001 -0.08608159
0.11348194 0.13351746 -0.0831215 -0.16163015 0.10043114 -0.04008875 -0.16230567 0.037136964
-0.017604833 0.12754886 0.037513368 -0.10906551 -0.031927444 -0.12700912 0.08270125 0.051807147
0.104347005 -0.13078843 -0.09865667 -0.10762104 -0.14681576 -0.1649991 -0.14243281 0.12285282
-0.05351772 -0.03269671 0.052834433 0.047134172 0.07958907 -0.124966726 0.157636 -0.014037347
-0.08387767 0.11393515 -0.1469139 -0.105515264 0.09983187 0.06861778 -0.069930814 -0.014008001
-0.032260306 0.072111405 0.035477377 0.06460298 0.14613423 -0.121604115 -0.13597006 -0.04190783
-0.08046055 -0.12560113 0.1639535 0.14764826 0.14254057 -0.10905866 -0.02075544 -0.13778633
-0.06395691 0.14720422 0.021504771 0.061823837 -0.17563225 0.07272353 0.11960329 -0.06789887
0.13427226 0.079851225 -0.12919015 -0.1327752 0.002452342 -0.17046608 -0.12380185 0.06887262
-0.058224566 -0.0064639044 -0.07227916 0.11468977 0.14494231 0.12745263 -0.15708995 -0.05212739
0.08550434 0.10433246 -0.039836805 0.09674953 -0.0053345496 0.019830711 0.119079694 0.12098828
-0.12473485 -0.107219346 0.06345368 0.10635165 -0.041168053 0.15669718 -0.02026649 -0.089443445
-0.01815292 -0.14997144 0.054612707 -0.1630524 0.16392732 -0.13405031 0.11455201 -0.13316962
-0.025864024 -0.09831158 0.09020878 0.1029548 -0.16576864 -0.15199664 0.02356329 -0.003511767
0.0008174046 0.05329081 -0.035363212 0.14909248 0.012324562 -0.081029266 0.06124418 -0.13700628
-0.084421866 0.051733997 -0.07251684 -0.1685377 0.08851743 0.045353662 0.051650092 0.06185385

rowAttentions.1.q_net.bias f4 [32]
00000000: 0e18 193e 5782 cbbd d980 9dbd d458 043e
00000010: c1af babc 5e51 05be c5e2 acbd 7334 ff3d
00000020: dbe8 cdbd fd95 7e3d b591 17be 558e ee3d
00000030: f5fe 453d c816 f93d 87b7 cb3b 01d3 b83d
00000040: 3341 143e 937e b8bc 0bdb 08be b6d3 ffbd
00000050: 67a2 d33d e896 e7bd 5a86 1ebe 7b8e 19be
00000060: f8b4 9fbd 4a73 073d 4e44 23be 3528 a6bd
00000070: e653 2d3e 0b71 f5bc f223 73bd 9b9e ab3d
0.14950582 -0.0993697 -0.07690591 0.1292451 -0.022788884 -0.1301932 -0.0844169 0.12461176
-0.10054179 0.06215476 -0.14801677 0.116482414 0.04833885 0.12162548 0.0062169465 0.09024621
0.14477997 -0.022521293 -0.13364808 -0.124915525 0.1033371 -0.1130808 -0.15480939 -0.14995758
-0.07798189 0.033068933 -0.15944025 -0.08113138 0.16926536 -0.02996113 -0.059360452 0.08379861

rowAttentions.1.k_net.weight f4 [32, 32]
00000000: c5f6 14be 4d57 0dbe 46de ce3c d9bb 643d
00000010: b85d 32be 4b0f 1f3e a1fd 8cbd c916 dd3c
00000020: 89ac 003e e78a 8a3d 88d4 603d 2020 25be
00000030: ace6 28be 3899 863d d94c d73b b458 de3d
00000040: 0824 b53d e83c 11be 581c 053d 5205 0ebe
00000050: 6e2f c8bd a602 473d ea88 21bc 033c e7bd
00000060: 8688 753d 2744 fb3d 3adb 31be 2ad4 293e
00000070: b9dc c73d 2665 74bc 0681 2fbe 4035 99bd
00000080: 98fe 5c3d 5c42 9abd 75e9 6dbd 336c 95bd
00000090: f89d 1b3e 1b2e 193e 372e 0dbe 894f 5fbd
000000a0: aaf6 233e 5d8a 26bc 6d44 b0bd d3db ae3c
000000b0: 663e 0f3e e016 b8bc 08d1 2abe e621 72bd
000000c0: bf37 b43d 13d9 d5bc 33e1 ff3d 8114 793d
000000d0: e30b cf3a 7a46 8a3d 71a9 c3bc b02a 1bbe
000000e0: 3c23 1bbe 1567 0ebe 6bfe e6bc f7ed 02be
000000f0: cf2e d43c 7933 a63c 79b3 093e 096c 223c
00000100: b8ef f63c d0b1 803d 20ae 4cbd 3252 b4bd
00000110: 3a4c 2abe 3050 30be fcd0 3e3c 0b23 abbd
00000120: 7e77 483d 6d00 343d 922f 0d3e 0f05 b1bc
00000130: 0d14 39ba afea f93d e95f f53c 80ae a53d
00000140: d176 c3bd 6bce 02be a30a 0a3e 260c 013e
00000150: 620e 89bd a661 f03c e3fe 20be 51a4 4a3c
00000160: 9b16 28be 8ba3 cc3d 167e 33be a7c3 2ebd
00000170: 04e3 283e 2a3e 75bd 81ec d1bd 2d46 233e
00000180: 8027 b7bd 4dc5 1f3d 0253 ca3d 0a61 423d
00000190: 3c18 fabd d84c 243e 8d8e ad3d b2ba e3bd
000001a0: a3a2 cebd dd09 27bd 3187 713d 37f3 883d
000001b0: 8616 ba3c c25f ed3d 8719 343e 6d09 153d
000001c0: 3ac6 8d3d f5d4 cd3d 286b 0f3d 3e7a 323c
000001d0: 98be 223e 94fb f93d 6176 ec3d 16e0 8cbd
000001e0: f40c adbd da51 c4bd a082 17be d7e9 92bc
000001f0: adfc cb3d 0b0e d43c 57fa 7fbd bd19 c8bc
00000200: 17ae 0abe 1daa e8bd 4c13 853c 7c7a d2bd
00000210: bdfb b23c c651 153e 9680 393d a099 0a3e
00000220: c56c e5bd 20ce 973b eed3 31be 9861 9a3a
00000230: 1752 05be 3bde 293e b8bf 1abe 18ab 773d
00000240: 0e8c d8bd ed86 483d d044 82ba e142 b9bc
00000250: 5a8e 8cbd bfb9 e83d 739d 02bd fa2f 753c
00000260: 3568 5abd 47ef 03be 653b 97bd 807b 223e
00000270: 4d56 2c3e 1b48 a8bd 3fef 913c 6b36 eb3c
00000280: 9fa7 1f3e 725a ca3c 6e6a 073c 3e3b 52bd
00000290: 2a79 183d 5146 34be 669c 34be 39d4 a7bc
000002a0: a80e fbbd d37b fbbd 1fab f5bc 30ed c83d
000002b0: 542b b33d 656d 7bbd 42ef 4cbc cefe 273e
000002c0: a2a6 1c3d 3c31 f63d 38be 95bd 90fb 21be
000002d0: 0ebf a7bd 7594 7e3c b076 2fbd 9e7d c5bd
000002e0: 571f 2e3e ce0f 27be ac98 963b 9edf 8f3d
000002f0: 5f85 43bd 6c20 9d3d 25cf d139 774e d7bd
00000300: f0d2 c4bd 9fd5 a2bd 0bc3 30be dcb2 e13d
00000310: 95e0 253e 89fd b9bd f67a 0f3c 3000 723d
00000320: 640b 4d3d 57e7 c8bd 3a00 dcbd b830 303e
00000330: 2fde d23d 8641 293e c21e fe3d 9056 57bc
00000340: f0eb fe3d 3a42 b9bb 15ec 8cba e1e1 9cbd
00000350: f52b 0d3e b707 1abd 4a53 d23c e956 10be
00000360: 1754 783d 962f acbd e693 23bd 63a9 81bc
00000370: 0f2f 863d 25b8 ec3b 1d1d fc3c a82b ebbd
00000380: 5bca 08be a65b 823d d90b 95bd a519 1cbe
00000390: c750 95bd 4d95 31be d298 103d 1fd9 563c
000003a0: c128 273e 2dad c7bd 893c bbbd 3efc 2c3d
000003b0: 1157 3ebd 5608 0d3e 8767 dc3c 955b 7cbb
000003c0: 3ff0 8abd 5cb7 da3d 9282 a9bd 2599 913d
000003d0: 2492 e83d 96f8 0dbe 5c64 20be 8f2e ccbd
000003e0: 6fc0 ad3d d6a7 c7bd 7012 893c 6dcc da3c
000003f0: 5815 183d 9ba0 b8bd f726 cb3b e7e2 fa3d
-0.1454726 -0.13802834 0.025252473 0.055843208 -0.17418563 0.15533178 -0.068843134 0.026988404
0.12565817 0.06764775 0.054890186 -0.16125536 -0.16494244 0.06572193 0.0065704403 0.108567625
0.08844763 -0.1418339 0.032497734 -0.13869217 -0.097746715 0.04858651 -0.009859303 -0.11290743
0.059944652 0.122688584 -0.17368785 0.1658484 0.097588964 -0.014916694 -0.17139062 -0.0748086
0.053953737 -0.07532188 -0.05808397 -0.07296028 0.15196979 0.14958994 -0.13787161 -0.05451921
0.16012064 -0.010164824 -0.08606801 0.021345055 0.13988647 -0.022471845 -0.16681302 -0.05911436
0.08799695 -0.026104486 0.12494125 0.06081057 0.0015796389 0.067517236 -0.023884507 -0.15153003
-0.1515016 -0.1390651 -0.028197488 -0.12786089 0.025901226 0.020288216 0.1344737 0.009913453
0.030143604 0.06283915 -0.049970746 -0.0880474 -0.1663064 -0.17218089 0.011646505 -0.08356293
0.04894208 0.04394572 0.13787678 -0.021608857 -0.0007060178 0.122029655 0.02995296 0.08089924
-0.09544147 -0.12774055 0.1348062 0.1260229 -0.066921964 0.029343437 -0.15722232 0.012368278
-0.16414873 0.09992131 -0.17528567 -0.042667057 0.1649285 -0.059873737 -0.10250188 0.15944739
-0.08943081 0.03900652 0.09879114 0.047455825 -0.122116536 0.16044939 0.08474455 -0.11119594
-0.10089614 -0.04078089 0.05896682 0.066870145 0.022715818 0.1159053 0.17587863 0.036385942
0.06922574 0.10050384 0.0350143 0.010893403 0.15893018 0.12206188 0.115460165 -0.068786785
-0.08449736 -0.095859244 -0.14795923 -0.01793377 0.099603035 0.025885602 -0.062494602 -0.024426335
-0.13542973 -0.113605715 0.016244553 -0.10277268 0.021848554 0.14581975 0.045288645 0.13535166
-0.11202387 0.0046327263 -0.17366001 0.0011778353 -0.13019596 0.1658868 -0.15112197 0.060465902
-0.10573588 0.0489568 -0.0009938721 -0.022614898 -0.06863089 0.11363553 -0.031888437 0.014965052
-0.053322036 -0.12884246 -0.073843755 0.15867424 0.16829796 -0.08216878 0.017814277 0.028712472
0.15591286 0.02470133 0.008265121 -0.05132603 0.037224926 -0.17604949 -0.17637786 -0.020486938
-0.12258655 -0.12279477 -0.029988823 0.09810865 0.087484986 -0.061383624 -0.012508215 0.16405794
0.03824485 0.120211095 -0.07311672 -0.1581862 -0.08190738 0.015538325 -0.0428378 -0.096431
0.17004143 -0.16314623 0.0045958366 0.070250735 -0.047734614 0.076721996 0.0004001792 -0.10513013
-0.09610546 -0.07950901 -0.17261903 0.11020443 0.16198952 -0.09081561 0.0087573435 0.05908221
0.05005969 -0.098097496 -0.10742231 0.17206085 0.102962844 0.16528901 0.1240821 -0.013143197
0.12447345 -0.005653647 -0.001075151 -0.076602705 0.137863 -0.037605014 0.025674481 -0.14095654
0.06062707 -0.08407514 -0.03993597 -0.01582784 0.065519445 0.0072241 0.030775601 -0.11482936
-0.13358442 0.06365137 -0.072776504 -0.15244158 -0.07290798 -0.1734211 0.03530199 0.013113289
0.1632414 -0.097498275 -0.091424055 0.042232744 -0.04646975 0.13772711 0.026904834 -0.0038506736
-0.067841046 0.10679504 -0.082768574 0.07109288 0.11355999 -0.1386436 -0.15663284 -0.09969818
0.084839694 -0.09748809 0.016732424 0.026708806 0.03712973 -0.09015008 0.0061997133 0.122503094

rowAttentions.1.k_net.bias f4 [32]
00000000: 2c04 a53d 0402 573c f453 f3ba 1b00 423d
00000010: 8937 273e 911c 61bc 6fde adbd 8246 03be
00000020: 8e8e 153e 05f2 1fbe 56fb b03d 023b 1e3e
00000030: 4f75 c13d 049f b8ba b797 bcbc 5880 e53d
00000040: 9a71 c0bd 61de 7f3d dab8 5fbd 9fba be3d
00000050: 9d68 20bd 9990 f1bd 7d45 8abd c6ec d43d
00000060: 9f3c 843d 0ebb ffbd 057e ebbd 9578 14bd
00000070: 2b64 8abc b893 4bbd 4b7a f33d d076 483c
0.08057436 0.013123039 -0.0018564449 0.04736338 0.16329779 -0.013739721 -0.084896915 -0.12819865
0.14605162 -0.15619667 0.086416885 0.15452197 0.09446203 -0.0014085476 -0.023021562 0.1120612
-0.09396668 0.062467936 -0.054619648 0.09312939 -0.039162267 -0.11795158 -0.06751535 0.103967234
0.06456875 -0.1248685 -0.11498646 -0.03624781 -0.016893467 -0.049701422 0.1188856 0.012235358

rowAttentions.1.v_net.weight f4 [32, 32]
00000000: 41d9 41bd 9972 27bc f7ab a53d c877 fcbd
00000010: d208 32be 1e7d 11be e57b 9f3d d402 9f3c
00000020: a3a7 21be 13f8 133e 2d25 c23d 3cb6 28be
00000030: edcd de3d 3cf3 d8bb 3d40 6f3c 8949 143e
00000040: 532c 0c3e 0f7b 1e3d 6dd3 abbd 8437 083e
00000050: 3fba 163e 0162 d8bc 7f5f 10be f7e8 293e
00000060: 587e 9cbd 8f51 d8bd 5fa3 2abe a713 903d
00000070: 8764 8a3d 2e30 9bbd 3e82 30be fa24 fd3d
00000080: a969 313c 2765 203e dceb 89bc 10fc 233e
00000090: 5fbb 37bd f2fe a7bd bb55 d43d c2c9 363d
000000a0: b288 223e 6cb0 573c db7b 0abe c475 00be
000000b0: 1906 21bd 264a d8bc 1046 c7bd 6d68 193e
000000c0: c633 c5bd bf7b 8b3c dfd7 cf3d 9fec 143d
000000d0: a262 193c 7e0a 8c3d a703 bcbd 8e28 33be
000000e0: edf2 543d e08c 05be 00e6 1bbe d0fe 04be
000000f0: 015a 123e b88a f2bd 7d81 0c3e 0c4f f03d
00000100: 42e4 f83c a98b d2bd e07b 23be 1331 0ebe
00000110: 6cec ea3d be0c efbd 75b8 c8bc 17ec dc3c
00000120: 67c6 b1bc 4c49 203d d34f 0fbe 38a7 153e
00000130: 598f 03be ec83 d5bd 54ca 15be e058 ed3d
00000140: 5515 b5bd d1a5 7abd b29a ba3d ecf4 95bc
00000150: f96b 143e 8b3a 633d d80a 78bc e33c f3bd
00000160: 6ab6 2cbe 2c6f 483d 001f 883c 496b 263e
00000170: d2f7 25be 45ad 0e3d 72e8 893d d55f c93d
00000180: 2749 b03d 54f6 56bc df16 2cbe dae6 0abd
00000190: d987 323e b4ea 07be 89d2 efbd 20ad 253e
000001a0: 427f 3abc 7fce 70bd 7693 a63c 0a30 963d
000001b0: 5eda 853c 4c10 123e b7ca 51bb 8d64 99bd
000001c0: 4554 a8bd e560 56bc f054 09bd 80f1 f43d
000001d0: ece6 a93d 5f8c 0a3e d805 0e3e 3bbb 1a3e
000001e0: 03ed 2bbe e0d9 24bd 06ab 9bbc 70d1 003e
000001f0: 9e1f d5ba 83f4 893d 3efc 8bbc 6344 32be
00000200: 8eab 6a3c a92c 7ebb 8b96 e0bd 514c 2f3e
00000210: 001e 11be 684d 19be 4227 02be e1a3 24be
00000220: 7c0a 13bd 99e3 c1bd df3f 143e 7d43 c13d
00000230: 6f99 ab3d 2f32 1b3e b6f1 14be 42f6 d7bd
00000240: c57f 183e 33c5 033e 56e4 db3c 7e4d ca3d
00000250: 2f67 373d 8ffb 4fbc aa68 72bd 43ee 7b3d
00000260: 693f 13be 7552 323e 9dbc 1fbe 0193 07be
00000270: 2f36 053e 8dc7 d2bd 2c5a adbd 8794 29bd
00000280: e64f 1ebe 390e f1bb 90ad cebc 3da9 1abd
00000290: 7742 02ba 502a f3bd dfcf 03bd 4e6f bcbc
000002a0: 7971 33be 5f10 07be 16ee 0a3e 4929 2cbe
000002b0: 5ad6 14bd 76ed d6bd f5e5 343e d943 063e
000002c0: 1178 b03d af51 bbbd 94d1 21be a245 e3bc
000002d0: 092c db3d 6805 b93c 6838 c6bd 558c 22be
000002e0: 56f2 183e 0140 123d d7ff fe3d b337 1cbe
000002f0: 4fe4 c43c 1933 283e b22d 2ebe 15ed 29be
00000300: ae80 26be 9589 b1bd b268 8bbc 064c b23d
00000310: 8976 7bbd 49f4 0e3e e6f8 133e 9127 f33d
00000320: f468 12be 7eec 8d3d d6b8 cd3d 9d85 043e
00000330: 907c 23be c42e 17bd be25 b8bd 2546 89bd
00000340: 3bdb 523d fbd1 22bc 2a27 9e3d d937 06be
00000350: b609 60bd 29ec 9a3d 5e92 85bd 092f b53c
00000360: 1ec2 f1bd c811 1c3e 72d9 52b9 f4af 833d
00000370: 8f91 1a3c b91d 8f3c 3b26 2b3e 3049 99bd
00000380: a10e 1e3e cef9 93bd ff11 c4bb 2667 e8bd
00000390: 98e3 383d 7da8 31be 1bd3 443d 3302 b9bd
000003a0: cc0b 1f3e 0057 2f3e 5485 e43d 56b9 28be
000003b0: d686 a03d 65ad 08be 60c7 403c 4058 dabd
000003c0: 3356 e33d f982 b0bc d616 643d c2b0 633d
000003d0: 6db9 eb3d 0917 e73d d09a d4bb f69b 00be
000003e0: bebc 853d 57a5 86bd 058f a5bc 2d87 453c
000003f0: 6d18 223e d61e 073e 75ad c7bc 83b9 aabd
-0.04732633 -0.010220193 0.0808944 -0.12327534 -0.17386177 -0.14207885 0.07787303 0.019410528
-0.15786605 0.14450102 0.09479747 -0.16475767 0.10879121 -0.0066207927 0.014602718 0.14481176
0.13688783 0.038691577 -0.08389936 0.13302428 0.14719485 -0.02641392 -0.14098929 0.16592775
-0.07641286 -0.10562431 -0.16663884 0.070349984 0.06757455 -0.07577549 -0.17237183 0.12360568
0.010828414 0.15663587 -0.0168361 0.16014123 -0.044856425 -0.08202924 0.10367914 0.044626005
0.15872458 0.013164621 -0.1352381 -0.12544924 -0.039312456 -0.026402544 -0.0973016 0.14981242
-0.096290156 0.01702678 0.10148596 0.036358472 0.009361895 0.06837939 -0.09180384 -0.17495939
0.051989485 -0.13042021 -0.15224457 -0.12987828 0.14292146 -0.11842865 0.13721271 0.11733827
0.03038228 -0.10280544 -0.15965223 -0.13885908 0.11470875 -0.11672352 -0.024502018 0.026968045
-0.02170105 0.0391324 -0.13995294 0.1461457 -0.12847652 -0.10425553 -0.14627963 0.11589217
-0.088419594 -0.06119329 0.09111537 -0.018305264 0.14494313 0.055475753 -0.015139304 -0.118768476
-0.1686646 0.048934147 0.016616344 0.16251864 -0.16207817 0.03483321 0.067337885 0.09832732
0.08607703 -0.013120253 -0.168056 -0.033911563 0.17434634 -0.13273126 -0.11710078 0.16179323
-0.01138288 -0.05879068 0.020333987 0.073333815 0.016339477 0.1426403 -0.0032011697 -0.07489882
-0.08219198 -0.013084625 -0.03352827 0.11960125 0.08295998 0.1353011 0.13869417 0.15110485
-0.16789632 -0.040246844 -0.019002449 0.12579894 -0.0016260033 0.0673609 -0.017088052 -0.174089
0.014323128 -0.0038783944 -0.10966214 0.17118956 -0.141716 -0.14970934 -0.12710288 -0.1607814
-0.03589867 -0.09467239 0.1447749 0.094367005 0.083788745 0.15155862 -0.1454533 -0.10545017
0.1489249 0.12868194 0.026842277 0.09878062 0.044776138 -0.012694254 -0.059181847 0.06150652
-0.14379658 0.17414267 -0.15599294 -0.13239671 0.1300895 -0.102919675 -0.084644645 -0.041401412
-0.15460166 -0.007356432 -0.025229245 -0.037759054 -0.00049690105 -0.11873305 -0.032180663 -0.023002293
-0.17523755 -0.13189839 0.13567385 -0.16812624 -0.036337234 -0.10494511 0.17665847 0.1311182
0.08616651 -0.09146439 -0.15802604 -0.027743164 0.107017584 0.022585586 -0.096787274 -0.15873845
0.14936194 0.03570557 0.12451141 -0.15255623 0.024034647 0.16425742 -0.17009619 -0.16594346
-0.16260025 -0.0866882 -0.017017696 0.087059066 -0.06139234 0.13960375 0.14450416 0.11872781
-0.14297849 0.06929873 0.1004502 0.12941594 -0.15965486 -0.036909834 -0.08991574 -0.06702832
0.051478606 -0.009937759 0.07722314 -0.13107242 -0.05469676 0.07564575 -0.06522058 0.022117155
-0.11804603 0.15241158 -0.00020108165 0.06430045 0.009434118 0.017470228 0.16713803 -0.074846625
0.15435268 -0.07225381 -0.0059835906 -0.11347799 0.045138925 -0.1734943 0.04805289 -0.090336226
0.15531844 0.17123032 0.11158243 -0.1647695 0.07838218 -0.13347395 0.011766285 -0.106613636
0.111004256 -0.021546828 0.05568584 0.05558849 0.115099765 0.112836905 -0.0064881817 -0.12559494
0.0653014 -0.06574505 -0.020209799 0.012056154 0.1582963 0.13195357 -0.024374703 -0.08336165

rowAttentions.1.v_net.bias f4 [32]
00000000: 26f7 12be 3393 303d 200c e0bd 5421 1f3e
00000010: 54fb d4bb 8cdc 95bd 078a debd 2792 52bd
00000020: b195 1f3e 7f0d eabd ef75 28be 5f0f 5d3d
00000030: b729 7c3d 3ba5 19be 7358 a4bd 306e 1d3e
00000040: da99 a9bd 2fb5 943d 0b2f adbd d20c 1fbe
00000050: 67b1 2dbe ad29 0a3e 066a 5f3d d0d0 503d
00000060: 580a 7e3d 3222 8a3d e595 ed3d 8445 093e
00000070: a774 0a3e 3fdd 673d 4662 013d d3b6 1d3d
-0.14352092 0.04310913 -0.10939813 0.15540057 -0.006499687 -0.073174566 -0.108661704 -0.051408913
0.15584446 -0.114283554 -0.16451238 0.053969737 0.06156322 -0.15004437 -0.08024683 0.15374064
-0.08281298 0.072611205 -0.08456238 -0.15532234 -0.16962205 0.1349246 0.05454447 0.05098039
0.062021583 0.067448035 0.11600856 0.13405424 0.13521062 0.05660748 0.03158786 0.038504433
