train/checkpoints/uduta8zd/p2jc8hbm.best_checkpoint.pt (torch, 693610 bytes, 203 tensors)

rowAttentions.0.q_net.weight f4 [32, 32]
00000000: 8624 32be 6075 893d dfd4 cf3d 5563 1abe
00000010: ca34 843d 3cf6 193e ae50 2e3c ce30 d8bd
00000020: d3e9 143e 56bc 9c3d a106 f03d 0232 01be
00000030: 8063 d83d 985b f1bd 8151 333e 72a2 93bd
00000040: 6e76 d73d 8781 253d c04f 453d f759 cdbc
00000050: 9194 8f3d 51b6 9cbd e1ab 2abe ea35 87bd
00000060: e923 0c3e f568 49bd c15f 413d 53c4 83bd
00000070: e9c6 063e dce4 d63d 2bc8 763d 1a06 b6bd
00000080: 7339 12be 1839 0d3c fc85 c7bd d16d 173e
00000090: b8fb 28be a45d a73d 0440 343e 7774 ba3d
000000a0: c476 7a3d 30d1 2abe de34 2f3e 526b e7bc
000000b0: 6acc 23be b313 373e c3a7 9abd 85f4 1bbc
000000c0: f8f3 1f3e da0b f9bd c256 fabd c204 033d
000000d0: 3536 c3bc a3b0 213d c08a 1ebe 6ddf a33b
000000e0: abd9 a5bd bcfb b1bd 2002 38be 7bff b93d
000000f0: 3670 093d 1859 17be ff6d 033e c525 683d
00000100: b240 073d 984b d3bd a30f ed3c 4fcf 2e3e
00000110: 36f4 fc3d a959 0cbe 3280 243e d624 663c
00000120: 156c ad3d 5007 0e3e 1cc0 193e fba0 15be
00000130: f304 213e 28a4 f2bd 29bb 6c3c f051 f8bd
00000140: 926b 22bd 32f8 31bb b238 a7bc 8bee d3bc
00000150: dae1 303c 5d00 2f3e 57d3 d53d d8ec cf3d
00000160: 8a37 8d3d 84e9 083e 2c1d 44bc 3550 8b3c
00000170: b405 0a3d 6d61 1ebe e5eb 13be 16a9 b83c
00000180: d837 8bbd a780 17bb 7b3c 12bd 240b f63c
00000190: f64c f53d 8da5 65bd b452 113e e679 113e
000001a0: 20c8 09be 91cb 07be c5aa 10be a533 cabd
000001b0: 32c9 83bd 480c 11bc 1855 3ebd 71cb b0bd
000001c0: a983 75bd 8807 7ebd 9b76 343e 1263 7ebd
000001d0: a511 03be ce1c 8f3d 9a49 6fbc 0278 0b3e
000001e0: 3e2b dd3d 322d 253e 4497 14be 707b e53d
000001f0: f157 163e f9d4 afbd 5e08 1c3e 29fe 0a3e
00000200: 05bb 0a3b b6ab ad3d 5a99 80bd ea4b 1dbe
00000210: 130f 2f3d daeb 593d 5eec eabd 32c7 b03d
00000220: 6aa4 19be 3e1a 1b3e c236 303e 1168 323d
00000230: d3fa e5bd 9c9b ae3d d369 fa3c e635 463d
00000240: 72fc 723d f2af 0a3e 17a5 9abd 3ec4 1fbd
00000250: 0c26 473d 4e65 983c bb58 123e 0ee6 babd
00000260: 1199 babb 19c8 063d f630 44bd b768 f83d
00000270: 3717 9f3c 1288 26be 96a3 a9bc 982f a3bd
00000280: 1ab6 8f3c 0e1e a9bc 2fda 34be 7471 01bd
00000290: 35b2 9cbc 5150 53bd f11b 273e 6c76 1bbd
000002a0: 42a2 ea3d da01 303d 97ee 17be dfd7 183d
000002b0: 8e8f 143e 59a8 edbd f0b8 e8bd 6f94 313e
000002c0: 119a 123e 1261 c9bd 47eb da3d 5c37 b3bc
000002d0: ebe3 31be ca8c 533c 97b5 683d c5c2 54bd
000002e0: 12dd 7e3d f0ba 1abe 97aa f93d dfeb 1a3e
000002f0: c815 c83d 5ddd fb3c e642 683d c773 02be
00000300: 6bc2 31bd 58ef 8abc 7aad cebd 1597 04be
00000310: 8882 ec3d b9a8 f73d 923e 23be d1ea 6a3d
00000320: f0a8 963d 4044 2a3e 1b38 d43d bd8c 1e3e
00000330: 30c8 73bd 955f f83d 8220 153e d826 2abe
00000340: a5b8 0ebe 3451 163d 1964 c73d 876d b1bd
00000350: 4329 a83c 3f2b 78ba f9cc 343d 6ebf bebd
00000360: 2247 ce3d a4d2 f03d ecb6 fbbd ee43 193b
00000370: 4f14 ec39 e373 6d3d 1e38 263e f530 583d
00000380: 12a9 24bd 0bdb 213e 4aef 8cbd 0679 51bd
00000390: ea41 283c 5d9a 09be cdbb a13c 713a f5bd
000003a0: 0ace 9a3c d15b 833c d5ed cc3c 8590 1cbe
000003b0: 6828 2dbe 01f2 a33d 6c21 1c3e ed92 20be
000003c0: 1d1b 8a3d a591 04be 6682 363c dea2 283e
000003d0: 487f 093e 3823 04be d8ef e03d d562 bf3d
000003e0: 143f 8139 a206 2f3e 5a0b 8dbd d294 25bd
000003f0: c590 b7bd 2edc d23c 243f 413d 421a 693c
-0.17396745 0.06711841 0.10148024 -0.15076955 0.06455381 0.15035337 0.010639353 -0.10556184
0.14542322 0.0765311 0.11720014 -0.12616733 0.10565853 -0.11785048 0.1751156 -0.07208718
0.105206355 0.04040673 0.04817176 -0.025067313 0.07010759 -0.076519616 -0.16667129 -0.0660208
0.13685574 -0.04917236 0.04721046 -0.0643393 0.13161816 0.1049287 0.06024949 -0.088878825
-0.14279728 0.008619569 -0.09742352 0.14787985 -0.16502273 0.081721574 0.17602545 0.09104245
0.06114842 -0.16681361 0.17110011 -0.028249417 -0.15995947 0.17878608 -0.07551529 -0.009518747
0.1562041 -0.12160464 -0.12223579 0.03198696 -0.023829559 0.039475095 -0.15482616 0.0050009997
-0.080981575 -0.08690593 -0.1796956 0.09081932 0.03355428 -0.1478008 0.12834929 0.056676645
0.033020683 -0.10317153 0.02893812 0.1707127 0.12351267 -0.13706078 0.16064528 0.014046868
0.08467881 0.13869977 0.1501469 -0.1461219 0.15724544 -0.118477166 0.014448919 -0.12125003
-0.03965337 -0.0027155993 -0.020412777 -0.025870582 0.010796035 0.17089982 0.104407005 0.10152596
0.06895359 0.13370329 -0.011969846 0.01700602 0.033696845 -0.15466852 -0.14445455 0.022541564
-0.06797761 -0.0023117454 -0.03570221 0.03003461 0.1197757 -0.056066085 0.14191705 0.14206657
-0.13455248 -0.13261248 -0.14127643 -0.09873132 -0.06434859 -0.008853026 -0.04646787 -0.08632553
-0.059940014 -0.0620189 0.1762337 -0.0621062 -0.127997 0.06987916 -0.01460495 0.13619998
0.107992634 0.16130522 -0.14510828 0.112051845 0.14681984 -0.08585543 0.15237567 0.13573517
0.0021168601 0.08480017 -0.062792495 -0.1536099 0.042738985 0.05320344 -0.11470865 0.086317435
-0.15004125 0.1514673 0.17208388 0.043556277 -0.112294815 0.08525774 0.030568039 0.048391245
0.05932278 0.1354368 -0.0755102 -0.03900551 0.04862027 0.018602993 0.1429166 -0.09125911
-0.0056945165 0.03290567 -0.047898255 0.12129348 0.01942025 -0.16262844 -0.020707887 -0.07968062
0.017542887 -0.020644214 -0.17661355 -0.031602338 -0.019127944 -0.051590268 0.16319253 -0.037954733
0.114567295 0.042970516 -0.14837109 0.037315246 0.14507887 -0.116043754 -0.11363399 0.17341779
0.14316584 -0.09832968 0.10689407 -0.021876983 -0.173721 0.012911985 0.056813803 -0.05194356
0.062222548 -0.15110373 0.121907406 0.1512904 0.097697794 0.030745203 0.056704424 -0.12739478
-0.043398302 -0.016959831 -0.10091682 -0.12948258 0.11548334 0.12092728 -0.15941837 0.057352845
0.07356441 0.16627598 0.10362264 0.15483375 -0.059517086 0.12127606 0.14563182 -0.1661638
-0.13937624 0.036698535 0.09735889 -0.08663469 0.020527488 -0.00094668934 0.04414079 -0.09313856
0.10072161 0.117589265 -0.12290749 0.0023386437 0.0004502856 0.057971846 0.16232345 0.052781064
-0.0402003 0.15806215 -0.06881578 -0.051140808 0.010269621 -0.13437791 0.01974287 -0.119740374
0.018897075 0.016034992 0.02501575 -0.15289505 -0.16909945 0.08005143 0.15247124 -0.15681048
0.06743453 -0.12946184 0.011139488 0.16468379 0.1342746 -0.1290406 0.109832466 0.093450226
0.00024651794 0.17092374 -0.06886931 -0.04042513 -0.089631595 0.025739755 0.047179356 0.014227452

rowAttentions.0.q_net.bias f4 [32]
00000000: fd4e 643d 01b5 073e a1f3 293d 738c ee3d
00000010: 8383 e93d a081 4a3d dd6e 783d 7f99 6a3d
00000020: e8f6 8c3c 59da 193e 7960 253e 1188 823d
00000030: eb54 57bc eba4 1b3e a348 0fbe f36d 013e
00000040: 8a18 af3d dcd7 d53d 1aa4 b2bc e195 0abe
00000050: 78d8 fc3d 2306 a4bd 1d75 2f3d d831 c73d
00000060: 2b3a 2ebe 261b 0f3c ec6b 84bd dcf3 f43d
00000070: a454 e8bd 0b39 d83d cc73 dd3d 00f1 c53d
0.05573939 0.13252641 0.04149211 0.11647882 0.11402037 0.049440026 0.060652602 0.05727529
0.017207578 0.150247 0.16150083 0.06373609 -0.013142805 0.1519963 -0.13992552 0.12639599
0.08549602 0.104415625 -0.021806765 -0.13533737 0.12345976 -0.08008983 0.042836297 0.09726304
-0.17014377 0.0087345 -0.06465897 0.11960575 -0.11344269 0.10557755 0.10813102 0.09665108

rowAttentions.0.k_net.weight f4 [32, 32]
00000000: ac18 2e3e b3e2 db3c a650 22be 2f53 013e
00000010: 680d 8a3c 930b 733b f9e3 2bbe 4e65 22bd
00000020: cc62 afbd d5de 303e c9ff 003e 345b 063e
00000030: 0e7a f83d 5a12 e0bd 2742 9ebd ce9d 8cbd
00000040: b610 93bd e44b 0e3e 8696 763d 7011 113e
00000050: 8945 0abc a97a 21be b375 51bd 9f4e 003e
00000060: d9fe db3d 1127 603d 48fa 5ebd 2df1 28be
00000070: 5f38 c3bd a213 bc3d 8e4f 93bd fd66 ad3d
00000080: becb 463d 99e6 8abd 7080 d93d aaf6 66bd
00000090: a75d f6bb 9a17 89bd 52b9 2abe b707 ed3c
000000a0: 6631 543d b33e b7bd 64ca df3d e729 23be
000000b0: cb61 30be bb3a e5bd acde 76bd 43ec a1bc
000000c0: 8d88 08bd 2d3e a33d e584 1ebe de29 d73c
000000d0: e09e 733b 0bd9 403d e898 343e cf64 df3d
000000e0: 9314 c5bd a6f2 13be 283b 34bd a220 b5bd
000000f0: a3ff 7d3d 5d4c 2d3b d740 103e 5c51 8f3d
00000100: 7ccd 04bd 1e72 ca3b ebb3 2c3d 92c2 b6bc
00000110: 10eb 113e cdf1 0dbe 80f7 ae3d 2483 e7bd
00000120: 7c1c 1fbe 92da 14bd ba5c ae3d 4842 013e
00000130: 6255 393d 02f1 6abc d03b 1fbc 0b35 93bd
00000140: 3237 81bc acab 53bc 9f9d 193e a235 d33d
00000150: c093 10be f141 773a 3734 e0bd f088 edbc
00000160: 03aa 11be 1e11 3e3d 94ff ffbd 7c75 323e
00000170: a135 0a3e 8940 fabd 7bdf 28be 0249 d13b
00000180: 815b 4cbd dc4a 533d 21f4 f3bd 0fcf 933d
00000190: 6337 1bbe 6c97 bfbd 118e c0bd 97c1 ae3d
000001a0: 382a abbb c535 2dbe b57c cfbd a53d a8bd
000001b0: c1c7 26be 4a2f cb3c 516e 823d c241 05bd
000001c0: 595e 8fbd 67ba 6eba 8ed4 0fbe c23d dcbd
000001d0: 8134 9dbb d461 203e 2e4a 62bd c7f6 b13d
000001e0: 81b3 8ebd f7d0 44bd b4da 2abe 41f2 153e
000001f0: e92a 2f3e 2774 81bb 7e9d e83d 2bd9 133e
00000200: aec5 b33d ec4a ba3d b373 2cbe 8312 2abe
00000210: 8d26 0bbe dda6 623d a884 1cbe 3727 0abe
00000220: 2263 afbd 37d6 26be bef1 c339 08e8 ce3c
00000230: 2445 d4bd 3d3f ed3d 793a 89bd 32c5 4bbd
00000240: 9f05 0a3e c865 1b3e 3be5 a5bc ece8 01be
00000250: 79aa b5bd 6459 b93c 1758 d43d 558f b43d
00000260: 0cbf 9fbd 3124 2bbe 81ad 1ebe 13e0 65bd
00000270: b655 0c3b 1188 a2bd 512d 0fbe 42c0 983c
00000280: 6bb1 0fbe 9a16 0bbe d970 13be f706 44bd
00000290: 9531 1f3e 7f9f 8d3d 2043 aabc f831 153d
000002a0: 699a 903d 0b00 243a 96fe 11be 0e2c e2bd
000002b0: 91fe f6bd 5b0f b2bb a913 25be 26ee 03bd
000002c0: 2d76 82bd fd7d 313e 9830 133e cc4f d23d
000002d0: 1f6b 233c dc72 69bd e5a7 383d 00c2 f9bd
000002e0: cee6 99bd 276a 11bd 0ff5 26bd f030 2bbe
000002f0: 0fc0 8f3d 3629 153e 1fd3 c6bd 405a 433d
00000300: c3e2 a3bc a1c7 c7bb 10d8 293c 0e86 1d3e
00000310: fbd7 bf3c 64ea e3bd 2c50 81bd 7331 b23d
00000320: e073 643d 487b 623b bbdd b9bc 14de 8dbd
00000330: b868 80bd 0074 bdbd 3f1f e83c 45b9 4d3d
00000340: 4fbc 093e 3a96 22bd c6f8 583c 1889 eb3d
00000350: 8444 9e3d c87b b23c fad1 5b3d 6e4d 1c3c
00000360: 1657 1bbe bf97 e83b 9fbb 2abd 0c23 233e
00000370: de03 243e 4939 123d 0ab3 1e3e b23c b9bd
00000380: 19ba 1c3e 9d83 1b3e 26bb d4bb be24 12be
00000390: 7274 65bd 33d0 44bd 49b0 0a3b 6200 25be
000003a0: f041 023d cfb1 95bd 0924 3dbd 99b8 b6bd
000003b0: 72ec 16bd f8e8 27be afa4 bfbd 76cd 7f3c
000003c0: afae ed3d b33b 243e c8bf 09be 7b19 963d
000003d0: 0f2d cdbd 0e01 0bbe 51e3 eebb b353 d1bd
000003e0: e136 1cbe 4491 29be 7aad ebbd 65c1 143e
000003f0: fddd c83d 042b 91bd 8d0e ebbd 150e 0cbe
0.17001599 0.026841497 -0.15851077 0.12629388 0.016852096 0.0037085756 -0.16786183 -0.039647393
-0.08563766 0.17272504 0.12597574 0.13120729 0.12132655 -0.10941 -0.07727461 -0.06866036
-0.07180922 0.13896137 0.060202144 0.14166808 -0.00843943 -0.15769447 -0.051137637 0.12529992
0.10741968 0.054724757 -0.054437906 -0.16498251 -0.09532236 0.09183432 -0.07192908 0.08466909
0.048534147 -0.06782264 0.10620201 -0.05638758 -0.0075184884 -0.06693955 -0.16672257 0.028934343
0.051804923 -0.08947506 0.10927275 -0.15933953 -0.17224805 -0.111928426 -0.06027095 -0.019765979
-0.03333335 0.079708435 -0.15480383 0.026265081 0.0037173554 0.04708199 0.17636454 0.109078996
-0.09623065 -0.14448032 -0.04400173 -0.08844115 0.062011372 0.002644322 0.14087234 0.0699794
-0.032422528 0.0061781546 0.04216377 -0.022309575 0.14249825 -0.13861771 0.08543301 -0.1130431
-0.1553821 -0.036341257 0.0851378 0.1262294 0.045247443 -0.014339687 -0.00971885 -0.071878515
-0.01577339 -0.012919348 0.15001534 0.10312964 -0.14118862 0.0009432128 -0.10947459 -0.028995961
-0.1422501 0.046403043 -0.124999195 0.17427629 0.1349702 -0.1221934 -0.16491501 0.006386877
-0.049891952 0.051585063 -0.11911798 0.07217228 -0.15157847 -0.09355053 -0.09402097 0.08533018
-0.0052235387 -0.16915043 -0.10131208 -0.08214883 -0.16287138 0.024802823 0.063686974 -0.032533415
-0.07000417 -0.00091067556 -0.14045927 -0.10753967 -0.0047975187 0.15662318 -0.055246525 0.08689647
-0.069678314 -0.048050847 -0.16684991 0.14643194 0.17106213 -0.003950614 0.11358164 0.14438312
0.08777939 0.090963215 -0.16841011 -0.16608624 -0.13588925 0.055334914 -0.1528498 -0.13491522
-0.0856383 -0.16292654 0.0003737341 0.025257125 -0.1036475 0.11584327 -0.06700606 -0.049748607
0.13478707 0.15175545 -0.020250907 -0.12686509 -0.08870406 0.022625633 0.10368364 0.08816401
-0.07800111 -0.16713025 -0.15495874 -0.056121897 0.0021413392 -0.07936109 -0.1398213 0.018646363
-0.14032523 -0.1358284 -0.14398517 -0.047858205 0.15546258 0.06915187 -0.02078396 0.036424607
0.070607014 0.000625611 -0.14257273 -0.11043559 -0.120602734 -0.0054339594 -0.16120781 -0.032209538
-0.063701965 0.17333217 0.14374006 0.10269126 0.00997427 -0.056994304 0.04508199 -0.12195206
-0.075147256 -0.035501625 -0.04076105 -0.16717887 0.07019054 0.14566502 -0.09708237 0.04769349
-0.02000559 -0.0060967957 0.010366455 0.15383169 0.023418417 -0.11128691 -0.0631412 0.08700838
0.05577457 0.0034558345 -0.022688737 -0.06927124 -0.062699735 -0.09250641 0.028335212 0.050225515
0.1345074 -0.03969405 0.013242906 0.11500758 0.07727912 0.02178754 0.053667046 0.009539945
-0.1516994 0.0070981677 -0.041682836 0.15931338 0.160171 0.035699163 0.15497985 -0.0904478
0.15305366 0.15186925 -0.0064920364 -0.14271829 -0.056019254 -0.048050117 0.0021162203 -0.16113427
0.031801164 -0.07309305 -0.046176944 -0.08921928 -0.036846586 -0.16397464 -0.09357583 0.015612951
0.11605584 0.16038398 -0.13452065 0.07329079 -0.1001836 -0.13574621 -0.007290282 -0.102210425
-0.1525531 -0.1655932 -0.115076974 0.14526899 0.09807966 -0.07088283 -0.11477385 -0.13677247

rowAttentions.0.k_net.bias f4 [32]
00000000: 45ba 9ebd cdca 1a3e a2ad fa3d 5798 253e
00000010: bf81 2fbe a9c5 0e3b 1338 73bd fe15 323d
00000020: 0b81 08be 52b8 983d fab1 20bc 74ec abbd
00000030: a743 24be bcd0 bd3d 984b 81bd 37c3 053e
00000040: 5de3 033d f729 493d 167e c9bc dc87 c1bc
00000050: 2b14 77bd 48b5 1bbe 1f8f e33d 6845 e6bd
00000060: da60 d23d 6c9b 74bd ab03 e93d c0e5 173e
00000070: 7b14 dbbd e4ff 143e db77 5e3b 28be 0abe
-0.07750372 0.15116425 0.12240149 0.16171394 -0.17139338 0.0021785295 -0.05937965 0.043478005
-0.13330476 0.07457031 -0.009808058 -0.08394709 -0.16041432 0.092683285 -0.063132465 0.1306275
0.032199252 0.049112286 -0.024596255 -0.023624353 -0.060321968 -0.15205872 0.111112826 -0.11243707
0.10272379 -0.059718534 0.11377653 0.14833736 -0.10697266 0.1455074 0.003394595 -0.13549101

rowAttentions.0.v_net.weight f4 [32, 32]
00000000: 7a45 8f3d 001e c33d cac0 193e 182c 2abe
00000010: 17ac 203e 92fe 093e e651 303e 9060 c93d
00000020: 53b1 a8bd 8bd9 0d3e 73e2 273e f342 c3bd
00000030: 5c8c 05bd a6bb 323e e59a 063e b512 e63d
00000040: f42c 033e 0994 b7bd c4ea e9bc 2607 85bd
00000050: 41e2 b83d d11b 193d d9cd 1cbe 33db c0bc
00000060: 9337 0fbe a7e7 25be 7fb1 353e c699 99bd
00000070: 3c67 873d e559 0fbd 9dc7 d8bc 694d 1cbb
00000080: 9384 103e 6499 c9bc 2266 0f3e 32c9 ca3d
00000090: a797 053e 54c9 26be 02b4 9fbd d3e1 17be
000000a0: cd00 1ebd e9f2 15bd 794a 103d 173a 4c3e
000000b0: d478 953d a132 13be 6690 eebd 7e85 073e
000000c0: 689a 943c fe6c 3e3d 2315 cbbd ab84 03bd
000000d0: 3fc5 453d 1804 e1bd 79b5 033e 0de9 bc3d
000000e0: 1d80 d5bd ff53 8ebd 57ed 7cbd 6aba cf3c
000000f0: bb5f 3fbd 8646 293e a3fb 29be d95a d3bd
00000100: 5b3b d9bd 34a5 383d 094d b63c 49f2 58bd
00000110: 540e 183e cf80 1dbe 5b08 863d 1058 ccbd
00000120: d4a9 22bd d82c 2ebe db21 06be 7b5a 0bbe
00000130: af60 963d e7f3 9dbd a998 ae3d 81d2 c1bd
00000140: 010a 46bd d695 cf3c c62f 143e c799 55bd
00000150: 8e41 d53d e0cc 403d 56b0 f13d b203 ef3d
00000160: edbc 973d 7b5b 5ebd 3c32 5fbd a07f 933d
00000170: 04d5 cc3d 3a22 19bc f378 c43d c055 e0bd
00000180: 4346 c83d abf1 b3bc 5127 f0bd e57b b4bd
00000190: 2f58 02be d7fb 0b3d bbee dcbd 25e3 58bd
000001a0: 4f81 0cbc c82d e5bd bb9d 873b a136 47bc
000001b0: 942d 5a3d 71ce 203e 5425 fdbd bdc9 bc3d
000001c0: 8234 a9bc dafc c7bd 501a abbd fb98 3b3d
000001d0: 83f4 0b3d f2d4 6dbc ad0b c6bd 9769 c53d
000001e0: d0ec 433d 52d0 29be 609a 26bd 1582 0dbd
000001f0: 18f2 a7bd e8be c3bd 2d90 16be b0e5 2b3e
00000200: d754 24be dea0 293e e53f 0dbe 5850 2ebd
00000210: 4ef8 8cbd 4337 c1bd 6acb 803d 1180 d23d
00000220: 3c7c ecbd d960 a9bd b34b b93d be48 5abc
00000230: 9fe6 2e3d 50d8 c13d d09c 8abd 1c7a c9bd
00000240: 4bcd 7f3d f91f 84bd 1f5b f0bd bf31 b6bd
00000250: c2a5 a6bd 900b 303e 7898 163d f323 9a3d
00000260: b5ae ea3c 9d5a f1bd 6276 e73d 4347 d6bc
00000270: 73e3 36bd 649c 133e fcf2 c3bd b413 133d
00000280: 2466 1cbe 4700 bd3d dc77 a13d ec05 15be
00000290: 94c8 c93d 0a00 a63c 01cd c1bd 5021 1a3e
000002a0: 2229 923d 3c8b 833d 242f 8cbd 1069 b6bd
000002b0: a27a b8bd 8990 9c3d 4220 413d de48 dabd
000002c0: aec7 203e 9660 ca3d fcb7 87bd 9fb6 be3d
000002d0: ddc3 95bd 61eb 853d 7f50 103e 7547 27be
000002e0: 8d08 b7bd 8f87 35bc 5e7b 0d3d 6706 21be
000002f0: 0686 f1bd 4a1a 98bc 2dd6 fbbc 3959 213d
00000300: 7360 943c 23a9 0b3d 22f3 b63c 33d5 913c
00000310: bce0 7cbb 5961 753d 90b7 f03d efe5 b9bd
00000320: 5cf7 c2bd 4d9a ac3d e6c5 05be d5ca ef3d
00000330: 516d a63d e244 063d 1c25 9bbd 5e16 0f3b
00000340: 4846 11be 1d52 28be bc3b 293e 1d91 24be
00000350: ae57 16be f199 82bd e203 0f3c 63aa 0c3d
00000360: 2270 b5bd 27d6 a0bc f90b 1abd 818c 1a3e
00000370: 5677 193e c17c 8c3d 2210 7d3c 0b12 063e
00000380: 4e8d 0ebe d590 9c3d d264 e6bd d168 0d3e
00000390: 554e 23be 3123 853d 4399 0fbe aeed d33d
000003a0: 7465 0e3d 268f 1c3e 624d 07be 27ac f93d
000003b0: b921 f5bd 07ef d7bd 7b35 8c3d c159 dfbc
000003c0: d5a6 0dbe ece5 18be 7d51 40bd 6b01 3d3d
000003d0: 1aed 1c3e f6d3 fc3d 8ae2 293c 6c69 dcbd
000003e0: 92d0 26be 55e0 243e 6830 d6bd 5c43 e4bc
000003f0: b536 0abe 961a f8bd 4846 e93c 659e 31bd
0.069956735 0.095272064 0.1501495 -0.16618383 0.15690647 0.13476017 0.17218742 0.09832871
-0.08236947 0.13852517 0.16394977 -0.09534254 -0.03260456 0.17454395 0.13145025 0.11234037
0.12810117 -0.08963782 -0.028554328 -0.06495504 0.090275295 0.037380043 -0.153129 -0.023542022
-0.13986044 -0.1620165 0.1774349 -0.07500033 0.06611487 -0.03499784 -0.02646237 -0.002384985
0.14113073 -0.024609275 0.14003804 0.09901656 0.13046132 -0.16287738 -0.07798006 -0.14832239
-0.038574982 -0.03660861 0.035227273 0.19944035 0.07298437 -0.14374782 -0.116486356 0.13234517
0.018140033 0.04649066 -0.09916141 -0.032108944 0.04828381 -0.10987109 0.12862195 0.092241384
-0.10424826 -0.06949615 -0.061749782 0.025357444 -0.046722155 0.16530809 -0.16599898 -0.10320062
-0.10607024 0.045079425 0.02225353 -0.052965436 0.14849216 -0.15381168 0.065445624 -0.09977734
-0.039712742 -0.17009294 -0.13098852 -0.13608734 0.0734266 -0.07712536 0.08525211 -0.094639786
-0.048349384 0.025340002 0.14471349 -0.052148607 0.10412894 0.047070384 0.118012115 0.11670627
0.074090816 -0.05428646 -0.054491267 0.07202077 0.10001567 -0.009346539 0.09593382 -0.109538555
0.09779026 -0.021965822 -0.11726249 -0.088126935 -0.12728952 0.03417572 -0.10787722 -0.052950997
-0.008575751 -0.11190373 0.004138676 -0.012159021 0.053266123 0.15703751 -0.123606354 0.09218166
-0.02065492 -0.097650245 -0.08354628 0.04580019 0.03416873 -0.014516102 -0.09670196 0.0963928
0.047833264 -0.16583374 -0.040674567 -0.034547884 -0.082004726 -0.09557897 -0.14703436 0.16786838
-0.16047989 0.16565272 -0.13793905 -0.04255709 -0.06883298 -0.094343685 0.06288798 0.10278333
-0.11547133 -0.08270425 0.090476416 -0.013323007 0.042700406 0.094650865 -0.06768191 -0.09837744
0.062451642 -0.06451411 -0.1173613 -0.08896207 -0.081370845 0.1719191 0.0367665 0.07526388
0.02864776 -0.11784861 0.113018766 -0.026157027 -0.044650506 0.14415127 -0.0956783 0.035907462
-0.15273339 0.092285685 0.078841895 -0.1455304 0.0985271 0.02026369 -0.094629295 0.1505177
0.07136752 0.06423041 -0.06844929 -0.08906758 -0.09007765 0.076447554 0.047149904 -0.106584296
0.15701172 0.098817036 -0.06626889 0.09312176 -0.073127486 0.065390356 0.14093207 -0.16335852
-0.08937178 -0.011079683 0.03454148 -0.15725099 -0.11793141 -0.018567223 -0.030741775 0.03939173
0.018112397 0.03409685 0.022332732 0.017801857 -0.00385861 0.05990729 0.11753762 -0.090770595
-0.09519836 0.08427868 -0.13063774 0.11708609 0.08126319 0.032780536 -0.075754374 0.00218334
-0.14186966 -0.16437574 0.16526693 -0.16070981 -0.14681885 -0.06377018 0.008728953 0.03434218
-0.08859278 -0.019633366 -0.037609074 0.1509266 0.1498693 0.068597324 0.015445741 0.1309282
-0.13921091 0.07644812 -0.11249699 0.13809516 -0.1594785 0.06500853 -0.14023308 0.10348068
0.034764722 0.15288982 -0.13213113 0.121910386 -0.11969323 -0.10543638 0.06846138 -0.027264478
-0.13833173 -0.14931458 -0.046952713 0.04614393 0.15324822 0.12345116 0.0103689525 -0.10762295
-0.16290501 0.16101201 -0.104584515 -0.02786415 -0.13497432 -0.12114446 0.028475896 -0.043363947

rowAttentions.0.v_net.bias f4 [32]
00000000: 96a4 0abe c795 073e 9eb4 c63c 73e4 903b
00000010: 1782 31be c4cd 193e 74b1 ebbd af4b a63d
00000020: 6099 8cbc fff7 863b 1232 b23d d53d 51bd
00000030: 5502 41bd 9e8c 103e 82ff 09be ed3b a13d
00000040: 52e5 50bd fb8f 80bd 6505 eb3d f7d1 1e3d
00000050: b52c 24be f03a 243e 1b03 c0bd 9fed 1c3e
00000060: 3ffd 81bd 7ea2 373e a422 563d 74b0 e3bb
00000070: 6fd8 863d c371 21bb f5b5 b1bd e974 d53d
-0.13539347 0.1324073 0.024256047 0.0044217645 -0.17334782 0.150199 -0.11508456 0.08119904
-0.017162979 0.004118919 0.087009564 -0.05108436 -0.047121365 0.14116141 -0.13476375 0.07872758
-0.050999947 -0.06277462 0.11475638 0.038774457 -0.1603268 0.16038108 -0.09375592 0.1532502
-0.06347131 0.1793308 0.05227913 -0.006948525 0.0658425 -0.0024634458 -0.08677284 0.104226895

rowAttentions.0.proj_net.weight f4 [32, 32]
00000000: f629 043e a262 3fbd 238a 263e 7be8 493c
00000010: 0606 b3bd daec b2bd fb30 ed3d 8d4e 90bd
00000020: 96e4 d73d 1201 39be b791 34ba c342 debd
00000030: 1c10 743d 7722 1a3e ffe7 733d 806b 52bd
00000040: f1bd 2fbe 2292 8bbd 1b53 e8bd 3d36 283e
00000050: 8dd9 d3bd a1e7 7b3d 086e 133e 0dbc 893d
00000060: b65f 28be 66b4 86bc 15c7 70bd 289e f33d
00000070: 89c4 bbbc 97c0 453a 3e69 233e b7c4 333d
00000080: 50de 923d a5fa 54bd 45dd f83d d541 cd3c
00000090: b556 28bd de21 003d 19f9 0cbe d188 9c3b
000000a0: 84b2 ac3d 5c13 25be 805b b9bd 1159 dd3d
000000b0: 1afa 5b3c 5226 333b 37f3 6f3c 7134 a0bd
000000c0: c0b3 143e eb15 d6bc ad72 61bd a77a bc3d
000000d0: ec28 15be c505 04bd 36f0 7d3c 2843 5fbd
000000e0: 8bce c83d 8a79 16be 9022 56bd 39d5 9dbd
000000f0: 17ae 243e ba3a 913d fa65 04be 7165 803d
00000100: 5c5a 87bc e031 303e b897 d13d fb81 e6bd
00000110: 24ac 203e d2ed 17bd fce4 15bd b2b9 703d
00000120: c2e2 2f3e 51db 4f3d f3b4 26be 34e9 6bbd
00000130: ea7d 303e 71ae 8fbd 3e2b afbd b766 14be
00000140: 80c0 e3bd 7a5d d6bd 6f67 f53c addc 813d
00000150: 6874 323e 67de f33d 6467 193c 687b bb3d
00000160: b519 d53d 9105 21be bf57 c83d 31ac f1bd
00000170: b5ef 0e3e 4b4c 9bbd 8550 f83c 98ce 6b3b
00000180: 88c9 ad3d e130 b43c 5acf 0abe 96ef a93d
00000190: 504c db3d de76 c0bd 64df f6bd ec61 febd
000001a0: 2dbd a6bd 5432 69bc 5cdf 3b3c bca9 58bb
000001b0: 3348 54bd 0000 e03d af07 823c 2982 d8bd
000001c0: ecc8 1abd fa98 c9bd f960 56bd af23 1fbe
000001d0: 3260 dd3c b9ac 0dbe c9da 863d 8454 003e
000001e0: 2cf8 0cbe c827 bbbd 8485 12be c42b 2d3d
000001f0: e4bc 023d 2896 c5bd 55d0 e83d 3807 8d3d
00000200: b1f0 36be 2a24 9b3c 80e0 92bd f6f3 14bd
00000210: f7ec bf3d 6187 fdbc 00fc dfbd 67bf 063e
00000220: c6ea 26be 9b23 7abd 618c a83d 0d66 083e
00000230: 3ff7 373e 8f01 56bd 5fba 853d a138 2abe
00000240: 07d5 19bd b159 c8bd f0bf 693d e5bf 05be
00000250: 329e 5f3d 6a2e d33d 5345 0d3e 8e43 1bbd
00000260: 1116 373e 5d37 3abe 57e8 28bd 29c2 813d
00000270: 139d 4b3d 819c a03d bb1f 02be 914f da3d
00000280: 8f3d 24be 56e4 f6bd f96f 8ebc af65 2fbe
00000290: 3752 2cbe 0566 21be 474b 113e dfee 2e3d
000002a0: 862d 6ebd 1f09 a5bb 4791 1ebe a664 2cbe
000002b0: 7dd5 fdbd aa6f 34be 062b fb3d 93cd 7dbd
000002c0: ae23 34bd f316 1ebe 213b e43c ce4a d0bc
000002d0: 2e8b efbd 8f3c ef3d 05f5 183e 2860 02be
000002e0: 2787 cf3d 514c 12bd c6e1 9c3a 1a4a 913d
000002f0: 8a1b 06bd 0000 153e 832d e83d f788 ebbd
00000300: d7dd eebd 103f 29be c7b5 713d 19b1 06be
00000310: 8906 1bbe 9cb1 ebbd e74d 36be 0d56 17be
00000320: 59e9 243e e5de de3d 44a0 1d3e f837 acbd
00000330: ec62 8ebd 962e 83bd d36d 473c 5fc4 0bbe
00000340: 185b 173d 1ff0 f1bd dcbc 453d 30a4 303e
00000350: 3b28 003d b1d7 053e 39d6 03be febf dabc
00000360: 96f0 d7bd 0fce bebc 13a9 88bd 5856 dcbd
00000370: 7968 2ebe 6513 9cbd 6fa8 e13c 174d 10bd
00000380: 7600 2ebe 9794 143e 6029 053e ce37 ddbd
00000390: e13e 903c de88 e33d 3bbd 29be 1ac5 1cbe
000003a0: 476f c63d 4d98 6c3a 3fdc 7c3d f235 aebd
000003b0: 4357 123d 50c8 e43d eddb 10bd cf8b 6fbd
000003c0: d863 2cbe 12cd 1fbd f4b8 e93d 3636 25be
000003d0: 11cf 88bb 8073 083e 2314 4ebd fbf1 8cbd
000003e0: 8c39 4abd 5723 9dbd e5ef c73c c056 2fbe
000003f0: 9a66 923d a24f 55bd 6036 ccbc f77c 29bc
0.12906632 -0.046724923 0.16263632 0.012323494 -0.08741383 -0.08736582 0.11581608 -0.07046232
0.10541646 -0.18066815 -0.0006888168 -0.108525775 0.059585676 0.1505221 0.05954742 -0.05137205
-0.171623 -0.06814982 -0.11343976 0.1642694 -0.10344229 0.061500195 0.14397442 0.06725321
-0.16442761 -0.016443443 -0.05878361 0.118954 -0.022920864 0.0007543652 0.15958115 0.043888774
0.07171309 -0.051996846 0.12151579 0.025055805 -0.041098315 0.0312823 -0.13766898 0.004777052
0.08432487 -0.16120666 -0.09050655 0.10808004 0.013426328 0.0027336073 0.014645389 -0.078225024
0.14521694 -0.026133498 -0.055041004 0.092030816 -0.14566392 -0.032232065 0.015499165 -0.054507405
0.0980502 -0.14694801 -0.052279055 -0.077066846 0.16082035 0.07091279 -0.12929526 0.062693484
-0.016522579 0.17206526 0.10234016 -0.112552606 0.15690666 -0.037092037 -0.03659533 0.058770843
0.17176345 0.050746266 -0.16279964 -0.057595447 0.17235532 -0.07015694 -0.0855317 -0.14492308
-0.11120701 -0.10467048 0.029956548 0.06340919 0.17427218 0.11907654 0.009363029 0.09154397
0.10405294 -0.1572478 0.09782361 -0.11800421 0.13958628 -0.07582911 0.030311832 0.0035981294
0.08485705 0.021995964 -0.13555661 0.082976505 0.10707915 -0.09397672 -0.12054327 -0.12421021
-0.08141551 -0.014233191 0.011466827 -0.0033060154 -0.051826667 0.109375 0.015872804 -0.10571701
-0.03778927 -0.09843631 -0.052338574 -0.15540956 0.027023409 -0.1383542 0.06584699 0.1253224
-0.13766545 -0.09138447 -0.14308745 0.042278066 0.03191842 -0.09647781 0.11367861 0.068861425
-0.17865254 0.018938143 -0.07171726 -0.03636547 0.09371369 -0.030948343 -0.10936737 0.13158952
-0.16300496 -0.061069112 0.082299 0.1332018 0.1796541 -0.05224758 0.06529688 -0.16623165
-0.037556674 -0.09782732 0.05706781 -0.13061483 0.054594226 0.10311587 0.13795976 -0.037906222
0.17879511 -0.18185182 -0.0412372 0.06335861 0.049710345 0.07842351 -0.12707417 0.10659707
-0.16039108 -0.120552704 -0.017387377 -0.17128633 -0.16828237 -0.15761574 0.14188872 0.042708274
-0.058148883 -0.0050364877 -0.15485106 -0.1683527 -0.12394235 -0.17620721 0.122640654 -0.06196363
-0.04397934 -0.15438442 0.027860226 -0.025426295 -0.11696468 0.116814725 0.14937218 -0.12731993
0.101332 -0.035717312 0.0011969141 0.07094212 -0.032741107 0.14550781 0.11336806 -0.11500733
-0.11663406 -0.16527963 0.059011247 -0.13153495 -0.15139212 -0.11508486 -0.17803155 -0.1477892
0.1610464 0.108823575 0.15393168 -0.08409113 -0.069524616 -0.0640537 0.01217218 -0.13649128
0.03695211 -0.118133776 0.048275813 0.17250133 0.031288367 0.13070561 -0.12874688 -0.026702877
-0.10543935 -0.023291616 -0.06672873 -0.10758656 -0.1703204 -0.07620887 0.027546136 -0.03522977
-0.16992363 0.14509808 0.13004065 -0.108016595 0.017608108 0.1111009 -0.16576092 -0.15309563
0.09689193 0.000902538 0.06173348 -0.08506383 0.03572775 0.11171019 -0.035365988 -0.05848294
-0.16834962 -0.03901393 0.1141223 -0.16133961 -0.004175075 0.1332531 -0.050312173 -0.068820916
-0.049371287 -0.07672756 0.024406383 -0.17122936 0.07148476 -0.052077897 -0.024928272 -0.010344735

rowAttentions.0.proj_net.bias f4 [32]
00000000: e330 043e ea28 283e 06fa a93d 379a 04be
00000010: 153e 37bd 8381 0b3e 64f5 fc3d ba22 75bd
00000020: f966 f83d 7e56 e3bd fb01 593d 1b6e 0c3e
00000030: a262 143d 3137 01be 8267 673d 17ce d83d
00000040: a32c e73d cc4d efbd 8114 c5bc 5a2e 07bc
00000050: 815c c2bc 341d 1dbd 5c4a 7abd 1018 623d
00000060: 6024 a33d ced7 e4bc 180a 003e 5dea bbba
00000070: f1e6 1c3d 0a95 5c3d 5610 91bd 76ff a7bb
0.12909274 0.16421857 0.08299641 -0.12949453 -0.04473694 0.13623624 0.12351492 -0.05984757
0.121290155 -0.111004815 0.052980404 0.13713877 0.036226876 -0.1261871 0.056495197 0.105861835
0.11287811 -0.116847605 -0.024057629 -0.008250797 -0.02372575 -0.03835793 -0.06110607 0.05519873
0.07965922 -0.027934935 0.1250385 -0.0014336813 0.03830618 0.053853072 -0.07083194 -0.005126889

rowAttentions.1.q_net.weight f4 [32, 32]
00000000: c82c 073e 8aac 30bc 6a75 f93d 19c5 d13d
00000010: b816 c7bc ca1a 96bd ea97 c0bd c966 11be
00000020: 1900 d7bd b91a 3f3d a1eb 803d 659c 35bd
00000030: e0a1 6abc b536 013e c3c1 b93c 8746 fcbd
00000040: 80f9 153e aede da3d 3f3d a83c 14b3 ab3d
00000050: 476c 18be dc7c d43d 4c96 2e3d d180 8dbc
00000060: 8529 66bd 58f5 123e 2b88 163d e982 ccbd
00000070: d33a a13d d9a7 fd3c d7fa 83bd 551c fd3d
00000080: a24d 353e 38b7 edbb 2289 8fbd 6f19 c0bd
00000090: 952f b6bd 07b1 bc3d c2f2 e23d 7caf d7bd
000000a0: d1ce cb3d 1275 ce3b 66ff ccbb aeb7 35bd
000000b0: a88c 24be a567 18be a257 fc3d 28e0 ebbc
000000c0: 4b76 6bbc cdc9 d9bd df6c f7bc 2691 90bd
000000d0: 46d1 913c 77da 2cbe e9e8 783c 51f1 22be
000000e0: b24c ffbd 8727 b2ba 15e0 b2bc c1dc 53bd
000000f0: 8988 cf3d 1bc9 403c dca5 fc3c 2fe6 8d3d
00000100: bcec 193c 8e14 1fbe 6175 82bd e9f4 e03d
00000110: 9315 db3d 59e4 7c3d 84fe 1d3e 562f bcbd
00000120: ead0 56bd ea4a d6bc ef22 35bd 7963 2c3e
00000130: b490 34be 35d3 283d 8b36 2b3e c263 cabd
00000140: d620 083e 79bb 1bbe cef7 e83c 696d d1bd
00000150: ee73 653d bfd5 203d ee3c 203d 45ca 2fbd
00000160: f0e0 53bd c982 2ebe 1f65 e83c ea49 2a3e
00000170: 538e 09be 3ace 8ebd 7d6e 313d 5551 b53d
00000180: 9041 833d 0e92 ed3d 36fa cd3c 601e 3bbd
00000190: a68a 12be 11ac 35be 36c0 0dbe cc23 b63d
000001a0: e746 223e e467 2b3e a051 073e 2eff c93c
000001b0: a674 f93d b0fa 943d d073 ffbd d911 febc
000001c0: 3b44 2ebe ae6a 1a3e 5e8c 153d 2fc9 243e
000001d0: c7e1 a5bc 7014 123e 1140 a63d 9f2e bdbc
000001e0: ab8e afbb 1238 013e e807 b5bc 8ef2 083e
000001f0: b878 193d 915e 91bd befe a9bd 0e12 b3bd
00000200: 8e71 e63d 345a 083e 2d90 a9bd 4a69 24be
00000210: 019e ce3d e685 28bd fb8c 27be a0c4 173d
00000220: c9fa 9cbc 3a23 043e bce6 183d 0697 dcbd
00000230: 26d3 02bd e82d f9bd 52dd a63d 581d 533d
00000240: d899 d63d 772a 06be c06e cbbd 6272 dabd
00000250: 1aaa 15be 16ff 27be 49bf 12be 2714 f83d
00000260: faa0 5dbd 0905 0abd e872 5b3d 832b 3b3d
00000270: 94ca a13d 2c34 ffbd 4648 223e 8ab7 64bc
00000280: a319 aebd ff66 e83d 8777 15be a9e6 d4bd
00000290: 442e cd3d 23ec 8a3d b2da 90bd f8e4 63bc
000002a0: c95e 0cbd 1e37 973d 6d23 0f3d 6442 853d
000002b0: 16eb 153e 9ee0 ecbd 3be8 0cbe d789 2dbd
000002c0: 381a a4bd 6ad6 ffbd 938f 273e ff1d 183e
000002d0: f005 123e b1bb debd 1715 a9bc e2cb 0ebe
000002e0: c391 83bd b675 153e cd35 af3c c2ff 783d
000002f0: 892b 34be a262 953d ab8d f53d 7f6f 8bbd
00000300: 568a 083e 5999 a23d 60cc 03be e3ab 07be
00000310: 5df8 543b 180a 2fbe 9066 febd 35e4 8d3d
00000320: be19 74bd be6f acbb c791 94bd 7eca ec3d
00000330: 971f 143e ee88 063e 825f 22be da17 57bd
00000340: 5a73 ae3d efdd d63d 6d50 25bd e388 c63d
00000350: dec5 bdbb d253 a23c b162 f63d 9c9f f53d
00000360: e08c fdbd 6de2 ddbd c882 803d 27d2 d93d
00000370: c63d 2abd 137c 203e 2861 9ebc e1bb b7bd
00000380: 6e88 9abc 279c 1abe 2d54 633d 7563 25be
00000390: 018a 283e 5000 0abe e6c3 ea3d de74 07be
000003a0: 021d e0bc e813 c5bd 33a5 b83d b2d1 d23d
000003b0: 94f7 28be 864c 16be 5ec5 af3c 818b 86bb
000003c0: 09f1 633a 48f6 5d3d 12e6 10bd 3a5c 193e
000003d0: b2ff 4f3c 29d9 a5bd 0df1 7c3d 2f0d 0ebe
000003e0: 28ff adbd 4558 4e3d 104e 99bd 0f47 2dbe
000003f0: e070 b43d 8d71 3a3d 518e 563d ec1c 7a3d
0.13200676 -0.010783324 0.12180598 0.102426715 -0.024302825 -0.07329328 -0.09403975 -0.14199366
-0.104980655 0.046656344 0.06294943 -0.044338603 -0.014320821 0.12618525 0.0226754 -0.123181395
0.14645958 0.10687004 0.020537017 0.08383766 -0.14885055 0.103753775 0.042623803 -0.017273339
-0.05619194 0.14351404 0.036750954 -0.09985907 0.07872548 0.030963825 -0.06444328 0.123589195
0.17705396 -0.0072545074 -0.07008578 -0.09379851 -0.08895794 0.09213453 0.11081459 -0.10531518
0.099515565 0.006300577 -0.006256032 -0.044364624 -0.16069281 -0.14883287 0.12321402 -0.02879341
-0.014371465 -0.106341936 -0.030203281 -0.07058935 0.017799985 -0.16880213 0.015192249 -0.15912367
-0.124658 -0.0013592102 -0.021835366 -0.0517242 0.10133464 0.011766697 0.030840807 0.0692867
0.009394821 -0.15535185 -0.063700445 0.10984213 0.10697474 0.061741207 0.15429121 -0.09188716
-0.05244533 -0.026158769 -0.04422277 0.16834821 -0.17633325 0.041217048 0.16720025 -0.098823085
0.13293776 -0.15208234 0.028438475 -0.102259465 0.056018762 0.039266344 0.039120607 -0.04291751
-0.05172819 -0.17042078 0.02836853 0.16629758 -0.13433199 -0.06972928 0.04331826 0.088534035
0.064089894 0.11600123 0.025143724 -0.045683265 -0.14310703 -0.1774142 -0.13842854 0.088935465
0.1584736 0.1673885 0.13214731 0.024657812 0.12180452 0.07274377 -0.12473261 -0.03101437
-0.17018215 0.15079758 0.036510818 0.1609237 -0.02024926 0.14265609 0.081176884 -0.02309352
-0.0053575835 0.12619045 -0.022098497 0.13373777 0.037468642 -0.07098115 -0.08300541 -0.08743678
0.112521276 0.1331566 -0.082794525 -0.1605579 0.100887306 -0.04114332 -0.16362374 0.03705275
-0.019162552 0.12904063 0.03732942 -0.10770993 -0.031939648 -0.12166959 0.08147682 0.051541656
0.10478562 -0.13102137 -0.09933233 -0.10666348 -0.1461567 -0.16405901 -0.14330782 0.12113219
-0.054108597 -0.03369621 0.05357638 0.045695793 0.07899967 -0.12461123 0.15847883 -0.013959775
-0.085009836 0.1134777 -0.14596377 -0.103955574 0.1001859 0.06783321 -0.07072963 -0.013909571
-0.03427008 0.0738356 0.034945894 0.06506804 0.1464046 -0.1156628 -0.13760464 -0.042367782
-0.08012813 -0.12492068 0.16363363 0.14855193 0.14260077 -0.10875643 -0.02063994 -0.13944963
-0.06424286 0.14595684 0.021387959 0.060790785 -0.17594732 0.07294203 0.11989912 -0.068083756
0.13334021 0.07939405 -0.12870932 -0.13249163 0.003249667 -0.17093694 -0.12421906 0.06928293
-0.059594862 -0.005262344 -0.07254367 0.1156206 0.14465176 0.13138172 -0.15856746 -0.05251298
0.08518095 0.10491549 -0.040359903 0.09694078 -0.00579141 0.01981536 0.12030543 0.11993334
-0.123803854 -0.10834203 0.062749445 0.106357865 -0.041562818 0.1567233 -0.019333437 -0.08971382
-0.018863883 -0.1509863 0.0555002 -0.16151221 0.16458894 -0.13476682 0.11463146 -0.13228175
-0.027357582 -0.096229374 0.09015884 0.102939025 -0.16500694 -0.14677629 0.021456417 -0.0041059856
0.000869528 0.05418995 -0.035375662 0.14976588 0.01269524 -0.08098061 0.06175332 -0.13872217
-0.08495933 0.05037715 -0.07485592 -0.16921638 0.08810592 0.045518447 0.052381817 0.06106274

rowAttentions.1.q_net.bias f4 [32]
00000000: f786 183e 1c5e ccbd 6c14 9bbd 58f0 063e
00000010: 9039 bfbc 6955 06be 829f adbd 3562 fc3d
00000020: 53f3 d1bd bbac 783d 9cc5 18be f741 ed3d
00000030: b3a2 413d 4431 fa3d 1589 fc3b e7a8 b33d
00000040: 3e24 143e f954 05bd b518 0fbe 2cf5 08be
00000050: a1f0 d33d 30f0 e8bd af24 1ebe 88b1 1abe
00000060: f81c a5bd 4278 fe3c 086e 24be 24e0 a5bd
00000070: 1b6d 2e3e 4e0d f0bc a63d 73bd 9730 ae3d
0.14895235 -0.099788874 -0.075722545 0.13177621 -0.023342878 -0.13118519 -0.08477689 0.12323419
-0.102514885 0.060711604 -0.14919132 0.115848474 0.047274303 0.12216428 0.007706771 0.0877245
0.1446695 -0.03255174 -0.13974269 -0.13374776 0.10348631 -0.11373937 -0.15443681 -0.15106785
-0.08062166 0.031063203 -0.16057599 -0.08099392 0.17033808 -0.02930322 -0.059384964 0.085053615

rowAttentions.1.k_net.weight f4 [32, 32]
00000000: ec3c 15be d35a 0dbe 2819 d13c 535d 663d
00000010: a6c3 31be 314b 1f3e ddb3 8cbd c6aa dd3c
00000020: e4a7 003e 1e03 8c3d 3dee 5f3d 946a 24be
00000030: 14af 28be a4b3 893d 4490 c53b 57e4 dc3d
00000040: 4d25 b43d 4d0b 11be 68f5 043d 7b0e 0ebe
00000050: d36a c8bd afeb 453d cf75 20bc 6c8a e8bd
00000060: c629 793d abb3 fa3d d411 33be e6e8 293e
00000070: 6dea c73d f5a3 74bc 2a20 30be 27a1 99bd
00000080: 87d6 5d3d 5285 9bbd 9177 6ebd 67f1 90bd
00000090: 16fb 1a3e e18b 1a3e c3ba 0abe 9c3f 5cbd
000000a0: 57e3 243e 0e96 1dbc 61c3 afbd 3c53 7e3c
000000b0: 580f 103e 2c3c d8bc 0d38 2abe fb19 79bd
000000c0: 48e3 b53d 7b05 cebc 5da6 023e 9c07 7a3d
000000d0: 8f70 ee3a 61c1 863d c791 babc 9046 1bbe
000000e0: 198c 1bbe e757 0dbe 7847 fabc 3b24 01be
000000f0: d426 d63c 02ae ab3c 5330 073e aae5 1c3c
00000100: 93eb f93c 2978 813d a798 4cbd d2ee b3bd
00000110: 13f3 2abe 2597 30be 2867 323c f016 abbd
00000120: 6dd8 483d 1a83 333d 8c24 0d3e f4a6 a7bc
00000130: b1f1 5cba cb8e fd3d 3c1a ef3c 19a7 a73d
00000140: 83ca c3bd 794f 03be c5b7 093e 900a 013e
00000150: e83e 88bd c0eb f33c eec1 22be 2953 473c
00000160: 712e 28be 85a5 cc3d 3703 33be 12c2 2fbd
00000170: a895 283e da8b 75bd 0a64 d1bd f93a 233e
00000180: f4e4 b7bd 8df5 203d 009f ca3d a232 363d
00000190: d7f4 f7bd 3903 233e d4aa a93d 6c9a e5bd
000001a0: 5cb8 d0bd 9547 2bbd e843 713d 1f36 923d
000001b0: 89f1 b33c e789 ef3d 0661 343e 114c 1b3d
000001c0: 4701 8d3d 73bf cc3d 998a 043d b079 2d3c
000001d0: ed0a 223e f6fd fc3d cb2c ed3d 1668 8bbd
000001e0: dd37 adbd d9f7 c5bd 5e85 14be 145d a0bc
000001f0: ac49 cc3d 955c cd3c c5b9 73bd 97e5 c1bc
00000200: 0386 0abe a0e2 e8bd 1af3 853c 3e9d d0bd
00000210: 31a5 b23c d764 153e 8a36 3b3d dbaa 0a3e
00000220: 6051 e5bd f441 a43b c5bd 31be ef33 d839
00000230: bcbb 04be 6ec0 2a3e 3073 1bbe 5f69 773d
00000240: 9497 d8bd 704c 483d c533 14ba 0f88 b7bc
00000250: 1c73 8bbd 45f3 e83d 6289 05bd abe1 6e3c
00000260: 6b98 5ebd f2a7 03be 773a 97bd 4ac2 213e
00000270: 1336 2c3e 0740 a8bd b450 8d3c adea ea3c
00000280: 38de 1f3e c5b4 c83c 6969 023c 7d0f 54bd
00000290: 0876 163d e231 34be 055c 34be fd30 a8bc
000002a0: 0b42 fabd 2721 fcbd dd59 f5bc 4b6b c73d
000002b0: cedc b23d 95f8 80bd af34 41bc 9d05 283e
000002c0: 26a3 1e3d a87b f63d c89d 95bd 4e09 22be
000002d0: 2364 a8bd cd03 7a3c aa2c 2dbd e361 c4bd
000002e0: 0d61 2e3e 2d18 27be 727c 8f3b 5c36 913d
000002f0: 0c03 42bd ee0c 9d3d 5eaa 013a 4c0f d7bd
00000300: 7ae6 c4bd 87de a1bd 79d3 30be 14ba df3d
00000310: 5b8e 263e b2ab babd c880 013c 2d75 703d
00000320: 5eb6 4c3d 121d cabd 2c2e dcbd f8a1 323e
00000330: 3113 d23d d84a 293e d0fd fd3d 6984 4fbc
00000340: e217 fd3d e4ca c3bb aeba f1ba a236 9dbd
00000350: 870a 0d3e 8049 18bd 3ae7 d13c 1f0a 10be
00000360: b77b 793d 1c53 acbd eef5 1dbd 1ca3 85bc
00000370: 79de 853d 8a6f e43b bd6d 003d ebde eabd
00000380: 3a32 09be ab4b 823d 80db 93bd 5cb6 1bbe
00000390: 8c89 94bd 616e 31be 31cb 0f3d c4f3 583c
000003a0: e9d8 263e d521 c6bd 19a6 bbbd 2c6b 2c3d
000003b0: ba29 3ebd 8c3b 0e3e 100e db3c d3e5 8cbb
000003c0: 32ff 8abd b30d db3d 4818 a9bd cbe6 913d
000003d0: 4066 e83d e32f 0ebe 8923 20be 8f63 cdbd
000003e0: 25d5 ae3d 974b c8bd c806 813c 4e1c dc3c
000003f0: 8505 173d e336 b8bd 07e0 bb3b 8abf fa3d
-0.14574021 -0.13804178 0.02552469 0.056241345 -0.1735979 0.15556027 -0.06870244 0.02705897
0.12564045 0.06836532 0.05467056 -0.16056281 -0.16473037 0.06723717 0.0060291607 0.1078574
0.08796177 -0.14164467 0.0324606 -0.13872711 -0.09786 0.04832047 -0.009793713 -0.11354527
0.060830854 0.122413 -0.1748727 0.1659275 0.0976151 -0.0149316685 -0.1719977 -0.075014405
0.054159667 -0.07593788 -0.058219496 -0.07077294 0.15134844 0.15092422 -0.13547806 -0.0537716
0.16102348 -0.009618295 -0.085821874 0.015522774 0.14068353 -0.02639588 -0.16622944 -0.060815793
0.08881241 -0.025149098 0.12758775 0.061042413 0.0018191504 0.06579853 -0.02277459 -0.15163636
-0.15190162 -0.13803063 -0.030551657 -0.12611477 0.026141562 0.020956997 0.13202028 0.009576241
0.030507838 0.06321747 -0.049950268 -0.08785786 -0.16694288 -0.17245157 0.010888852 -0.08353984
0.049034525 0.0438262 0.13783473 -0.020465352 -0.0008428349 0.12380751 0.029187314 0.08186168
-0.095601104 -0.12823285 0.13449009 0.12601686 -0.066526234 0.0297755 -0.15894291 0.012165823
-0.16423966 0.09992508 -0.17481695 -0.04290969 0.1646334 -0.059947826 -0.10224159 0.15940465
-0.08979216 0.039296675 0.09893608 0.04448188 -0.12107246 0.15919198 0.08284536 -0.11211094
-0.10191414 -0.041816313 0.05890265 0.07139229 0.021965759 0.11696225 0.17615137 0.03791434
0.06885009 0.099974535 0.03235874 0.010588095 0.1582448 0.12353127 0.11580809 -0.06806962
-0.08457921 -0.09666414 -0.14504 -0.019575633 0.09974989 0.02506856 -0.059503336 -0.023669047
-0.13527684 -0.1137135 0.016351271 -0.101862416 0.021807285 0.14589249 0.04570631 0.13541739
-0.11197162 0.005012745 -0.17357548 0.00041237424 -0.1296224 0.16674969 -0.1518066 0.060403224
-0.10575786 0.04890102 -0.0005653466 -0.022403745 -0.06809065 0.11374525 -0.03260172 0.014580171
-0.054344576 -0.12857035 -0.07384198 0.15796772 0.16817503 -0.08215337 0.017250396 0.028676355
0.15612113 0.02450026 0.007959702 -0.051772583 0.036733657 -0.17597154 -0.17613228 -0.020531172
-0.12219628 -0.12311011 -0.029950077 0.097372614 0.087335214 -0.06297413 -0.011792346 0.16408391
0.03872981 0.12035304 -0.07305485 -0.15823862 -0.082222246 0.015259695 -0.042278923 -0.09588983
0.1702921 -0.16317816 0.0043788487 0.07090446 -0.047366187 0.07668482 0.0004946346 -0.105009645
-0.096142724 -0.07903772 -0.1726817 0.109241635 0.16265242 -0.091147795 0.007904239 0.058705498
0.049978606 -0.09868826 -0.10750994 0.17444599 0.10257567 0.16532457 0.124019265 -0.012665846
0.12358071 -0.005975114 -0.0018442476 -0.07676436 0.13773547 -0.03717947 0.025622953 -0.14066361
0.060909 -0.08414289 -0.038564615 -0.016313128 0.06536574 0.0069713043 0.031354655 -0.114682995
-0.13398066 0.06362089 -0.07219601 -0.15206283 -0.072527975 -0.17327262 0.035105888 0.013241712
0.16293682 -0.09674422 -0.0916254 0.042094395 -0.046426512 0.13889903 0.026740104 -0.004299858
-0.06786956 0.10695972 -0.082565844 0.071240984 0.11347628 -0.13885455 -0.15638556 -0.10028755
0.08536748 -0.097800426 0.015750304 0.026868965 0.0368705 -0.08994844 0.0057334932 0.122435644

rowAttentions.1.k_net.bias f4 [32]
00000000: c416 a43d 37b7 323c 8536 c7ba 802d 4c3d
00000010: a091 263e 42f9 5cbc e91f acbd 0cb4 03be
00000020: 9645 153e 251c 20be 61ff b03d d0a1 1e3e
00000030: 967e be3d 9110 e43a 6891 afbc 1a6c e13d
00000040: 6d0f c0bd 9cb7 843d 269a 5fbd 6641 bb3d
00000050: 97c4 1ebd 9ef0 f4bd c376 8abd b447 d63d
00000060: 6a29 853d f43a ffbd a4be ecbd c1cb 12bd
00000070: 939b 87bc 1ebe 4dbd 1e65 f23d 6262 4f3c
0.08012155 0.01090794 -0.0015198743 0.04984808 0.16266489 -0.013487162 -0.08404524 -0.12861651
0.14577326 -0.15635736 0.0864246 0.15491414 0.09301488 0.0017399957 -0.02143164 0.11006947
-0.09377942 0.06480333 -0.054590367 0.09143333 -0.0387617 -0.119599566 -0.06760933 0.10462895
0.0650204 -0.12462416 -0.11559799 -0.035838846 -0.016553676 -0.050230138 0.11835693 0.012657734

rowAttentions.1.v_net.weight f4 [32, 32]
00000000: b42d 38bd 358f 0dbc a142 a93d a3e3 01be
00000010: 4e5f 33be baf5 11be 79d7 993d 3dfc af3c
00000020: 4346 1fbe bc87 0d3e 47a8 c13d 51ef 25be
00000030: a2f7 dd3d 1886 d5bb 0079 453c 83df 183e
00000040: 2438 0a3e 8854 193d 2db9 a7bd e607 043e
00000050: 5ad2 133e 26aa e7bc c772 14be a5e1 2d3e
00000060: e2dd 99bd 5553 d2bd b26d 25be 76bc 9a3d
00000070: 53b3 853d 1a32 99bd c8eb 32be 5635 fb3d
00000080: a42f 523c d87e 1a3e 8333 93bc 381c 213e
00000090: 3e5a 2dbd 327b abbd ca2f ce3d 6ed0 433d
000000a0: 65e3 223e 37bf 033c 2abb 0abe 08ba f7bd
000000b0: cd4e 13bd 14b8 83bc 303f d3bd 6e80 1c3e
000000c0: 3417 c6bd e575 8b3c f5d1 cd3d 43f6 113d
000000d0: 0e2d f33b 7d1b 833d 038d c9bd 2c0f 34be
000000e0: bcaf 3f3d 3cd2 00be 31fa 18be 46a3 febd
000000f0: 8d47 133e ff2c efbd 1f23 0e3e a5f1 f33d
00000100: a114 c43c 3b50 d4bd 7112 1ebe 2e39 0cbe
00000110: 9592 033e 8637 f7bd d38c 0cbd 39c9 d93c
00000120: 7d2d d4bc 7285 4d3d 9d26 12be 6c20 1b3e
00000130: f762 05be 6600 8cbd a6d5 20be 0cbe d83d
00000140: db3c b1bd 1dbb 75bd b6ad ae3d bf9d 81bc
00000150: c910 123e 4fda 503d 610e b0bc 514b 03be
00000160: 71ba 2bbe 8c3a 333d 5a2c 873c 8548 2c3e
00000170: a34b 29be 4da2 0b3d 5ee4 9f3d dd04 c73d
00000180: e1b1 ab3d 964a 4cbc 9eef 22be ca04 10bd
00000190: 4903 3d3e 200d 06be 1195 ebbd 8c5a 223e
000001a0: f86c 65bc 5d5b 64bd 5a7a a63c 4552 9e3d
000001b0: fe1d 923c 05ea 033e 1f29 bb3a 178f a1bd
000001c0: b4ae b2bd 56ba 02bc 97df 12bd 4a6e f73d
000001d0: 05f7 a63d a1b9 083e 06b5 193e 4cd1 183e
000001e0: 7fde 28be 8bf7 28bd 28a9 01bd 14ff fb3d
000001f0: c0c5 923a 245c 833d c262 84bc 368a 34be
00000200: e7cf 593c 3973 98bb 8ecd e6bd 5887 2f3e
00000210: e2d9 14be 2926 1cbe 19c7 02be 8d98 24be
00000220: 8103 23bd 6cab bdbd 3d4f 143e 9b0d b23d
00000230: 0d5d a93d 7259 203e 082c 16be f4e5 dbbd
00000240: 777c 1f3e bc1b 033e 05c0 c73c bbf2 cc3d
00000250: 0d94 413d bfd1 44bc 812c 70bd b17d 783d
00000260: b0ca 13be 7fbe 303e 7a4d 1bbe 52ca 07be
00000270: dd57 033e 2555 d3bd ef52 97bd 91a5 25bd
00000280: 10e5 25be 1a29 15bc e60d d3bc d25a 07bd
00000290: a7f1 873b ae4d ffbd 3500 2fbd 1234 cdbc
000002a0: fcfd 37be a559 f7bd 0bd6 073e b2e1 2dbe
000002b0: ba5e 1abd 3c31 a5bd eff3 2f3e 0535 fd3d
000002c0: 6c1a c83d a26d c3bd 3887 28be f731 91bc
000002d0: 78d1 e03d 9c27 d73c cf73 dfbd ef26 2dbe
000002e0: c38f 0e3e 619d 043d eaba 083e 0932 1bbe
000002f0: 167a be3c 989e 273e ab86 1cbe 770f 28be
00000300: a28e 27be 9097 abbd 68c3 4abc 8faf bf3d
00000310: 137e 70bd efba 0f3e ba75 143e 52a0 f03d
00000320: c71c 14be 0265 943d fd38 cf3d 3bdc 083e
00000330: 972c 22be 9512 2bbd 6438 babd 51dc 8ebd
00000340: 380d 463d fbbb 10bc 23ef a23d e174 02be
00000350: cb8c 4cbd 49f5 a63d 39db 86bd d7a7 a93c
00000360: 6f65 f4bd 81a8 193e e4e8 b8bb 8c3c 663d
00000370: d272 f83b fe91 8e3c 8644 263e bac6 a0bd
00000380: ce91 1e3e 9924 9dbd ec43 0abc 8aad dbbd
00000390: 0792 1f3d 8042 37be bc33 3c3d a61e b5bd
000003a0: 1d14 1c3e 6bf4 313e 341a e63d 33a1 38be
000003b0: 8acc a53d 4ef8 f8bd 7008 083c fa4b d8bd
000003c0: 4327 f33d d50c b8bc df5b 683d cce5 793d
000003d0: 0c67 f33d 35c4 e83d d3ea 96bc 0bb4 01be
000003e0: e6e9 593d 7dd4 83bd 35dc 52bc 677f 413c
000003f0: ae7b 203e 64c4 0c3e b3ab 9cbc 85e2 a3bd
-0.04496546 -0.0086401 0.082646616 -0.12684493 -0.17516825 -0.14253893 0.07511801 0.021482581
-0.15554146 0.1382131 0.094559245 -0.16204573 0.10838248 -0.0065162294 0.012052774 0.14929013
0.13497978 0.03743413 -0.08189616 0.12893638 0.14435712 -0.028279375 -0.14496909 0.16980608
-0.07513024 -0.102698006 -0.16155127 0.07555477 0.06528344 -0.07480259 -0.17472756 0.122660324
0.012828741 0.1508745 -0.017968899 0.15733421 -0.04232239 -0.08373107 0.10067709 0.047806196
0.15907057 0.008041195 -0.1354796 -0.120960295 -0.035963822 -0.016078986 -0.103147864 0.15283367
-0.096723944 0.01702399 0.10049812 0.035635244 0.0074211424 0.06401727 -0.09841349 -0.17583913
0.046798453 -0.12580198 -0.1493919 -0.12433486 0.14382763 -0.11678504 0.13880585 0.119113244
0.023935618 -0.10366865 -0.15436722 -0.13693687 0.12848885 -0.12071137 -0.034313988 0.026585208
-0.025900597 0.05017609 -0.14272542 0.15149087 -0.13026033 -0.068360135 -0.157065 0.105831236
-0.086541854 -0.0599929 0.085292265 -0.01582229 0.14264216 0.050989445 -0.021491231 -0.128217
-0.1677034 0.043757007 0.01650064 0.16824539 -0.1653276 0.03409033 0.078072295 0.097177245
0.08383537 -0.012468955 -0.15911719 -0.035160817 0.18458284 -0.13090944 -0.115030415 0.15854853
-0.014003031 -0.055751193 0.020322014 0.077305354 0.017836567 0.1288224 0.0014279223 -0.0788862
-0.08724728 -0.007978996 -0.035857763 0.12081583 0.08152584 0.13352062 0.15010461 0.1492359
-0.16491126 -0.0412517 -0.03165546 0.12304512 0.001119785 0.06414059 -0.016160373 -0.17630848
0.013294197 -0.0046524075 -0.11269675 0.17141473 -0.1453624 -0.15248932 -0.12771262 -0.16073819
-0.039798263 -0.09261212 0.14483352 0.08694001 0.08269701 0.1565912 -0.14665234 -0.107372195
0.15574823 0.12803549 0.024383554 0.10007235 0.047260333 -0.012012898 -0.058636192 0.060666744
-0.14432788 0.17260168 -0.15166274 -0.13260773 0.12826486 -0.103189744 -0.07388865 -0.0404411
-0.16200662 -0.009104038 -0.025763463 -0.033045597 0.0041486803 -0.12465988 -0.042724807 -0.025049243
-0.17967981 -0.12077645 0.13265245 -0.16980627 -0.037687995 -0.08066031 0.17182897 0.12363628
0.097706646 -0.09542395 -0.16457832 -0.01772402 0.10977453 0.026264004 -0.109107606 -0.16909383
0.13922028 0.03237665 0.13352552 -0.15155806 0.023251574 0.16369092 -0.15285747 -0.1641215
-0.16363004 -0.08378518 -0.01237569 0.09359657 -0.058713984 0.14036153 0.14498034 0.11749329
-0.14464103 0.07245828 0.101182915 0.13365261 -0.15837322 -0.041765768 -0.09092787 -0.06975616
0.04835245 -0.008833881 0.07955768 -0.12739898 -0.04993896 0.08152253 -0.06584782 0.020709915
-0.119334094 0.15005685 -0.005642997 0.056210086 0.007582047 0.017403599 0.16237077 -0.07850404
0.15485308 -0.07672996 -0.008439045 -0.10726459 0.038957622 -0.17896461 0.045947775 -0.08843736
0.15242048 0.17378394 0.112354666 -0.18030243 0.08095653 -0.12156735 0.008302793 -0.105613664
0.11872723 -0.022467056 0.05672824 0.061010167 0.11884889 0.113655485 -0.01842252 -0.12666337
0.05320158 -0.06437013 -0.012869884 0.01181016 0.1567218 0.13746792 -0.019124841 -0.080021895

rowAttentions.1.v_net.bias f4 [32]
00000000: 0956 0ebe 3864 433d 4fa4 e8bd 44ca 1a3e
00000010: 48e0 e6bb 46c7 a0bd 1743 eebd a923 54bd
00000020: 357f 1e3e 6c07 e3bd 2019 26be d8d0 4a3d
00000030: 0edc 673d ee8d 17be c561 97bd 4e11 203e
00000040: fad2 9cbd 4c07 a13d 664a afbd 0b99 19be
00000050: 8f78 2abe 41a1 0a3e 5eaa 533d ab95 253d
00000060: f6b8 693d c1c4 943d b477 eb3d 6813 143e
00000070: b054 113e d231 6b3d c39b d83c c0a8 0f3d
-0.13900007 0.047702998 -0.113594644 0.1511622 -0.0070457794 -0.078505084 -0.1163389 -0.05179182
0.15478213 -0.110854 -0.16220522 0.049515575 0.056606345 -0.14800236 -0.07391695 0.15631601
-0.07657428 0.0786272 -0.08559112 -0.14999788 -0.16647552 0.13538076 0.051676147 0.040425938
0.057061158 0.0726409 0.11497441 0.14460528 0.14192462 0.05742056 0.02644146 0.035073042
