train/checkpoints/uduta8zd/r1bspj7s.best_checkpoint.pt (torch, 769716 bytes, 225 tensors)

rowAttentions.0.q_net.weight f4 [32, 32]
00000000: 38ed 32be b63c 893d 43c2 ca3d fb47 1bbe
00000010: 1387 813d 0b25 193e 2805 2f3c 77dd d9bd
00000020: 587e 143e 0262 9a3d 34ee ef3d 3c3f f5bd
00000030: 28d3 d23d f93a f7bd 080d 333e 8740 99bd
00000040: 8465 da3d d443 113d df5f 403d 6f28 ddbc
00000050: d3c3 943d 81cb 96bd 27a4 2abe 02f8 8abd
00000060: cfc0 0d3e 90fd 3ebd ec1e 623d 5031 86bd
00000070: bdda 073e d8d8 d83d d089 7e3d 61d3 b8bd
00000080: b1c2 13be 273e d93b b0d0 d4bd 37fd 143e
00000090: 2238 2ebe 8045 a23d 257d 343e 76a1 b53d
000000a0: 334f 773d 176f 2ebe 793c 2e3e 0cde f8bc
000000b0: 6c08 29be a5b0 323e 6991 93bd 807c 4abc
000000c0: dcd1 253e f0ce fabd 3ce1 ffbd 27a8 ec3c
000000d0: 0a8e c1bc fccb 263d 0cf3 17be 032e b23b
000000e0: 7222 a1bd e41d b2bd dbe3 25be df23 bf3d
000000f0: 2003 0c3d 18e7 18be b02b 0f3e b8fa 5a3d
00000100: f225 073d 818c d4bd c577 d83c a6ab 2e3e
00000110: 4d7e f73d fac8 0cbe e344 253e 0677 643c
00000120: 4970 ae3d 4964 0c3e 547e 1a3e 0270 0dbe
00000130: 8fa0 1e3e e4b2 f5bd 1c9c 563c 27a5 fcbd
00000140: 38d5 1dbd 6f7d 01bc 735e abbc 3ddb e2bc
00000150: 63da 663c 51a5 323e f81d d23d 21e8 ca3d
00000160: 31e1 903d b1ec 0b3e 7936 0ebc 7850 5d3c
00000170: 3c73 153d 8aa7 1dbe e181 12be 0379 b33c
00000180: 7c34 8dbd 24a6 59bb c600 27bd 763d e33c
00000190: 87f4 ea3d 31f1 6ebd 1d09 113e de26 0f3e
000001a0: 4ac2 0abe 5915 0cbe 6b45 12be 49cf c6bd
000001b0: b798 8cbd 5afa 59bc 9a4c 31bd 938c b6bd
000001c0: 5441 65bd 4cb3 82bd 6fca 313e 86c3 85bd
000001d0: 808e 01be 525c 963d 48b7 28bc fdcb 0a3e
000001e0: 7a0a e23d 3b2a 263e 00f2 04be 5ea0 e73d
000001f0: a317 183e 8a65 b2bd 83c0 253e dde9 073e
00000200: 7b30 f73a 8191 ae3d 71ba 7dbd 04fb 1dbe
00000210: c88f 363d ddb0 573d f3ab ecbd 9365 af3d
00000220: b0b7 1abe bca5 1b3e 9033 2f3e bc8d 453d
00000230: 5e5f e3bd 6325 b03d b366 f73c 0fa7 443d
00000240: 90b8 6d3d 4bce 093e b5d5 9bbd 5531 23bd
00000250: 1410 463d 364a 9f3c aced 113e a023 bebd
00000260: b10f cebb b17f 073d 0837 3ebd d9f4 f63d
00000270: 94cf 9e3c fa5f 27be 8d5b 9bbc 0f68 a4bd
00000280: 3c84 8c3c 3420 a8bc 04c3 33be 3b35 04bd
00000290: 2ccb 8bbc 79a6 55bd a34c 263e dd3f 1ebd
000002a0: 1379 e83d 9bb5 323d 2adf 18be 517f 2a3d
000002b0: 2fe9 153e 45dd ecbd bbe1 e9bd 2329 313e
000002c0: 5767 113e 30fc c9bd 10b3 d93d 56a3 b9bc
000002d0: 9c4c 32be 1034 5c3c 62cd 693d b331 59bd
000002e0: f384 7c3d 3dbd 1abe 9ab9 fb3d 1a5b 1a3e
000002f0: 75cb c73d 751f f53c 44d8 6e3d f20c 03be
00000300: 43f9 34bd e44b 8abc c875 cabd a8ce 05be
00000310: f2eb f23d 31a4 f53d 566c 24be bb02 663d
00000320: af19 933d 28a1 2b3e 4939 d13d bf81 263e
00000330: 57f0 6dbd df6e fd3d ad6a 133e 86fa 2abe
00000340: 2457 11be 6b5a 123d a364 c53d d404 b4bd
00000350: c6b8 a13c 925f c738 2ede 363d 6e78 c2bd
00000360: d2b2 cc3d cf0c f13d a4c1 f9bd c117 ee3a
00000370: 09b1 2e3a 7938 683d 73d2 283e e2e1 533d
00000380: 4185 24bd d193 223e c663 8abd f87e 52bd
00000390: ea5c 433c 9fe1 09be 8292 9d3c 8ac0 f5bd
000003a0: 0781 943c a824 893c 82f9 c73c c29b 18be
000003b0: 8509 2cbe 7e82 a63d 7250 1b3e baa7 20be
000003c0: ec0e 863d e13e 05be e32d 343c 9d5d 283e
000003d0: 517b 093e 8131 04be aae2 df3d 252e bd3d
000003e0: ab4a 09b9 5670 2f3e 24ec 8ebd 144b 28bd
000003f0: f6c6 b6bd bf07 d03c 771d 403d 67aa 653c
-0.17473304 0.06701033 0.09900334 -0.15164177 0.063245915 0.14955537 0.010682382 -0.10637944
0.14501321 0.07538225 0.117153555 -0.119749516 0.10294181 -0.12071795 0.1748544 -0.07483011
0.10663894 0.035465077 0.04696643 -0.02699682 0.07263913 -0.07363034 -0.16664182 -0.06785585
0.13843082 -0.046628535 0.05520527 -0.06552374 0.13267036 0.10588235 0.062143147 -0.09024692
-0.14429738 0.0066297236 -0.103913665 0.14549719 -0.170136 0.07923412 0.17625864 0.08868687
0.060378265 -0.17034565 0.17015256 -0.030379318 -0.16507119 0.17450197 -0.07205469 -0.012358785
0.16193336 -0.122465014 -0.12494132 0.028888775 -0.0236273 0.04072188 -0.14838809 0.005437614
-0.07867898 -0.086971074 -0.16200201 0.09333014 0.034182668 -0.14931905 0.13981509 0.05346176
0.03299517 -0.103783615 0.026424298 0.17057666 0.12084637 -0.13748541 0.1613956 0.013944393
0.085175104 0.13710131 0.15087253 -0.13812259 0.15490936 -0.11997011 0.013098743 -0.12336188
-0.03853342 -0.007903441 -0.02091906 -0.027692432 0.014090153 0.17445876 0.10259622 0.09907556
0.07074202 0.1366451 -0.0086799795 0.013507955 0.03648685 -0.15395942 -0.14307357 0.021908289
-0.06894776 -0.00332106 -0.040772222 0.027739268 0.11472421 -0.058335487 0.14163633 0.1397967
-0.13550678 -0.13680018 -0.14284293 -0.09707505 -0.068650655 -0.013304317 -0.043285944 -0.08913531
-0.055970505 -0.063818544 0.17362379 -0.06531434 -0.12652016 0.073418275 -0.010297604 0.13554378
0.110371545 0.16227047 -0.1298294 0.113098845 0.14852767 -0.08710773 0.16186719 0.13272806
0.0018859053 0.085238464 -0.061945383 -0.15427786 0.044570714 0.052658904 -0.11556234 0.085642956
-0.15109134 0.15199941 0.17109513 0.04823087 -0.11102174 0.08600881 0.030200338 0.048010882
0.05803734 0.13457601 -0.07609121 -0.03984197 0.048355177 0.019444566 0.14250821 -0.09284139
-0.0062884917 0.03308076 -0.0464392 0.1205842 0.01938609 -0.16345206 -0.018964553 -0.0802766
0.017152898 -0.020523168 -0.17554861 -0.032277327 -0.017064653 -0.052160714 0.16240172 -0.038635124
0.11351218 0.043630224 -0.1492888 0.041625325 0.14639734 -0.11565641 -0.11420008 0.17300849
0.14199577 -0.09862554 0.106298566 -0.022660892 -0.17412037 0.013440147 0.057080634 -0.053025912
0.061650228 -0.15111251 0.1229126 0.15073815 0.09755603 0.029922226 0.058311716 -0.12797907
-0.044183027 -0.01688189 -0.09885746 -0.13067114 0.11861409 0.11994208 -0.16056952 0.056154948
0.07182633 0.16760695 0.102160044 0.16260432 -0.058090534 0.123746626 0.14396162 -0.1669713
-0.14193398 0.03573076 0.096383356 -0.087899834 0.019741427 9.506861e-05 0.04464548 -0.094956264
0.09995045 0.11770021 -0.12195137 0.0018165038 0.00066639535 0.05669448 0.1648653 0.05172909
-0.040166143 0.158767 -0.067573115 -0.051390618 0.011924008 -0.13464974 0.0192349 -0.119996145
0.018127931 0.016741112 0.024410967 -0.14903167 -0.16800506 0.08130358 0.15167406 -0.15688983
0.06545815 -0.13012268 0.010997268 0.1644196 0.13425948 -0.12909509 0.109319046 0.09237317
-0.00013093154 0.17132697 -0.06978634 -0.041087225 -0.089246675 0.025394319 0.0469031 0.014017678

rowAttentions.0.q_net.bias f4 [32]
00000000: 3a43 713d d883 0e3e f132 333d c565 fb3d
00000010: 82eb ea3d 6132 4d3d 7d66 7c3d ac0b 6a3d
00000020: 722d 953c 0bd2 193e 41dc 263e 3aa3 803d
00000030: ba6a 18bc 6d93 213e 2731 0dbe 0191 043e
00000040: 0710 c13d 7eb7 ea3d a62b 59bc 7cef 06be
00000050: 840a 013e 939d 9ebd e2fd 3d3d 1ae1 cc3d
00000060: 6d2b 29be e8e4 3f3c e3a3 80bd 2375 003e
00000070: 7af5 e5bd 5204 dd3d fab8 e23d f0e0 c83d
0.058902003 0.13917482 0.043749753 0.122752704 0.11470701 0.050096873 0.061621178 0.057140037
0.018210147 0.15021531 0.16294958 0.06281133 -0.009302789 0.15778895 -0.13788281 0.1294594
0.09426885 0.114607796 -0.0132550355 -0.13177294 0.12601668 -0.07744899 0.0463847 0.10003872
-0.16520472 0.01171229 -0.06281259 0.12544684 -0.112284616 0.1079184 0.11070438 0.098085284

rowAttentions.0.k_net.weight f4 [32, 32]
00000000: 26cf 2d3e 51f0 da3c da17 24be 6241 013e
00000010: 3a8c 843c 1a0c 683b de6b 2cbe a69d 22bd
00000020: a6aa afbd 5a3d 313e 49ee 003e 5905 073e
00000030: e9ff f73d 3b71 e0bd f39c 9bbd 3da7 8dbd
00000040: 1112 91bd dff1 0c3e 0b22 763d 5717 113e
00000050: 6cb0 07bc c95b 21be 2be0 51bd 8c81 fe3d
00000060: b259 dc3d ca1f 603d 2026 55bd 97f9 28be
00000070: dc85 c2bd 3acc bc3d ea1c 92bd d43a ad3d
00000080: 6589 453d 250e 8bbd 8399 dc3d 24ec 68bd
00000090: c130 bdbb c1fa 89bd 09b9 2bbe 26ff e83c
000000a0: 1919 513d 8232 b6bd e900 de3d 9354 22be
000000b0: aa88 2ebe baad dfbd 8f10 7abd 8b16 a1bc
000000c0: 562a 0cbd f72e a53d 31ee 1ebe b1bb d43c
000000d0: f846 463b c917 3f3d 09f9 333e dabc de3d
000000e0: 2970 c8bd 1547 14be 898b 2ebd 9556 b5bd
000000f0: ddd5 7c3d 81b5 cd3a 0abf 113e 9c16 8e3d
00000100: 7249 05bd e5e1 c73b c9a0 2d3d f8e7 b3bc
00000110: fc1c 123e e599 0dbe 7368 b03d f1d4 e6bd
00000120: db9c 1ebe 2a6c 14bd ad57 b03d 38e4 ff3d
00000130: f099 353d 79e6 79bc 959a 21bc e4d2 92bd
00000140: 4e13 82bc b6a5 48bc 8906 1a3e acd5 d33d
00000150: f8da 10be d96e 3f3a b0b1 debd 4c36 e6bc
00000160: f7d8 0fbe fc49 3c3d ab8e 02be e9cc 323e
00000170: a4ad 083e d041 f9bd 2650 2abe e242 e13b
00000180: 8ae8 49bd 8fad 543d f746 f5bd ad54 943d
00000190: 2484 1cbe bef2 bebd 2c46 bebd cb51 af3d
000001a0: e66e 96bb 8603 2ebe 81a9 cebd a3bc a7bd
000001b0: edeb 27be 18ad b93c 7efa 803d 80a5 04bd
000001c0: 60f5 8fbd 9386 88ba d2b9 0fbe 5250 dcbd
000001d0: 5b4c 82bb 90df 203e 4eea 5ebd c78a b33d
000001e0: da7c 8ebd 1304 41bd d556 2cbe 3fc0 153e
000001f0: 5f4c 303e 7628 6fbb 0a89 e53d 8821 143e
00000200: 02d3 b33d f373 ba3d e154 2cbe 791a 2abe
00000210: 2df1 0abe 517e 623d 5395 1cbe 492f 0abe
00000220: 207e afbd d0da 26be e180 7939 1af2 d03c
00000230: b4db d3bd 640a ed3d f971 89bd 9bd6 4bbd
00000240: c9e9 093e 396e 1b3e c127 a6bc 6ff4 01be
00000250: 3ca4 b5bd e460 b83c 9b3a d43d ae40 b43d
00000260: 5be1 9fbd da1d 2bbe 4c68 1ebe f74f 66bd
00000270: 2cd9 113b 88a0 a2bd f121 0fbe 0796 983c
00000280: c2af 0fbe 2c05 0bbe db31 13be 4349 44bd
00000290: 9bd7 1f3e 2e84 8d3d d8cb abbc 21f2 143d
000002a0: d522 903d 0a6b 813a 6f08 12be d113 dfbd
000002b0: a502 f6bd dcf6 93bb b9ae 25be 7da1 03bd
000002c0: 8a64 84bd e6a5 313e 271e 133e f142 d23d
000002d0: 527b 223c 1b54 6abd dc9a 383d 981e fabd
000002e0: 9a68 9abd 3474 11bd 3d93 29bd bc6f 2bbe
000002f0: ce13 903d 6c0d 153e 198e c7bd 3218 433d
00000300: ead6 a7bc fc63 d3bb c073 283c a4e3 1c3e
00000310: fc0f c23c 10fe e4bd 8236 82bd 80e9 b03d
00000320: b70d 623d 98b9 5e3b a0f9 bebc 38dc 8cbd
00000330: 2488 80bd cefe bebd d15d ed3c a95e 4b3d
00000340: 2aa1 0a3e de87 23bd f19d 4f3c 6107 ea3d
00000350: e189 9d3d f535 ba3c 2086 5e3d 5860 163c
00000360: 713d 1bbe 901e df3b 4eba 1ebd e14e 233e
00000370: 9b61 233e 16bb 0f3d 1ab6 213e f56a babd
00000380: 3252 1d3e 49dc 1b3e 7de2 dabb 0347 11be
00000390: 3479 69bd b4c8 41bd ef66 3f3b 2821 24be
000003a0: 4421 063d 3460 96bd 7366 39bd 82f6 babd
000003b0: 78ae 18bd 9212 28be 3f03 c0bd 6843 853c
000003c0: 5336 ed3d fb78 243e abef 08be 9eff 973d
000003d0: ea24 ccbd 1501 0cbe bfb4 febb 3fba cfbd
000003e0: 62f2 1bbe c92c 29be a057 f2bd 05c4 143e
000003f0: 78cc c93d 8956 8fbd 2731 f2bd 2040 0bbe
0.16973552 0.02672592 -0.16024724 0.12622598 0.016180146 0.0035407604 -0.16838023 -0.039701127
-0.085774705 0.1730856 0.12590899 0.13185634 0.12109358 -0.10959097 -0.07598295 -0.06916664
-0.07083524 0.13764141 0.06009106 0.1416906 -0.008281808 -0.1575767 -0.051239174 0.12427053
0.107592955 0.054717816 -0.052038312 -0.16501461 -0.09498188 0.092186406 -0.07134421 0.08458486
0.048226733 -0.06789807 0.107714675 -0.056865826 -0.005773634 -0.06737281 -0.16769804 0.028441977
0.051049326 -0.08896352 0.10840017 -0.15852575 -0.1704432 -0.109218076 -0.061050948 -0.01966407
-0.034220062 0.080655985 -0.1552055 0.025968404 0.0030254703 0.046653543 0.17575468 0.10875864
-0.09787018 -0.1448024 -0.04261354 -0.08854405 0.061727393 0.0015694351 0.14233032 0.06937906
-0.032540746 0.006099927 0.042389665 -0.021961197 0.14268869 -0.13828237 0.08613672 -0.11271084
-0.15489523 -0.036235966 0.08610473 0.12494701 0.04433626 -0.015252703 -0.009863515 -0.071691304
-0.015878346 -0.01224654 0.15041555 0.10343489 -0.1414603 0.00073025894 -0.10873735 -0.028102063
-0.1404761 0.045968994 -0.12749736 0.1746098 0.13347489 -0.12170756 -0.16632137 0.006874428
-0.049294032 0.05192333 -0.11976426 0.07242713 -0.15284783 -0.09323643 -0.09290728 0.08560523
-0.004590857 -0.16993532 -0.10090924 -0.081902765 -0.16398592 0.022665545 0.062977776 -0.032384396
-0.070292234 -0.0010416083 -0.14035729 -0.107575074 -0.0039763874 0.15710282 -0.05442267 0.08766704
-0.06957407 -0.047123026 -0.16829999 0.14624117 0.17216633 -0.0036492622 0.11207779 0.14465916
0.08780481 0.09104147 -0.16829254 -0.16611661 -0.13568564 0.055296246 -0.15291338 -0.134946
-0.08568978 -0.16294408 0.00023794502 0.025506068 -0.103446394 0.115742475 -0.06711192 -0.04976521
0.13468088 0.15178765 -0.020282628 -0.126909 -0.08869216 0.022507139 0.103627406 0.08801399
-0.07806655 -0.16710606 -0.15469474 -0.056228604 0.0022254689 -0.07940775 -0.13977791 0.018626226
-0.1403189 -0.13576192 -0.14374487 -0.04792143 0.1560959 0.06909977 -0.020971224 0.036363725
0.07037894 0.0009873819 -0.1426103 -0.108924516 -0.12012223 -0.004515512 -0.16179933 -0.03213643
-0.06464489 0.17348441 0.14366971 0.10266674 0.009917097 -0.057209115 0.04506956 -0.122128665
-0.075394824 -0.03551121 -0.041400183 -0.16741842 0.070350274 0.14555901 -0.097439 0.047630496
-0.020488221 -0.006451128 0.010281503 0.15321213 0.023689263 -0.11181271 -0.06358053 0.086382866
0.05518886 0.0033985134 -0.02331239 -0.06877941 -0.06275967 -0.09325944 0.0289754 0.04965082
0.13538042 -0.039924495 0.0126719335 0.11427189 0.07692314 0.022730807 0.05432713 0.009178244
-0.15160157 0.0068090633 -0.038751893 0.15948059 0.15955202 0.03509053 0.15792122 -0.09102432
0.15363386 0.15220751 -0.0066798315 -0.14187245 -0.057000354 -0.047310546 0.002920564 -0.16028273
0.03274657 -0.07342568 -0.04526372 -0.09129049 -0.03727576 -0.16413334 -0.09375619 0.016267493
0.11582627 0.16061775 -0.13372676 0.07421802 -0.09967978 -0.13672288 -0.0077730115 -0.101429455
-0.1522918 -0.1652099 -0.118331194 0.145279 0.098534524 -0.06998927 -0.11825781 -0.1359868

rowAttentions.0.k_net.bias f4 [32]
00000000: eebb 9dbd da41 1b3e b42c f93d fa5a 253e
00000010: ae73 2fbe 5840 043b 8e4f 6ebd 9986 2c3d
00000020: 01bd 08be 4dcc 943d 9a52 0bbc 4b2c abbd
00000030: c907 23be 589f bd3d 50e3 82bd 5486 053e
00000040: 9c2c 003d 8d2b 5d3d 42a8 dbbc f041 c9bc
00000050: 8220 76bd a4ba 1cbe 19a6 e33d 920a e4bd
00000060: a5fd d23d 0a3d 74bd d0d3 e23d 9122 1b3e
00000070: 74f7 ddbd c995 153e f7ea 8f3b c92d 0abe
-0.0770186 0.15161839 0.121667296 0.16147986 -0.17133972 0.0020179953 -0.058181338 0.04212055
-0.1335335 0.0726553 -0.0085035805 -0.083580576 -0.15920939 0.09258908 -0.06391013 0.13039523
0.031292543 0.05399661 -0.02681363 -0.024567574 -0.060089596 -0.15305573 0.11115665 -0.111348286
0.10302285 -0.059628524 0.11075556 0.15149905 -0.108382136 0.1460792 0.0043920237 -0.13494028

rowAttentions.0.v_net.weight f4 [32, 32]
00000000: 6141 923d 426d cc3d 0081 1f3e 8a02 2dbe
00000010: 1f17 243e 0078 083e a1ed 313e 93ef c33d
00000020: 3911 b1bd 4f70 0a3e c5f3 243e 22c2 87bd
00000030: 6811 ebbc 2939 0e3e 821c 123e 5c2d ee3d
00000040: cc02 0a3e 55e4 babd c08f ffbc 6604 92bd
00000050: 0866 bb3d 50b7 343d eeb9 0bbe 7ae5 babc
00000060: d313 14be 38d6 29be 971a 283e e712 b4bd
00000070: d424 a03d d0ba 23bd 4e47 0bbd 2e45 40ba
00000080: 7a6c 0e3e 7e2e cabc 0183 143e ab56 d63d
00000090: 15ec f63d 19ed 22be d1c6 a7bd bb3c 12be
000000a0: def9 13bd 6909 1abd cf96 173d 3750 203e
000000b0: c7a2 a13d 57c1 fcbd b6a9 e4bd 26b3 093e
000000c0: 7782 983c f13b 503d 1723 bbbd 9652 a7bc
000000d0: fee8 4e3d 956c eebd 24d7 ec3d 92d4 b63d
000000e0: 8d5a d2bd bfc3 95bd 7d30 42bd 5282 d43c
000000f0: 4fdb 82bd 013a 2e3e bcad 31be 956b cabd
00000100: fc4d debd 9799 413d c958 d23c a9a2 54bd
00000110: 6e5a 1b3e 4e98 1dbe 5c23 7d3d e657 cabd
00000120: 1b76 29bd 269a 2cbe c163 08be cd10 18be
00000130: 2da9 9c3d 9311 87bd 7611 bf3d b471 c6bd
00000140: 029b 37bd 48af a53c 3532 163e 206d 49bd
00000150: 04c0 d03d 0246 493d 1ae7 dc3d 0679 e23d
00000160: 4d99 923d 3a6b 57bd 2c21 35bd 18c5 933d
00000170: 5d36 c43d 1743 32bc 0b00 c03d 84c4 dcbd
00000180: ee48 cc3d 35d7 b1bc 82fb f9bd c2dd afbd
00000190: da91 0abe 3b1c 133d 3e89 d6bd cf42 4fbd
000001a0: 77a9 37bc 97bc ddbd 09e5 933b afb9 bbbc
000001b0: 4d64 653d c882 023e e94d dabd 4740 c63d
000001c0: 0c85 71bb 38b7 cebd c334 a4bd d161 383d
000001d0: a6de 163d 1fb9 b2bb 8470 b4bd 526f b73d
000001e0: 9648 d63c a9ea 2fbe 7265 f8bc 145b 45bd
000001f0: 1c65 9abd f0c5 c8bd 8e27 13be 7052 323e
00000200: 219d 24be 604c 283e c804 0fbe 7ebc 2cbd
00000210: 3a91 95bd 309f c0bd c88a 813d ef4b d33d
00000220: 313e ecbd 1d6c a9bd 0d0b ba3d 47e4 b7bc
00000230: dcb2 2e3d 7f1a bd3d 0932 87bd 6d15 c8bd
00000240: 73a8 863d 82d2 83bd 3baa efbd 4a3e b5bd
00000250: 746f a7bd daf5 333e e7c2 0c3d 3ce7 9c3d
00000260: dba1 c73c 380a f5bd 80ff fc3d 83f1 e7bc
00000270: 21ca 38bd 0d22 143e bf8f bbbd 8d9f 153d
00000280: 83af 1abe b58e b83d cb48 923d 6345 16be
00000290: afb4 c93d d52e 9b3c 9539 bcbd afee 183e
000002a0: 66b5 983d 07b5 7c3d 165e 89bd e428 c5bd
000002b0: ee9e c3bd ad23 873d ab2f 443d e70c dabd
000002c0: b1e5 233e 7d30 d13d 33be 8cbd 6aa7 b83d
000002d0: ae39 99bd 1057 683d 28c2 153e 5662 20be
000002e0: f4af b3bd ca7c 1abc e25e 053d 9af3 12be
000002f0: 5c41 ecbd 450f 95bc af42 abbc b1de 163d
00000300: 8cec ab3c 8a17 153d a9da 523c c563 9c3c
00000310: 9079 19bc 3ad1 7c3d 2899 f63d 1d2b b7bd
00000320: ec0d bebd abf3 a33d 00f9 03be df79 ee3d
00000330: 3529 a73d 7451 dd3c 83ad 9bbd c611 843b
00000340: 2a34 10be 0a29 24be ae59 293e 4f97 23be
00000350: 6ef6 15be 63b7 8abd f124 263c 2ac8 1e3d
00000360: 2e76 b2bd 96e1 8cbc fd5c 0ebd be14 193e
00000370: 2634 1b3e 7573 923d d675 3f3b 7ba7 063e
00000380: c33c 11be 8a4f 983d 3f89 d4bd 1991 0e3e
00000390: 54e6 1fbe 29a6 873d 3c2c 14be b713 d63d
000003a0: 1f5e 0a3d 445c 1b3e 3a14 07be ff4f e73d
000003b0: 4912 f1bd 7222 c3bd 44e5 883d 3059 edbc
000003c0: 7502 0ebe a5fd 18be 7dd4 36bd 5aa4 4d3d
000003d0: 79c5 1e3e da8b 033e a0d5 773b 252f ddbd
000003e0: 4367 21be e616 213e 4f8c d7bd c161 06bd
000003f0: 1985 12be 40b7 f7bd f0c7 f53c d2cb 2dbd
0.07141376 0.09981777 0.15576553 -0.168955 0.16024445 0.13327026 0.17375804 0.095671795
-0.08645863 0.13519405 0.16108616 -0.06628825 -0.028694823 0.13888992 0.14268687 0.11629745
0.1347763 -0.09125582 -0.031196475 -0.07129745 0.0915032 0.044120133 -0.13645145 -0.022814501
-0.14460687 -0.16585624 0.16416393 -0.08792668 0.078195244 -0.03997308 -0.03400355 -0.00073345273
0.13908568 -0.024680372 0.14503099 0.10465749 0.12056748 -0.15910758 -0.08192218 -0.1428098
-0.036126964 -0.03760663 0.037009057 0.156556 0.078923754 -0.12341564 -0.11165182 0.13447246
0.018616898 0.050838415 -0.09137552 -0.020425122 0.050515167 -0.11641804 0.11564472 0.08927263
-0.102711774 -0.07312726 -0.047409523 0.025941048 -0.06389486 0.17014314 -0.1735143 -0.09883801
-0.10854718 0.047265615 0.025677102 -0.051912937 0.15171215 -0.15390131 0.0618013 -0.098800465
-0.0413724 -0.16855678 -0.13319303 -0.14850159 0.07649455 -0.06595149 0.09329502 -0.09689656
-0.04482556 0.020225182 0.1466759 -0.049176335 0.10192874 0.04913903 0.107862666 0.1105824
0.07158146 -0.052592494 -0.04422109 0.07215327 0.095806815 -0.010880253 0.09375008 -0.1077967
0.09974848 -0.021709064 -0.122061744 -0.08587219 -0.135322 0.035915595 -0.104753956 -0.050600823
-0.011209837 -0.10826986 0.004513387 -0.02291569 0.056003857 0.12745202 -0.106593914 0.09680229
-0.0036852984 -0.1009354 -0.08017876 0.04501516 0.036833428 -0.005454197 -0.08810523 0.089567795
0.026157659 -0.1717936 -0.03032181 -0.048182562 -0.07538816 -0.098033786 -0.14370558 0.1741426
-0.16075565 0.16435385 -0.13966668 -0.042171948 -0.073030904 -0.094053626 0.063252985 0.103172176
-0.115352996 -0.08272574 0.09084139 -0.022447718 0.042651042 0.09233569 -0.0660134 -0.09769712
0.06575098 -0.064366356 -0.11702391 -0.08849771 -0.08175555 0.17574254 0.03436556 0.07661292
0.02436917 -0.1196484 0.1235342 -0.028313404 -0.04511464 0.14466114 -0.09158277 0.036529113
-0.15106015 0.09011594 0.071427904 -0.14674906 0.09848916 0.01894323 -0.091906704 0.149348
0.07456474 0.06169608 -0.067073986 -0.0962694 -0.09551798 0.065986015 0.047897022 -0.10646992
0.16005589 0.102143265 -0.06872215 0.09016307 -0.07481705 0.056723654 0.14624846 -0.15662512
-0.08773795 -0.009429166 0.03256119 -0.14350739 -0.11535904 -0.018195758 -0.02090582 0.03683347
0.020986818 0.0363994 0.012869515 0.019090543 -0.009367362 0.06172297 0.12040931 -0.0894377
-0.09279999 0.0800546 -0.12887955 0.11644339 0.081621565 0.027016379 -0.07601454 0.004030439
-0.14082399 -0.1603128 0.16538116 -0.15975688 -0.14644787 -0.067732595 0.010140643 0.03876511
-0.08713947 -0.017197412 -0.03475665 0.14949319 0.15156612 0.07150928 0.0029214523 0.13149826
-0.14183335 0.07437046 -0.1037774 0.13922538 -0.15615207 0.066234894 -0.14469999 0.10452979
0.033781167 0.15171915 -0.1319131 0.11294555 -0.11771066 -0.09528054 0.06684354 -0.028973192
-0.13868125 -0.14940508 -0.04463624 0.050205566 0.15505017 0.12846318 0.003781654 -0.10800008
-0.15762047 0.15731391 -0.105248086 -0.03280807 -0.14308585 -0.12095499 0.030002564 -0.042430706

rowAttentions.0.v_net.bias f4 [32]
00000000: ccb2 0dbe 740f 013e 0daf b13c 3308 21ba
00000010: d40a 30be 4ae7 203e c941 ebbd f960 9d3d
00000020: 6291 a1bc 560b 9f3b 82fb b03d 1c7f 3dbd
00000030: 5786 4fbd 5c87 0f3e a62c 0bbe 8cb3 a63d
00000040: fc30 36bd fe4d 74bd 5569 f23d 69b5 043d
00000050: fe88 2abe e5e7 203e ea8c b3bd 358b 1c3e
00000060: 4a8c 63bd 2168 313e f184 543d ae42 11bc
00000070: 8413 883d f46b bfbb 2f07 b1bd eaf1 c23d
-0.13837737 0.12603551 0.021689916 -0.00061428844 -0.1719163 0.1571323 -0.11487157 0.07684512
-0.019722644 0.0048536463 0.08641721 -0.0462638 -0.050665226 0.14016479 -0.13591251 0.081397146
-0.04448031 -0.05964469 0.11836497 0.03239957 -0.16653821 0.1571346 -0.087671116 0.15287478
-0.055553712 0.17324878 0.051884595 -0.008865995 0.06644347 -0.0058417264 -0.08643948 0.09518798

rowAttentions.0.proj_net.weight f4 [32, 32]
00000000: d672 ec3d c6f3 bdbc e94b 2a3e 5ed7 1e3c
00000010: 92ab bebd f91f c3bd 9fc6 f33d 4078 90bd
00000020: 37f4 e23d f38f 31be 08dc b53b ff6b f6bd
00000030: 1298 7c3d 166a 123e d912 8d3d 8a30 74bd
00000040: 49fb 29be 532e abbd 7b26 d9bd bbae 2a3e
00000050: 5ece c2bd 7217 8c3d 26bc 113e 1276 823d
00000060: a4bb 1ebe ffcb a3bc 004c 57bd 6536 eb3d
00000070: 488c 88bc 252b fcbb 00e4 1f3e 5bcc 303d
00000080: fd34 a73d 3799 6abd 95ca ed3d 614e c63c
00000090: a907 14bd 6640 0b3d 4834 0ebe 3f1e e63b
000000a0: bfd6 a53d 168d 2abe 6fa0 c0bd 8609 e53d
000000b0: f0ea 833b a484 bebb 978c 8d3c 322d a0bd
000000c0: 7f2a 143e 79fe 8bbc 929b 85bd b9db bc3d
000000d0: 6959 17be 57ba 05bd c964 943c dbf7 5fbd
000000e0: 4932 c43d 6e21 1abe d095 50bd 8b2f 97bd
000000f0: b681 273e 0943 923d 7c57 07be a4d7 8d3d
00000100: 4947 abbb e979 263e 1791 c63d 1795 cfbd
00000110: 9c8a 213e 8223 06bd a463 25bd d851 563d
00000120: ca8c 343e bbbe 613d 07bd 2dbe 36c1 6ebd
00000130: e2b6 293e 8253 7dbd 8c52 acbd 6508 12be
00000140: 2a14 c6bd b2bf c9bd 0da3 343d 5ff9 933d
00000150: 6148 2d3e ca5c ed3d 8269 133b 4c49 c33d
00000160: 743e cf3d 744b 1cbe 171d b63d b31d fabd
00000170: 03f5 0a3e 2d06 a0bd dc26 1b3d 20be 68bb
00000180: 6739 a73d f713 ec3c 80b6 04be f24a 973d
00000190: f13c d63d a678 bdbd 4c64 ebbd 2d09 f8bd
000001a0: c0eb aebd b0eb a5bc 43e2 633c 7def 67bb
000001b0: b11f 3dbd 8d6b e03d 9045 313c 6087 d6bd
000001c0: 4d2c 36bd 8d66 d8bd 4b20 75bd b126 29be
000001d0: cf56 023d 1faf 0bbe 0fb5 8a3d 9c19 f83d
000001e0: 53c2 05be db6d c0bd 2916 0fbe ac4c 3c3d
000001f0: 3403 0a3d abfc bdbd 97a9 dc3d 3241 923d
00000200: e4d3 24be 22cb 08bc d640 9dbd 37e3 edbc
00000210: 16ae c83d 49dd 9fbc 7216 fbbd 8529 fd3d
00000220: 3e56 24be 0d9e 71bd 1f7e 8c3d 4743 1e3e
00000230: 0fcd 303e c881 28bd a67b 763d c66b 20be
00000240: d455 06bd 4646 6abd b8b1 5a3d b8e7 e8bd
00000250: a349 1e3d b623 bb3d 1623 0c3e 88c6 f3bc
00000260: a461 263e 06ad 2bbe 5726 4dbd a706 863d
00000270: 4ec0 353d 47bc a73d 115d edbd aa04 da3d
00000280: d144 29be a57c f8bd a3fb 41bc 8989 31be
00000290: 4002 2cbe adb5 1fbe 959d 113e 9203 223d
000002a0: 6aad 69bd d332 0dbc b080 1ebe 0248 29be
000002b0: c5ca febd 4511 30be 8a8b ed3d 97eb 79bd
000002c0: 3c3d 42bd 02e8 1bbe a2a9 e63c 8b78 e9bc
000002d0: 4054 f6bd 7736 e93d f9e8 183e 3030 01be
000002e0: 4b43 ce3d 4ad2 ebbc 12db d2ba 8624 9c3d
000002f0: 62d4 01bd f025 1b3e ae7a dc3d 54b1 e8bd
00000300: 0aca dbbd e9d8 32be 130a 663d 4cbe 07be
00000310: 085a 17be d013 e8bd c916 33be 659c 13be
00000320: e36c 213e 833b cb3d e688 203e 4c9c b0bd
00000330: 83f4 94bd f0b9 80bd 7a15 863b d005 03be
00000340: acc1 dc3c 0dd1 e7bd 38bd e93c 00ae 253e
00000350: 1bee f73c 5997 043e 99d1 00be b947 cdbc
00000360: 25c8 debd 219a a5bc c447 8fbd d5a9 cdbd
00000370: 3b8c 2ebe d35a 87bd 0a07 c13c 8b04 ffbc
00000380: 97c5 28be a596 073e 7ce1 063e 68cd dabd
00000390: 20b6 8e3c dc43 ef3d 8ec4 2bbe 4d40 20be
000003a0: 2642 c93d f510 74bb 6893 663d 3d3a 96bd
000003b0: d178 043d ec1f f13d ac40 33bd 11b9 67bd
000003c0: 360f 2ebe f811 d4bc 4da6 e43d 7f9a 2abe
000003d0: aa73 6cbc c26e 033e 51ed 4dbd 347f 85bd
000003e0: 9d6c 5dbd 50cf 91bd 88ab af3c 811e 2ebe
000003f0: f0b0 8a3d e421 38bd ddd6 b8bc 5a9a 3dbc
0.11545341 -0.02318753 0.1663052 0.009694902 -0.09310068 -0.09527583 0.11903118 -0.07054186
0.110817365 -0.17340069 0.0055499114 -0.12032317 0.061668463 0.14298281 0.068883605 -0.059616603
-0.16599764 -0.08358445 -0.10603043 0.16668217 -0.09512018 0.06840409 0.14231929 0.063701764
-0.15501267 -0.019994734 -0.052562714 0.11484984 -0.016668454 -0.007695573 0.15614319 0.04316364
0.081644036 -0.057275023 0.11610905 0.024207296 -0.036140118 0.033996962 -0.13887131 0.0070226486
0.080976 -0.16655383 -0.094056 0.11183457 0.0040258095 -0.005814152 0.017278953 -0.0782112
0.14469336 -0.017089115 -0.06523813 0.09221596 -0.14780201 -0.03264841 0.018114464 -0.054679733
0.09579904 -0.15051815 -0.050924122 -0.07382115 0.16358075 0.07141692 -0.13216966 0.06925896
-0.0052270037 0.16257443 0.096956424 -0.101358585 0.15775532 -0.032748707 -0.040378228 0.052324146
0.17631832 0.055113535 -0.1696664 -0.05828973 0.1657367 -0.061847217 -0.08414182 -0.14261015
-0.09671815 -0.09851016 0.04410081 0.07225298 0.16922142 0.11589964 0.0022493307 0.09535465
0.10119334 -0.15263158 0.08892267 -0.12212696 0.13570027 -0.07813678 0.037878856 -0.0035513714
0.081652455 0.028818114 -0.12960243 0.073873416 0.104608424 -0.092515275 -0.114937395 -0.12111125
-0.085410595 -0.020253986 0.0139089255 -0.003539055 -0.0461728 0.10958014 0.010819808 -0.104750395
-0.044475842 -0.10566435 -0.05984525 -0.16518666 0.03182107 -0.13641022 0.067728154 0.121142596
-0.1306241 -0.09395953 -0.13973297 0.045971557 0.03369446 -0.09276708 0.10774534 0.07141341
-0.16096455 -0.008349212 -0.07678382 -0.029039009 0.09798829 -0.019514697 -0.122601405 0.12361435
-0.16048524 -0.05898862 0.06859993 0.15455352 0.17265724 -0.041139394 0.060176514 -0.15666112
-0.032796696 -0.057195924 0.053392142 -0.11372322 0.038644444 0.09137671 0.13685259 -0.029757753
0.16248184 -0.16765222 -0.05008539 0.065442376 0.04437285 0.08190208 -0.11590017 0.10645421
-0.16530158 -0.12133149 -0.01183978 -0.17337622 -0.16797733 -0.15596648 0.14220269 0.039554186
-0.057050146 -0.0086180745 -0.15478778 -0.16531375 -0.12441019 -0.17194088 0.115988806 -0.06101569
-0.04742168 -0.15225223 0.02815706 -0.028499862 -0.12027788 0.113873415 0.14932622 -0.12616038
0.10071429 -0.028786797 -0.0016087017 0.07624154 -0.031696685 0.15151191 0.10765587 -0.11361948
-0.10731895 -0.17465557 0.05616195 -0.13256186 -0.14780438 -0.11331904 -0.1748916 -0.14415129
0.15764193 0.0992346 0.15677223 -0.08623561 -0.072731994 -0.06285465 0.0040919157 -0.12795186
0.026947819 -0.1131917 0.02853261 0.16179657 0.030264905 0.1294836 -0.12579955 -0.025058614
-0.10878018 -0.020215096 -0.0699611 -0.100421585 -0.17045681 -0.0660912 0.023562927 -0.031130096
-0.16481625 0.1324106 0.13171953 -0.106837094 0.017420828 0.11682865 -0.16774198 -0.15649529
0.0982707 -0.0037241552 0.05629292 -0.07335327 0.032341782 0.11773667 -0.043762848 -0.056572977
-0.1699799 -0.025887474 0.11164532 -0.16660498 -0.014431873 0.1283522 -0.05027515 -0.06518403
-0.05405866 -0.0711962 0.021444097 -0.17003824 0.067720294 -0.044954196 -0.022563392 -0.011572445

rowAttentions.0.proj_net.bias f4 [32]
00000000: d996 023e d79c 2d3e 6d30 8f3d 786d 03be
00000010: 9c55 2bbd 1d71 133e eb8a 023e ee83 69bd
00000020: c72a ed3d 70f9 edbd ec0f 383d 943c 213e
00000030: 0a06 143d 545a 10be acd7 673d 2f62 c43d
00000040: 466b 003e 3fba ebbd c399 1abd 6997 3abc
00000050: 3226 06bd e6f6 2abd c9df 83bd e9e6 803d
00000060: e8dd ab3d c25d 0bbd 971a 103e 609b 8aba
00000070: abba 333d 62a0 373d c942 6cbd 72b6 9abb
0.12752856 0.16954361 0.06991658 -0.12834728 -0.04182969 0.14398618 0.12748305 -0.057010584
0.11580425 -0.11619842 0.04493706 0.15745765 0.03613857 -0.14096957 0.056602165 0.095890395
0.12540922 -0.11510133 -0.037744295 -0.011388638 -0.03275127 -0.041739367 -0.06439168 0.062940426
0.08391935 -0.03402496 0.14072643 -0.001057487 0.043879192 0.044830687 -0.05768088 -0.004721456

rowAttentions.1.q_net.weight f4 [32, 32]
00000000: 2c2b 073e e710 38bc d80e f83d e2ee cf3d
00000010: 5417 d8bc 963f 97bd 960a c0bd a5db 11be
00000020: fd68 d8bd 1655 3c3d 9e0a 813d c138 50bd
00000030: 5c09 6fbc 1e65 fa3d 17ec d73c 9303 fbbd
00000040: 3e6a 193e 9a7e da3d 793d a63c 5b90 ac3d
00000050: 8426 19be e068 d43d f1d7 2f3d ef74 7fbc
00000060: dfd9 68bd 6045 123e 36a3 1c3d 97eb c9bd
00000070: 3c24 a33d 5fb9 ff3c e6f7 7cbd 5bcb ff3d
00000080: a95e 343e a8f8 00bc babc 95bd 04a4 c2bd
00000090: 3643 bdbd 3eb7 b93d e0fd e23d 5569 dbbd
000000a0: 3e70 c83d 64b9 d83b 795b cdbb 1761 67bd
000000b0: 04a2 26be d37f 1bbe 570f 053e 10ee ebbc
000000c0: a8cb fabb 1e30 dabd d4ce 04bd d332 8dbd
000000d0: d053 803c 1ab4 2cbe 2706 8b3c 601b 20be
000000e0: e5de 00be fdf1 71bb ff7a 97bc fc88 4abd
000000f0: 000d d33d 922d 503c 68dc 173d 0d68 943d
00000100: 5322 253c f563 20be a4ee 86bd c4f7 e23d
00000110: 4472 cf3d 6e6f 7a3d cdbe 1f3e c942 bcbd
00000120: c1e5 57bd ae27 dabc 9261 32bd d4eb 1b3e
00000130: 13d6 34be 5b65 083d 5bf7 313e 03f8 c8bd
00000140: 34eb 0f3e 61ec 1bbe 4ff1 f33c b918 cebd
00000150: 6f2b 643d a197 1e3d 40d7 1e3d d6e9 23bd
00000160: cef8 60bd a338 2fbe 9457 f23c 4e0e 2d3e
00000170: 3dfd 07be 216c 8bbd 0578 3f3d 9965 b93d
00000180: 2ca9 833d 3b6a ea3d 8d43 b63c 521f 32bd
00000190: d102 17be e1f0 34be 219c 0abe dcf7 b53d
000001a0: aab1 223e 2624 2c3e c087 073e d452 113c
000001b0: 9266 f93d 1289 893d 34ce f4bd 8e7b 07bd
000001c0: 85e6 27be 1274 1b3e d25a 1d3d 9245 263e
000001d0: 837a b0bc cfc5 0f3e 243c a93d 425c b0bc
000001e0: c5b8 c4bb a100 013e 6f22 bebc 91d8 0c3e
000001f0: 6881 1f3d 30d6 8dbd 0980 a7bd 8101 b0bd
00000200: 6d63 e83d b1cc 083e 4f4f aabd 082f 25be
00000210: 9c14 cd3d 9cf5 24bd 053b 26be 1a01 183d
00000220: 6b09 91bc 3b6e 023e 14ab 193d ce6c dfbd
00000230: 6aba 02bd 70e8 01be f00f a93d 94bc 533d
00000240: 26e4 d53d 6701 06be 42a3 c9bd c536 dcbd
00000250: 4100 16be 03d4 28be 600f 12be 8408 fc3d
00000260: 4493 5abd 1c81 05bd d781 5a3d 2d6a 3e3d
00000270: 90f1 a23d 64a5 ffbd d10d 213e 86b9 66bc
00000280: 49d1 abbd dfa5 e93d b58f 16be b1c0 d7bd
00000290: f8e9 cb3d 412c 8c3d ea74 8fbd 0ce8 67bc
000002a0: 37bd 04bd 4f35 933d 3f30 113d 9f8c 843d
000002b0: 9191 153e 64dc f8bd 1757 0bbe 80d4 2bbd
000002c0: 16bf a4bd 57c1 00be bbef 273e 6244 173e
000002d0: 6e46 123e 7aee debd 849a abbc f1e5 0cbe
000002e0: 4894 82bd e6da 163e fceb b63c 3ee9 7a3d
000002f0: 49e9 33be a427 953d 4774 f43d ebeb 8abd
00000300: 2d94 093e 0a0f a33d 5d33 04be 85b3 07be
00000310: 32aa 213b 87a4 2ebe cb0e fdbd ea91 8d3d
00000320: 6184 6ebd f544 cdbb 4cf2 93bd e74d ea3d
00000330: 41ab 143e c0a8 023e 3e07 21be a11f 56bd
00000340: 7661 af3d 9515 d63d b875 22bd a445 c63d
00000350: 0778 a9bb a0d7 a03c 5de9 f33d 1d97 f73d
00000360: b098 ffbd b5c4 dbbd 5a6e 803d 8a93 d93d
00000370: bf86 28bd 3584 203e 78eb a5bc 0189 b7bd
00000380: 565e 93bc 2116 1abe 0c39 603d 5d63 26be
00000390: b7ec 273e fb6c 09be d19f eb3d 7dcd 07be
000003a0: e023 d4bc 057c c8bd ddf7 b83d 21d7 d13d
000003b0: a138 29be 9552 1bbe a387 bd3c 945b 7bbb
000003c0: 5b8f 8e3a 9ffa 5b3d ce56 0fbd 5dcb 183e
000003d0: 6aeb 4f3c bcbd a6bd e01b 7b3d ee84 0cbe
000003e0: 7929 adbd 912f 533d 43b7 97bd 16dd 2cbe
000003f0: 204d b53d dc51 3a3d 8487 533d 39d2 7b3d
0.13200063 -0.011234499 0.12112206 0.10152985 -0.026378311 -0.07385175 -0.09377019 -0.14243944
-0.105669 0.04597958 0.06300853 -0.050835375 -0.014589634 0.12226318 0.026357694 -0.12256541
0.14981934 0.106686786 0.020292984 0.08425971 -0.14956099 0.10371566 0.042930547 -0.015591844
-0.056848403 0.14284277 0.038241588 -0.09859388 0.079658955 0.031216322 -0.061759852 0.12489959
0.17614235 -0.007871784 -0.07311387 -0.0950394 -0.09241335 0.09068154 0.11083579 -0.1071345
0.097870335 0.006613897 -0.006267008 -0.056489076 -0.16272742 -0.1518548 0.12994133 -0.02880004
-0.0076536722 -0.10653709 -0.03242381 -0.068944596 0.015664965 -0.16865578 0.016970707 -0.15635443
-0.12585028 -0.0036917918 -0.018491266 -0.049447045 0.10305214 0.012706177 0.03707543 0.072464086
0.010078984 -0.1566313 -0.06588486 0.11082414 0.10129216 0.061141424 0.15600128 -0.09192426
-0.052709345 -0.026630249 -0.04355008 0.1522668 -0.17659788 0.033299785 0.17379515 -0.098129295
0.14054567 -0.1522689 0.02977815 -0.10063309 0.055705484 0.038718823 0.038779497 -0.040017925
-0.05492478 -0.17111449 0.029582776 0.16899988 -0.13280196 -0.06807733 0.04674532 0.09052581
0.06428751 0.11446043 0.022249008 -0.0434869 -0.14747168 -0.17670013 -0.13536121 0.08885166
0.15888086 0.16810665 0.13235378 0.008869845 0.12177767 0.06715597 -0.119533926 -0.033076815
-0.1639653 0.15180996 0.03841669 0.16237476 -0.021542793 0.14040302 0.08263424 -0.021528367
-0.0060034716 0.12597896 -0.023209779 0.13754489 0.03894177 -0.06925619 -0.08178718 -0.08594037
0.11347089 0.13359334 -0.08315908 -0.16131222 0.100136966 -0.040273294 -0.16233452 0.037110426
-0.017704686 0.12737362 0.03751667 -0.10909425 -0.03191606 -0.12686324 0.08254993 0.051693514
0.104439065 -0.13086472 -0.09845592 -0.10752634 -0.14648534 -0.16487126 -0.14263678 0.12306312
-0.0533631 -0.03259383 0.05334648 0.046487976 0.07956231 -0.12482718 0.15727927 -0.014082318
-0.08389527 0.114085905 -0.14703257 -0.105348 0.099567354 0.06844378 -0.070047215 -0.014154445
-0.03240701 0.07187902 0.0354464 0.06472134 0.1460631 -0.12151411 -0.13607441 -0.041950703
-0.08044259 -0.12573753 0.16400044 0.1477218 0.1428468 -0.108853295 -0.020947702 -0.1375959
-0.06375939 0.1473194 0.022329323 0.061257593 -0.1756946 0.072829515 0.11936241 -0.06783279
0.13435431 0.07961853 -0.12910219 -0.13252075 0.0024668095 -0.1705495 -0.12356337 0.069125965
-0.058231715 -0.006264324 -0.07223949 0.1144064 0.14518453 0.12759686 -0.15725419 -0.052276257
0.08563511 0.10453335 -0.039663047 0.09681252 -0.005171779 0.019634068 0.11909745 0.120893694
-0.12480295 -0.10730878 0.06271048 0.10623844 -0.04114413 0.15675433 -0.020253882 -0.08961678
-0.017989319 -0.15047504 0.054741904 -0.16248842 0.16398893 -0.13420479 0.11505092 -0.13261981
-0.025896013 -0.0978928 0.09031651 0.10246111 -0.16525508 -0.15168221 0.023135966 -0.0038354145
0.0010876463 0.053705808 -0.034994893 0.14921327 0.012690404 -0.08141658 0.06130588 -0.13722584
-0.08455176 0.051559035 -0.07408001 -0.16881213 0.08852601 0.045488223 0.05164291 0.06147978

rowAttentions.1.q_net.bias f4 [32]
00000000: d530 193e 7250 cbbd 54f2 9cbd 4676 043e
00000010: 7e5b bbbc db40 05be 9560 adbd 1528 fe3d
00000020: 8e0c cebd e7b1 7e3d 772d 17be e822 ef3d
00000030: 55e7 473d 2215 fa3d a7a0 c83b 511e b83d
00000040: d547 143e d09f babc ce03 09be b35c 00be
00000050: 4240 d43d bfe5 e6bd 9175 1ebe 8130 19be
00000060: 777a a0bd ecc5 063d 0aa4 23be a03f a7bd
00000070: f956 2d3e 8381 f6bc cdc2 74bd e505 ab3d
0.14960034 -0.09927453 -0.07663408 0.12935743 -0.022870775 -0.13013022 -0.08465687 0.12409989
-0.10060988 0.06218138 -0.14763437 0.1167658 0.0488046 0.12211062 0.006122667 0.089901574
0.14480527 -0.022781283 -0.13380358 -0.12535362 0.10363819 -0.11274289 -0.15474536 -0.14959909
-0.07835858 0.032903597 -0.15980545 -0.081664324 0.16927709 -0.030091053 -0.05975609 0.08350734

rowAttentions.1.k_net.weight f4 [32, 32]
00000000: 24f8 14be 5956 0dbe 936d cf3c 8705 653d
00000010: dd5e 32be c20b 1f3e 56f3 8cbd fb32 dd3c
00000020: 08ae 003e 9ca6 8a3d 0ae5 603d a720 25be
00000030: cbe2 28be 64a8 863d 0e7d d53b 1448 de3d
00000040: a424 b53d 6c37 11be 0953 053d 3902 0ebe
00000050: b017 c8bd 6ee8 463d 776a 21bc 1a35 e7bd
00000060: fb9f 753d d837 fb3d 26ed 31be 93bd 293e
00000070: 6dcf c73d bdf3 73bc e39b 2fbe 9f4c 99bd
00000080: 98f4 5c3d d32f 9abd 3039 6ebd 01ce 95bd
00000090: a9a0 1b3e d52e 193e 543f 0dbe 57a9 5fbd
000000a0: 21ef 233e 0718 28bc 6d5e b0bd 3888 af3c
000000b0: de35 0f3e 56d4 b8bc a3b8 2abe 18e3 71bd
000000c0: e41b b43d 1e41 d6bc 1a8f ff3d cef4 783d
000000d0: d1aa c33a 625f 8a3d 21a5 c3bc 242c 1bbe
000000e0: ef2a 1bbe fe56 0ebe 1fa9 e4bc 6cc7 02be
000000f0: 5ead d43c 4590 a53c 34ed 093e 4d04 243c
00000100: a2ec f63c f7bb 803d 01b7 4cbd c566 b4bd
00000110: 8d47 2abe 214b 30be 0e5a 3e3c 2627 abbd
00000120: e17e 483d 1fe6 333d 922f 0d3e dd0c b1bc
00000130: 1060 41ba 8adc f93d 98df f53c 2cb6 a53d
00000140: 8f7a c3bd c9d3 02be cb07 0a3e 910a 013e
00000150: a11f 89bd 6992 f03c 85ff 20be 74a1 4a3c
00000160: 1b16 28be 22a1 cc3d 5883 33be 5e7f 2ebd
00000170: f5e7 283e 1a4d 75bd 23d4 d1bd 2946 233e
00000180: 5f1f b7bd 328b 1f3d d55a ca3d 740a 433d
00000190: b326 fabd 1b4a 243e e8b7 ad3d c190 e3bd
000001a0: 8299 cebd e2c1 26bd 55b2 713d 65c6 883d
000001b0: f382 ba3c 8491 ed3d 3301 343e e3d8 143d
000001c0: 9de6 8d3d baec cd3d 51e4 0f3d a8d2 323c
000001d0: edd1 223e 46e5 f93d 9376 ec3d 48e2 8cbd
000001e0: 2707 adbd ff62 c4bd f7ba 17be d4f0 93bc
000001f0: 1de4 cb3d 7b93 d43c 6d59 80bd f896 c8bc
00000200: f4ae 0abe 8396 e8bd 433b 853c 314f d2bd
00000210: 4746 b23c 0844 153e 8e7e 393d a191 0a3e
00000220: f772 e5bd ab5c 963b 8dd2 31be 4f4c 9a3a
00000230: 4753 05be bbe8 293e e4d4 1abe df83 773d
00000240: b57d d8bd 7961 483d e82b 79ba 0d2a b9bc
00000250: a778 8cbd 71ce e83d 00b2 02bd 9344 763c
00000260: 1c45 5abd a4e3 03be ecd3 96bd a749 223e
00000270: 865a 2c3e 553d a8bd 4f01 913c c628 eb3c
00000280: 87af 1f3e 1725 ca3c 6e03 073c a9a9 52bd
00000290: 5fbc 183d f53d 34be ae9a 34be bedb a7bc
000002a0: 6d13 fbbd b26e fbbd fdcc f5bc 07e2 c83d
000002b0: 3827 b33d d698 7bbd 3a21 4cbc 620b 283e
000002c0: bf91 1c3d e23a f63d 1aed 95bd 2700 22be
000002d0: 84dc a7bd 6b50 7e3c 0351 2fbd 13a2 c5bd
000002e0: d117 2e3e ce19 27be 3912 933b d949 903d
000002f0: 5c7b 43bd 0b09 9d3d 50f2 173a a237 d7bd
00000300: 5ce4 c4bd 88d1 a2bd c1bc 30be c19c e13d
00000310: 2ff1 253e d7ef b9bd e5f8 0e3c e6e7 713d
00000320: 012b 4d3d 0bf9 c8bd 30fe dbbd 6b45 303e
00000330: 8ccd d23d 6a35 293e c833 fe3d 1026 57bc
00000340: 5ecf fe3d 3727 babb 8f97 8eba bee4 9cbd
00000350: 7f26 0d3e 96fb 19bd dd3e d23c 4354 10be
00000360: b05a 783d c622 acbd a759 23bd 0687 81bc
00000370: 6e26 863d 1d74 ec3b c0e8 fb3c 2728 ebbd
00000380: c0c9 08be 2861 823d 5512 95bd 980d 1cbe
00000390: 2e68 95bd 4595 31be cd9c 103d 6e4d 573c
000003a0: 2c28 273e 5f9a c7bd 033d bbbd 0cd0 2c3d
000003b0: ca47 3ebd 7214 0d3e 2c83 dc3c 11a8 7cbb
000003c0: fce1 8abd bec1 da3d cf6c a9bd b79c 913d
000003d0: 1499 e83d 49fb 0dbe f068 20be d82a ccbd
000003e0: 0fba ad3d b2b8 c7bd 8869 883c 58a7 da3c
000003f0: 3703 183d 5893 b8bd 71ed c93b 3ed9 fa3d
-0.14547783 -0.1380247 0.025320804 0.055913474 -0.17419 0.15531829 -0.0688235 0.027001848
0.12566388 0.067700595 0.05490593 -0.16125737 -0.16492765 0.06575087 0.006515152 0.108535916
0.08844879 -0.14181298 0.03254989 -0.13868035 -0.09770143 0.048561506 -0.009852043 -0.11289425
0.059967022 0.12266511 -0.17375621 0.16576223 0.0975636 -0.014889655 -0.1714931 -0.074853174
0.0539442 -0.07528653 -0.058160007 -0.07314683 0.15198006 0.14959271 -0.13793689 -0.054604854
0.16009189 -0.010259635 -0.0861176 0.021427259 0.13985392 -0.022562187 -0.16671996 -0.059054464
0.08794382 -0.026154097 0.12478466 0.06078034 0.0014928227 0.06756474 -0.02388245 -0.15153557
-0.15153097 -0.13900372 -0.027912674 -0.12771386 0.025961574 0.020210395 0.13469392 0.010010791
0.030142132 0.062858514 -0.049979214 -0.08808664 -0.16628857 -0.1721616 0.01161815 -0.08357076
0.048949126 0.043920632 0.13787678 -0.021612579 -0.000737668 0.122002676 0.030013844 0.08091387
-0.095448606 -0.12776102 0.13479535 0.12601687 -0.06695486 0.029366689 -0.15722473 0.012367595
-0.16414683 0.09991671 -0.17530572 -0.042601936 0.16494735 -0.059887983 -0.1024554 0.15944733
-0.089415304 0.038951106 0.09880606 0.04761739 -0.122144125 0.16043894 0.08482343 -0.11111594
-0.10087873 -0.040712245 0.05900796 0.06678466 0.02276752 0.116000205 0.17578582 0.03633965
0.069287516 0.10054918 0.03512985 0.010914482 0.15900393 0.122019336 0.11546054 -0.06879097
-0.0844863 -0.095891945 -0.14817415 -0.018059172 0.099556185 0.02594923 -0.062670566 -0.02448605
-0.13543302 -0.11356833 0.01626361 -0.10269011 0.021762026 0.14576733 0.045286708 0.13532116
-0.112035684 0.0045886836 -0.17365475 0.0011772009 -0.13020049 0.16592686 -0.15120274 0.060428496
-0.10570852 0.048921082 -0.0009505139 -0.02260306 -0.0685895 0.113675006 -0.031908035 0.015030998
-0.053288564 -0.12879807 -0.0736464 0.15848409 0.16831407 -0.08214823 0.01770082 0.028705966
0.15594302 0.024675889 0.008240564 -0.05143133 0.03728902 -0.1760176 -0.1763713 -0.020490523
-0.122595645 -0.12276973 -0.030004973 0.09808736 0.08747715 -0.061425053 -0.012459094 0.16410592
0.03822493 0.1202295 -0.07320614 -0.1582037 -0.08196357 0.015522103 -0.04280187 -0.09650054
0.17001273 -0.16318437 0.0044882563 0.07045335 -0.047725067 0.076677404 0.00057963 -0.10508658
-0.096138686 -0.07950121 -0.17259504 0.110162266 0.16205285 -0.09078949 0.008726333 0.059059046
0.05008984 -0.09813126 -0.10741842 0.17213981 0.10293111 0.16524282 0.1241222 -0.013131633
0.12441896 -0.0056809443 -0.0010878908 -0.076608166 0.13784216 -0.037593447 0.025664741 -0.14094643
0.06063336 -0.0840507 -0.03988042 -0.015811455 0.06550299 0.00721599 0.030750632 -0.11482268
-0.13358212 0.06366187 -0.07278887 -0.1523956 -0.07295261 -0.17342098 0.035305787 0.013141019
0.16323918 -0.09746241 -0.091424964 0.042190596 -0.046455182 0.1377733 0.026918016 -0.0038552324
-0.06781384 0.10681485 -0.08272707 0.07109969 0.11357322 -0.13865389 -0.1566503 -0.09969109
0.084827535 -0.09752025 0.016651884 0.026691124 0.03711244 -0.090124786 0.0061623384 0.12248467

rowAttentions.1.k_net.bias f4 [32]
00000000: 65f0 a43d 1018 593c f498 f1ba cc8f 413d
00000010: 3233 273e de50 60bc e5ce adbd ac50 03be
00000020: 5682 153e 39eb 1fbe bab9 b03d 226e 1e3e
00000030: 5b5c c13d 2b4d b4ba 8fba bbbc 8a5f e53d
00000040: 0b84 c0bd f998 7f3d 1422 5fbd a5a5 be3d
00000050: fb52 20bd 1b95 f1bd 5a35 8abd 46e3 d43d
00000060: 1a5d 843d d375 ffbd b497 ebbd f19b 14bd
00000070: d1f5 89bc 12b3 4bbd 334b f33d 9a99 493c
0.08053664 0.013250366 -0.0018432424 0.047256276 0.16328123 -0.013691155 -0.084867276 -0.12823743
0.146005 -0.15617074 0.086291745 0.154717 0.094414435 -0.0013755908 -0.022916107 0.11199863
-0.09400185 0.062401745 -0.05447586 0.09308938 -0.039141636 -0.11796018 -0.06748457 0.103949115
0.0646307 -0.12473645 -0.115035444 -0.03628153 -0.016840847 -0.04973132 0.118795775 0.012304688

rowAttentions.1.v_net.weight f4 [32, 32]
00000000: 08bc 41bd ab9c 21bc a189 a53d f30c ffbd
00000010: 9b03 32be 1772 11be f63e 9e3d 0154 993c
00000020: a4ba 21be 114c 133e 4779 c13d 33ba 28be
00000030: 0c2e de3d 021d f3bb abae 803c b734 153e
00000040: fbc9 0b3e 6558 1d3d d0b5 adbd a718 083e
00000050: 11b9 153e 31d5 d3bc 4e84 10be 0f16 2a3e
00000060: 8a86 9dbd d33c d8bd efe1 28be f91c 933d
00000070: 3560 8b3d 6639 9cbd 3e39 2fbe a816 fe3d
00000080: 33f9 333c 10b6 1f3e 38be 8cbc bb7c 243e
00000090: 1430 35bd 52a9 a7bd f5f3 d43d 67d1 383d
000000a0: 0ac4 223e 5eef 583c 5b59 0abe aa00 01be
000000b0: 1e3d 20bd 4906 d9bc 40f0 c7bd 4003 193e
000000c0: 69db c4bd 04c1 8e3c 165c d13d b550 153d
000000d0: f1f6 153c f7a0 8b3d 9c19 bbbd 5c22 33be
000000e0: 83c8 533d 9729 05be 1c34 1dbe cea0 04be
000000f0: a747 123e 6539 f2bd 2c9e 0b3e 9281 ef3d
00000100: 2830 f63c fddc d2bd f973 23be d991 0cbe
00000110: 57de e93d 69c1 efbd c4be c1bc 3cfe e43c
00000120: eebc b0bc 8477 253d d20b 0fbe e19a 153e
00000130: b59a 02be 13af d2bd 349e 16be c242 eb3d
00000140: e3f6 b3bd e367 78bd ffd1 bc3d 3b66 95bc
00000150: a17d 153e ef58 5f3d 4913 77bc 41f3 f3bd
00000160: 53d3 2cbe 55a9 463d 4117 743c 17af 243e
00000170: c0fe 26be 7305 113d 2b80 873d 580c c83d
00000180: 8183 b03d 0c3c 4bbc e24b 2cbe 46eb 13bd
00000190: 8bbd 323e 8cad 07be 90c7 f1bd 8f31 243e
000001a0: b0ae 42bc e703 77bd a32f a13c 64c3 973d
000001b0: cb6d 7b3c 3f64 103e fb99 13bb 4080 97bd
000001c0: 6243 aabd f8fa 62bc a084 10bd 4d8e f43d
000001d0: 2e90 a83d de0a 0c3e 4c91 0d3e 8331 1b3e
000001e0: 6361 2bbe 2eea 20bd 8359 82bc cd54 023e
000001f0: a925 04ba f652 883d fecf 7abc f262 31be
00000200: a562 723c bc7f 97bb 45fc dfbd 1077 313e
00000210: 566d 11be 1974 19be ab1e 01be 264c 23be
00000220: 1cf9 12bd cd12 c1bd 76a2 143e 4040 be3d
00000230: 16ef ac3d 25d4 1b3e d95e 16be 7f67 dabd
00000240: 5562 193e ad59 043e 3a31 eb3c 20d3 ca3d
00000250: b661 3c3d 2162 5dbc 38c2 71bd 52b7 7c3d
00000260: 32cb 12be 0158 323e 64d2 22be 921e 09be
00000270: d6ea 043e ab53 d1bd 6bad b0bd 96d2 2dbd
00000280: 56aa 1ebe f392 02bc a8be cebc 8510 14bd
00000290: 809f 25ba dd5b f4bd 3815 00bd 4934 b2bc
000002a0: 9370 33be 4485 05be 1819 0b3e 8cb0 2cbe
000002b0: ffb1 10bd 7221 d4bd 781f 343e 4407 053e
000002c0: e9b5 b13d 0a0b babd 758e 20be 955b e1bc
000002d0: ff01 de3d c8ce ad3c a529 c6bd 57e4 22be
000002e0: 22ab 183e 3ec4 103d ccec fa3d 66e8 1dbe
000002f0: 86c6 bc3c cfc8 283e aed8 2ebe 089c 2abe
00000300: adb0 26be 350f b0bd d04d 8fbc 82cd ae3d
00000310: 93a9 7cbd f40e 0f3e e03b 133e 53eb f03d
00000320: dcbd 12be bf6a 8c3d d1aa cc3d 8451 053e
00000330: 8a1f 24be fb9b 1abd 0b22 b6bd c66c 87bd
00000340: e9bd 503d a0c5 2dbc 0dff 9a3d ef85 06be
00000350: 7b73 62bd 82b0 9c3d 1536 86bd 124f b63c
00000360: cba5 f1bd 6870 1c3e 9fc1 3b3b 38d8 853d
00000370: 3f9f 223c f62f 8a3c 47cc 2c3e f86a 97bd
00000380: 0b92 1d3e f859 94bd 8c76 c8bb 4058 e9bd
00000390: 7f0a 393d 9d3b 32be 866b 453d 4815 b9bd
000003a0: 51d6 1e3e d8e1 2f3e fb96 e33d 1078 28be
000003b0: f1f7 a03d 837f 08be d58c 4b3c 8528 dbbd
000003c0: 5edd e23d c320 b0bc 94c2 623d e044 643d
000003d0: 2202 ed3d cfc8 e63d 07f9 ddbb f692 00be
000003e0: 3c74 853d 94c1 86bd e3ff 9dbc ed33 403c
000003f0: c4e6 213e 75fe 063e 8b94 c0bc ee7f aabd
-0.04729846 -0.009864013 0.08082891 -0.12453642 -0.17384188 -0.14203678 0.077268526 0.018716814
-0.15793854 0.14384486 0.0944696 -0.1647728 0.108486265 -0.0074192295 0.015708288 0.1457089
0.13651268 0.038414378 -0.084819436 0.13290654 0.14621378 -0.025858494 -0.1411297 0.16609977
-0.07691677 -0.10558476 -0.16492437 0.071832605 0.068054594 -0.076281354 -0.1711168 0.12406665
0.010984707 0.15596795 -0.017180547 0.16063206 -0.044235304 -0.08186592 0.103980936 0.045121577
0.15895095 0.013240663 -0.13510649 -0.1259791 -0.039120786 -0.026492255 -0.09762621 0.14942646
-0.09612162 0.017426021 0.10222642 0.03645392 0.009153114 0.06817811 -0.09135744 -0.17493576
0.051704895 -0.13004147 -0.1535191 -0.12951967 0.14285146 -0.118273534 0.13634557 0.116946355
0.03005226 -0.102960564 -0.15962209 -0.13727511 0.11419361 -0.11706812 -0.023650534 0.02795326
-0.021574464 0.040397182 -0.13969353 0.14609863 -0.12754329 -0.10287299 -0.14708787 0.114873424
-0.08787324 -0.06064595 0.09219741 -0.018237224 0.14598705 0.054528173 -0.0150802815 -0.119116314
-0.16877489 0.04850133 0.014898122 0.16082416 -0.16308117 0.035405587 0.06616243 0.097679794
0.086188324 -0.012404453 -0.16825822 -0.036113046 0.17455117 -0.13249797 -0.11805642 0.1603453
-0.011882469 -0.060306456 0.019676035 0.07410315 0.015346001 0.14100741 -0.00225222 -0.073975086
-0.083136335 -0.013853781 -0.03528273 0.11941204 0.08230625 0.1367602 0.13824958 0.15155606
-0.16736369 -0.03928583 -0.015911823 0.12727661 -0.0005041012 0.066564485 -0.015308378 -0.17322901
0.0147940265 -0.0046233814 -0.109367885 0.17330575 -0.14201865 -0.14985694 -0.12609355 -0.15947017
-0.0358821 -0.09427414 0.14515099 0.092895985 0.084440395 0.15217645 -0.14684619 -0.106642716
0.14978917 0.12924834 0.028709996 0.0990355 0.045991622 -0.013512165 -0.059023112 0.061698265
-0.14335325 0.17416383 -0.1590057 -0.13390568 0.12980208 -0.102210365 -0.08626827 -0.04243716
-0.15494666 -0.007969606 -0.025237396 -0.036148567 -0.0006318018 -0.11931584 -0.031270236 -0.021753447
-0.17523412 -0.13039118 0.13583791 -0.16864222 -0.035326 -0.10357942 0.1759013 0.12991053
0.08677275 -0.09084137 -0.15679343 -0.02750949 0.108402245 0.021216765 -0.09675912 -0.15907417
0.14909032 0.0353434 0.12252197 -0.15420684 0.023043882 0.16482852 -0.17074844 -0.16661084
-0.16278334 -0.085966505 -0.017493159 0.08535291 -0.061685156 0.13970548 0.14378309 0.117636345
-0.14330238 0.06856298 0.09993518 0.13019377 -0.16027656 -0.03774641 -0.08893212 -0.06612544
0.050962362 -0.0106061995 0.07568178 -0.13137029 -0.055285912 0.07650854 -0.06553284 0.0222545
-0.117992006 0.15277255 0.0028649343 0.06535381 0.009925663 0.016868573 0.168748 -0.073934495
0.15387742 -0.07243723 -0.0061176475 -0.113937855 0.045176025 -0.17405553 0.048198245 -0.09037262
0.15511443 0.17175996 0.111127816 -0.1645205 0.07859791 -0.13329892 0.012423714 -0.10701088
0.11077379 -0.021499997 0.055361345 0.055729747 0.115726724 0.1126877 -0.006774071 -0.12556061
0.065163106 -0.06579891 -0.019287055 0.01173113 0.15810686 0.13183005 -0.02350833 -0.08325182

rowAttentions.1.v_net.bias f4 [32]
00000000: 661b 12be e162 2d3d 3e8d e2bd c0ed 203e
00000010: 8207 05bc 988b 98bd 4abc dbbd 2f53 51bd
00000020: 2d2c 1e3e e205 e9bd b55a 29be 24a6 5b3d
00000030: b938 7c3d b3f4 18be 05cb a1bd c79b 1d3e
00000040: 06d9 acbd 9de0 923d 6da6 b0bd fc30 1fbe
00000050: 6b2f 2fbe 713a 0a3e 0b5d 603d a6e4 533d
00000060: a022 7e3d 574a 8a3d 34aa f03d 6d28 093e
00000070: e471 0b3e 0c64 643d e437 073d b539 1a3d
-0.14268264 0.042330626 -0.11062096 0.15715694 -0.008119466 -0.074485004 -0.10729273 -0.05110472
0.15446539 -0.11378075 -0.16538508 0.05362524 0.061577532 -0.14937095 -0.07900051 0.15391456
-0.084398314 0.07171748 -0.08625493 -0.1554603 -0.17107932 0.13498856 0.054776233 0.051731728
0.06204474 0.067524604 0.11751214 0.13394327 0.13617665 0.055759475 0.033012286 0.03765269
