train/checkpoints/uduta8zd/re8botw3.checkpoint.pt (torch, 768502 bytes, 225 tensors)

rowAttentions.0.q_net.weight f4 [32, 32]
-0.17572455 0.07366871 0.09925455 -0.15600282 0.07792412 0.14539027 0.00482473 -0.110878475
0.13931777 0.082805455 0.112094864 -0.10502813 0.10367327 -0.12025844 0.17138028 -0.077906676
0.10308194 0.034782436 0.042548615 -0.031335555 0.06078188 -0.06711098 -0.1677477 -0.07145109
0.13290066 -0.04204097 0.07947826 -0.07263514 0.12846647 0.100996085 0.07309793 -0.09188918
-0.1384861 0.0015701414 -0.09870343 0.1486166 -0.16392194 0.08275249 0.1754289 0.09185516
0.060822245 -0.17565207 0.171841 -0.038753655 -0.15824464 0.15977573 -0.07042588 -0.008962109
0.16780359 -0.11704152 -0.12171272 0.032491077 -0.036082003 0.050733324 -0.16748467 0.0016820644
-0.07719426 -0.07511913 -0.16132289 0.086189896 0.038348053 -0.14698969 0.11623689 0.061473433
0.04200901 -0.109050296 0.029332785 0.17298113 0.109758794 -0.13437444 0.16178787 0.016351188
0.08890914 0.12064851 0.15406273 -0.14923196 0.15191428 -0.13403952 0.016445734 -0.12101248
-0.03378262 -0.008025824 -0.018366784 -0.024904557 0.02212351 0.18119821 0.10802218 0.10274495
0.073369645 0.13042513 -0.009473644 0.010648721 0.03690606 -0.15150489 -0.14854515 0.024293533
-0.06532896 -0.0020309244 -0.040509425 0.025730498 0.10182558 -0.058490656 0.13874137 0.13760307
-0.1357616 -0.14514945 -0.14427897 -0.09152245 -0.075816244 -0.02103248 -0.04883428 -0.092751615
-0.052427035 -0.06875878 0.17186238 -0.067023486 -0.115116544 0.0769635 0.010407262 0.14420769
0.10889259 0.15657276 -0.11892413 0.11352283 0.14356972 -0.08891113 0.1735615 0.12787251
-0.0017824342 0.077936545 -0.058372613 -0.15159798 0.036074616 0.055162888 -0.11208915 0.08837655
-0.14878064 0.15200722 0.17378339 0.03634213 -0.10909723 0.08754455 0.0319987 0.050703246
0.059216067 0.13687 -0.073521 -0.037526656 0.05224007 0.01925494 0.14614376 -0.089016974
-0.004393432 0.022727454 -0.057787176 0.11615638 0.021831017 -0.16055815 -0.020484334 -0.07613816
0.012741945 -0.02851839 -0.17287958 -0.030142153 -0.026158776 -0.050169613 0.1655229 -0.03645951
0.115638815 0.044460062 -0.14714333 0.031193312 0.1484876 -0.113046184 -0.11171331 0.17526247
0.14313178 -0.09649592 0.10835476 -0.020755032 -0.16980037 0.012905407 0.05931578 -0.050789636
0.063344285 -0.16075683 0.11513974 0.1462031 0.09962559 0.032163575 0.05929938 -0.12321584
-0.04448672 -0.014280395 -0.10070045 -0.13260438 0.11770077 0.11913737 -0.15839405 0.05416021
0.07045838 0.16933353 0.10039354 0.16397306 -0.06029573 0.12983474 0.14486189 -0.16886625
-0.14291772 0.032766234 0.094381146 -0.08911792 0.017704539 0.0028525703 0.04750266 -0.100054294
0.10062349 0.117169015 -0.11495169 0.002994978 -0.0012594655 0.05475106 0.17066255 0.05028635
-0.04312797 0.16103737 -0.06772716 -0.05273651 0.011152308 -0.13502875 0.022198929 -0.12137482
0.017464766 0.016939487 0.023344092 -0.1481294 -0.16986068 0.08394054 0.15213403 -0.15833746
0.06476032 -0.13222782 0.009640226 0.1635902 0.13214323 -0.1273148 0.11443045 0.0901641
0.0015484893 0.16880858 -0.06305765 -0.041996792 -0.09078071 0.024089225 0.049963072 0.013773556
00000000: 23f1 33be 9fdf 963d f845 cb3d 34bf 1fbe
00000010: ae96 9f3d 30e1 143e c518 9e3b 4114 e3bd
00000020: 51a9 0e3e e895 a93d fe91 e53d fd18 d7bd
00000030: a752 d43d 0f4a f6bd 507e 2f3e 898d 9fbd
00000040: a01c d33d 0778 0e3d 7547 2e3d b659 00bd
00000050: 6cf6 783d 7b71 89bd 0ec6 2bbe f354 92bd
00000060: 1c17 083e 2733 2cbd 7fc5 a23d bbc1 94bd
00000070: b78c 033e 09d7 ce3d 5eb4 953d 6530 bcbd
00000080: 4dcf 0dbe 34cd cd3a 0625 cabd f32e 183e
00000090: 27db 27be 237a a93d a2a3 333e 8f1e bc3d
000000a0: bf20 793d 23de 33be 16f7 2f3e 27bc 1ebd
000000b0: e20a 22be 409c 233e 723b 90bd cfd5 12bc
000000c0: b4d4 2b3e 77b3 efbd 8544 f9bd 5d15 053d
000000d0: b9ca 13bd bfcd 4f3d 1a81 2bbe b778 dc3a
000000e0: 0618 9ebd 0fd8 99bd d431 25be 5484 b03d
000000f0: d912 1d3d 7784 16be 9b0d ee3d 91cb 7b3d
00000100: a411 2c3d c355 dfbd 4f4b f03c f721 313e
00000110: 38c9 e03d 7499 09be b8ab 253e edf2 853c
00000120: ff15 b63d 9116 f73d 9fc2 1d3e 43d0 18be
00000130: 6b8f 1b3e a841 09be 34b9 863c 64d5 f7bd
00000140: a55f 0abd bf7e 03bc f075 96bc a404 ccbc
00000150: 5d3c b53c 068c 393e bc3a dd3d f26b d23d
00000160: d342 963d 2a8e 053e 5837 1bbc f977 2e3c
00000170: cf2a 173d 1924 1bbe 381c 18be 3b03 c73c
00000180: 31cb 85bd 4219 05bb 36ed 25bd c4c8 d23c
00000190: ee89 d03d e693 6fbd 3812 0e3e d2e7 0c3e
000001a0: 1705 0bbe 0fa2 14be debd 13be 1f70 bbbd
000001b0: 8c45 9bbd 4f4c acbc 7406 48bd 8ff4 bdbd
000001c0: bbbd 56bd 67d1 8cbd b1fc 2f3e 9c43 89bd
000001d0: 39c2 ebbd 0a9f 9d3d 3883 2a3c 2eab 133e
000001e0: 1403 df3d 9c54 203e 7f8e f3bd a87e e83d
000001f0: f103 133e 0a17 b6bd 1bba 313e 03f1 023e
00000200: 91a0 e9ba 329d 9f3d 1f18 6fbd 803c 1bbe
00000210: fac2 133d 7bf2 613d ff8e e5bd c4fe b43d
00000220: f459 18be c8a7 1b3e 46f4 313e 7cdb 143d
00000230: 5e6e dfbd 8f4a b33d 1211 033d 35ae 4f3d
00000240: 8c8c 723d a627 0c3e 2e92 96bd 8db5 19bd
00000250: aff9 553d 89bc 9d3c b6a6 153e 884e b6bd
00000260: c7f6 8fbb ed2e ba3c 3fb2 6cbd 65e3 ed3d
00000270: f6d6 b23c 5b69 24be c3ce a7bc 53ee 9bbd
00000280: 97c3 503c 669f e9bc 5807 31be adec f6bc
00000290: ee4a d6bc a77e 4dbd d67e 293e 9156 15bd
000002a0: 0bd4 ec3d c11b 363d beac 16be 1e89 ff3c
000002b0: 220d 183e c284 e7bd f3c9 e4bd 0178 333e
000002c0: 2391 123e a79f c5bd 1ae9 dd3d 7506 aabc
000002d0: 26e0 2dbe 3371 533c 1af5 723d cb08 50bd
000002e0: a6ba 813d 709d 24be 62ce eb3d 44b6 153e
000002f0: 8008 cc3d f4bd 033d e8e3 723d 9658 fcbd
00000300: b537 36bd 51f8 69bc 0a3c cebd 71c9 07be
00000310: 1a0d f13d 4bfe f33d 0d32 22be 19d7 5d3d
00000320: 7c4c 903d c565 2d3e 219b cd3d 8ee8 273e
00000330: a8f8 76bd 66f3 043e ad56 143e 46eb 2cbe
00000340: 0659 12be e335 063d e74a c13d 7583 b6bd
00000350: 1c09 913c 30f2 3a3b 2692 423d 44e9 ccbd
00000360: b013 ce3d 4ff6 ef3d cb6b ebbd 6547 443b
00000370: a614 a5ba a642 603d 2ac2 2e3e 0ff9 4d3d
00000380: f4a6 30bd fbe6 243e 8ab4 8abd 3d02 58bd
00000390: 2cb8 363c fa44 0abe 87da b53c 5d93 f8bd
000003a0: 4512 8f3c aec4 8a3c 1c3c bf3c 3caf 17be
000003b0: f5ef 2dbe 05e9 ab3d 06c9 1b3e 3723 22be
000003c0: 0fa1 843d bb66 07be 0af2 1d3c 3084 273e
000003d0: 8e50 073e d05e 02be 835a ea3d f5a7 b83d
000003e0: aef6 ca3a 28dc 2c3e 5f24 81bd d404 2cbd
000003f0: 3deb b9bd c456 c53c 14a6 4c3d 7baa 613c

rowAttentions.0.q_net.bias f4 [32]
0.065367796 0.13218595 0.039357577 0.12464673 0.11093762 0.047418315 0.064142376 0.059094742
0.019525414 0.15015595 0.16609447 0.06432679 -0.008493699 0.1526213 -0.13560617 0.13416475
0.09537373 0.11267027 -0.038308647 -0.13416821 0.12342247 -0.07784816 0.04740991 0.101325974
-0.1695879 0.008320333 -0.060229413 0.12385699 -0.11457797 0.111085914 0.107777864 0.09727813
00000000: 8ddf 853d c15b 073e 6935 213d c946 ff3d
00000010: 4333 e33d b539 423d 145d 833d 540d 723d
00000020: c3f3 9f3c 7bc2 193e ab14 2a3e c4bd 833d
00000030: 2829 0bbc c248 1c3e 58dc 0abe 7c62 093e
00000040: 4d53 c33d acbf e63d 87e9 1cbd 6463 09be
00000050: ecc4 fc3d db6e 9fbd e530 423d fe83 cf3d
00000060: 73a8 2dbe 0252 083c 1eb3 76bd bca8 fd3d
00000070: dba7 eabd 0381 e33d a4ba dc3d c239 c73d

rowAttentions.0.k_net.weight f4 [32, 32]
0.16860381 0.029964447 -0.15929201 0.124053426 0.020483008 0.0014959702 -0.17057055 -0.041928403
-0.08808141 0.17788436 0.123765275 0.13805558 0.119855694 -0.10623986 -0.0796153 -0.07114739
-0.073077574 0.13603893 0.05789052 0.13945743 -0.0113413185 -0.1565961 -0.048287008 0.1254257
0.10498448 0.05511361 -0.045191996 -0.16499169 -0.097143926 0.09000291 -0.064054705 0.08227046
0.048958033 -0.070880674 0.10676499 -0.054983664 -0.009960656 -0.065627486 -0.16573259 0.030372152
0.05301745 -0.093147345 0.11022462 -0.16472739 -0.16945238 -0.11173557 -0.05785626 -0.017949348
-0.032270692 0.08202231 -0.15329364 0.02790334 0.0055498057 0.045578595 0.1739473 0.10859543
-0.09560983 -0.14549513 -0.04838747 -0.0884842 0.0636317 0.003466704 0.13636428 0.07145976
-0.0330763 0.006417941 0.04151794 -0.021429352 0.14414361 -0.13811637 0.08693635 -0.11213116
-0.15493175 -0.032581978 0.08650178 0.12223745 0.045727227 -0.0119396 -0.009109293 -0.07046016
-0.016924655 -0.010556215 0.15088724 0.103928566 -0.14438029 0.000384151 -0.11398024 -0.029916124
-0.14027198 0.04763712 -0.1284715 0.17397046 0.13475153 -0.12120515 -0.171074 0.00794783
-0.047551546 0.048871808 -0.119576626 0.0729584 -0.15661758 -0.09237336 -0.092666164 0.08611438
-0.0034366064 -0.17526887 -0.10013851 -0.083383255 -0.16476968 0.017887311 0.06293396 -0.032329343
-0.068362 -0.0016771014 -0.13974638 -0.10696599 -0.00035303883 0.15774792 -0.04806837 0.090323605
-0.06877898 -0.049960975 -0.17035839 0.14600706 0.17163484 -0.0030956746 0.11345644 0.14465816
0.087338194 0.08934485 -0.16696428 -0.1657011 -0.13723205 0.055702638 -0.1523234 -0.13451913
-0.08534293 -0.16124065 0.0006894422 0.024296418 -0.10310986 0.11675677 -0.067284934 -0.049316548
0.13509627 0.15204531 -0.01987582 -0.12651265 -0.08820451 0.022369755 0.1035511 0.088707425
-0.07766054 -0.16958027 -0.1570228 -0.057203606 0.0025554476 -0.07896799 -0.14003043 0.01878259
-0.13987732 -0.13401693 -0.14503922 -0.04834696 0.15774807 0.068659276 -0.021584416 0.03592339
0.070020035 -0.00057554105 -0.14306848 -0.10763892 -0.12045604 -0.0054402403 -0.16168176 -0.032629628
-0.06509615 0.17323634 0.14325096 0.10225704 0.009399046 -0.05713712 0.04527507 -0.12277481
-0.07583381 -0.03306801 -0.03915897 -0.16648528 0.069903225 0.14510226 -0.09713256 0.047465112
-0.023023946 -0.00682083 0.010650395 0.15311421 0.025765559 -0.11157458 -0.063615724 0.0862773
0.055272177 0.0042539486 -0.023437105 -0.0684587 -0.061935585 -0.093305595 0.029313967 0.049643267
0.13507372 -0.039784785 0.012581158 0.114299804 0.074985825 0.022344295 0.055386785 0.008749643
-0.151575 0.0072972556 -0.03766575 0.15896153 0.15995514 0.035039667 0.15656514 -0.090896286
0.1560533 0.15225266 -0.0070357635 -0.14170152 -0.059323933 -0.047460005 0.0030382387 -0.16010329
0.032718267 -0.0743325 -0.045058805 -0.09205225 -0.038038936 -0.16411223 -0.093987875 0.016353445
0.11625077 0.1605811 -0.13355753 0.07427055 -0.09787474 -0.13636786 -0.008573356 -0.10071568
-0.15223008 -0.1659319 -0.1194518 0.14567126 0.098294936 -0.06985827 -0.11716135 -0.13603601
00000000: 7aa6 2c3e 0078 f53c 721d 23be b90f fe3d
00000010: fbcb a73c 6e14 c43a 0caa 2ebe 1ebd 2bbd
00000020: 0764 b4bd 5127 363e a678 fd3d 715e 0d3e
00000030: e776 f53d 4994 d9bd 590d a3bd b9b5 91bd
00000040: b2a9 95bd ca4d 0b3e 9c1e 6d3d eecd 0e3e
00000050: f0d0 39bc ba5a 20be 99c8 45bd 986f 003e
00000060: 1a02 d73d cfbe 613d 3e1b 39bd 95f3 28be
00000070: 65f3 c6bd 7253 b83d 1d2f 83bd 6a7d a83d
00000080: 3888 483d e329 91bd 9aa7 da3d 8d36 61bd
00000090: 0532 23bc b467 86bd ceb5 29be 05cf f83c
000000a0: d328 593d 09c4 bebd 72bd e13d 4cae 28be
000000b0: ed84 2dbe 9ed5 e4bd b0fa 6cbd 830a 93bc
000000c0: 462e 04bd 50fb a73d 02f9 1cbe 8c95 e43c
000000d0: 25db b53b 9fb0 3a3d 3e1f 323e 4867 de3d
000000e0: 16cf c3bd adfc 14be f131 46bd 3437 b5bd
000000f0: 5651 823d a431 633b 14a3 0b3e 7f59 923d
00000100: 047b 07bd 974d d23b b70e 2a3d 9c8c afbc
00000110: 629a 133e 616e 0dbe af0b b23d 06a5 e5bd
00000120: 6ea6 1ebe ae74 05bd d827 b13d a157 fa3d
00000130: 794c 3b3d 509e 43bc 253f 15bc 6b4d 90bd
00000140: 93a5 8abc faf3 2cbc 2f82 1a3e 80d8 d43d
00000150: 6dd8 13be e067 c939 796e e9bd a912 f5bc
00000160: 75a3 0fbe 241f 433d 088e 03be 5025 323e
00000170: 4efc 093e 683a f8bd 062e 2fbe 9d37 023c
00000180: 69c5 42bd ce2d 483d 97e4 f4bd 376b 953d
00000190: 5c60 20be 3f2e bdbd c2c7 bdbd bc5c b03d
000001a0: b038 61bb af79 33be 6b15 cdbd d7c4 aabd
000001b0: 62b9 28be 6988 923c 85e3 803d c66b 04bd
000001c0: 6001 8cbd 2fd2 dbba ad19 0fbe fc10 dbbd
000001d0: 1218 b9b9 ac88 213e 57e3 44bd 95fb b83d
000001e0: fedb 8cbd e1a3 4cbd 6e72 2ebe e082 153e
000001f0: 0bc1 2f3e cde0 4abb da5b e83d 4521 143e
00000200: 5ede b23d 6ffa b63d aff8 2abe 8dad 29be
00000210: 8f86 0cbe 7328 643d aafa 1bbe 62bf 09be
00000220: 46c8 aebd 451c 25be afbb 343a 4809 c73c
00000230: 432b d3bd 2c1e ef3d afcc 89bd 2600 4abd
00000240: ad56 0a3e c4b1 1b3e 9ed2 a2bc 888c 01be
00000250: 91a4 b4bd c740 b73c 9912 d43d 3dac b53d
00000260: 7d0c 9fbd 73a6 2dbe 96ca 20be 544e 6abd
00000270: 4c79 273b f8b9 a1bd 2364 0fbe f2dd 993c
00000280: 003c 0fbe bc3b 09be 2985 14be 7607 46bd
00000290: b688 213e 3c9d 8c3d cdd1 b0bc 6824 133d
000002a0: aa66 8f3d e8df 16ba 8b80 12be cb71 dcbd
000002b0: a8b1 f6bd 0b44 b2bb e78f 25be a5a6 05bd
000002c0: 2151 85bd de64 313e 61b0 123e 246c d13d
000002d0: 75fe 193c 9d08 6abd 5a72 393d 5c71 fbbd
000002e0: c24e 9bbd 5272 07bd 2865 20bd 1e7b 2abe
000002f0: 6c29 8f3d b095 143e 70ed c6bd c76a 423d
00000300: b79c bcbc 4581 dfbb ff7e 2e3c f9c9 1c3e
00000310: 4b12 d33c 3781 e4bd f648 82bd 27b2 b03d
00000320: 1465 623d b564 8b3b 2cff bfbc 1334 8cbd
00000330: 2bb0 7dbd 0117 bfbd d823 f03c bd56 4b3d
00000340: c450 0a3e 5ff5 22bd 3421 4e3c 0416 ea3d
00000350: 2b92 993d 620b b73c 41dd 623d aa5a 0f3c
00000360: 7a36 1bbe d11d ef3b 6747 1abd d0c6 223e
00000370: 48cb 233e c185 0f3d 9d52 203e d527 babd
00000380: 70cc 1f3e 1fe8 1b3e 438c e6bb 341a 11be
00000390: a7fd 72bd 6c65 42bd 301d 473b 1ef2 23be
000003a0: 9703 063d a33b 98bd 958f 38bd e485 bcbd
000003b0: b7ce 1bbd 090d 28be b77c c0bd a9f7 853c
000003c0: e214 ee3d 5f6f 243e 4ec3 08be 281b 983d
000003d0: 8d72 c8bd 04a4 0bbe 4377 0cbc 0644 cebd
000003e0: 34e2 1bbe 0dea 29be 25a3 f4bd d92a 153e
000003f0: db4e c93d da11 8fbd 4af2 efbd 064d 0bbe

rowAttentions.0.k_net.bias f4 [32]
-0.07363891 0.14871709 0.121024534 0.16051486 -0.17196222 0.002645262 -0.05821127 0.042048067
-0.13304584 0.07273816 -0.008443967 -0.08345221 -0.15647095 0.09026928 -0.06545159 0.13188614
0.031835895 0.052770678 -0.034392133 -0.016632335 -0.06438731 -0.1493885 0.11166638 -0.11157821
0.1032067 -0.059633885 0.11098322 0.14938876 -0.109133944 0.14801219 0.0048122997 -0.13569246
00000000: ffcf 96bd 4b49 183e b6db f73d 025e 243e
00000010: dd16 30be 225c 2d3b f16e 6ebd 983a 2c3d
00000020: 2b3d 08be bff7 943d 9158 0abc fee8 aabd
00000030: ec39 20be 1adf b83d 7c0b 86bd 290d 073e
00000040: 5b66 023d 1126 583d c4de 0cbd 8940 88bc
00000050: 7edd 83bd 4df9 18be 58b1 e43d 1e83 e4bd
00000060: 095e d33d a942 74bd 2c4b e33d 5ef9 183e
00000070: 9e81 dfbd 8290 173e 7fb0 9d3b f7f2 0abe

rowAttentions.0.v_net.weight f4 [32, 32]
0.07951318 0.0987347 0.14563145 -0.17072423 0.18608259 0.13181615 0.17633383 0.09387556
-0.095883094 0.13693483 0.15691279 -0.06817133 -0.03084575 0.15447254 0.13795765 0.10756854
0.12759934 -0.102584496 -0.03370909 -0.07442876 0.076630235 0.03805273 -0.14610341 -0.03235513
-0.15684383 -0.1371393 0.1977622 -0.06943866 0.06991205 -0.042608198 -0.023023097 -0.01274541
0.14160065 -0.025567349 0.14527863 0.10501 0.12690157 -0.15607303 -0.06826843 -0.14264554
-0.036134858 -0.036480356 0.038021635 0.13526307 0.07980257 -0.119837955 -0.12818596 0.13401443
0.020683896 0.04980367 -0.09153987 -0.020154603 0.03945072 -0.105578646 0.09820101 0.11077471
-0.11300181 -0.07094123 -0.04884214 0.029031955 -0.06401449 0.17131276 -0.1651042 -0.10243872
-0.10194187 0.05491781 0.0027485783 -0.05300173 0.12514015 -0.15401097 0.061727513 -0.099744104
-0.028819446 -0.19338205 -0.12862252 -0.14755784 0.06746986 -0.10221588 0.096114755 -0.08136226
-0.042984653 0.026822895 0.14642847 -0.04945753 0.10233631 0.053447556 0.16127312 0.13605312
0.0760411 -0.049989253 -0.03666218 0.068851806 0.082766235 -0.0110373385 0.08234909 -0.1144461
0.09893223 -0.024815662 -0.121066466 -0.086331 -0.12621348 0.035848882 -0.10644743 -0.051385533
-0.006002939 -0.117997915 0.0027365019 -0.027050927 0.048645128 0.114323325 -0.09598477 0.088998444
-0.0006478041 -0.11083825 -0.080175765 0.0468507 0.035389997 -0.010816997 -0.067237966 0.090923205
0.02405337 -0.1726185 -0.019218266 -0.046230055 -0.0818778 -0.100323446 -0.12681428 0.16956486
-0.15885937 0.16875716 -0.1356124 -0.04512191 -0.0689473 -0.096182816 0.06601441 0.10022572
-0.11784683 -0.08209234 0.088123426 -0.019356979 0.046456195 0.09813403 -0.07110012 -0.10050676
0.06311321 -0.06321235 -0.12007989 -0.092021756 -0.088918775 0.1680001 0.02459473 0.07638998
0.023611296 -0.1111125 0.13490663 -0.026596766 -0.049039885 0.14227201 -0.08012894 0.033941053
-0.1554819 0.08449664 0.068305634 -0.14394763 0.09108297 0.021294465 -0.1008483 0.15205796
0.07945548 0.087618314 -0.06480815 -0.11220457 -0.09496174 0.06751344 0.067959756 -0.10089842
0.16949323 0.101205684 -0.06417871 0.09708644 -0.085191004 0.076027185 0.15077339 -0.17237124
-0.08565964 -0.015487806 0.023252536 -0.14655344 -0.114481285 -0.01795444 -0.051176917 0.041743062
0.022408172 0.036030106 0.015672963 0.017625887 -0.0147188585 0.059790425 0.11809286 -0.09088906
-0.09228103 0.07369948 -0.12983184 0.11359922 0.07724299 0.012780274 -0.062572554 0.007485075
-0.14149407 -0.16650869 0.16511786 -0.15955791 -0.143736 -0.054781396 0.01716546 0.036675792
-0.08487526 -0.020286813 -0.029539024 0.14467932 0.14629667 0.06830563 0.017190231 0.13117903
-0.13316326 0.08455837 -0.123501815 0.13916007 -0.15790439 0.06430591 -0.13370042 0.10455399
0.033125494 0.13538465 -0.13209035 0.11487489 -0.11607213 -0.09108386 0.050338134 -0.030424135
-0.14436968 -0.14548425 -0.0467198 0.046867885 0.16418505 0.10891275 0.0041764197 -0.09767854
-0.15962568 0.16847637 -0.09709518 -0.025417339 -0.14339326 -0.118453965 0.03819849 -0.050131217
00000000: ced7 a23d 6b35 ca3d 6920 153e 55d2 2ebe
00000010: 6f8c 3e3e d0fa 063e db90 343e d441 c03d
00000020: 5b5e c4bd a538 0c3e bfad 203e 699d 8bbd
00000030: 3ab0 fcbc 0d2e 1e3e c544 0d3e e54c dc3d
00000040: 67a9 023e d217 d2bd 8b12 0abd 1b6e 98bd
00000050: 50f0 9c3d 2edd 1b3d 229c 15be d086 04bd
00000060: ab9b 20be 3f6e 0cbe 2d82 4a3e db35 8ebd
00000070: 0d2e 8f3d ef85 2ebd ef9a bcbc 20d2 50bc
00000080: c3ff 103e 9e72 d1bc ecc3 143e 7c0f d73d
00000090: 7cf2 013e 9cd1 1fbe 52d0 8bbd ac11 12be
000000a0: 2502 14bd 6d6c 15bd 93bc 1b3d 6782 0a3e
000000b0: 886f a33d 9a6d f5bd 2e43 03be 143b 093e
000000c0: 4671 a93c effe 4b3d 4179 bbbd 441b a5bc
000000d0: 1497 213d 9e39 d8bd 9c1d c93d dadd e23d
000000e0: 7e6d e7bd a349 91bd b20e 48bd 6cd4 ed3c
000000f0: 071a 83bd 9d6c 2f3e 1311 29be 64cb d1bd
00000100: e6c6 d0bd 7ff1 603d 7e21 343b 5818 59bd
00000110: bd24 003e 0db5 1dbe fdd5 7c3d a346 ccbd
00000120: c216 ecbc f205 46be 9fb5 03be 6719 17be
00000130: a32d 8a3d 8f56 d1bd d0d7 c43d 42a1 a6bd
00000140: ad10 30bd b0bb db3c 58f1 153e fb93 4abd
00000150: b395 d13d d3eb 5a3d c824 253e 8251 0b3e
00000160: 70bb 9b3d 88c1 4cbd 152b 16bd 2d02 8d3d
00000170: 5881 a93d f4d5 34bc a4a6 a83d b862 eabd
00000180: fb9c ca3d 374a cbbc b2f1 f7bd 4fce b0bd
00000190: 1b3e 01be 47d6 123d 1c01 dabd a379 52bd
000001a0: 4db4 c4bb e4a8 f1bd e256 333b e899 ddbc
000001b0: 1d40 473d 5922 ea3d aa93 c4bd d144 b63d
000001c0: 66d1 29ba 2aff e2bd 3133 a4bd 85e6 3f3d
000001d0: 1af5 103d c639 31bc 0fb4 89bd f235 ba3d
000001e0: 930b c53c e7c2 30be a06f 9dbc ba5b 3dbd
000001f0: 8caf a7bd 6176 cdbd 9adb 01be 69a2 2d3e
00000200: 08ac 22be adce 2c3e fadd 0abe c0d1 38bd
00000210: 3e34 8dbd 7ffb c4bd 9032 873d 2443 cd3d
00000220: ae59 f1bd 0720 a8bd 0e7a b43d 8792 9ebc
00000230: da48 3e3d 7ffa c83d f19c 91bd 7dd6 cdbd
00000240: 8041 813d 7a75 81bd 72ec f5bd e775 bcbd
00000250: 0c1b b6bd 3808 2c3e e37a c93c 5a72 9c3d
00000260: 7a6c c13c f38e e3bd f724 0a3e 76e1 d9bc
00000270: 0cde 48bd c1af 113e a41a a4bd c605 0b3d
00000280: a636 1fbe 930c ad3d d3e3 8b3d 0267 13be
00000290: b589 ba3d bb71 ae3c 8e89 cebd 15b5 1b3e
000002a0: 8eb9 a23d 3b71 b33d 23ba 84bd 82cb e5bd
000002b0: 4d7b c2bd 7d44 8a3d 7c2e 8b3d d5a3 cebd
000002c0: a28f 2d3e ed44 cf3d 2170 83bd 41d5 c63d
000002d0: 9f78 aebd 24b4 9b3d 5764 1a3e 1682 30be
000002e0: 526e afbd 91c0 7dbc 1a7c be3c 1b12 16be
000002f0: 2a75 eabd 3115 93bc e39e 51bd c6fa 2a3d
00000300: 5891 b73c 4e94 133d 9664 803c 2a64 903c
00000310: 5e27 71bc cee6 743d abda f13d 0b24 babd
00000320: d6fd bcbd c1ef 963d a3f2 04be b5a6 e83d
00000330: 9331 9e3d 5b64 513c 0a26 80bd 5c45 f53b
00000340: d2e3 10be 4181 2abe a814 293e 2663 23be
00000350: 882f 13be 7562 60bd 949e 8c3c 5b39 163d
00000360: 15d3 adbd 8830 a6bc d3fb f1bc d126 143e
00000370: cbce 153e d2e3 8b3d 87d2 8c3c cc53 063e
00000380: f35b 08be f02c ad3d 85ee fcbd fa7f 0e3e
00000390: b0b1 21be d1b2 833d c3e8 08be 6720 d63d
000003a0: 99ae 073d 46a2 0a3e b142 07be 8743 eb3d
000003b0: 3ab7 edbd 2d8a babd 5c2f 4e3d 093c f9bc
000003c0: a5d5 13be d3f9 14be 435d 3fbd 8af8 3f3d
000003d0: 2020 283e a60d df3d 59da 883b b00b c8bd
000003e0: ea74 23be 1285 2c3e d6d9 c6bd 0638 d0bc
000003f0: afd5 12be fe97 f2bd 0576 1c3d 6456 4dbd

rowAttentions.0.v_net.bias f4 [32]
-0.12753733 0.12714608 0.020178638 0.00245167 -0.1675379 0.1479809 -0.11607723 0.08330027
-0.022605868 0.0028761835 0.08673667 -0.048754677 -0.04716491 0.13231802 -0.13644996 0.07394408
-0.053034108 -0.056424458 0.11731267 0.037777737 -0.15740626 0.15623276 -0.09014725 0.15640524
-0.059187174 0.16906205 0.057005536 -0.0076203956 0.066147424 -0.0071848957 -0.08442278 0.0996869
00000000: 2599 02be 9532 023e ac4d a53c 32ac 203b
00000010: 0e8f 2bbe 4e88 173e e6b9 edbd 5599 aa3d
00000020: f12f b9bc 5a7e 3c3b ffa2 b13d fcb2 47bd
00000030: fe2f 41bd 607e 073e 8ab9 0bbe fe6f 973d
00000040: 4b3a 59bd 551d 67bd a041 f03d d4bc 1a3d
00000050: 1b2f 21be 7bfb 1f3e 1f9f b8bd b228 203e
00000060: 406e 72bd 9a1e 2d3e a37e 693d 83b4 f9bb
00000070: 4d78 873d 466f ebbb dae5 acbd a528 cc3d

rowAttentions.0.proj_net.weight f4 [32, 32]
0.124477334 -0.011216691 0.16255 -0.0009159942 -0.09736564 -0.09909944 0.12237889 -0.0785453
0.1224917 -0.18468969 0.009532137 -0.13670014 0.0467131 0.15145059 0.07355322 -0.044813808
-0.17866442 -0.07526796 -0.13562807 0.21679534 -0.10180075 0.08259773 0.13949768 0.075183034
-0.1606007 -0.009264904 -0.070814736 0.14929762 -0.009864848 0.010396681 0.14439 0.03795156
0.06855745 -0.03496373 0.11342387 0.02145746 -0.04726824 0.021521682 -0.13140662 -0.0037653188
0.08990726 -0.17322321 -0.0820179 0.09241191 0.018192826 0.00506239 0.029416183 -0.08633601
0.14529395 -0.033616427 -0.08518506 0.094152614 -0.15061603 -0.031171177 0.01839243 -0.050404258
0.10641253 -0.15312633 -0.045523677 -0.08586353 0.15504038 0.07635247 -0.13952948 0.061000925
-0.016362697 0.1751904 0.09589798 -0.101222396 0.15672109 -0.04060907 -0.039023615 0.045660734
0.18815058 0.052391965 -0.16496111 -0.06485603 0.16391708 -0.06521158 -0.07568277 -0.15023454
-0.09275763 -0.09515922 0.051023375 0.0761423 0.16880028 0.1099483 0.0032763884 0.097409196
0.111562535 -0.15390807 0.08778635 -0.11689111 0.1438906 -0.07802543 0.02499339 -0.0035068952
0.08976758 0.024652284 -0.14687704 0.05638344 0.104122795 -0.09020963 -0.10836948 -0.11890071
-0.08173867 -0.03504466 0.0109263575 0.0008202344 -0.054447737 0.09836484 0.017521735 -0.10162407
-0.0358268 -0.10535819 -0.0749526 -0.18296662 0.026462762 -0.13349494 0.07522654 0.12722893
-0.12567885 -0.09601686 -0.1335512 0.05212192 0.028245552 -0.07700034 0.10421466 0.070502706
-0.16768524 0.005411115 -0.097224414 -0.021896908 0.095251344 -0.03104884 -0.110419035 0.122993656
-0.14697035 -0.07124471 0.074067995 0.13293546 0.16561784 -0.041813448 0.08036288 -0.162357
-0.024365643 -0.07581988 0.056158192 -0.10014795 0.029511986 0.08005102 0.13244647 -0.028156044
0.17662229 -0.17428246 -0.051985905 0.07124209 0.04223396 0.08209135 -0.12952848 0.098247
-0.17453274 -0.120117195 -0.009253296 -0.16294207 -0.16389924 -0.1576775 0.14122353 0.046562914
-0.06567457 0.0005210675 -0.15341075 -0.17437252 -0.12179936 -0.1719159 0.118523076 -0.064455524
-0.047557496 -0.16084583 0.046077352 -0.016885396 -0.10645791 0.11225908 0.14546047 -0.13211158
0.10266084 -0.030627068 0.00020986011 0.06637092 -0.034543827 0.14102314 0.11326381 -0.11676978
-0.11590667 -0.15573606 0.06305966 -0.12176678 -0.14975065 -0.116220705 -0.18186782 -0.14901102
0.16664623 0.116416834 0.1559353 -0.08787619 -0.072706096 -0.065227725 0.008287189 -0.13048704
0.02339092 -0.09839759 0.055442072 0.18673483 0.033279065 0.13438468 -0.13117006 -0.023603845
-0.11005048 -0.020330956 -0.06558782 -0.11076759 -0.16145083 -0.07367698 0.027213387 -0.032357056
-0.16657533 0.1256568 0.12162749 -0.10023398 0.025074542 0.12170598 -0.16830522 -0.15151751
0.09301557 -0.005143924 0.060796496 -0.07162845 0.038293537 0.119492166 -0.04833534 -0.059000872
-0.15799445 -0.04297676 0.12674539 -0.17911305 -0.009691015 0.115347676 -0.052571118 -0.068164706
-0.050031714 -0.07570618 0.021142632 -0.17592272 0.055019252 -0.05157857 -0.025595995 -0.011948462
00000000: f9ed fe3d 36c6 37bc 8273 263e 551f 70ba
00000010: a367 c7bd a6f4 cabd c9a1 fa3d 5cdc a0bd
00000020: eedc fa3d 4b1f 3dbe ae2c 1c3c 1ffb 0bbe
00000030: 3c56 3f3d dd15 1b3e 12a3 963d af8e 37bd
00000040: cef3 36be 1726 9abd 16e2 0abe 99ff 5d3e
00000050: e97c d0bd 0029 a93d 7bd8 0e3e 90f9 993d
00000060: 8374 24be d3cb 17bc 5107 91bd 7ae1 183e
00000070: 2ca0 21bc d756 2a3c f9da 133e 1873 1b3d
00000080: d967 8c3d 2136 0fbd c64a e83d 8ec7 af3c
00000090: 589c 41bd 3d4e b03c 758f 06be 91c3 76bb
000000a0: 4c21 b83d 6d61 31be 00f9 a7bd 7542 bd3d
000000b0: 1f09 953c 68e2 a53b 35fa f03c efd0 b0bd
000000c0: f0c7 143e 61b1 09bd 8175 aebd 16d3 c03d
000000d0: 173b 1abe b25a ffbc b9ab 963c b274 4ebd
000000e0: d0ee d93d 26cd 1cbe 0977 3abd 38d9 afbd
000000f0: e8c2 1e3e af5e 9c3d d1e0 0ebe 1bdc 793d
00000100: 100b 86bc 1d65 333e 2966 c43d b04d cfbd
00000110: 7e7b 203e b255 26bd 3ad7 1fbd c006 3b3d
00000120: 8caa 403e f598 563d 91eb 28be 3dd3 84bd
00000130: e1d9 273e a68d 85bd 91ff 9abd 15d7 19be
00000140: b6f7 bdbd d6e2 c2bd e3fd 503d 7ff0 9b3d
00000150: fbd9 2c3e 932c e13d adb8 563b 797e c73d
00000160: e67a e43d 149a 1dbe 54c9 b33d 9b64 efbd
00000170: 0f58 133e cccb 9fbd f0be cc3c f0d3 65bb
00000180: 11d8 b73d 96f3 c93c ef66 16be 52f2 663d
00000190: 553e d53d d4bf b8bd d1f0 ddbd 3782 f3bd
000001a0: 9b66 a7bd fd8a 0fbd 7704 333c 0005 573a
000001b0: 9704 5fbd 8173 c93d be89 8f3c 4820 d0bd
000001c0: 1fbf 12bd 09c6 d7bd c080 99bd 9a5b 3bbe
000001d0: 6fc8 d83c e6b2 08be 5f10 9a3d 4d48 023e
000001e0: f5b1 00be 7da4 c4bd a5c1 08be cb7d 553d
000001f0: 3763 e73c 5bb2 9dbd 7f6e d53d b963 903d
00000200: aeb5 2bbe b94f b13b 981d c7bd 2561 b3bc
00000210: 2313 c33d 235a febc 6023 e2bd 19e4 fb3d
00000220: 657f 16be bfe8 91bd f6b0 973d 3c20 083e
00000230: b997 293e 9444 2bbd 4b95 a43d ea40 26be
00000240: 759a c7bc 7447 9bbd 2206 663d 5e1a cdbd
00000250: 1fc3 f13c caf1 a33d 0ca0 073e 81a7 e6bc
00000260: 79dc 343e 1a77 32be 2cef 54bd 5fe7 913d
00000270: 84fd 2c3d 821f a83d 1da3 04be b935 c93d
00000280: b6b8 32be 0100 f6bd 239b 17bc 49da 26be
00000290: 34d5 27be 3676 21be e79c 103e c1b8 3e3d
000002a0: 6480 86bd 3f98 083a b517 1dbe b68e 32be
000002b0: f171 f9bd b90a 30be 3abc f23d 4201 84bd
000002c0: a6cb 42bd c5b4 24be 9bbb 3c3d 3e53 8abc
000002d0: 9b06 dabd 17e8 e53d 97f3 143e 4248 07be
000002e0: d93f d23d 9ee5 fabc e50d 5c39 7aed 873d
000002f0: d47d 0dbd 5f68 103e dbf6 e73d ff24 efbd
00000300: 7a60 edbd 4679 1fbe 6c25 813d dd60 f9bd
00000310: 3c58 19be 1f05 eebd 8f3b 3abe 5896 18be
00000320: 4fa5 2a3e f36b ee3d 81ad 1f3e 6ff8 b3bd
00000330: efe6 94bd 1d96 85bd fdc6 073c 659e 05be
00000340: 519e bf3c ad84 c9bd 3a17 633d 6a37 3f3e
00000350: a14f 083d 239c 093e 7251 06be da5c c1bc
00000360: 2562 e1bd 1b8d a6bc e852 86bd 1eda e2bd
00000370: 5e53 25be f5e3 96bd 9cee de3c d588 04bd
00000380: b992 2abe 2dac 003e d517 f93d 7947 cdbd
00000390: 2069 cd3c fc40 f93d 3458 2cbe 6827 1bbe
000003a0: f27e be3d 5d8e a8bb bf05 793d f0b1 92bd
000003b0: afd9 1c3d 4fb8 f43d 47fb 45bd e6aa 71bd
000003c0: 4cc9 21be 6608 30bd 8bc9 013e 6969 37be
000003d0: 10c7 1ebc 673b ec3d d054 57bd f099 8bbd
000003e0: 0eee 4cbd d70b 9bbd 5033 ad3c 1625 34be
000003f0: de5b 613d 0d44 53bd b1ae d1bc 7bc3 43bc

rowAttentions.0.proj_net.bias f4 [32]
0.13530722 0.16379465 0.0799926 -0.11933039 -0.042319674 0.13439225 0.12552556 -0.062410507
0.114187695 -0.122751966 0.053839818 0.14356804 0.039822552 -0.13902211 0.052317426 0.1049123
0.117868565 -0.11754609 -0.028799912 -0.0091417255 -0.029353606 -0.034537435 -0.061995063 0.062456626
0.08247663 -0.033550333 0.13016443 -0.008308356 0.046569094 0.047706556 -0.062042248 -0.0017503431
00000000: fa8d 0a3e c9b9 273e 29d3 a33d 7e63 f4bd
00000010: 6557 2dbd 1f9e 093e c689 003e 29a2 7fbd
00000020: 3ddb e93d 6265 fbbd 2487 5c3d 8003 133e
00000030: f91c 233d d05b 0ebe cc4a 563d 43dc d63d
00000040: 1365 f13d 01bc f0bd cbed ebbc 2dc7 15bc
00000050: f976 f0bc 2077 0dbd 89ee 7dbd 85d2 7f3d
00000060: 82e9 a83d 136c 09bd d349 053e c51f 08bc
00000070: 3cbf 3e3d f367 433d 0320 7ebd c56b e5ba

rowAttentions.1.q_net.weight f4 [32, 32]
0.13196422 -0.013045443 0.12528974 0.100972794 -0.031238327 -0.074967965 -0.0999862 -0.13912658
-0.10454191 0.03819911 0.06053702 -0.058203544 -0.016372899 0.115334064 0.03829119 -0.121650286
0.15087211 0.10058385 0.025716655 0.08584365 -0.15122668 0.10334047 0.05191712 -0.02187205
-0.057093423 0.1450749 0.044127624 -0.09656296 0.08105902 0.029952003 -0.05379907 0.123016685
0.17479052 0.0054768077 -0.06516637 -0.100023285 -0.07909161 0.09245089 0.08879996 -0.11717345
0.11303502 -0.016709642 -0.011904919 -0.002700632 -0.1822973 -0.18421313 0.15336761 -0.028798904
-0.017334908 -0.120575905 -0.03660927 -0.07119217 0.00010189298 -0.16038994 0.0455028 -0.17222501
-0.120325394 -0.0030945954 0.0060504777 -0.056291725 0.0965743 0.008182946 0.04863382 0.069580026
0.01943987 -0.15064006 -0.06199713 0.11181391 0.105558015 0.05953287 0.15805115 -0.094241805
-0.052419607 -0.01579578 -0.04382286 0.16114876 -0.17746648 0.04389731 0.15644072 -0.09983391
0.13738678 -0.15292315 0.029022658 -0.099755906 0.053262137 0.04433567 0.03439868 -0.04051933
-0.05797905 -0.16735616 0.022835104 0.16730502 -0.13655803 -0.07388269 0.048000544 0.07975701
0.07044384 0.121834874 0.026337793 -0.041516718 -0.1479617 -0.17790097 -0.13064483 0.085976504
0.16143396 0.17140101 0.13097116 0.009556659 0.12180399 0.0719611 -0.1329332 -0.035033204
-0.16252929 0.14991231 0.04060717 0.16396324 -0.022922276 0.1491735 0.07027078 -0.023454027
-0.009626877 0.13162923 -0.028420204 0.1366986 0.038076047 -0.07321763 -0.0815668 -0.09010551
0.11495337 0.12693334 -0.08255763 -0.15974769 0.09522403 -0.040319927 -0.16166656 0.03748979
-0.019911744 0.12525736 0.03877705 -0.11932475 -0.029748283 -0.12948129 0.09170046 0.05314906
0.109403804 -0.13037463 -0.100123115 -0.1027652 -0.14228699 -0.16528623 -0.15229782 0.11711039
-0.052607704 -0.032200735 0.050436594 0.04467538 0.08274993 -0.12178154 0.15864076 -0.006786594
-0.08041304 0.10952097 -0.1475358 -0.10498088 0.09490058 0.06985331 -0.06959818 -0.015175808
-0.032575153 0.064475 0.03686535 0.059973545 0.14768761 -0.13038744 -0.12237109 -0.041260764
-0.076122776 -0.12444785 0.16232201 0.14975883 0.14602914 -0.10970631 -0.032144338 -0.1450349
-0.059705332 0.14782488 0.021403361 0.059830934 -0.17308521 0.076411396 0.11975926 -0.05970227
0.124709874 0.07566626 -0.13281713 -0.12902212 0.0049252026 -0.17330791 -0.12824383 0.06968997
-0.05828755 -0.00076281186 -0.07313932 0.109007575 0.14314812 0.12739514 -0.15380685 -0.050202545
0.0854918 0.10217596 -0.037481017 0.10090207 -0.005616904 0.022311872 0.12705594 0.12519842
-0.12690155 -0.10761664 0.07494548 0.09966239 -0.042289685 0.15494128 -0.021735562 -0.08982184
-0.029073859 -0.1628308 0.050289143 -0.15317355 0.16880588 -0.13764574 0.11396024 -0.12867095
-0.026233157 -0.08327429 0.09104421 0.09514647 -0.1655512 -0.14971566 0.021226155 -0.001898766
0.0040527484 0.05225638 -0.029271273 0.15947567 0.018709227 -0.07809634 0.06373693 -0.13301758
-0.09047768 0.051588144 -0.07047729 -0.17797793 0.08688959 0.043180704 0.045055605 0.056492355
00000000: a121 073e 8ebc 55bc f44b 003e d3ca ce3d
00000010: 85e7 ffbc ce88 99bd 91c5 ccbd 3377 0ebe
00000020: 121a d6bd ac76 1c3d abf5 773d d766 6ebd
00000030: 7520 86bc 4434 ec3d 39d7 1c3d c923 f9bd
00000040: 387e 1a3e e8fe cd3d bcab d23c ccce af3d
00000050: 2bdb 1abe 2ba4 d33d 0ca7 543d 032d b3bc
00000060: cbda 69bd 848e 143e 2bbf 343d cdc2 c5bd
00000070: 4502 a63d e75d f53c 6a5c 5cbd 2cf0 fb3d
00000080: 49fc 323e cb76 b33b f275 85bd 02d9 ccbd
00000090: c8fa a1bd e456 bd3d c1dc b53d a2f8 efbd
000000a0: e87e e73d a9e2 88bc d90c 43bc 16fd 30bb
000000b0: 25ac 3abe 5ea2 3cbe 660c 1d3e aeeb ebbc
000000c0: f001 8ebc 80f0 f6bd 9af3 15bd 33cd 91bd
000000d0: 61af d538 433d 24be 2561 3a3d c15b 30be
000000e0: 296d f6bd b2ce 4abb 1643 c63b 2792 66bd
000000f0: bfc8 c53d c311 063c 4234 473d f97f 8e3d
00000100: 5d40 9f3c 6341 1abe b4f0 7dbd b1fe e43d
00000110: cd2e d83d bdd8 733d 29d8 213e d901 c1bd
00000120: f1b5 56bd 2766 81bc 997f 33bd 2e04 253e
00000130: c6b9 35be aacd 333d ff31 203e b975 ccbd
00000140: 1faf 0c3e e397 1cbe edc0 ed3c d34c ccbd
00000150: 6629 5a3d 5299 353d a1e5 0c3d 99f7 25bd
00000160: 717b 6dbd 6a5f 2bbe af10 bb3c 0252 2b3e
00000170: ded5 0bbe cf4f 97bd 389c 443d a557 a33d
00000180: dc44 903d 9084 f93d 5bc2 d73c 6f0d 2abd
00000190: 4683 17be ac2b 36be c2c7 05be 7314 b03d
000001a0: f24e 253e bf83 2f3e 4e1d 063e 8893 1c3c
000001b0: 5f74 f93d 5760 933d a41f 08be fa7e 0fbd
000001c0: 146e 26be 9d82 193e b453 263d fbe5 273e
000001d0: 7fc7 bbbc f0c0 183e 20ea 8f3d a922 c0bc
000001e0: 0cba 1dbc d0c9 063e 7dd1 e8bc b8fa 0b3e
000001f0: a1f5 1b3d 20f3 95bd 7f0c a7bd 3d89 b8bd
00000200: ac6c eb3d d0fa 013e fa13 a9bd e694 23be
00000210: d104 c33d 8226 25bd eb8b 25be e58e 193d
00000220: f41d a3bc 7743 003e afd4 1e3d 8960 f4bd
00000230: acb2 f3bc be96 04be 73cd bb3d d4b2 593d
00000240: 1a0f e03d ed80 05be 590d cdbd 9076 d2bd
00000250: aeb3 11be cb40 29be f6f3 1bbe 92d7 ef3d
00000260: 2d7b 57bd ebe4 03bd 9a96 4e3d 88fd 363d
00000270: cc78 a93d 9a68 f9bd b972 223e 1462 debb
00000280: 98af a4bd 884c e03d a013 17be 3700 d7bd
00000290: 3c5b c23d 410f 8f3d 7e89 8ebd f4a3 78bc
000002a0: 866d 05bd 780b 843d 1f00 173d d2a6 753d
000002b0: 6c3b 173e 4984 05be b29d fabd 0c01 29bd
000002c0: 42e6 9bbd 84de febd be37 263e 615a 193e
000002d0: aa88 153e b4ad e0bd c8a9 03bd 0784 14be
000002e0: 948d 74bd 685f 173e 1a56 af3c 4811 753d
000002f0: 403d 31be 947d 9c3d 5844 f53d 5e8a 74bd
00000300: e467 ff3d eaf6 9a3d 3701 08be 601e 04be
00000310: 9863 a13b a177 31be 5a52 03be 9db9 8e3d
00000320: edbe 6ebd 70f7 47ba 11ca 95bd 5d3f df3d
00000330: 6c95 123e df73 023e 8b7f 1dbe 2fa1 4dbd
00000340: 5316 af3d a141 d13d b285 19bd bfa5 ce3d
00000350: 010e b8bb 63c7 b63c f41a 023e 0434 003e
00000360: 7bf2 01be 1d66 dcbd 047d 993d cc1b cc3d
00000370: f337 2dbd eda8 1e3e c70e b2bc 83f4 b7bd
00000380: 4d2c eebc 1ebd 26be fdfb 4d3d 87d9 1cbe
00000390: 73db 2c3e 01f3 0cbe fc63 e93d 51c2 03be
000003a0: ebe6 d6bc b68b aabd 6375 ba3d 27dc c23d
000003b0: 4186 29be 104f 19be 79e2 ad3c 04e0 f8ba
000003c0: ebcc 843b c90a 563d 4fca efbc 974d 233e
000003d0: 1844 993c f9f0 9fbd 8288 823d c335 08be
000003e0: 5d4c b9bd 174e 533d 6656 90bd d93f 36be
000003f0: 2bf3 b13d 40de 303d 3a8c 383d 8764 673d

rowAttentions.1.q_net.bias f4 [32]
0.14898197 -0.085773624 -0.07908321 0.1261583 -0.023666019 -0.13012226 -0.084196515 0.11974216
-0.09779814 0.06156394 -0.1502847 0.117110215 0.047152042 0.11509122 0.007251939 0.09452433
0.14419551 -0.029207611 -0.13673933 -0.13277574 0.10941004 -0.10879646 -0.15494141 -0.15244363
-0.07888443 0.03349651 -0.1578565 -0.08499061 0.16877963 -0.029164154 -0.063400984 0.08912936
00000000: bb8e 183e 15aa afbd 61f6 a1bd a42f 013e
00000010: 3ddf c1bc c53e 05be 396f acbd 613b f53d
00000020: 644a c8bd 782a 7c3d 3be4 19be 7bd7 ef3d
00000030: 8022 413d f2b4 eb3d aca1 ed3b f995 c13d
00000040: fda7 133e cd44 efbc 6505 0cbe 5df6 07be
00000050: 5f12 e03d aed0 debd f6a8 1ebe 2f1a 1cbe
00000060: 298e a1bd a333 093d 22a5 21be 8f0f aebd
00000070: 91d4 2c3e aae9 eebc 60d8 81bd 7489 b63d

rowAttentions.1.k_net.weight f4 [32, 32]
-0.14101265 -0.14564207 0.026503956 0.05811664 -0.17984478 0.1554691 -0.06581546 0.030405661
0.12400665 0.06809688 0.05566432 -0.17146254 -0.1637257 0.062084127 0.012089385 0.110249944
0.09239589 -0.14122133 0.03640121 -0.13398397 -0.09540459 0.04938113 -0.017098933 -0.11646383
0.060563114 0.121849105 -0.17872746 0.16712123 0.10033418 -0.014016237 -0.17402428 -0.07354083
0.049796678 -0.068395674 -0.05917052 -0.075170316 0.15692101 0.1491449 -0.1405786 -0.057344507
0.1612359 -0.011281375 -0.086886704 0.028575355 0.1388585 -0.018983591 -0.17168327 -0.060718935
0.084326215 -0.02666441 0.12156545 0.056504734 -0.00096395717 0.06689174 -0.016599083 -0.14778106
-0.15227906 -0.13799529 -0.022426266 -0.12904614 0.023674872 0.019329285 0.13756129 0.008835094
0.034882773 0.056620013 -0.049151603 -0.084829226 -0.16610777 -0.17080995 0.015748369 -0.07916177
0.04959713 0.05033245 0.139538 -0.024812743 0.00080265023 0.12388676 0.025925446 0.08031885
-0.0942834 -0.12544528 0.13985664 0.12724352 -0.066260874 0.027184546 -0.15841667 0.010261359
-0.16170648 0.09952411 -0.18728034 -0.041198738 0.16505274 -0.060936343 -0.10815563 0.15314895
-0.09418413 0.045234147 0.09793345 0.044267446 -0.12229001 0.15910576 0.08068526 -0.115559265
-0.10152875 -0.047190327 0.057306737 0.06997725 0.02121003 0.11403768 0.17988232 0.03694288
0.06808107 0.09821581 0.030040022 0.0096724555 0.15827926 0.12420746 0.11660823 -0.0666865
-0.08689847 -0.095401704 -0.13602486 -0.019368706 0.09948552 0.026941754 -0.056931507 -0.018143024
-0.13563944 -0.11353612 0.017293409 -0.104223676 0.019585507 0.14473657 0.043767143 0.13461475
-0.11301778 0.0006557003 -0.17398095 -0.0009777558 -0.129462 0.16354144 -0.1463333 0.06153059
-0.1060862 0.04923838 -0.002452576 -0.022816584 -0.06868117 0.11454123 -0.031760357 0.015648782
-0.05326845 -0.12961729 -0.07087297 0.15781598 0.16940337 -0.08098821 0.020629693 0.03106739
0.15596849 0.025379 0.007068594 -0.050901603 0.03920289 -0.17503837 -0.17572555 -0.020021832
-0.12170123 -0.119680144 -0.030013315 0.10037279 0.086596034 -0.059450656 -0.015971545 0.16318792
0.03805866 0.120181374 -0.07219132 -0.15899459 -0.08287255 0.014567573 -0.041449893 -0.09659908
0.17043859 -0.1627204 0.0032683038 0.07146213 -0.04879964 0.07553153 -0.0013796538 -0.10737921
-0.09795968 -0.08133769 -0.175544 0.110337235 0.15854508 -0.091442145 0.0068637533 0.060025547
0.049342003 -0.098348 -0.10773208 0.16742307 0.102788895 0.16522485 0.12741046 -0.011514474
0.12505934 -0.0060993605 -0.00025097464 -0.076602936 0.13782465 -0.037565812 0.02770263 -0.13827117
0.060990006 -0.08539734 -0.03415933 -0.01671336 0.06667439 0.007621472 0.03110714 -0.113293655
-0.13217692 0.06617784 -0.07024294 -0.15291359 -0.06966769 -0.17292069 0.036376912 0.011510025
0.16387798 -0.09795167 -0.09130924 0.047763444 -0.046619546 0.13750505 0.024271658 -0.005145798
-0.06882008 0.10675318 -0.08406481 0.07095988 0.113853335 -0.13833828 -0.15854321 -0.101961
0.08425417 -0.09602008 0.013026732 0.02713686 0.035809617 -0.09044648 0.006075949 0.12167117
00000000: 9f65 10be 3223 15be d31e d93c b70b 6e3d
00000010: 3b29 38be 4b33 1f3e 42ca 86bd 4b15 f93c
00000020: 33f7 fd3d 6176 8b3d 4500 643d e093 2fbe
00000030: b6a7 27be ed4b 7e3d 8e12 463c b9ca e13d
00000040: 0e3a bd3d 539c 10be 6f19 153d 1833 09be
00000050: 7b63 c3bd de43 4a3d 1013 8cbc 9784 eebd
00000060: 0711 783d 068c f93d 5504 37be d421 2b3e
00000070: 027c cd3d 5ca4 65bc 6c33 32be 939c 96bd
00000080: 9af7 4b3d 0813 8cbd ca5c 72bd e5f2 99bd
00000090: e7af 203e 71b9 183e d6f3 0fbe 13e2 6abd
000000a0: 061b 253e 84d5 38bc a8f1 b1bd dd16 ea3c
000000b0: ec30 0e3e 7a83 9bbc bdcd 2fbe 6bb4 78bd
000000c0: 39b3 ac3d 526f dabc 4ff7 f83d 8271 673d
000000d0: 12b2 7cba 89fe 883d cdfa 87bc eb53 17be
000000e0: 0bef 1bbe a34e 0dbe 4ab7 b7bc ac24 04be
000000f0: cef1 c13c 7358 9e3c dedc 0c3e 12c1 103c
00000100: 3de1 0e3d 63ea 673d 3153 49bd f2ba adbd
00000110: 2818 2abe cee8 2ebe b902 813c 911f a2bd
00000120: 5c26 4b3d 6629 4e3d 0de3 0e3e 1844 cbbc
00000130: f268 523a 57b8 fd3d 9a61 d43c 367e a43d
00000140: a817 c1bd ba74 00be 9436 0f3e 204c 023e
00000150: c8b3 87bd 20b2 de3c fb37 22be 421f 283c
00000160: 6296 25be 4cd3 cb3d 6bc6 3fbe 02c0 28bd
00000170: 9603 293e 6398 79bd b380 ddbd 14d3 1c3e
00000180: 9ce3 c0bd 7147 393d 5591 c83d c851 353d
00000190: 2f73 fabd 9fec 223e 503e a53d 56aa ecbd
000001a0: 4eee cfbd a54a 41bd 78ba 6a3d 3c50 8f3d
000001b0: a8c0 ad3c 968c e93d 1233 383e 6b51 173d
000001c0: 176e 8b3d 5f25 c93d 7e16 f63c 3879 1e3c
000001d0: f513 223e 7b60 fe3d 4cd0 ee3d ef92 88bd
000001e0: d3f7 b1bd f861 c3bd 1a4a 0bbe 1fab 9ebc
000001f0: 10bf cb3d f4b4 dc3c 0331 69bd aea0 94bc
00000200: 11e5 0abe a085 e8bd e8aa 8d3c 3973 d5bd
00000210: c971 a03c d335 143e 2d45 333d 73d8 093e
00000220: de75 e7bd 4de3 2b3a 1028 32be 0a28 80ba
00000230: b091 04be 6877 273e 66d8 15be 8007 7c3d
00000240: b943 d9bd 2fae 493d 66bb 20bb d8e9 babc
00000250: b7a8 8cbd 9894 ea3d 2617 02bd e031 803c
00000260: 0530 5abd 65ba 04be d925 91bd 839a 213e
00000270: 1478 2d3e 26dd a5bd 9aff a83c 0a81 fe3c
00000280: 34b6 1f3e 9fe7 cf3c aa9f e73b 337e 50bd
00000290: 3693 203d 423d 33be 66f1 33be d304 a4bc
000002a0: 7f3e f9bd dd1a f5bd 7cde f5bc 4090 cd3d
000002b0: 4359 b13d 8882 73bd c2d6 82bc bc1a 273e
000002c0: 66e3 1b3d a721 f63d 0bd9 93bd 7acf 22be
000002d0: 15b9 a9bd d4ac 6e3c 5dc7 29bd bdd5 c5bd
000002e0: 7487 2e3e 2da0 26be 0a31 563b bd5a 923d
000002f0: 22e2 47bd 46b0 9a3d 80d5 b4ba a2e9 dbbd
00000300: 169f c8bd 6094 a6bd cec1 33be 7df8 e13d
00000310: a459 223e 0546 bbbd 56e9 e03b 59dd 753d
00000320: d71a 4a3d ad6a c9bd a3a2 dcbd f470 2b3e
00000330: fc82 d23d b430 293e e377 023e 34a7 3cbc
00000340: 8e0f 003e 25dd c7bb 3f95 83b9 00e2 9cbd
00000350: e821 0d3e 9cde 19bd a0f0 e23c f596 0dbe
00000360: a8d0 793d cde4 aebd a7ea 0bbd 75ea 88bc
00000370: 958c 883d 8abd f93b 67d4 fe3c 8106 e8bd
00000380: 6359 07be 3f88 873d 88db 8fbd 6195 1cbe
00000390: efad 8ebd 1f12 31be f5ff 143d 8b94 3c3c
000003a0: a1cf 273e e39a c8bd 5700 bbbd 9aa3 433d
000003b0: 23f4 3ebd 20ce 0c3e 5bd5 c63c 159e a8bb
000003c0: 8bf1 8cbd 69a1 da3d 2c2a acbd 6a53 913d
000003d0: f02b e93d 8da8 0dbe 2759 22be eed0 d0bd
000003e0: 738d ac3d 2da6 c4bd 136e 553c 1f4e de3c
000003f0: 1bad 123d 013c b9bd c118 c73b bc2e f93d

rowAttentions.1.k_net.bias f4 [32]
0.07656922 0.01668705 -0.006221192 0.051683128 0.16504155 -0.014723597 -0.084225774 -0.12817618
0.14430311 -0.15451719 0.08451773 0.15647136 0.0944715 -0.00091830274 -0.023931952 0.11271601
-0.09417198 0.06270725 -0.05255838 0.0910442 -0.038211733 -0.11896671 -0.06822123 0.10418206
0.0650714 -0.12534033 -0.113749996 -0.037538175 -0.016607188 -0.050451852 0.117314056 0.013549224
00000000: 53d0 9c3d 48b3 883c 24db cbbb b0b1 533d
00000010: a700 293e 3e3b 71bc 907e acbd 9e40 03be
00000020: 32c4 133e c139 1ebe a217 ad3d 073a 203e
00000030: 467a c13d 41ba 70ba f10c c4bc a7d7 e63d
00000040: 3ddd c0bd a96c 803d 7547 57bd 6275 ba3d
00000050: e883 1cbd d2a4 f3bd 92b7 8bbd 675d d53d
00000060: 2744 853d 3759 00be c2f5 e8bd a1c1 19bd
00000070: cc0b 88bc 9aa6 4ebd 5a42 f03d 90fd 5d3c

rowAttentions.1.v_net.weight f4 [32, 32]
-0.04786284 -0.018057037 0.08632027 -0.11980784 -0.19265264 -0.14697547 0.072981015 0.024176335
-0.15496105 0.12212307 0.09080694 -0.1970372 0.1011869 -0.02473317 0.040928032 0.14967771
0.1475303 0.0294769 -0.070882715 0.14380243 0.1392273 -0.011159002 -0.124951474 0.15393601
-0.076870985 -0.10199909 -0.14940695 0.07254798 0.070592254 -0.078888826 -0.15664208 0.11887695
0.0050398977 0.15545154 -0.023982013 0.15323122 -0.025447665 -0.07086062 0.09780049 0.041469317
0.15723345 0.030726464 -0.13815391 -0.09934852 -0.0430379 -0.030027652 -0.09315433 0.14543904
-0.098775946 0.013633369 0.09531578 0.0356428 0.011075976 0.05522169 -0.09711783 -0.17945069
0.047218826 -0.12673774 -0.15782727 -0.122557625 0.14811671 -0.11697752 0.12689729 0.12641032
0.031353336 -0.086817674 -0.13668782 -0.13778596 0.116112046 -0.1272948 -0.028301938 0.018487409
-0.023866177 0.05116394 -0.14038685 0.15500127 -0.12734726 -0.08318738 -0.15847895 0.106873445
-0.08820138 -0.06545072 0.08458989 -0.012599269 0.1505674 0.059111778 -0.021853197 -0.12652078
-0.17386618 0.048595656 0.014229482 0.1526265 -0.1707194 0.03230889 0.08219199 0.08386614
0.08893376 -0.006907584 -0.15640017 -0.04156169 0.1902725 -0.1360904 -0.11615126 0.15355456
-0.014219442 -0.040978983 0.018544706 0.08763452 0.022881592 0.15021192 -0.011218885 -0.081113
-0.08778833 -0.004215817 -0.043331612 0.11203954 0.06500918 0.13267773 0.1473859 0.16429155
-0.16787201 -0.051933926 -0.04489074 0.13572434 -0.0008996007 0.06251289 -0.014270391 -0.17580044
0.022555308 0.0010882926 -0.10251092 0.1675308 -0.14542915 -0.15352373 -0.12376491 -0.16212784
-0.038619027 -0.095735334 0.14681466 0.09504915 0.084908314 0.15727438 -0.14686713 -0.10949077
0.1506261 0.13084292 0.019724127 0.09224499 0.04562055 -0.025473189 -0.05446587 0.06536877
-0.13827184 0.16726844 -0.15624273 -0.13701917 0.12551066 -0.1043119 -0.06982594 -0.041644268
-0.15886874 -0.008695959 -0.015200795 -0.028815817 0.0094643915 -0.1243529 -0.03683637 -0.02581682
-0.17863719 -0.11986976 0.13299042 -0.17193638 -0.035245776 -0.087972224 0.16848406 0.12736043
0.08592978 -0.09688907 -0.16625555 -0.011875888 0.11817991 0.02485224 -0.11091342 -0.1725417
0.14206104 0.03709963 0.12187675 -0.16042137 0.025046237 0.16247883 -0.15733206 -0.16881277
-0.18294366 -0.09817039 -0.028069336 0.09276542 -0.063962154 0.1435525 0.13406509 0.11900384
-0.1457881 0.08667688 0.097050555 0.1266854 -0.16386613 -0.036509935 -0.07840506 -0.06248795
0.056545123 -0.014828458 0.08176659 -0.1213727 -0.04432388 0.07973345 -0.049693663 0.011084027
-0.11855388 0.14687642 -0.0011834825 0.06332214 0.010597553 0.015001034 0.17005683 -0.074431114
0.14390688 -0.0883486 -0.009256429 -0.10611413 0.047346972 -0.17826408 0.045104418 -0.08456901
0.1550038 0.1701791 0.11073937 -0.18445338 0.076314576 -0.13735689 0.023956958 -0.10407195
0.112862535 -0.026456956 0.06047552 0.06580102 0.11183102 0.11290299 0.0061527705 -0.123949535
0.057404652 -0.065023 0.002834189 0.0033282023 0.15963976 0.13254751 -0.024428349 -0.079901375
00000000: d30b 44bd 5aec 93bc afc8 b03d d05d f5bd
00000010: bc46 45be bd80 16be 1277 953d 730d c63c
00000020: 1cae 1ebe a91b fa3d fdf8 b93d 1fc4 49be
00000030: 143b cf3d 389d cabc 27a4 273d 1d45 193e
00000040: 2f12 173e 8a79 f13c f52a 91bd f240 133e
00000050: 9a91 0e3e 3fd4 36bc 8fe6 ffbd 67a1 1d3e
00000060: 896e 9dbd e6e4 d0bd 23fe 18be 0994 943d
00000070: ac92 903d 7790 a1bd c866 20be c275 f33d
00000080: ba25 a53b b02e 1f3e ed75 c4bc a5e8 1c3e
00000090: 9f77 d0bc 5f1f 91bd a04b c83d bbdb 293d
000000a0: ce01 213e 11b6 fb3c 3878 0dbe 3d77 cbbd
000000b0: 8248 30bd 8dfc f5bc b3c7 bebd f9ed 143e
000000c0: 0b4b cabd 7e5e 5f3c eb34 c33d 2ffe 113d
000000d0: 0378 353c 2430 623d b6e5 c6bd ecc1 37be
000000e0: 8768 413d 8ac7 01be 799d 21be 7eff fabd
000000f0: e8ab 173e e991 efbd 5df1 013e b571 013e
00000100: 5b6c 003d 77cd b1bd e4f7 0bbe c317 0dbe
00000110: 27cc ed3d 9159 02be 77d9 e7bc e872 973c
00000120: 0083 c3bc 4891 513d 92c1 0fbe a7b8 1e3e
00000130: 5267 02be 255e aabd 4e48 22be 77e0 da3d
00000140: eda2 b4bd 070b 86bd 773d ad3d 2a6d 4ebc
00000150: 572e 1a3e 311f 723d 7a05 b3bc aa8e 01be
00000160: fa09 32be 3d0c 473d c622 693c 1f4a 1c3e
00000170: 11d1 2ebe 5456 043d 4654 a83d 03c2 ab3d
00000180: e722 b63d 0459 e2bb 5e27 20be 973c 2abd
00000190: cbd6 423e 485b 0bbe b6e0 edbd 683d 1d3e
000001a0: aaf8 68bc 94d9 27bd 11eb 973c ba79 b33d
000001b0: 2d72 bb3c 27d1 193e 6acf 37bc 931e a6bd
000001c0: 5eca b3bd d624 8abb 7d7c 31bd fd74 e53d
000001d0: 8823 853d acdc 073e 54ec 163e 0b3c 283e
000001e0: a4e6 2bbe abb8 54bd 5adf 37bd 52fb 0a3e
000001f0: 2ed3 6bba c206 803d 5cce 69bc 0805 34be
00000200: e9c5 b83c 0aa5 8e3a 3ff1 d1bd 328d 2b3e
00000210: 61eb 14be 5335 1dbe 7578 fdbd d704 26be
00000220: fc2e 1ebd e310 c4bd 9556 163e 21a9 c23d
00000230: 69e4 ad3d 890c 213e 5664 16be b23c e0bd
00000240: ba3d 1a3e b0fb 053e 7e94 a13c f1ea bc3d
00000250: 9ddc 3a3d 26ad d0bc 9b17 5fbd 10e0 853d
00000260: 2297 0dbe 6b48 2b3e 18fe 1fbe c14e 0cbe
00000270: de85 003e 7aa1 d5bd e700 8fbd 2e93 2abd
00000280: 7dae 22be 7f79 0ebc c10c 79bc 260f ecbc
00000290: 8910 1b3c bcac febd bce1 16bd cc7d d3bc
000002a0: abec 36be 477e f5bd a42e 083e 1710 30be
000002b0: e05d 10bd c82a b4bd 1687 2c3e c66a 023e
000002c0: f4fb af3d c76d c6bd e53e 2abe 1693 42bc
000002d0: 4f08 f23d ed96 cb3c 9326 e3bd c5ae 30be
000002e0: 7378 113e c8f5 173d 849a f93d 8045 24be
000002f0: c42d cd3c da60 263e a81b 21be 41dd 2cbe
00000300: 9555 3bbe 8f0d c9bd aaf1 e5bc ccfb bd3d
00000310: 97fe 82bd 6dff 123e 5c48 093e 49b8 f33d
00000320: 7a49 15be a683 b13d 71c2 c63d d1b9 013e
00000330: 86cc 27be 718b 15bd d592 a0bd 5df3 7fbd
00000340: dc9b 673d 10f3 72bc 3e75 a73d 4092 f8bd
00000350: f58c 35bd 4b4b a33d 958b 4bbd c799 353c
00000360: 60cc f2bd c666 163e 151f 9bba 0aaf 813d
00000370: 5ca1 2d3c e6c6 753c 6123 2e3e 576f 98bd
00000380: 535c 133e 1cf0 b4bd 47a8 17bc 5d52 d9bd
00000390: e6ee 413d dc8a 36be 69bf 383d 8432 adbd
000003a0: 51b9 1e3e 6e43 2e3e 53cb e23d 59e1 3cbe
000003b0: d14a 9c3d 49a7 0cbe 6241 c43c ad23 d5bd
000003c0: 7924 e73d 42bc d8bc 2eb5 773d afc2 863d
000003d0: a907 e53d af39 e73d 2e9d c93b 41d9 fdbd
000003e0: 2421 6b3d c72a 85bd cdbd 393b f81d 5a3b
000003f0: 9b78 233e 89ba 073e f61d c8bc 55a3 a3bd

rowAttentions.1.v_net.bias f4 [32]
-0.1469383 0.0461126 -0.11265132 0.1529948 -0.005412668 -0.078303754 -0.11175916 -0.05181821
0.15351805 -0.11277003 -0.16199425 0.053600974 0.06053321 -0.1463316 -0.0747969 0.15725142
-0.08319341 0.07891698 -0.0868182 -0.15922062 -0.16859102 0.13603476 0.051871363 0.051722467
0.06143929 0.06933727 0.11162944 0.1353643 0.1384421 0.057093572 0.026929218 0.038211357
00000000: fe76 16be 91e0 3c3d bcb5 e6bd abaa 1c3e
00000010: c05c b1bb b85d a0bd fde1 e4bd 553f 54bd
00000020: d633 1d3e f9f3 e6bd d2e1 25be b28c 5b3d
00000030: acf1 773d f3d7 15be 1e2f 99bd 8406 213e
00000040: 4e61 aabd 3a9f a13d becd b1bd bb0a 23be
00000050: 20a3 2cbe b24c 0b3e 1177 543d f0da 533d
00000060: c4a7 7b3d b300 8e3d fa9d e43d f09c 0a3e
00000070: c4c3 0d3e f3da 693d aa9a dc3c 8383 1c3d
