train/checkpoints/uduta8zd/re8botw3.best_checkpoint.pt (torch, 769716 bytes, 225 tensors)

rowAttentions.0.q_net.weight f4 [32, 32]
00000000: a2ea 33be 76db 963d 7851 cb3d 07bc 1fbe
00000010: 9b79 9f3d a4e4 143e 8779 9e3b 760d e3bd
00000020: f0ac 0e3e 9683 a93d dd98 e53d 5932 d7bd
00000030: 0658 d43d 6048 f6bd 7b7d 2f3e 5686 9fbd
00000040: 5423 d33d 0a7c 0e3d ae54 2e3d da4c 00bd
00000050: 2b27 793d 8c82 89bd fcc8 2bbe 8c4f 92bd
00000060: af19 083e c83b 2cbd af90 a23d 72a9 94bd
00000070: de8f 033e 84de ce3d c19e 953d a92c bcbd
00000080: 73d2 0dbe e6a6 d23a 2e13 cabd 5b2c 183e
00000090: ecdf 27be df75 a93d 60a1 333e 5b19 bc3d
000000a0: 941a 793d 38d6 33be daf4 2f3e c385 1ebd
000000b0: c40d 22be baa8 233e 164b 90bd cffe 12bc
000000c0: aed1 2b3e 0ebf efbd a449 f9bd 020a 053d
000000d0: 2599 13bd acbc 4f3d 3879 2bbe fcab dc3a
000000e0: ae21 9ebd 55eb 99bd 7040 25be 8292 b03d
000000f0: 7d07 1d3d 2786 16be 1424 ee3d 1fc0 7b3d
00000100: 6cf0 2b3d 3756 dfbd 1661 f03c 8621 313e
00000110: f2cf e03d a699 09be b1ab 253e b8ef 853c
00000120: b414 b63d 6020 f73d ebc1 1d3e 10d4 18be
00000130: 2e91 1b3e 5c3c 09be 24c8 863c f2d4 f7bd
00000140: 5261 0abd 9476 03bc c678 96bc b107 ccbc
00000150: 8329 b53c b88b 393e 6832 dd3d 626a d23d
00000160: 0b42 963d db8e 053e 271c 1bbc 1084 2e3c
00000170: 272a 173d 6624 1bbe ca1b 18be 3905 c73c
00000180: 60e5 85bd 1027 06bb 0ac2 25bd 9ee2 d23c
00000190: 5292 d03d 7984 6fbd 3615 0e3e 3aeb 0c3e
000001a0: 1002 0bbe 409f 14be 97bb 13be 2380 bbbd
000001b0: 783b 9bbd 2745 acbc 0ceb 47bd 4dec bdbd
000001c0: c4b1 56bd 69cb 8cbd 2800 303e a93c 89bd
000001d0: 55ce ebbd 5aa7 9d3d 247f 293c cea7 133e
000001e0: 8f08 df3d 2e55 203e 30a8 f3bd da77 e83d
000001f0: 9f07 133e 1f10 b6bd 2fa5 313e e2f6 023e
00000200: 6c7b e9ba b5a3 9f3d 5a31 6fbd ae3c 1bbe
00000210: 0ad9 133d 6cf0 613d 6491 e5bd 79fe b43d
00000220: dd5a 18be f2a5 1b3e f9f3 313e 2eef 143d
00000230: 2b70 dfbd d546 b33d 8f12 033d 3aab 4f3d
00000240: 9c8d 723d a626 0c3e 8092 96bd 2ab6 19bd
00000250: c2f9 553d d6cd 9d3c 529e 153e 0255 b6bd
00000260: 24ff 8fbb 0b62 ba3c 799e 6cbd e8e6 ed3d
00000270: 17d5 b23c 9069 24be 0fd9 a7bc b9f0 9bbd
00000280: 33e7 503c a66f e9bc ff0c 31be 7ef5 f6bc
00000290: fb1b d6bc 0984 4dbd d87c 293e f95a 15bd
000002a0: bad0 ec3d af1c 363d eead 16be 29b7 ff3c
000002b0: 0b0b 183e 9f85 e7bd b5c8 e4bd 6176 333e
000002c0: 5490 123e 13a3 c5bd e2e6 dd3d 0e0f aabc
000002d0: 87e1 2dbe 3a92 533c 29d9 723d 921b 50bd
000002e0: ebb7 813d 4196 24be d4dc eb3d c1b8 153e
000002f0: 5006 cc3d 87b9 033d 09e7 723d 765c fcbd
00000300: 883f 36bd fe17 6abc c03b cebd 52c9 07be
00000310: 390d f13d d2fe f33d fb31 22be 12d8 5d3d
00000320: a14c 903d 2c65 2d3e ce9b cd3d 9deb 273e
00000330: 79f6 76bd 08ef 043e 4d57 143e 6bea 2cbe
00000340: 0359 12be 223a 063d 114b c13d 3783 b6bd
00000350: 8309 913c 5d1c 3b3b 3f9c 423d 19e2 ccbd
00000360: 2f11 ce3d 88f7 ef3d 4a6d ebbd c9bf 433b
00000370: d73d a5ba 3744 603d b0be 2e3e b100 4e3d
00000380: c9a5 30bd 1ee4 243e 69b5 8abd c000 58bd
00000390: 1cb2 363c 9044 0abe 8edc b53c 7392 f8bd
000003a0: a314 8f3c 1fc3 8a3c 2940 bf3c 66ae 17be
000003b0: 38ef 2dbe 44e6 ab3d b4c9 1b3e 2f22 22be
000003c0: 9da1 843d 6f65 07be fdf6 1d3c 8684 273e
000003d0: 6c51 073e 8d5f 02be 4259 ea3d a7ab b83d
000003e0: 37a4 ca3a a4dc 2c3e 4328 81bd a308 2cbd
000003f0: 32eb b9bd 125b c53c 3b9d 4c3d d0b7 613c
-0.17569974 0.073660776 0.09927648 -0.1559907 0.07786866 0.14540344 0.0048362645 -0.11086552
0.13933158 0.08277051 0.11210797 -0.1050765 0.10368352 -0.12025523 0.17137711 -0.077892944
0.10309473 0.03478626 0.042561226 -0.03132329 0.06082837 -0.06714353 -0.16775888 -0.071440786
0.13291048 -0.0420492 0.079377525 -0.07258882 0.1284785 0.10101035 0.073056705 -0.09188206
-0.13849811 0.0016071468 -0.098669395 0.1486067 -0.16394013 0.08274435 0.17542028 0.09184524
0.060816363 -0.17562187 0.17183247 -0.038701784 -0.15825564 0.15982333 -0.070455715 -0.008971884
0.16779205 -0.11706363 -0.12172249 0.032480247 -0.036034722 0.05071704 -0.1674546 0.0016835923
-0.07721268 -0.07515589 -0.16137862 0.08621694 0.03833722 -0.14699613 0.11627975 0.061462518
0.04197733 -0.10905116 0.02934317 0.17297944 0.109771624 -0.13437518 0.16178776 0.016349658
0.088906676 0.12066722 0.15406005 -0.14924645 0.151921 -0.13401932 0.016452856 -0.12101163
-0.033784218 -0.008023877 -0.018368136 -0.024906011 0.02211452 0.18119705 0.1080063 0.10274197
0.073368154 0.13042776 -0.009467161 0.010651603 0.036905434 -0.15150604 -0.1485435 0.024294483
-0.065378904 -0.002047006 -0.040468253 0.025742825 0.101841584 -0.058475945 0.13875279 0.13761607
-0.13575006 -0.14513874 -0.14427029 -0.091552995 -0.07579702 -0.021029068 -0.048808143 -0.092735864
-0.052415624 -0.06874735 0.1718756 -0.06701023 -0.11513964 0.076979354 0.010345254 0.14419481
0.10890304 0.15657493 -0.118973136 0.11350985 0.14358376 -0.088897936 0.17348169 0.12789491
-0.0017813272 0.077948965 -0.058396675 -0.15159866 0.036095656 0.055160925 -0.11209372 0.08837599
-0.14878412 0.15200022 0.17378224 0.036360912 -0.10910066 0.087537445 0.03200012 0.050700404
0.05921708 0.13686618 -0.073521614 -0.03752724 0.05224014 0.01926319 0.14611176 -0.08902933
-0.004394429 0.022751829 -0.05776832 0.116163075 0.021830125 -0.16055894 -0.020489244 -0.076142736
0.012750435 -0.028495621 -0.17290114 -0.030146357 -0.026136389 -0.050174747 0.1655153 -0.03646371
0.11563249 0.04446095 -0.14714786 0.031215267 0.14847963 -0.11304783 -0.11171094 0.17525627
0.1431287 -0.096502446 0.10835053 -0.020759132 -0.16980563 0.012913281 0.05928913 -0.050807543
0.06333908 -0.16072942 0.11516729 0.1462126 0.099621415 0.032159355 0.059302364 -0.12322323
-0.044494182 -0.014287947 -0.1006999 -0.13260391 0.117701 0.119138375 -0.15839379 0.05416114
0.07045866 0.16933125 0.10039483 0.16398473 -0.06029365 0.12981808 0.14486428 -0.16886298
-0.14291768 0.032770284 0.09438146 -0.08911746 0.01770473 0.0028550841 0.04751229 -0.10004062
0.10061871 0.11717135 -0.114954546 0.0029868952 -0.0012606931 0.054752555 0.17064929 0.050293628
-0.043126855 0.16102645 -0.067728825 -0.05273509 0.011150863 -0.13502717 0.022199895 -0.12137308
0.017465895 0.016938744 0.023346024 -0.14812621 -0.16985786 0.08393529 0.15213662 -0.15833353
0.06476138 -0.13222288 0.009641406 0.16359147 0.13214654 -0.12731762 0.11442806 0.09017115
0.0015460317 0.16881043 -0.063065074 -0.042000424 -0.09078063 0.024091277 0.049954634 0.0137767345

rowAttentions.0.q_net.bias f4 [32]
00000000: a2d2 853d f05e 073e c539 213d 473d ff3d
00000010: b235 e33d 3742 423d ba5b 833d c309 723d
00000020: 980b a03c 6bc1 193e 5912 2a3e 51bb 833d
00000030: 6b5c 0bbc b847 1c3e 1adc 0abe b560 093e
00000040: c159 c33d 86c3 e63d 6fdd 1cbd 266d 09be
00000050: e2cb fc3d 8178 9fbd 042d 423d fc81 cf3d
00000060: 57a6 2dbe b86d 083c d3ba 76bd a99f fd3d
00000070: baaa eabd 0f7a e33d c6b6 dc3d d133 c73d
0.06534316 0.1321981 0.039361734 0.124628596 0.11094226 0.04742643 0.0641398 0.05909134
0.019536778 0.1501519 0.16608562 0.06432212 -0.008505921 0.15261734 -0.13560525 0.13415797
0.095386036 0.11267762 -0.038297113 -0.13420543 0.12343575 -0.07786656 0.04740621 0.101322144
-0.16957985 0.00832694 -0.060236763 0.123839684 -0.11458345 0.11107265 0.10777049 0.0972668

rowAttentions.0.k_net.weight f4 [32, 32]
00000000: 20a9 2c3e 245d f53c ab1c 23be a213 fe3d
00000010: dca6 a73c df14 c53a 22a8 2ebe 0bb5 2bbd
00000020: db5f b4bd 2f22 363e aa7c fd3d 8359 0d3e
00000030: d27a f53d a999 d9bd 000c a3bd c9b1 91bd
00000040: b8a5 95bd 994f 0b3e 9426 6d3d eacf 0e3e
00000050: 5e97 39bc f75c 20be 6ad1 45bd 9f6e 003e
00000060: 6806 d73d edbf 613d d63f 39bd 68f1 28be
00000070: 84ef c6bd 7657 b83d 0d3c 83bd 7a7f a83d
00000080: 6b7f 483d 8123 91bd 73a6 da3d 523d 61bd
00000090: 7ae8 22bc 286b 86bd 7eb7 29be f2c0 f83c
000000a0: 9a21 593d 36ba bebd fbb9 e13d d2a8 28be
000000b0: 9a86 2dbe 3fd1 e4bd 48fe 6cbd 7c18 93bc
000000c0: 3d35 04bd edf7 a73d bffa 1cbe c487 e43c
000000d0: f676 b53b 50b9 3a3d 8020 323e 0367 de3d
000000e0: d7d2 c3bd 8cfc 14be d313 46bd 3b3b b5bd
000000f0: f54d 823d 0dc3 623b 65a8 0b3e 4757 923d
00000100: 576e 07bd dd8c d23b a301 2a3d cc95 afbc
00000110: 6b9a 133e c26f 0dbe 4b09 b23d 67a7 e5bd
00000120: 82a7 1ebe b075 05bd 5b26 b13d bd5c fa3d
00000130: 0e46 3b3d baa2 43bc 236b 15bc 7150 90bd
00000140: a6ae 8abc 2c10 2dbc f680 1a3e 18d6 d43d
00000150: ead6 13be 7143 c839 be64 e9bd 2f0a f5bc
00000160: 5da4 0fbe 7021 433d 208a 03be e126 323e
00000170: 04fb 093e d93c f8bd 4027 2fbe fc16 023c
00000180: 3fd4 42bd 802c 483d 4edb f4bd e66b 953d
00000190: 515e 20be 302d bdbd c0c6 bdbd 7b5d b03d
000001a0: 8f2b 61bb 1279 33be 6215 cdbd 8ec4 aabd
000001b0: 64b8 28be 5c8e 923c 29e8 803d c268 04bd
000001c0: ab00 8cbd 7754 dbba 3e19 0fbe 3510 dbbd
000001d0: cf97 bbb9 5389 213e f7f9 44bd f3f7 b83d
000001e0: 7edb 8cbd 9ea3 4cbd 1b74 2ebe d381 153e
000001f0: 95c1 2f3e 19c7 4abb af53 e83d 7022 143e
00000200: 1add b23d b8fb b63d 11fa 2abe 89ad 29be
00000210: 7685 0cbe 4728 643d bcfa 1bbe 5abf 09be
00000220: 87c8 aebd 591d 25be e9b3 343a d206 c73c
00000230: b92b d3bd 031d ef3d 28cd 89bd 2401 4abd
00000240: b356 0a3e a8b1 1b3e 7fd2 a2bc 828c 01be
00000250: 1ba6 b4bd af4a b73c 4311 d43d b8ac b53d
00000260: 870c 9fbd e0a4 2dbe 89c8 20be 1d4e 6abd
00000270: 7279 273b fdb9 a1bd 1c65 0fbe f5de 993c
00000280: 4d3b 0fbe 763c 09be c683 14be 5a07 46bd
00000290: 8387 213e 6b9d 8c3d 8fd0 b0bc 8d24 133d
000002a0: 0a67 8f3d 88e5 15ba 7280 12be 6471 dcbd
000002b0: 1eb1 f6bd a832 b2bb ad8f 25be 79a5 05bd
000002c0: 0751 85bd f464 313e 6bb0 123e 2b6c d13d
000002d0: b10b 1a3c 560d 6abd 3d74 393d 1372 fbbd
000002e0: a14e 9bbd 8b78 07bd 9b6d 20bd 417b 2abe
000002f0: 7e29 8f3d bd95 143e d3eb c6bd 786a 423d
00000300: 3596 bcbc ad75 dfbb be7e 2e3c f5c9 1c3e
00000310: 480b d33c 4381 e4bd 4d49 82bd 2cb2 b03d
00000320: fd64 623d cb4e 8b3b c1fe bfbc 0432 8cbd
00000330: ffb0 7dbd 0e17 bfbd c223 f03c 3e57 4b3d
00000340: bf50 0a3e 05f5 22bd c220 4e3c f215 ea3d
00000350: 4d95 993d 0008 b73c 49dc 623d 6b5b 0f3c
00000360: fb36 1bbe 0d21 ef3b 6c51 1abd a6c7 223e
00000370: 32cb 233e aa85 0f3d 9853 203e 2028 babd
00000380: b4cb 1f3e f5e7 1b3e 138c e6bb 2f1a 11be
00000390: f1f9 72bd 7165 42bd 9226 473b 26f2 23be
000003a0: 9803 063d 713a 98bd e78f 38bd 8c87 bcbd
000003b0: e4cd 1bbd 220d 28be ae7c c0bd 8df6 853c
000003c0: cb14 ee3d 4b6f 243e 47c3 08be 2d1b 983d
000003d0: 6975 c8bd 97a3 0bbe 1a77 0cbc 9c44 cebd
000003e0: bae1 1bbe fce9 29be 099e f4bd 082a 153e
000003f0: f54e c93d d811 8fbd 30f4 efbd ea4c 0bbe
0.16861391 0.02995164 -0.15928905 0.124060884 0.020465307 0.0015036127 -0.17056325 -0.041920703
-0.088073455 0.17786478 0.123772934 0.13803677 0.11986317 -0.106250115 -0.07961273 -0.07113988
-0.07306999 0.13604583 0.05789812 0.139465 -0.011327593 -0.15660463 -0.048295416 0.12542199
0.10499269 0.055114675 -0.045226894 -0.16498339 -0.09713653 0.09001057 -0.06407938 0.08227439
0.04894964 -0.0708685 0.10676279 -0.05499012 -0.009943122 -0.06563407 -0.16573903 0.030365441
0.05301056 -0.09312861 0.11021801 -0.1647065 -0.16945878 -0.11172723 -0.05785969 -0.017956011
-0.032277334 0.08201585 -0.15330027 0.02789677 0.005537863 0.045586884 0.1739521 0.10859492
-0.09561699 -0.14549464 -0.04835875 -0.08849188 0.063625254 0.0034601123 0.13638456 0.07145553
-0.033064213 0.0064254836 0.041505467 -0.021433733 0.14414375 -0.13812163 0.08693179 -0.1121357
-0.15493587 -0.03258294 0.08649894 0.1222472 0.045721106 -0.0119406525 -0.009119782 -0.07046593
-0.016928982 -0.010562938 0.15088257 0.10392398 -0.14437452 0.0003819722 -0.11396168 -0.029912082
-0.14027543 0.04763931 -0.1284566 0.17397644 0.13474661 -0.12120981 -0.17104816 0.00794005
-0.047565695 0.048870564 -0.119558915 0.072959706 -0.15660979 -0.092371345 -0.09266424 0.0861158
-0.0034358238 -0.17526653 -0.10013844 -0.08338271 -0.1647659 0.017890148 0.06294281 -0.032326467
-0.06836065 -0.0016733547 -0.13974473 -0.106964506 -0.00035780526 0.15775041 -0.048089948 0.090316676
-0.06877802 -0.049960725 -0.17036478 0.14600305 0.1716369 -0.0030941425 0.113440864 0.14466262
0.08733578 0.0893473 -0.16696955 -0.16570105 -0.13722786 0.055702474 -0.15232366 -0.13451901
-0.08534341 -0.16124476 0.0006893264 0.024295244 -0.10311074 0.116754554 -0.067285836 -0.049317494
0.13509636 0.15204489 -0.019875763 -0.12651256 -0.088207446 0.02237448 0.10354855 0.08870834
-0.07766061 -0.16957426 -0.15701498 -0.0572034 0.0025554565 -0.078968026 -0.14003414 0.018783072
-0.13987465 -0.1340197 -0.14503393 -0.048346855 0.1577435 0.068659626 -0.021583823 0.03592353
0.07002075 -0.0005718102 -0.1430681 -0.10763815 -0.12045501 -0.0054381676 -0.16168089 -0.03262851
-0.06509595 0.17323667 0.1432511 0.102257095 0.0094022015 -0.057141624 0.04527687 -0.12277617
-0.07583357 -0.033073943 -0.039167028 -0.1664858 0.06990336 0.14510246 -0.09712949 0.047464818
-0.023020843 -0.006819448 0.010650335 0.15311415 0.025762215 -0.11157467 -0.06361637 0.086277336
0.05527209 0.004251336 -0.023436906 -0.06845477 -0.061936375 -0.09330569 0.029313926 0.049643748
0.13507365 -0.03978445 0.012581052 0.11429967 0.0749918 0.022342682 0.05538586 0.008749823
-0.15157692 0.007297641 -0.037675306 0.15896472 0.15995482 0.03503958 0.15656888 -0.090896845
0.1560505 0.15225203 -0.007035741 -0.14170144 -0.059320394 -0.047460023 0.003038798 -0.16010341
0.03271827 -0.07433022 -0.04505911 -0.09205541 -0.03803815 -0.1641126 -0.09398781 0.016352916
0.1162506 0.1605808 -0.13355742 0.07427058 -0.09788019 -0.13636623 -0.008573318 -0.1007168
-0.15222827 -0.16593164 -0.11944205 0.14566815 0.09829513 -0.06985825 -0.11716497 -0.13603559

rowAttentions.0.k_net.bias f4 [32]
00000000: 23d7 96bd 594c 183e 09df f73d 8f5d 243e
00000010: b516 30be a24d 2d3b de6e 6ebd b53a 2c3d
00000020: c53c 08be 2ef6 943d 125e 0abc 8fe7 aabd
00000030: df39 20be bbdf b83d 240c 86bd 810d 073e
00000040: fc6b 023d ec1b 583d c5c9 0cbd fc66 88bc
00000050: 76d5 83bd c4fc 18be 20b1 e43d 2183 e4bd
00000060: 095c d33d ad3f 74bd f14d e33d 00f8 183e
00000070: 137e dfbd 698c 173e 5c8a 9d3b cdf1 0abe
-0.07365253 0.14872874 0.121030875 0.16051315 -0.17196162 0.0026443978 -0.0582112 0.042048175
-0.13304432 0.072735175 -0.00844528 -0.083449475 -0.15647076 0.09027048 -0.065452844 0.13188745
0.031841263 0.052761003 -0.03437211 -0.01665067 -0.06437199 -0.14940172 0.111665964 -0.11157823
0.10320289 -0.05963104 0.110988505 0.14938354 -0.109127186 0.14799656 0.0048077535 -0.13568802

rowAttentions.0.v_net.weight f4 [32, 32]
00000000: c4be a23d a61a ca3d 7e1a 153e 99cf 2ebe
00000010: 228c 3e3e 55fc 063e 4191 343e 3747 c03d
00000020: b855 c4bd 7239 0c3e b9b1 203e bea1 8bbd
00000030: 3a93 fcbc 4c27 1e3e 6449 0d3e 4454 dc3d
00000040: 15af 023e 2b12 d2bd e806 0abd 4a68 98bd
00000050: 7cf7 9c3d 16f8 1b3d f6a4 15be 9a6b 04bd
00000060: 0697 20be 3e76 0cbe 357f 4a3e df43 8ebd
00000070: f035 8f3d e97d 2ebd ffc2 bcbc 0ea0 50bc
00000080: 9c06 113e 2c71 d1bc 70b5 143e 310c d73d
00000090: 29fb 013e 1fd2 1fbe e6d3 8bbd 3d13 12be
000000a0: c5fc 13bd 0b4c 15bd 5eb2 1b3d 9f92 0a3e
000000b0: f872 a33d 015d f5bd ad3d 03be 283a 093e
000000c0: 2671 a93c a81e 4c3d 677b bbbd c227 a5bc
000000d0: 8e56 213d 3a44 d8bd 5c36 c93d cfde e23d
000000e0: dd6d e7bd 7f45 91bd 462d 48bd 8f98 ed3c
000000f0: 941d 83bd 636a 2f3e 5e17 29be f0d1 d1bd
00000100: 42e2 d0bd 28d1 603d 1207 3a3b f615 59bd
00000110: d12f 003e 55b5 1dbe b3ce 7c3d 1f45 ccbd
00000120: 5a13 ecbc 100f 46be 18b4 03be ec28 17be
00000130: 0c2e 8a3d dd59 d1bd 33ee c43d 2da2 a6bd
00000140: c804 30bd 1096 db3c eaf1 153e fd8f 4abd
00000150: 4ba3 d13d a400 5b3d d313 253e 6b45 0b3e
00000160: 8bb7 9b3d 81ef 4cbd 03d3 15bd c707 8d3d
00000170: 8c85 a93d b1c1 34bc 2f9e a83d b058 eabd
00000180: f794 ca3d 5351 cbbc 74db f7bd b2d0 b0bd
00000190: 4f40 01be 7cd3 123d 1208 dabd a17d 52bd
000001a0: 7bdf c4bb 27ac f1bd 5cc0 323b ccd1 ddbc
000001b0: de39 473d 9d28 ea3d a873 c4bd 5c47 b63d
000001c0: f3ca 28ba ef01 e3bd 1934 a4bd b0e3 3f3d
000001d0: 5bef 103d b219 31bc 9fc2 89bd 4234 ba3d
000001e0: 0c06 c53c 96c4 30be 045e 9dbc 2147 3dbd
000001f0: ecae a7bd 2177 cdbd 2ee2 01be cca8 2d3e
00000200: 73a3 22be 47d8 2c3e 1cea 0abe 1bcc 38bd
00000210: 7931 8dbd 42f8 c4bd 1b38 873d f945 cd3d
00000220: 0d5a f1bd f91d a8bd 057c b43d c157 9ebc
00000230: 6846 3e3d 03f4 c83d 9993 91bd ecd7 cdbd
00000240: 3f45 813d a776 81bd 85e9 f5bd 6972 bcbd
00000250: a721 b6bd bf09 2c3e 6187 c93c 6469 9c3d
00000260: fa74 c13c dd8b e3bd 8d17 0a3e e2e2 d9bc
00000270: cad6 48bd 80b0 113e 532f a4bd 9df1 0a3d
00000280: 292e 1fbe 14fd ac3d 7ee8 8b3d f067 13be
00000290: fc82 ba3d 3b6c ae3c 378a cebd 16b4 1b3e
000002a0: 72b9 a23d 966a b33d 1bba 84bd f0c0 e5bd
000002b0: 8676 c2bd d02e 8a3d 3d1a 8b3d 559f cebd
000002c0: 408c 2d3e 7b56 cf3d 4473 83bd 09d2 c63d
000002d0: 4d77 aebd d0a7 9b3d e86a 1a3e 4075 30be
000002e0: 4376 afbd b67c 7dbc 5aa2 be3c c318 16be
000002f0: ce7c eabd f618 93bc a280 51bd e8fe 2a3d
00000300: c558 b73c 277d 133d 4f79 803c 4a6e 903c
00000310: be93 70bc 9ce9 743d 5fd8 f13d 6221 babd
00000320: 79fd bcbd acf7 963d dcf1 04be 8599 e83d
00000330: 3337 9e3d 3acc 513c b727 80bd 453c f53b
00000340: 15e3 10be f485 2abe f015 293e 6461 23be
00000350: 4430 13be fa94 60bd 7f67 8c3c d92b 163d
00000360: 43d4 adbd 1c62 a6bc 5a8c f1bc ec27 143e
00000370: 09d0 153e cfe5 8b3d bbe7 8c3c 5558 063e
00000380: 4d56 08be 7630 ad3d 56fc fcbd ff81 0e3e
00000390: 89b0 21be fab6 833d ffe7 08be 5124 d63d
000003a0: 50b2 073d 64a9 0a3e 1641 07be 7f4c eb3d
000003b0: cfb5 edbd fb84 babd ba53 4e3d 663e f9bc
000003c0: e9d1 13be 86f7 14be 1454 3fbd 2801 403d
000003d0: 2e1b 283e 0d0d df3d 3804 883b 822a c8bd
000003e0: c470 23be 6886 2c3e 18f5 c6bd ac15 d0bc
000003f0: 23d2 12be f295 f2bd a546 1c3d 2072 4dbd
0.07946542 0.09868364 0.14560887 -0.1707138 0.18608144 0.13182195 0.17633535 0.09388583
-0.09586662 0.13693789 0.15692796 -0.06817959 -0.030831922 0.15444678 0.13797528 0.1075826
0.12762101 -0.102573715 -0.033697993 -0.074417666 0.076643914 0.03807839 -0.14613709 -0.03232918
-0.15682611 -0.13716981 0.19775088 -0.06946539 0.0699271 -0.042600546 -0.0230422 -0.0127334725
0.14162678 -0.02556666 0.14522338 0.10500372 0.12693466 -0.15607499 -0.06827526 -0.14265151
-0.03612973 -0.036449473 0.0380119 0.13532494 0.07980913 -0.1198063 -0.12816496 0.13401091
0.020683836 0.049833924 -0.091543965 -0.02016056 0.039389186 -0.10559888 0.09824821 0.110776536
-0.11300252 -0.070933335 -0.0488713 0.02900341 -0.06402126 0.17130427 -0.1651282 -0.102451205
-0.10199405 0.054886967 0.0028385562 -0.05299946 0.1251824 -0.15401204 0.06172056 -0.09974121
-0.028817821 -0.19341683 -0.12861669 -0.14761704 0.06747064 -0.10222218 0.096157454 -0.08136401
-0.04297331 0.026804954 0.14643064 -0.049453724 0.10236224 0.053467408 0.16120844 0.136007
0.076033674 -0.050033096 -0.03657819 0.06886249 0.08277425 -0.011032508 0.08233296 -0.11442697
0.09891694 -0.024819052 -0.12102404 -0.086335555 -0.12622188 0.03584622 -0.106460705 -0.05138934
-0.0060080863 -0.118004136 0.00272753 -0.027077578 0.04863917 0.114335276 -0.09592372 0.089003295
-0.0006438933 -0.11084353 -0.08017749 0.046848 0.035384517 -0.010809349 -0.06726574 0.09091999
0.024050735 -0.17262492 -0.01920987 -0.046210412 -0.081876606 -0.10032488 -0.12683937 0.16958922
-0.15882663 0.16879378 -0.13565868 -0.045116525 -0.06894202 -0.09617664 0.06602498 0.10023112
-0.11784754 -0.08208842 0.08812717 -0.019328954 0.046453863 0.098121665 -0.0710823 -0.100509495
0.06312036 -0.06321459 -0.12007431 -0.092015095 -0.088931374 0.16800593 0.024600687 0.07637289
0.02361535 -0.11110661 0.13485546 -0.026597444 -0.049032964 0.14227486 -0.08016839 0.033921827
-0.15544952 0.08446708 0.06831454 -0.14395118 0.091070145 0.021291843 -0.10084956 0.15205416
0.07945527 0.08760564 -0.06480809 -0.112184405 -0.09495263 0.0674721 0.06792114 -0.10088984
0.16948032 0.10123917 -0.064184695 0.0970803 -0.085188486 0.07600367 0.15079844 -0.17232227
-0.085674785 -0.015471628 0.023270775 -0.14657883 -0.11449586 -0.017956238 -0.051148064 0.041747004
0.022381196 0.036008026 0.015682844 0.017630715 -0.014683662 0.0597931 0.11808848 -0.090883985
-0.092280336 0.073714584 -0.12982887 0.113574065 0.07725372 0.012805039 -0.06257575 0.0074839913
-0.14149125 -0.16652662 0.16512275 -0.1595512 -0.1437388 -0.054829575 0.017139195 0.03666291
-0.08487751 -0.020310454 -0.02948587 0.14468354 0.1463014 0.06830942 0.017200341 0.13119633
-0.13314171 0.08456509 -0.12352817 0.13916777 -0.15789999 0.064313844 -0.1336975 0.104561456
0.033129036 0.1354118 -0.13208422 0.114892 -0.11606943 -0.09107395 0.050372817 -0.030425262
-0.14435543 -0.14547548 -0.046711043 0.046876103 0.16416618 0.10891161 0.0041508935 -0.09773733
-0.15960985 0.16848147 -0.09714717 -0.025400959 -0.14337973 -0.11845006 0.03815331 -0.050157666

rowAttentions.0.v_net.bias f4 [32]
00000000: 1d9d 02be 7732 023e 714f a53c 1d82 203b
00000010: 8391 2bbe d28a 173e 59b6 edbd d691 aa3d
00000020: ae28 b9bc ad4c 3c3b 7d9d b13d 2fa9 47bd
00000030: a03b 41bd f880 073e 7eb9 0bbe 9e70 973d
00000040: d941 59bd 122c 67bd e239 f03d b9c7 1a3d
00000050: 182d 21be 86ff 1f3e 909d b8bd d429 203e
00000060: 216c 72bd a51f 2d3e 5975 693d 8d79 f9bb
00000070: b479 873d 3143 ebbb 5ee6 acbd 1d2c cc3d
-0.12755246 0.12714563 0.020179482 0.0024491616 -0.16754727 0.1479905 -0.11607046 0.08328597
-0.022602405 0.0028732226 0.08672617 -0.04874533 -0.047176003 0.13232791 -0.13644978 0.07394527
-0.053041313 -0.056438513 0.1172979 0.037788127 -0.15739858 0.15624818 -0.09014428 0.15640956
-0.05918515 0.16906603 0.056996677 -0.007613367 0.0661501 -0.0071796407 -0.084423766 0.099693514

rowAttentions.0.proj_net.weight f4 [32, 32]
00000000: 1beb fe3d e441 38bc ae78 263e d8f0 72ba
00000010: 335e c7bd 18e5 cabd 6fa1 fa3d b9d4 a0bd
00000020: 7ed4 fa3d 4e22 3dbe 4faf 1b3c 23f3 0bbe
00000030: 3b8f 3f3d f41e 1b3e 078c 963d 389c 37bd
00000040: 34fb 36be 4f19 9abd 5edc 0abe 50ee 5d3e
00000050: 9390 d0bd 2c11 a93d 1ddc 0e3e 64f7 993d
00000060: 1876 24be d9a5 17bc 4fdd 90bd a0d5 183e
00000070: 0c18 22bc fe07 2a3c 1ce9 133e 3978 1b3d
00000080: 5e6c 8c3d 7c33 0fbd eb49 e83d bfba af3c
00000090: c991 41bd 0868 b03c 8a8f 06be 5c62 76bb
000000a0: d021 b83d 8262 31be a8fb a7bd 3942 bd3d
000000b0: 90fa 943c c709 a63b 7cd3 f03c 5cc9 b0bd
000000c0: c1c6 143e d9ba 09bd e67c aebd 83dc c03d
000000d0: c83b 1abe 0c2d ffbc 5ca4 963c 6571 4ebd
000000e0: 06ea d93d 7ecb 1cbe 7383 3abd 14c9 afbd
000000f0: 74c5 1e3e ac60 9c3d 44dc 0ebe afd7 793d
00000100: bc1f 86bc 3d5d 333e 056f c43d ed40 cfbd
00000110: 3788 203e 894e 26bd c2df 1fbd 5b1d 3b3d
00000120: f5a0 403e eaa3 563d 39e9 28be b9d9 84bd
00000130: 85db 273e 178e 85bd 980c 9bbd 18d7 19be
00000140: a407 bebd e6e4 c2bd f8fc 503d 94e2 9b3d
00000150: d4e0 2c3e b02b e13d e02d 573b 1781 c73d
00000160: 3d66 e43d 7d98 1dbe f7c7 b33d 2654 efbd
00000170: 6658 133e 73d1 9fbd 8e00 cd3c 2225 66bb
00000180: 98d4 b73d 74c1 c93c 5b5c 16be 202b 673d
00000190: a94a d53d e7c5 b8bd a6f3 ddbd 3c85 f3bd
000001a0: 2f58 a7bd 115b 0fbd 0c12 333c 643e 513a
000001b0: 0209 5fbd e189 c93d e474 8f3c 9e17 d0bd
000001c0: c8c1 12bd 7dbb d7bd 608c 99bd b64a 3bbe
000001d0: 2494 d83c 58bf 08be e309 9a3d ab46 023e
000001e0: 06b1 00be cba7 c4bd b8c4 08be ad6f 553d
000001f0: a877 e73c eec2 9dbd cd66 d53d 966b 903d
00000200: 10b9 2bbe 4fcb b13b 0512 c7bd eb76 b3bc
00000210: 4b16 c33d 564f febc 7921 e2bd 03e7 fb3d
00000220: cf83 16be 3eea 91bd 3cb4 973d f01e 083e
00000230: 819c 293e 9749 2bbd f28f a43d 0444 26be
00000240: 277d c7bc 7755 9bbd 7d48 663d f002 cdbd
00000250: 5120 f23c a8fe a33d 8c9f 073e 95b0 e6bc
00000260: fadd 343e 337b 32be e800 55bd aee9 913d
00000270: 8509 2d3d ac1a a83d 3ca3 04be 1139 c93d
00000280: 5cb5 32be 2806 f6bd 96be 17bc 01de 26be
00000290: 27d8 27be bb74 21be 199d 103e 449c 3e3d
000002a0: ac77 86bd 867c 073a 241b 1dbe 8d86 32be
000002b0: 0777 f9bd a705 30be 9eb8 f23d ac09 84bd
000002c0: 94b9 42bd 4cb3 24be 409d 3c3d 70cf 8abc
000002d0: f411 dabd 86ec e53d bef5 143e ce46 07be
000002e0: 9c3f d23d 3983 fabc e03e 6439 18f5 873d
000002f0: 9e96 0dbd c669 103e 3fe9 e73d ab30 efbd
00000300: 4757 edbd 0a85 1fbe 292c 813d 2360 f9bd
00000310: aa55 19be 9500 eebd 2b3e 3abe 5693 18be
00000320: dea2 2a3e cb71 ee3d 17ab 1f3e e4f9 b3bd
00000330: 59ed 94bd 4787 85bd c2b9 073c f598 05be
00000340: ee54 bf3c 197d c9bd 5cc0 623d 923e 3f3e
00000350: 584d 083d 7595 093e b753 06be f865 c1bc
00000360: 4470 e1bd 0b7e a6bc 425a 86bd dee3 e2bd
00000370: f155 25be 4eec 96bd e115 df3c 748d 04bd
00000380: 7891 2abe a9af 003e a41a f93d b83b cdbd
00000390: 356c cd3c e93d f93d f958 2cbe b829 1bbe
000003a0: 1781 be3d a8ce a7bb 5f0e 793d 8fba 92bd
000003b0: 13d8 1c3d dbb9 f43d e7ff 45bd fb94 71bd
000003c0: 32ce 21be d1d2 2fbd b1d1 013e 4b55 37be
000003d0: 14bb 1ebc b43b ec3d 6c61 57bd f69e 8bbd
000003e0: 51d6 4cbd 121d 9bbd 5908 ad3c 502a 34be
000003f0: 0675 613d a747 53bd f2d5 d1bc 185c 43bc
0.124471866 -0.011246178 0.16256973 -0.0009267456 -0.09734764 -0.099069774 0.12237822 -0.078530736
0.12247561 -0.18470117 0.009502246 -0.13666968 0.046767455 0.15148526 0.07350927 -0.044826716
-0.17869264 -0.075243585 -0.13560626 0.2167294 -0.10183825 0.082552284 0.13951154 0.07517889
-0.16060674 -0.00925585 -0.07073461 0.14925241 -0.0098934285 0.010377882 0.14444393 0.03795645
0.06856607 -0.03496121 0.11342224 0.021451352 -0.047258172 0.021533981 -0.13140693 -0.0037595248
0.08990824 -0.17322734 -0.082022965 0.092411466 0.018185884 0.0050670835 0.029397719 -0.08632156
0.14528944 -0.033625457 -0.08519916 0.09417059 -0.15061867 -0.03114941 0.01838892 -0.05040111
0.106403396 -0.15312001 -0.045535516 -0.085832745 0.1550501 0.07635626 -0.13951212 0.060996708
-0.016372554 0.17516036 0.09591488 -0.101198055 0.15676962 -0.04060224 -0.03903175 0.045682292
0.188114 0.052402414 -0.16495217 -0.0648684 0.16392334 -0.06521242 -0.075707614 -0.15023458
-0.09278801 -0.09516315 0.0510225 0.07611576 0.1688264 0.10994661 0.003283374 0.09741419
0.11152313 -0.15390201 0.08778375 -0.11685972 0.1438919 -0.07803621 0.025024679 -0.0035117348
0.08976096 0.024628378 -0.14683668 0.05643761 0.10414631 -0.09022122 -0.10837488 -0.11890647
-0.081711166 -0.034998957 0.010929596 0.0007982014 -0.05445195 0.098407514 0.017511792 -0.101607546
-0.035829335 -0.105338074 -0.074974775 -0.18290219 0.026437826 -0.13354242 0.07521417 0.1272227
-0.12567529 -0.096023165 -0.13356292 0.052108455 0.028255299 -0.077031955 0.10419998 0.070517704
-0.16769814 0.0054258476 -0.09720234 -0.02190729 0.095257364 -0.03104369 -0.11041541 0.12299921
-0.14698718 -0.07124756 0.07407424 0.13293052 0.16563608 -0.041818228 0.08035268 -0.16236883
-0.02435167 -0.075846605 0.056221474 -0.10010326 0.029556425 0.08007556 0.13244456 -0.028160373
0.17662802 -0.1742981 -0.052002817 0.07124649 0.042245407 0.08208212 -0.12952894 0.09825338
-0.17451996 -0.12012893 -0.009261748 -0.16295625 -0.1639105 -0.15767185 0.14122428 0.046535745
-0.06565794 0.0005168397 -0.15342385 -0.1743414 -0.12180906 -0.17189656 0.11851619 -0.06447157
-0.047540262 -0.16084021 0.046048403 -0.016944617 -0.106479555 0.11226754 0.14546868 -0.13210604
0.10266039 -0.03058015 0.00021767197 0.06638545 -0.034567468 0.1410285 0.11323785 -0.116792046
-0.115889125 -0.15578094 0.06307251 -0.1217654 -0.14974084 -0.11621205 -0.18187778 -0.14899954
0.16663691 0.11642798 0.1559261 -0.08787897 -0.07271833 -0.06519943 0.008284034 -0.1304663
0.023355927 -0.098383136 0.05535923 0.18676212 0.033276886 0.1343592 -0.13117872 -0.023608193
-0.11007741 -0.020323774 -0.06560184 -0.110786185 -0.16146065 -0.0736929 0.027232112 -0.032361463
-0.16657054 0.12567009 0.121632844 -0.10021156 0.025076011 0.121700116 -0.16830815 -0.15152633
0.09301966 -0.005121071 0.06080472 -0.071644895 0.038292002 0.119495116 -0.04833975 -0.05897997
-0.15801314 -0.04292566 0.12677647 -0.1790363 -0.009688158 0.11534825 -0.052583143 -0.06817429
-0.050009076 -0.07573904 0.021122145 -0.17594266 0.055043243 -0.051582005 -0.025614712 -0.011923812

rowAttentions.0.proj_net.bias f4 [32]
00000000: e98b 0a3e e7b8 273e 9cd0 a33d c46a f4bd
00000010: 935a 2dbd 7d9f 093e 6a86 003e e0a9 7fbd
00000020: 39dc e93d 615c fbbd bd78 5c3d 250b 133e
00000030: 6a28 233d e553 0ebe 9a49 563d 7ad4 d63d
00000040: 3566 f13d 05c1 f0bd 630d ecbc 7f1e 16bc
00000050: d560 f0bc 7f81 0dbd 19f9 7dbd e3d8 7f3d
00000060: 89e6 a83d 5060 09bd 064b 053e a500 08bc
00000070: 7cc5 3e3d c367 433d a110 7ebd b7d0 e5ba
0.13529934 0.16379128 0.079987735 -0.119344264 -0.042322706 0.13439746 0.12551275 -0.062417865
0.11418957 -0.12273479 0.053826082 0.1435972 0.039833464 -0.1389919 0.052316286 0.104897454
0.117870726 -0.117555656 -0.028814977 -0.009162544 -0.029343048 -0.034547325 -0.062005136 0.0624627
0.08247096 -0.033539116 0.130169 -0.008300935 0.046575055 0.047706377 -0.062027577 -0.0017533515

rowAttentions.1.q_net.weight f4 [32, 32]
00000000: 6525 073e 49ee 55bc 074b 003e 10ce ce3d
00000010: 8011 00bd 6b8d 99bd fdc2 ccbd 6778 0ebe
00000020: ef1c d6bd 4965 1c3d 4afb 773d be95 6ebd
00000030: 1d0f 86bc 6935 ec3d f5d5 1c3d 9d1c f9bd
00000040: 4b7f 1a3e e7f7 cd3d e39e d23c 4cd4 af3d
00000050: 39d3 1abe 5dad d33d 7794 543d 8a32 b3bc
00000060: f9e7 69bd 638e 143e cad8 343d 93c4 c5bd
00000070: b002 a63d 2b62 f53c 9d51 5cbd c1f9 fb3d
00000080: e1ee 323e a0d7 b33b 6f8a 85bd cde1 ccbd
00000090: e01b a2bd 9848 bd3d 1fd7 b53d 1ef5 efbd
000000a0: 306f e73d 53f7 88bc a414 43bc 450c 38bb
000000b0: a9a4 3abe 2698 3cbe 200b 1d3e 87c2 ebbc
000000c0: bb26 8ebc dcee f6bd 180a 16bd 98d5 91bd
000000d0: bcf2 4239 a132 24be 6183 3a3d 9250 30be
000000e0: 4f78 f6bd f2ac 4abb fbd5 c63b 7d87 66bd
000000f0: 15c7 c53d c913 063c 1184 473d 0d84 8e3d
00000100: 7b1a 9f3c 063f 1abe 3613 7ebd 8a01 e53d
00000110: ac31 d83d bde3 733d efd9 213e 16fe c0bd
00000120: 8bba 56bd 4c34 81bc 357d 33bd 5e05 253e
00000130: a6b9 35be 39e0 333d dd26 203e ac7e ccbd
00000140: 2eae 0c3e 3e95 1cbe cec2 ed3c 1552 ccbd
00000150: 3e4e 5a3d 4c96 353d 14fc 0c3d 2d08 26bd
00000160: cd6e 6dbd 1e5a 2bbe 2ac5 ba3c d353 2b3e
00000170: e9d7 0bbe fb4e 97bd dca7 443d 9e49 a33d
00000180: a43c 903d e4a2 f93d de68 d73c 671d 2abd
00000190: 1783 17be c52c 36be 35d1 05be 5e0a b03d
000001a0: 9547 253e 7b84 2f3e 251b 063e 6b32 1d3c
000001b0: 876f f93d d86b 933d 5d25 08be 6f84 0fbd
000001c0: 1478 26be f280 193e 3234 263d 3de1 273e
000001d0: 3463 bbbc acbf 183e a00b 903d 470a c0bc
000001e0: 40c3 1dbc 88ce 063e d681 e8bc 8ff7 0b3e
000001f0: 7be2 1b3d 1ef0 95bd 5cef a6bd 6895 b8bd
00000200: a36c eb3d 06fd 013e e417 a9bd 1796 23be
00000210: 0a0b c33d 251b 25bd 078e 25be 7893 193d
00000220: 890d a3bc 9747 003e 56d0 1e3d 6149 f4bd
00000230: 1fbe f3bc f397 04be e0c8 bb3d 8cb1 593d
00000240: b80b e03d d281 05be 840a cdbd 8a7d d2bd
00000250: a7b5 11be ba46 29be d4eb 1bbe 52d2 ef3d
00000260: 3a76 57bd 16ef 03bd f089 4e3d 3f0d 373d
00000270: 5277 a93d cc69 f9bd d271 223e 99c8 debb
00000280: b4b6 a4bd 7f4e e03d 3012 17be 9e03 d7bd
00000290: 2e5d c23d a80c 8f3d 8891 8ebd 9b95 78bc
000002a0: 9f73 05bd a81a 843d 19fe 163d 07b3 753d
000002b0: aa3a 173e a27e 05be a4a3 fabd 40f9 28bd
000002c0: 91e9 9bbd eae0 febd f635 263e 7359 193e
000002d0: 0d88 153e 1fb8 e0bd e084 03bd 8781 14be
000002e0: 0b98 74bd e65a 173e 9367 af3c 6716 753d
000002f0: 7a3e 31be 587d 9c3d fa49 f53d 8f91 74bd
00000300: a56f ff3d 57f7 9a3d 9afd 07be a41e 04be
00000310: 0eb1 a13b ae76 31be 5d52 03be 4eb7 8e3d
00000320: bdb7 6ebd 5da9 48ba 59c9 95bd 2d50 df3d
00000330: cc94 123e 5b6e 023e e77f 1dbe 55a5 4dbd
00000340: cd14 af3d da41 d13d c57e 19bd eca2 ce3d
00000350: c821 b8bb afba b63c 3c1a 023e f731 003e
00000360: 1cf1 01be 0366 dcbd a076 993d 901d cc3d
00000370: 2a3d 2dbd d4a8 1e3e a323 b2bc 92f6 b7bd
00000380: ceec edbc 83bc 26be db13 4e3d a7db 1cbe
00000390: 00db 2c3e a6f3 0cbe b260 e93d 0ac5 03be
000003a0: b8e0 d6bc f690 aabd ba75 ba3d 7ce7 c23d
000003b0: a586 29be 4754 19be 77e9 ad3c 5c2e f9ba
000003c0: 34a5 843b 9209 563d ebc3 efbc 2d4b 233e
000003d0: 532b 993c 39f4 9fbd 388b 823d 4537 08be
000003e0: e54b b9bd 5b50 533d 1f50 90bd 703f 36be
000003f0: 49f0 b13d b6de 303d 0089 383d 0369 673d
0.13197859 -0.0130573 0.1252862 0.10097897 -0.03126669 -0.074976765 -0.099981286 -0.13913117
-0.104547374 0.03818253 0.060542382 -0.058248274 -0.016364628 0.11533625 0.038289983 -0.12163661
0.15087621 0.10057049 0.025710529 0.08585414 -0.15119638 0.10335801 0.0518994 -0.021874685
-0.057105992 0.14507441 0.04415206 -0.09656634 0.08105981 0.029954037 -0.05378877 0.12303496
0.17473938 0.005488351 -0.06520545 -0.100040056 -0.07915473 0.09242362 0.08878922 -0.11716674
0.11300504 -0.016719496 -0.011906777 -0.0028083485 -0.18226875 -0.18417415 0.15336275 -0.028779281
-0.017352453 -0.120572776 -0.03663072 -0.07120818 0.00018591707 -0.16034938 0.04553545 -0.17218235
-0.12034666 -0.0030925837 0.006067989 -0.056281555 0.096571125 0.008183428 0.048709933 0.069587804
0.019421807 -0.15063104 -0.06203004 0.11181934 0.10556349 0.05954336 0.15805791 -0.09423463
-0.052423995 -0.015772007 -0.04382058 0.16115329 -0.177466 0.043915007 0.15639825 -0.09985098
0.1373832 -0.15291306 0.029023554 -0.099765934 0.053297274 0.044332787 0.034420088 -0.04053514
-0.057966996 -0.16733596 0.022799093 0.16731195 -0.13656582 -0.07388111 0.048011646 0.07973026
0.07042816 0.12189272 0.026295122 -0.041531947 -0.147961 -0.17790516 -0.13068087 0.085957274
0.16140588 0.17140381 0.13096292 0.00959454 0.12179475 0.07198304 -0.13295503 -0.035038408
-0.16256744 0.14990595 0.04057712 0.16394515 -0.022874452 0.14916867 0.07033467 -0.0234424
-0.009629071 0.13164723 -0.028382223 0.13668655 0.038057785 -0.07321189 -0.08151123 -0.09012872
0.1149533 0.12694177 -0.0825651 -0.15975223 0.0952359 -0.04030909 -0.1616746 0.037494153
-0.019903915 0.1252731 0.038772903 -0.119280584 -0.029753743 -0.12948589 0.09169173 0.053147838
0.10939735 -0.13037804 -0.10011771 -0.10277851 -0.14229451 -0.16530886 -0.1522668 0.11710037
-0.052602984 -0.032210432 0.050424516 0.044690367 0.08274712 -0.12178382 0.15863732 -0.0067988154
-0.0804266 0.10952472 -0.14753032 -0.10498737 0.09490429 0.06984836 -0.06961352 -0.0151723875
-0.032580968 0.06450397 0.03686342 0.059985187 0.14768472 -0.13036588 -0.12238243 -0.04125333
-0.07612909 -0.12445243 0.16231522 0.14975528 0.1460268 -0.10972618 -0.03210914 -0.14502536
-0.059715312 0.14780769 0.021411693 0.059835818 -0.17308989 0.07641095 0.119770005 -0.059709128
0.124724664 0.075667076 -0.13280335 -0.12902313 0.0049344366 -0.17330429 -0.12824388 0.06968556
-0.058280695 -0.00076546316 -0.07313795 0.10903964 0.14314574 0.1273741 -0.15380822 -0.0502065
0.08548889 0.10217638 -0.037474412 0.10089669 -0.0056192614 0.022305815 0.1270532 0.1251906
-0.12689632 -0.10761645 0.07493329 0.09966576 -0.04229466 0.1549409 -0.021745509 -0.089825764
-0.029043581 -0.16282849 0.050311904 -0.15318166 0.16880417 -0.1376482 0.11395396 -0.12868133
-0.026230201 -0.0832843 0.09104486 0.095168084 -0.16555269 -0.14973556 0.021229489 -0.0019011009
0.004048014 0.05225522 -0.029268226 0.15946646 0.018697416 -0.07810254 0.0637421 -0.13302334
-0.09047679 0.051590305 -0.07046532 -0.17797637 0.08688409 0.043181144 0.04505253 0.05649663

rowAttentions.1.q_net.bias f4 [32]
00000000: 7c8d 183e 17ab afbd 95fb a1bd a535 013e
00000010: 63d8 c1bc 913c 05be db6f acbd 463e f53d
00000020: cd44 c8bd fa30 7c3d 8fe6 19be 4ed7 ef3d
00000030: 0323 413d f9bf eb3d 1ebe ed3b 559d c13d
00000040: bea8 133e ef43 efbc 2b04 0cbe b0f7 07be
00000050: 1513 e03d 03d0 debd aca7 1ebe 901c 1cbe
00000060: 058c a1bd e532 093d e8af 21be 6918 aebd
00000070: add4 2c3e 5be3 eebc fadc 81bd 0383 b63d
0.14897722 -0.08577555 -0.079093136 0.1261812 -0.023662752 -0.13011386 -0.08419772 0.11974768
-0.09778748 0.061570145 -0.15029357 0.11710988 0.04715253 0.11511225 0.0072553298 0.09453837
0.14419839 -0.029207198 -0.13673465 -0.13278079 0.109411396 -0.10879519 -0.15493649 -0.1524527
-0.07888035 0.033495802 -0.15789759 -0.085007496 0.16878004 -0.029161146 -0.06340976 0.08911707

rowAttentions.1.k_net.weight f4 [32, 32]
00000000: 6c63 10be db21 15be c42a d93c 6607 6e3d
00000010: e92b 38be b131 1f3e 8ccb 86bd 000c f93c
00000020: 45f4 fd3d 0d6a 8b3d 4efe 633d 929b 2fbe
00000030: aaa6 27be cb57 7e3d d8f9 453c 98ce e13d
00000040: da38 bd3d 049f 10be 5211 153d b632 09be
00000050: 945e c3bd 644d 4a3d 8a25 8cbc f682 eebd
00000060: 2405 783d 138e f93d 7dfd 36be 4a22 2b3e
00000070: c47c cd3d 0ea9 65bc 8d2e 32be 2d97 96bd
00000080: b6f1 4b3d 0017 8cbd d45f 72bd 39f0 99bd
00000090: e4b1 203e d0ba 183e 8df2 0fbe 03dd 6abd
000000a0: 731c 253e a87b 38bc 1af0 b1bd f845 ea3c
000000b0: 4530 0e3e ec9a 9bbc 28cc 2fbe 92bb 78bd
000000c0: 68b5 ac3d f85a dabc dbfb f83d 7c71 673d
000000d0: d6ba 7eba f7fa 883d e3f3 87bc e254 17be
000000e0: 40ec 1bbe a34f 0dbe 55ef b7bc 2925 04be
000000f0: 29f0 c13c 165b 9e3c afd7 0c3e 3f9a 103c
00000100: 11e2 0e3d 2de5 673d ca4a 49bd c8b8 adbd
00000110: 2518 2abe 7fe7 2ebe b81b 813c 131e a2bd
00000120: 552c 4b3d 4020 4e3d fee3 0e3e 2a37 cbbc
00000130: dd70 533a 2bb1 fd3d eb54 d43c f87a a43d
00000140: 6a14 c1bd fe73 00be fd38 0f3e 9f4c 023e
00000150: 1ab1 87bd 28b2 de3c ec3a 22be 5af9 273c
00000160: 5e95 25be 81d3 cb3d 5acd 3fbe 95b9 28bd
00000170: ae03 293e cb95 79bd c584 ddbd efd2 1c3e
00000180: d3e3 c0bd 744c 393d 818d c83d 4f4d 353d
00000190: 5c73 fabd 58eb 223e 2f38 a53d e4ab ecbd
000001a0: 37f1 cfbd 1142 41bd ebb6 6a3d 424d 8f3d
000001b0: d6b8 ad3c 5e93 e93d 9f34 383e 7357 173d
000001c0: e36a 8b3d d323 c93d bc03 f63c fb6f 1e3c
000001d0: b312 223e 6a60 fe3d 77d6 ee3d 2c8e 88bd
000001e0: c4f9 b1bd 3462 c3bd 6843 0bbe d0b7 9ebc
000001f0: e3be cb3d 04b0 dc3c e628 69bd 57a0 94bc
00000200: 3de4 0abe 7284 e8bd afa0 8d3c cd71 d5bd
00000210: 8d75 a03c fa36 143e 2d44 333d 89d8 093e
00000220: dc73 e7bd 46f7 293a a528 32be c730 7fba
00000230: 2992 04be 6e74 273e afd5 15be 3108 7c3d
00000240: 8b42 d9bd 43a9 493d 9f83 20bb bce9 babc
00000250: ffa9 8cbd 7791 ea3d e81c 02bd 7825 803c
00000260: f12d 5abd b2b9 04be 4725 91bd b69b 213e
00000270: 0679 2d3e 50dc a5bd 36f4 a83c 0a88 fe3c
00000280: f3b4 1f3e 5ee4 cf3c 8ad9 e73b a77f 50bd
00000290: 1093 203d bd3e 33be 90f1 33be 9208 a4bc
000002a0: a340 f9bd ea16 f5bd e5d8 f5bc cf8f cd3d
000002b0: c559 b13d 0079 73bd 44e9 82bc 091b 273e
000002c0: bce0 1b3d 6523 f63d 5adb 93bd b5ce 22be
000002d0: 07b7 a9bd 3ccc 6e3c d1c6 29bd bfd1 c5bd
000002e0: 7886 2e3e fca0 26be eb2e 563b e456 923d
000002f0: 37e6 47bd e0af 9a3d 5b4c b4ba c5ea dbbd
00000300: 879d c8bd 6697 a6bd 56bf 33be 4afa e13d
00000310: 7d5b 223e bb44 bbbd 151d e13b b2dd 753d
00000320: 7a21 4a3d 696b c9bd eda0 dcbd 0f73 2b3e
00000330: 5482 d23d 2f2e 293e 8f76 023e 58b8 3cbc
00000340: 8610 003e 5be0 c7bb c704 80b9 1ae0 9cbd
00000350: d922 0d3e 5ddf 19bd f4cf e23c ba97 0dbe
00000360: 72d2 793d 3ce2 aebd d4fc 0bbd 5ee2 88bc
00000370: 1d8c 883d d2c2 f93b a6bb fe3c e307 e8bd
00000380: b059 07be c98a 873d 2ce0 8fbd 0596 1cbe
00000390: 1fb1 8ebd bc12 31be 37fa 143d 7a95 3c3c
000003a0: 23ce 273e 7099 c8bd b701 bbbd f89b 433d
000003b0: 02f3 3ebd acd0 0c3e 22dc c63c fb81 a8bb
000003c0: f0f2 8cbd b5a1 da3d 682d acbd a351 913d
000003d0: f129 e93d 80a8 0dbe 7955 22be c1cf d0bd
000003e0: d78c ac3d 8da8 c4bd d9ab 553c 2b46 de3c
000003f0: c7ad 123d 563c b9bd 2571 c73b 8f2f f93d
-0.14100426 -0.14563696 0.02650965 0.058112524 -0.179855 0.155463 -0.06581792 0.03040123
0.12400106 0.06807337 0.055662446 -0.17149189 -0.16372171 0.062095445 0.012083493 0.11025733
0.09239359 -0.1412316 0.03639347 -0.13398251 -0.09539524 0.04939021 -0.017107744 -0.116460726
0.060551777 0.12185302 -0.17870136 0.16712299 0.10033563 -0.014017357 -0.1740057 -0.07353053
0.04979106 -0.068403244 -0.05917342 -0.07516522 0.1569286 0.14915013 -0.1405737 -0.05733968
0.16124134 -0.011259951 -0.08688374 0.028597817 0.13885601 -0.018994771 -0.17167723 -0.060725756
0.08433038 -0.026654705 0.121574126 0.05650471 -0.0009717172 0.06688493 -0.016595786 -0.14778474
-0.15226841 -0.1379991 -0.02245299 -0.129048 0.023674088 0.019330543 0.13754152 0.008825838
0.034883562 0.056615043 -0.04914359 -0.0848251 -0.16610773 -0.17080496 0.015760288 -0.079158925
0.049602825 0.050323725 0.1395416 -0.024806578 0.0008065829 0.12387308 0.025919398 0.08031267
-0.09427722 -0.12544248 0.13986583 0.12724541 -0.06625576 0.02718456 -0.1584279 0.010252321
-0.1617026 0.099524505 -0.18730679 -0.04119261 0.1650531 -0.06093387 -0.108163394 0.1531484
-0.09418454 0.045238927 0.09792615 0.04426318 -0.12229034 0.15910089 0.08067357 -0.11556223
-0.1015343 -0.047182146 0.05730335 0.06997158 0.0212063 0.11405061 0.17988823 0.036948632
0.068074964 0.09821286 0.030031078 0.009670253 0.15827446 0.12420733 0.11662 -0.06667742
-0.08690217 -0.09540215 -0.13599932 -0.019374758 0.09948518 0.0269394 -0.05692377 -0.018142862
-0.13563628 -0.11353387 0.017288534 -0.104220964 0.019587303 0.14474097 0.04376619 0.13461508
-0.11301395 0.0006483685 -0.17398317 -0.00097347464 -0.1294638 0.16353008 -0.14632295 0.06153125
-0.10608395 0.049233686 -0.0024492515 -0.022816531 -0.06868362 0.114535265 -0.03176585 0.015642866
-0.05326647 -0.12961462 -0.07087188 0.15782055 0.16940698 -0.08098662 0.020624261 0.031070728
0.1559637 0.025377449 0.007075493 -0.05090299 0.03920275 -0.17504402 -0.17572618 -0.020023618
-0.121705316 -0.11967261 -0.03001065 0.10037195 0.086597 -0.059441566 -0.01598037 0.16318907
0.03805612 0.1201847 -0.07219572 -0.15899165 -0.08286863 0.01457506 -0.04144937 -0.096591465
0.17043483 -0.16272348 0.0032681774 0.07145479 -0.048803534 0.07553077 -0.0013755666 -0.10738138
-0.09795671 -0.08134346 -0.17553458 0.11034067 0.15855213 -0.09143969 0.006869922 0.06002588
0.049348332 -0.0983494 -0.10772882 0.1674311 0.10278764 0.16521524 0.12740539 -0.01151856
0.12506303 -0.0060997433 -0.00024417622 -0.076599315 0.13782825 -0.03756653 0.02768705 -0.1382741
0.060991712 -0.085392445 -0.034176663 -0.016709503 0.066673495 0.0076221013 0.031095337 -0.11329629
-0.13217807 0.06618268 -0.07025179 -0.15291603 -0.06967377 -0.17292303 0.036371436 0.011510247
0.16387229 -0.09794891 -0.091311865 0.047756165 -0.04661847 0.13751477 0.02427489 -0.005142448
-0.06882274 0.106753744 -0.08407098 0.07095649 0.11384953 -0.13833809 -0.15852918 -0.10195876
0.084253006 -0.09602461 0.01304146 0.027133068 0.03581026 -0.09044711 0.006086486 0.12167274

rowAttentions.1.k_net.bias f4 [32]
00000000: 7bd2 9c3d 9da7 883c 4a26 ccbb fcba 533d
00000010: 2e00 293e bb31 71bc ef81 acbd 343f 03be
00000020: 4cc4 133e b739 1ebe 831a ad3d 3b38 203e
00000030: d47b c13d 33a9 72ba 5711 c4bc cad9 e63d
00000040: 3bd9 c0bd 446b 803d fc4a 57bd 2c74 ba3d
00000050: da82 1cbd 73a5 f3bd 32b7 8bbd dc5d d53d
00000060: ea43 853d 1259 00be 47f5 e8bd a5c0 19bd
00000070: 3014 88bc 33a0 4ebd a03e f03d f70e 5e3c
0.076573335 0.016681487 -0.0062301503 0.051691994 0.16503975 -0.014721329 -0.0842322 -0.12817079
0.1443035 -0.15451704 0.08452322 0.1564645 0.094474465 -0.000925678 -0.02393405 0.11272009
-0.094164334 0.06270459 -0.052561745 0.09104189 -0.038210727 -0.11896791 -0.06822051 0.10418293
0.06507094 -0.12533978 -0.11374908 -0.037537236 -0.016611189 -0.050445747 0.11730695 0.013553373

rowAttentions.1.v_net.weight f4 [32, 32]
00000000: 4f1e 44bd 05d9 93bc 13b9 b03d f15d f5bd
00000010: f349 45be 2885 16be 7d6b 953d f101 c63c
00000020: 61b1 1ebe 1933 fa3d 8af9 b93d 42c2 49be
00000030: eb41 cf3d 6057 cabc e87e 273d c648 193e
00000040: f60b 173e 0076 f13c f93a 91bd 8c3e 133e
00000050: 51a1 0e3e 5aa9 36bc dae1 ffbd 25a4 1d3e
00000060: 2c78 9dbd c3e4 d0bd 4ef7 18be 878c 943d
00000070: 7a88 903d 7490 a1bd 275e 20be 9c76 f33d
00000080: 329b a33b bc2a 1f3e 3868 c4bc 13e5 1c3e
00000090: 2789 d0bc 1e23 91bd f84e c83d ebd7 293d
000000a0: b202 213e fda6 fb3c 2b7a 0dbe 3077 cbbd
000000b0: eb55 30bd dbcc f5bc 10bd bebd b0ec 143e
000000c0: 274f cabd 4099 5f3c ab32 c33d 18f8 113d
000000d0: c093 343c 3e3c 623d 6cce c6bd f8b6 37be
000000e0: 5375 413d 22cd 01be 7f95 21be 6502 fbbd
000000f0: 49ae 173e 2094 efbd c2f0 013e 4176 013e
00000100: 0677 003d 1ece b1bd 9f00 0cbe bb13 0dbe
00000110: b9d1 ed3d 8653 02be 7fc7 e7bc 99a7 973c
00000120: 8985 c3bc 918d 513d ffbe 0fbe 8db8 1e3e
00000130: 9a61 02be 3347 aabd f74e 22be 1bdd da3d
00000140: 95a7 b4bd df0e 86bd 7946 ad3d 9e73 4ebc
00000150: 002b 1a3e 590e 723d 855c b3bc 128e 01be
00000160: b909 32be 8b04 473d 31ed 683c 2649 1c3e
00000170: 3ad2 2ebe 6e5c 043d 8a50 a83d 65c1 ab3d
00000180: 4528 b63d b29c e3bb f21c 20be 2b40 2abd
00000190: 0ed9 423e 5e61 0bbe 18e5 edbd b53c 1d3e
000001a0: 83c4 68bc 6efe 27bd c402 983c cf5b b33d
000001b0: 188c bb3c 3fcc 193e 0de6 37bc a915 a6bd
000001c0: f9cb b3bd 9d5c 8abb 4677 31bd a380 e53d
000001d0: d00e 853d efe2 073e 83ea 163e 5b40 283e
000001e0: a4ec 2bbe c1b4 54bd ad92 37bd 50f2 0a3e
000001f0: d299 6aba 4a07 803d 42f9 69bc aef8 33be
00000200: 8ea2 b83c 201d 8e3a d7f0 d1bd d88f 2b3e
00000210: 1de8 14be 0c35 1dbe 5778 fdbd 1701 26be
00000220: f22f 1ebd 0a14 c4bd b357 163e 6ba9 c23d
00000230: 96e8 ad3d 0713 213e c06e 16be 803d e0bd
00000240: 113c 1a3e e7f9 053e 22a1 a13c b9ee bc3d
00000250: 26ec 3a3d 189f d0bc cf1a 5fbd 7ce2 853d
00000260: 9799 0dbe 9448 2b3e 38fd 1fbe 7551 0cbe
00000270: 9d84 003e e19f d5bd d108 8fbd 5295 2abd
00000280: 49a9 22be 06ce 0ebc 690d 79bc 6614 ecbc
00000290: 4e42 1b3c 70a9 febd 53d4 16bd fa59 d3bc
000002a0: 4aec 36be f16d f5bd 0233 083e 020b 30be
000002b0: 8a4c 10bd c624 b4bd ff7c 2c3e 8a69 023e
000002c0: 7ff7 af3d ad6d c6bd 5637 2abe 0ab6 42bc
000002d0: 61ff f13d 008e cb3c 9e23 e3bd b6ad 30be
000002e0: cd77 113e 1cf9 173d e88d f93d 3f48 24be
000002f0: 5c0b cd3c 3c5f 263e 4b1f 21be fce2 2cbe
00000300: cc50 3bbe d70a c9bd 4a98 e5bc c5f6 bd3d
00000310: adfd 82bd 10fa 123e f944 093e b7a8 f33d
00000320: 6449 15be 6891 b13d 77c3 c63d fabb 013e
00000330: b4cc 27be c3b9 15bd 688b a0bd 8beb 7fbd
00000340: fb8d 673d 17e3 72bc 9b6e a73d aa8f f8bd
00000350: c989 35bd 6747 a33d 3e93 4bbd b2f7 353c
00000360: f3d0 f2bd f669 163e 7281 97ba f4a6 813d
00000370: 036d 2d3c a0ca 753c ec20 2e3e 726a 98bd
00000380: 2f64 133e daf1 b4bd b4eb 17bc 9554 d9bd
00000390: 4fee 413d b48a 36be 31b5 383d 9d37 adbd
000003a0: 94ba 1e3e c63e 2e3e b3ca e23d 5adf 3cbe
000003b0: 894a 9c3d 64ad 0cbe a14d c43c 1521 d5bd
000003c0: 8c25 e73d e1c3 d8bc b1b5 773d e3c0 863d
000003d0: 7510 e53d c239 e73d ba0c c93b 0edd fdbd
000003e0: 0023 6b3d df29 85bd a2ad 3a3b bc35 5a3b
000003f0: 6978 233e bdba 073e 3207 c8bc 839c a3bd
-0.047880467 -0.018047819 0.0862905 -0.119808085 -0.1926649 -0.14699233 0.072958924 0.024170848
-0.15497352 0.12216777 0.09080799 -0.1970301 0.10119995 -0.024699867 0.04089251 0.14969167
0.14750656 0.029475212 -0.07091326 0.14379328 0.13928725 -0.011148775 -0.1249425 0.15394647
-0.076889366 -0.10199883 -0.14938089 0.07253366 0.07057281 -0.0788888 -0.15660916 0.11887857
0.004992866 0.15543646 -0.023975477 0.1532176 -0.025456024 -0.07086776 0.09780687 0.04146568
0.15723684 0.030719275 -0.13816135 -0.099348426 -0.043050688 -0.03000491 -0.093134046 0.14543414
-0.09878378 0.0136473775 0.095311485 0.03563699 0.0110215545 0.055233233 -0.097073406 -0.17940891
0.04723103 -0.12675908 -0.15779684 -0.12256316 0.14812578 -0.116981745 0.12689498 0.12642767
0.03136351 -0.08681892 -0.13672112 -0.13777058 0.11612267 -0.12727174 -0.02829337 0.018512534
-0.023867385 0.0511604 -0.14037703 0.15500088 -0.12732545 -0.083143614 -0.15850435 0.10686704
-0.08821026 -0.06545805 0.08460707 -0.0126008075 0.15055466 0.059095714 -0.021894703 -0.12651852
-0.17386521 0.048588317 0.014216707 0.15262279 -0.17072383 0.03231471 0.082184866 0.083864965
0.088943996 -0.00694617 -0.15636042 -0.0415651 0.19028112 -0.13611361 -0.11615962 0.15355189
-0.014207008 -0.041014127 0.018556006 0.087577455 0.02289395 0.1501932 -0.011224282 -0.081096
-0.08779139 -0.004222466 -0.04332664 0.11206176 0.06496966 0.13270162 0.14737897 0.164308
-0.1678949 -0.051930193 -0.044817615 0.13568997 -0.00089493126 0.0625139 -0.014280619 -0.17575333
0.02253845 0.001084242 -0.10251015 0.16754091 -0.14541669 -0.15352267 -0.12376469 -0.16211353
-0.038619943 -0.09574135 0.14681892 0.0950497 0.08491628 0.15729915 -0.14690685 -0.1094923
0.15061976 0.13083611 0.019730154 0.0922522 0.045635365 -0.025466487 -0.054468926 0.06537339
-0.13828121 0.16726905 -0.15623939 -0.13702948 0.12550588 -0.10430885 -0.069841035 -0.04164631
-0.1588489 -0.008716112 -0.015200951 -0.02881832 0.0094762575 -0.124346614 -0.036823582 -0.02579974
-0.17863575 -0.1198386 0.13300708 -0.17191699 -0.035229243 -0.087960765 0.16844557 0.12735572
0.08592128 -0.09688888 -0.16622671 -0.011884222 0.11816288 0.024847984 -0.11090778 -0.17253765
0.14205857 0.037102804 0.121852696 -0.16043185 0.02502983 0.16247267 -0.15734594 -0.16883463
-0.1829254 -0.09816521 -0.028026719 0.09275583 -0.06396041 0.14353204 0.13405217 0.11897414
-0.14578778 0.08670312 0.09705251 0.12669364 -0.16386682 -0.03655411 -0.0783909 -0.06248049
0.056531888 -0.01482465 0.08175393 -0.12136777 -0.044320855 0.07972603 -0.049700968 0.011106418
-0.1185626 0.14688858 -0.0011558963 0.06330672 0.010585072 0.015001923 0.17004746 -0.07442178
0.14393686 -0.08835192 -0.009272505 -0.10611836 0.04734641 -0.17826349 0.045094673 -0.08457873
0.15500861 0.17016134 0.11073818 -0.18444577 0.07631404 -0.13738018 0.023962798 -0.104067005
0.112864584 -0.02646059 0.06047601 0.06579759 0.111847796 0.11290313 0.0061355503 -0.123956785
0.057406425 -0.06502127 0.002848484 0.0033296188 0.15963902 0.13254829 -0.024417493 -0.079888366

rowAttentions.1.v_net.bias f4 [32]
00000000: 8f75 16be 7de7 3c3d f4b4 e6bd 4dae 1c3e
00000010: 8e4b b1bb 8f5e a0bd 39de e4bd 483a 54bd
00000020: 1b32 1d3e f1f9 e6bd 38e4 25be 8c8f 5b3d
00000030: fcff 773d e2d4 15be 6434 99bd 3505 213e
00000040: ec58 aabd dd93 a13d 41cb b1bd 5607 23be
00000050: 3da4 2cbe bb4a 0b3e be7b 543d f3d6 533d
00000060: 88a5 7b3d 11fb 8d3d 67aa e43d c99d 0a3e
00000070: 11c3 0d3e 8aea 693d cb99 dc3c 1582 1c3d
-0.14693283 0.046119202 -0.11264983 0.15300865 -0.005410618 -0.078305356 -0.11175198 -0.051813394
0.15351145 -0.11278141 -0.1620034 0.053603694 0.06054686 -0.1463199 -0.07480696 0.15724643
-0.08317742 0.07889531 -0.08681346 -0.15920767 -0.16859527 0.13602726 0.051875822 0.051718663
0.06143716 0.06932653 0.11165314 0.13536753 0.13843943 0.05710844 0.026928803 0.038209993
