train/checkpoints/uduta8zd/rjfa7mjv.checkpoint.pt (torch, 540514 bytes, 159 tensors)

rowAttentions.0.q_net.weight f4 [32, 32]
000000 b6 23 32 be 4d 9f 8e 3d 64 1c d0 3d c8 8c 19 be
       -0.17396435 0.06963978 0.10161665 -0.1499511
000010 c4 ff 82 3d 95 36 1b 3e a8 b9 27 3c f6 81 d6 bd
       0.0639644 0.1515754 0.010237135 -0.10474007
000020 17 8b 16 3e 15 1d 9f 3d 19 bd f3 3d b3 f0 0a be
       0.14701496 0.07769219 0.11901302 -0.13568382
000030 f6 5c d5 3d 21 8e 00 be d8 d2 34 3e b3 1e 96 bd
       0.104181215 -0.12554218 0.17658556 -0.07330074
000040 7a 6a e0 3d a1 c4 16 3d d5 71 47 3d f6 fd c9 bc
       0.10957809 0.036808614 0.048692543 -0.02465723
000050 de 94 96 3d d7 6a 85 bd 40 91 32 be e3 ac 85 bd
       0.07352613 -0.06514519 -0.17438221 -0.06527116
000060 f0 74 0f 3e 27 46 43 bd e1 9e 30 3d 90 bd 81 bd
       0.14009452 -0.047674324 0.04312027 -0.06334984
000070 2f 36 05 3e d4 de db 3d dc ba 5f 3d 8b 25 b5 bd
       0.1300895 0.107358605 0.054621562 -0.088450514
000080 99 0b 11 be 18 78 45 3c a8 0d c7 bd 40 34 17 3e
       -0.1416458 0.012052558 -0.097194016 0.14766026
000090 98 4d 2b be 8b df aa 3d 12 aa 28 3e b2 e6 b9 3d
       -0.16728818 0.08343419 0.16471127 0.09077205
0000a0 29 a4 81 3d 24 38 2d be 8b 1f 30 3e e8 d1 6d bd
       0.06330139 -0.16915947 0.17199533 -0.05806151
0000b0 70 44 22 be fd e2 2f 3e 4c 08 8a bd 8b 98 41 bc
       -0.1584642 0.17176433 -0.06739864 -0.011816154
0000c0 6a 6b 33 3e 7d b5 f9 bd 6e 72 fb bd 8c 0a 07 3d
       0.17521444 -0.12192819 -0.12277685 0.032969043
0000d0 3d d6 b6 bc dc 6f 9e 3d f5 6f 4d be 53 b1 1a 3c
       -0.022318954 0.07736179 -0.2006224 0.009441691
0000e0 de 25 a0 bd ad 7e a6 bd 58 33 37 be f7 39 ce 3d
       -0.078197226 -0.0812963 -0.1789068 0.1006965
0000f0 1a 7f fe 3c 5f 36 17 be 2a 1f 04 3e 68 e4 5c 3d
       0.031066466 -0.14766835 0.12902513 0.053928763
000100 82 13 0c 3d 4f 67 d1 bd 6d e0 e7 3c 77 8d 2f 3e
       0.03419829 -0.10224783 0.028305257 0.17143808
000110 b7 88 f9 3d 5f 80 0b be c2 5b 23 3e f9 dd 71 3c
       0.121842794 -0.13623188 0.15952972 0.014762395
000120 7b c9 b0 3d 08 3c 0e 3e dc 7d 1b 3e 2f 7a 17 be
       0.08632179 0.13890088 0.1518473 -0.14792703
000130 85 d0 20 3e 02 5b f3 bd c9 89 69 3c 44 01 fb bd
       0.15704544 -0.11882593 0.014254042 -0.12256101
000140 65 a2 11 bd 11 42 f1 bb 6f 6b a4 bc d8 2d d6 bc
       -0.035555262 -0.007362612 -0.02007076 -0.026144907
000150 c0 35 68 3c 19 82 38 3e 83 32 b7 3d 6e 85 ce 3d
       0.014172971 0.18018378 0.08945181 0.100840434
000160 17 27 92 3d e7 18 0c 3e d0 91 88 bc 36 4f 85 3c
       0.07136362 0.13681374 -0.016671091 0.016273122
000170 3e b2 0c 3d b0 ec 1c be 4f ff 15 be 64 1c c3 3c
       0.034349672 -0.15324664 -0.14648174 0.023817249
000180 35 eb 8b bd 87 fe 7f 3b 1c 1c 12 bd 50 51 e1 3c
       -0.068319716 0.0039061622 -0.03567134 0.027504593
000190 c1 0e ed 3d 71 ec 66 bd 1e aa 0a 3e c7 db 0e 3e
       0.1157508 -0.05637783 0.13541457 0.13951026
0001a0 f1 52 0a be 2e 22 04 be c2 97 12 be 9a f7 01 be
       -0.13508202 -0.12903664 -0.14315704 -0.12692109
0001b0 83 bd 81 bd b5 d0 89 bc d3 f5 28 bd aa c0 b5 bd
       -0.063349746 -0.016823152 -0.04125006 -0.088746384
0001c0 d2 fc 29 bd 4b 1c 84 bd f0 87 31 3e ce 8c 81 bd
       -0.041500874 -0.06450709 0.17337012 -0.063256845
0001d0 a5 47 03 be 78 09 d7 3d 94 b9 53 bd 5f 10 0d 3e
       -0.12820299 0.10499853 -0.051690653 0.13775776
0001e0 5c b9 de 3d 7f 3e 29 3e 79 8e 15 be a6 15 fe 3d
       0.10875198 0.16527747 -0.1460513 0.12406473
0001f0 70 94 10 3e 98 71 b3 bd 2c c2 2e 3e b6 bd 09 3e
       0.14119124 -0.08761901 0.17066258 0.13451275
000200 df 82 ac 3b ca 67 b7 3d e2 b8 72 bd c6 c8 19 be
       0.0052646245 0.08955343 -0.05925835 -0.15017995
000210 3f c8 43 3d 63 32 6b 3d 41 72 f4 bd 3d 9a b7 3d
       0.04779839 0.0574211 -0.11935855 0.089649655
000220 0e 44 16 be 56 70 20 3e 84 37 33 3e 79 6f 5f 3c
       -0.14674398 0.15667853 0.17501646 0.013637417
000230 d6 b1 da bd 82 7d aa 3d 1f d5 0e 3d 55 38 59 3d
       -0.10678451 0.0832472 0.034871217 0.053032238
000240 08 80 86 3d a6 66 0c 3e 97 45 93 bd 76 af 0e bd
       0.06567389 0.13711032 -0.071910076 -0.0348353
000250 d1 a4 51 3d f2 72 09 3d 27 89 e6 3d c8 04 b4 bd
       0.05118257 0.033556886 0.112566285 -0.087899745
000260 e1 49 49 bb 0b f1 04 3d a4 4c 87 bd c8 e3 02 3e
       -0.0030714201 0.03245644 -0.06606415 0.12782204
000270 e3 8d 98 3c 0e ae 23 be 09 89 37 bd 08 43 99 bd
       0.018622344 -0.15984365 -0.04480842 -0.07483488
000280 2a 6a a1 3c 04 67 92 bc d1 1e 31 be 18 1f ec bc
       0.019703943 -0.017871387 -0.17296912 -0.02882342
000290 16 64 6d bc 7a 89 45 bd c3 34 23 3e 0a 67 10 bd
       -0.014489194 -0.04822681 0.15938096 -0.035254516
0002a0 65 63 f0 3d 81 08 3a 3d 43 61 15 be ee cb 98 3c
       0.11737708 0.045418266 -0.14587884 0.018651929
0002b0 31 a8 18 3e 63 2e f5 bd e6 aa e2 bd af 65 34 3e
       0.1490791 -0.11971738 -0.110677525 0.17616914
0002c0 f9 08 16 3e 83 f3 c4 bd e0 e2 e0 3d 00 d3 96 bc
       0.1465186 -0.09616759 0.10980773 -0.01841116
0002d0 0e d6 2f be f2 e9 b3 3c 93 b2 17 3d 3c f2 48 bd
       -0.17171499 0.02196214 0.037035536 -0.049059138
0002e0 29 16 84 3d cb 5b 1a be a1 c4 dc 3d da 86 1e 3e
       0.06449539 -0.15074079 0.107796915 0.1548113
0002f0 db d4 c5 3d ec d0 06 3d 46 12 1a 3d e4 3e fd bd
       0.096597396 0.032914087 0.037615083 -0.12365511
000300 1d 26 2d bd 25 84 5b bc dd 5d c1 bd 24 c1 03 be
       -0.042272676 -0.013398205 -0.09441731 -0.12866646
000310 87 67 f5 3d 04 97 fc 3d 5a 36 2d be c3 ef 6d 3d
       0.11982637 0.123334914 -0.16915265 0.058089983
000320 c3 85 98 3d 86 c1 2c 3e ca f1 d4 3d a1 a4 04 3e
       0.07447388 0.16870698 0.1039768 0.12953426
000330 b7 3a 5d bd 9d b5 fe 3d 78 2b 18 3e 58 09 2a be
       -0.054011073 0.12436984 0.14860332 -0.16605127
000340 de b4 01 be a6 1e 16 3d 65 86 c9 3d f6 4f ac bd
       -0.12666652 0.036650322 0.09840087 -0.08413689
000350 36 f9 a3 3c 27 14 e2 3c 1a 58 fe 3b 04 23 bb bd
       0.020016294 0.0275975 0.0077619674 -0.09137538
000360 eb 0d ce 3d 0d 58 f4 3d ae 32 07 be e2 48 e9 3b
       0.100612484 0.11930857 -0.13202927 0.007119284
000370 2b 4d 84 bb da d2 6e 3d b2 3f 20 3e 04 55 5c 3d
       -0.0040375195 0.058306552 0.15649298 0.053792015
000380 07 2e 1c bd 16 8e 27 3e 8e 05 84 bd 89 a0 49 bd
       -0.038129833 0.16362795 -0.06446372 -0.049225364
000390 66 ac 60 3c a5 05 07 be 3e 69 6d 3c f8 6c f1 bd
       0.013712978 -0.13185747 0.014490424 -0.11788362
0003a0 50 38 a9 3c ae 75 89 3c 12 6a d8 3c 75 d8 27 be
       0.020656735 0.016779747 0.026417766 -0.16391166
0003b0 1a b1 28 be 80 f6 9f 3d e7 43 1d 3e 6e 98 1e be
       -0.16473809 0.07810688 0.15357934 -0.15487835
0003c0 bf 4d 8b 3d 44 2e 03 be 9b 01 58 3c da 82 2b 3e
       0.06801938 -0.12810618 0.0131839765 0.16749135
0003d0 4b d3 0a 3e 64 fe f4 bd 75 97 af 3d a3 aa c2 3d
       0.13557164 -0.11962584 0.0857381 0.095052026
0003e0 d4 7c 90 3a 82 84 32 3e 45 1f a4 bd ff 62 19 bd
       0.001102353 0.1743336 -0.08013777 -0.037447926
0003f0 88 7c b8 bd 58 25 df 3c 07 5b 0d 3d 42 a4 90 3c
       -0.090081275 0.027239487 0.03451064 0.01765645

rowAttentions.0.q_net.bias f4 [32]
000000 28 96 61 3d 1d 72 08 3e e9 dc 29 3d a0 1b f6 3d
       0.05507484 0.13324781 0.041470442 0.12016988
000010 95 d6 d8 3d 2e fd 2f 3d 8e cc 67 3d 6d 66 55 3d
       0.10587803 0.04296606 0.056591563 0.052099634
000020 87 6b 3b 3c f1 7b 1b 3e 4a 3f 13 3e ab 12 6b 3d
       0.011439211 0.15183999 0.14379612 0.05739085
000030 10 ae 37 bc 34 c4 1d 3e 92 05 0d be fc 25 01 3e
       -0.011210933 0.15406877 -0.13771656 0.12612146
000040 6e 8e a8 3d a9 f7 b2 3d bc 1a 49 bc 8d 85 09 be
       0.08230291 0.08738644 -0.01227444 -0.13429852
000050 d1 59 e1 3d 1f 89 a9 bd 62 97 10 3d 05 a9 c3 3d
       0.11003459 -0.08278107 0.03530062 0.09553722
000060 63 27 2f be 97 db 08 3c f8 0c 87 bd 13 c2 ff 3d
       -0.17104869 0.008353136 -0.065942705 0.124881886
000070 1c be f3 bd 01 f0 d3 3d c3 24 d1 3d eb 5b c4 3d
       -0.11901495 0.103485115 0.1021209 0.095878445

rowAttentions.0.k_net.weight f4 [32, 32]
000000 d1 fc 2b 3e 28 8c c5 3c 78 16 24 be 0c b8 ff 3d
       0.1679566 0.024114683 -0.16024196 0.12486276
000010 52 f3 76 3c ff 22 04 3b 8a a5 2b be c6 16 28 bd
       0.0150726605 0.002016246 -0.16762367 -0.041037343
000020 72 6b b2 bd 42 5a 2d 3e 5b 21 ff 3d 30 c7 0b 3e
       -0.087119 0.16928962 0.12457534 0.13650203
000030 7f 1e f3 3d 10 17 e1 bd f8 1f 9d bd db 42 92 bd
       0.11871051 -0.10990727 -0.07672113 -0.07141658
000040 a0 f3 88 bd 50 f9 0b 3e 7b 5c 70 3d 2e 53 0f 3e
       -0.06687093 0.13669324 0.058681946 0.13996574
000050 57 2f 18 bc 56 b6 22 be f9 1d 17 bd d0 dd fa 3d
       -0.00928863 -0.15889868 -0.03689382 0.122493386
000060 1a 9c da 3d 29 6e 58 3d 2d e7 27 bd 64 18 2e be
       0.10674305 0.052839432 -0.04099195 -0.17001492
000070 6b 21 c4 bd dc 5d ba 3d 44 c9 7e bd 55 fd a7 3d
       -0.095766865 0.090999335 -0.06220366 0.08202616
000080 20 bc 3c 3d 42 a5 89 bd 78 0a dc 3d 26 f3 72 bd
       0.046077847 -0.067209736 0.10744184 -0.059313916
000090 72 d1 02 bc c0 27 8e bd 54 f5 2b be 69 6a d5 3c
       -0.007984506 -0.069411755 -0.16792804 0.026051717
0000a0 77 6d 46 3d b7 32 b3 bd 55 d5 d8 3d 88 19 1a be
       0.048444238 -0.087499075 0.10587565 -0.15048802
0000b0 68 aa 2f be 05 b5 ed bd 58 af 80 bd c4 e8 ac bc
       -0.17154849 -0.11606792 -0.06283444 -0.021107085
0000c0 4b 09 03 bd 57 24 9f 3d ef 7f 21 be 7a 60 c2 3c
       -0.031991284 0.07770603 -0.15771459 0.023727644
0000d0 05 ef 21 3a 01 fd 73 3d 48 27 3f 3e a8 79 d9 3d
       0.0006177279 0.059567455 0.18667328 0.10618907
0000e0 4f ab cd bd 13 f0 13 be 5d 1f 2f bd 6f d9 ba bd
       -0.1004244 -0.1444705 -0.04275452 -0.091235034
0000f0 a7 a0 75 3d 09 a6 19 ba f8 ee 24 3e e3 16 85 3d
       0.059967663 -0.0005861228 0.16106784 0.06498506
000100 73 a8 07 bd 66 24 87 3a 1b 99 24 3d b7 b7 ba bc
       -0.03311963 0.001031053 0.040185075 -0.02279268
000110 05 9c 11 3e 67 3c 0f be cf b3 b1 3d 52 73 e8 bd
       0.14219673 -0.13987885 0.08676874 -0.113501206
000120 b9 c9 1f be a4 a5 24 bd ca a7 ae 3d 8f cf 0b 3e
       -0.15604295 -0.04019703 0.08528097 0.13653396
000130 c8 f9 2c 3d 25 ea 16 bc 1b 04 2f bc 06 24 97 bd
       0.042230397 -0.009211098 -0.010682131 -0.07379918
000140 7e 0a 85 bc 2c 46 57 bc 79 2e 19 3e b2 06 d0 3d
       -0.016240355 -0.013139289 0.14959134 0.10157527
000150 32 d1 10 be 5a d3 ed bb 5b 4a c8 bd 3d 19 f5 bc
       -0.14142302 -0.007257861 -0.09779807 -0.029919261
000160 84 a3 10 be ca 10 39 3d 0b eb e5 bd 7f 48 2c 3e
       -0.14124876 0.045182027 -0.112264715 0.1682453
000170 50 da 0b 3e 1e af fa bd 08 1c 27 be 57 25 47 3b
       0.13657498 -0.12240432 -0.16319287 0.0030387247
000180 9d cd 4e bd f6 7a 55 3d 77 36 f4 bd 9d e9 8f 3d
       -0.050489057 0.052119218 -0.11924451 0.0702698
000190 cb 2f 1d be 4e a8 c2 bd 6b 97 bf bd 5d f6 aa 3d
       -0.15350263 -0.09504758 -0.093550526 0.08347771
0001a0 48 a8 db bb 74 95 2d be 8e ea d2 bd 1d 48 92 bd
       -0.0067034103 -0.16951543 -0.10298644 -0.07142661
0001b0 9c ad 27 be 42 4c e2 3c f2 46 7a 3d b5 86 0e bd
       -0.1637482 0.027624253 0.061102815 -0.034796435
0001c0 f3 17 94 bd b3 b1 28 bb 04 00 12 be 5c 42 e0 bd
       -0.072311305 -0.0025740683 -0.14257818 -0.10950157
0001d0 2d f7 c6 bb 16 e2 20 3e ba ff 5c bd bc 73 b0 3d
       -0.006071946 0.15711245 -0.053954817 0.086158246
0001e0 77 f2 93 bd e3 24 3a bd d4 88 27 be 76 a7 16 3e
       -0.07223981 -0.045445334 -0.1636079 0.14712319
0001f0 de f7 2d 3e d8 27 b9 bb 4c 69 01 3e a3 83 11 3e
       0.16989085 -0.0056505017 0.12637824 0.14210372
000200 11 08 b8 3d 34 ed bc 3d e7 f2 2c be 9b 64 27 be
       0.089859135 0.092249304 -0.16889535 -0.16346972
000210 91 22 09 be 79 ea 6c 3d 6a aa 1c be 29 87 07 be
       -0.13392092 0.057840798 -0.15299383 -0.13235153
000220 82 f5 a9 bd 78 a5 24 be c0 0a 3a 3b 76 da 4c 3c
       -0.0829878 -0.16078746 0.0028387755 0.012503257
000230 8b fa d0 bd e7 33 ef 3d a7 2f 85 bd ab 89 3c bd
       -0.10204037 0.116798215 -0.065032296 -0.046029728
000240 85 28 09 3e e5 0a 1e 3e 96 d8 8f bc e9 51 fe bd
       0.13394363 0.15433843 -0.01755933 -0.12417967
000250 68 11 b1 bd 20 2f 94 3c 68 e5 bc 3d ac dd b9 3d
       -0.08645898 0.018088877 0.09223443 0.09075484
000260 58 a5 99 bd d5 be 2b be c1 4d 27 be fd 92 56 bd
       -0.0750224 -0.16772015 -0.16338255 -0.052386273
000270 9c 49 7d 3b 2d a6 9d bd ba ad 23 be 5d b7 c6 3c
       0.003864861 -0.07697711 -0.1598424 0.024257356
000280 39 8d 0d be fe 98 09 be 70 64 11 be 8a a7 39 bd
       -0.13823403 -0.13437268 -0.1419847 -0.045325793
000290 77 96 21 3e b0 ac 92 3d 94 4d ba bc d7 67 1f 3d
       0.15780054 0.07161844 -0.02274207 0.03891739
0002a0 c6 de 95 3d ca a7 d0 39 65 72 0f be c7 fe fa bd
       0.07317881 0.00039797864 -0.14008482 -0.12255626
0002b0 b5 ff f2 bd ff 22 a9 bb e4 94 23 be cc 90 f8 bc
       -0.118651785 -0.0051616426 -0.15974766 -0.030342482
0002c0 83 a0 80 bd e4 58 33 3e 7d d9 15 3e 2d d4 d7 3d
       -0.06280615 0.17514378 0.14633746 0.10538516
0002d0 e7 b3 48 3c 29 ec 59 bd 82 c9 01 3d 44 f5 f4 bd
       0.012249923 -0.053203736 0.031686313 -0.11960843
0002e0 63 00 96 bd ec f6 0f bd dc fa 47 bd 92 af 2a be
       -0.073242925 -0.035147592 -0.048823223 -0.16668537
0002f0 68 b9 90 3d 01 55 17 3e fc 9f e7 bd 06 6e 4e 3d
       0.070666134 0.1477852 -0.113098115 0.050397895
000300 58 5c 92 bc 7c 91 cb ba bf 2b 37 3c 4e 52 20 3e
       -0.017866299 -0.0015531029 0.0111798635 0.15656397
000310 f7 e1 d1 3c 23 6c dd bd 6c b0 76 bd 52 97 b7 3d
       0.025620444 -0.10811641 -0.060226843 0.08964409
000320 8f c1 70 3d fd 2e 21 3c 8d 2c a2 bc 82 1e b6 bd
       0.05877834 0.009837863 -0.019796634 -0.08892538
000330 e1 61 75 bd 30 df cf bd 30 8e 00 3d ea 05 5f 3d
       -0.059907798 -0.101499915 0.0313856 0.054449
000340 86 7d 08 3e e5 9d 16 bd 1c ca 83 3c e7 1d f2 3d
       0.13329133 -0.036771674 0.016087584 0.1182211
000350 8b ea a1 3d c1 07 aa 3c 70 c4 05 3d 80 0e 5f 3c
       0.07906064 0.02075565 0.03265804 0.013614297
000360 54 4b 17 be ba b2 f6 3b 8f 56 7c bd 8b a6 2c 3e
       -0.14774829 0.00752863 -0.061605986 0.16860406
000370 ad 7c 22 3e fe 43 1c 3d 0a 41 11 3e 06 8d a8 bd
       0.15867873 0.03815078 0.14184967 -0.08230023
000380 59 f3 1d 3e 14 ad 1b 3e 1c b5 e1 bb 4a 55 10 be
       0.15424861 0.15202743 -0.006888045 -0.14095035
000390 5f b3 65 bd 8b 6f 3f bd bb 45 ab 3a dd 33 23 be
       -0.056079265 -0.046737235 0.0013067046 -0.15937753
0003a0 8f 7b 09 3d 84 46 99 bd c0 c5 35 bd 07 10 ba bd
       0.0335651 -0.07484153 -0.044378042 -0.09085088
0003b0 e9 85 17 bd 64 98 29 be cc e2 be bd 46 8f 8a 3c
       -0.03699294 -0.16562039 -0.09320602 0.016914021
0003c0 8b e5 e7 3d 38 9a 25 3e fe fd 07 be e0 ed 99 3d
       0.11323079 0.16172111 -0.13280484 0.07516074
0003d0 dd ae c9 bd 63 c2 0d be c6 d8 33 bc 1c b9 ce bd
       -0.09847806 -0.13843684 -0.010976976 -0.100939006
0003e0 e0 1a 1b be 53 f0 27 be 28 37 f1 bd ff 27 14 3e
       -0.15146971 -0.1640027 -0.11778098 0.14468382
0003f0 27 ff cf 3d d9 ae 8d bd 66 4b 01 be e8 a4 09 be
       0.10156088 -0.06918115 -0.12626418 -0.13441813

rowAttentions.0.k_net.bias f4 [32]
000000 58 38 97 bd a9 06 20 3e 99 21 ff 3d 38 f0 28 3e
       -0.073837936 0.1562754 0.1245758 0.16497886
000010 b0 c7 34 be 12 47 51 bb df f1 85 bd 5a 15 26 3d
       -0.176543 -0.003193323 -0.06540274 0.040547706
000020 7a 87 08 be 71 2d aa 3d f6 b6 71 bc 31 e3 b8 bd
       -0.1333293 0.083094485 -0.014753094 -0.09027708
000030 78 0b 20 be bb 75 b1 3d de 26 78 bd e3 bc 04 3e
       -0.15629375 0.086650334 -0.06058394 0.1296268
000040 88 4d 11 3d c3 c8 46 3d 0d eb d1 bc c8 57 bf bc
       0.03547433 0.048531305 -0.025624776 -0.023357287
000050 1d 3c 88 bd 73 c7 15 be ef 9f e6 3d 94 65 fa bd
       -0.06652091 -0.14626865 0.11260974 -0.12226406
000060 11 22 ce 3d 6c 0c 69 bd 02 39 f7 3d 11 ce 19 3e
       0.100650914 -0.056896612 0.1207142 0.15020014
000070 e6 94 e3 bd 42 90 0a 3e b6 00 e5 3a 19 6b 0d be
       -0.111123845 0.13531592 0.0017471525 -0.13810386

rowAttentions.0.v_net.weight f4 [32, 32]
000000 46 bb 8d 3d 24 09 d0 3d 0f 5c 1f 3e a2 8e 25 be
       0.06920485 0.101579934 0.15562461 -0.16167691
000010 0b 04 3e 3e 8e 86 0f 3e 56 b3 30 3e 9a b7 d2 3d
       0.1855623 0.14016172 0.17255911 0.102889255
000020 20 71 a5 bd 64 48 25 3e 2e 8b 2c 3e 77 3a a0 bd
       -0.080782175 0.16140896 0.16849968 -0.07823651
000030 d5 be af bc 00 0f 14 3e 84 e6 17 3e 3e 3b f5 3d
       -0.0214533 0.14458847 0.14834028 0.1197419
000040 33 94 ee 3d 46 3b b0 bd f2 c2 c6 bc 0b 13 84 bd
       0.116493605 -0.086050555 -0.024262879 -0.06448945
000050 ee 37 be 3d e9 b7 43 3c 74 30 1f be 8b 5d bb bc
       0.092880115 0.011945703 -0.15545827 -0.022871753
000060 4f 4c 1b be 75 e2 2a be 59 48 0e 3e f6 3f 8d bd
       -0.15165828 -0.16687949 0.13894786 -0.06896965
000070 6b 61 95 3d 8f 94 12 bd 5b 23 5f bd ed b5 94 bc
       0.07293972 -0.035786208 -0.054477077 -0.018153155
000080 47 16 0d 3e ce e1 08 bd 17 34 0f 3e 5e bd e1 3d
       0.1377803 -0.03341847 0.13984714 0.11022447
000090 72 e5 d5 3d aa 89 1d be 4e 09 ac bd 5c 06 0c be
       0.10444154 -0.15384546 -0.08400212 -0.13674301
0000a0 11 09 08 bd 09 13 01 bd 18 4a 12 3d e5 3b 13 3e
       -0.03321177 -0.031512294 0.035715193 0.14378317
0000b0 1e ef 8e 3d 2d 2b 04 be e4 89 e4 bd 39 04 05 3e
       0.06979202 -0.12907095 -0.11159113 0.12989892
0000c0 6e 80 3a 3d 42 6c 16 3d c3 6a b3 bd db cd c5 bc
       0.045532636 0.036724336 -0.087605976 -0.024146011
0000d0 90 f3 65 3d 74 b5 c2 bd c5 7d af 3d c9 a3 b0 3d
       0.056140482 -0.09507266 0.085689105 0.086249895
0000e0 80 70 dd bd db 8a 8b bd 93 40 5c bd 8d 89 ac 3c
       -0.10812473 -0.06813594 -0.05377252 0.021061683
0000f0 14 75 27 bd 56 89 34 3e 4b 0c 23 be c4 99 c5 bd
       -0.04088314 0.17630515 -0.15922658 -0.09648469
000100 94 39 02 be 33 98 5a 3d 7d c0 9b 3c b1 66 4f bd
       -0.12717277 0.053367805 0.019012684 -0.050635044
000110 00 f5 1e 3e 8f ea 1d be 1b 3a 9f 3d 2f 22 c7 bd
       0.15523148 -0.15421508 0.077747546 -0.09723317
000120 e3 f1 1a bd 4c 79 38 be 26 ca 04 be 0d 99 16 be
       -0.037828337 -0.18015021 -0.12967739 -0.14706822
000130 35 4e 9c 3d 3d 1e 88 bd db 61 96 3d 74 51 cd bd
       0.07632104 -0.066463925 0.07342883 -0.100253016
000140 9e de ae bd a0 70 1d 3c 61 72 16 3e de 03 1c bd
       -0.085385546 0.009609371 0.1469207 -0.038089626
000150 8b e4 cf 3d cf 17 59 3d 13 32 cd 3d d6 bb d8 3d
       0.10151013 0.05300122 0.100193165 0.10582702
000160 e7 10 81 3d f7 6f 90 bd 4e e2 9b 3c e2 e9 a1 3d
       0.06302052 -0.070526056 0.019028809 0.07905938
000170 f7 e5 a0 3d ac 1c 85 bc 29 b2 12 3e f5 de da bd
       0.07856362 -0.016249023 0.14325775 -0.10687057
000180 a0 7b af 3d f5 fe 1e 3b e0 3d e5 bd 47 9b a4 bd
       0.085685015 0.0024260853 -0.11193442 -0.08037429
000190 0a cc 05 be cf f1 37 3d 88 95 c9 bd 43 71 38 bd
       -0.13066116 0.04490834 -0.09842974 -0.04502989
0001a0 2c 0f 3d bb 60 b3 00 be d9 74 4f 3c d8 88 b2 bd
       -0.0028848154 -0.12568426 0.012662136 -0.08717507
0001b0 e2 a8 79 3d ca 03 d7 3d 2b a8 ba bd f9 06 d3 3d
       0.060952075 0.104987696 -0.09114107 0.10304064
0001c0 45 8a 14 bd 61 5e f7 bd 0c 1f 9a bd d8 19 89 3d
       -0.036264677 -0.12078548 -0.07525453 0.066943824
0001d0 c3 79 1b 3d 21 e3 e8 bb dc a1 60 bd 00 7e c4 3d
       0.037957918 -0.007107154 -0.05484186 0.09594345
0001e0 44 57 eb 3c e8 c6 43 be f8 a0 2b bd 93 f9 5b bc
       0.028728135 -0.19118845 -0.04190156 -0.013426202
0001f0 ec 55 ef bd b5 84 ca bd 2f d5 32 be f8 fe 71 3e
       -0.1168631 -0.09888593 -0.17464136 0.23632419
000200 16 ec 18 be de f4 20 3e 2b 68 0e be c1 70 2d bd
       -0.1493381 0.1571841 -0.13906924 -0.04234386
000210 95 36 a5 bd e5 42 b9 bd 5b c6 3f 3d 61 c9 d2 3d
       -0.08067051 -0.09045962 0.046820026 0.10292316
000220 59 4a ee bd 39 ba 67 bd 4a f0 b6 3d c7 56 dc bc
       -0.116352744 -0.05657408 0.0893255 -0.026896847
000230 e2 74 27 3d 49 1b d7 3d 90 ac 6c bd 20 81 ad bd
       0.040882953 0.10503251 -0.057781756 -0.08471894
000240 f2 3c b0 3d 58 27 6c bd 6c 2b f0 bd 98 0a be bd
       0.086053744 -0.05765471 -0.11727032 -0.09279364
000250 ac 66 a8 bd 43 8d 65 3e b4 7b 6a 3c a9 37 98 3d
       -0.08222708 0.22417168 0.01431172 0.07432491
000260 79 d3 ca 3c 53 67 bb bd e3 7d 94 3d 9f 58 d6 bc
       0.024759041 -0.09150567 0.072505735 -0.026165305
000270 03 a0 1d bd 0a c2 14 3e 76 bc 12 be 23 93 93 3c
       -0.038482677 0.14527145 -0.14329705 0.018014496
000280 13 66 fc bd ee af df 3d 36 89 a2 3d 07 a1 1f be
       -0.123241566 0.10922228 0.07936327 -0.15588771
000290 4c 99 be 3d d4 9d 95 3c 17 a3 b7 bd d9 27 0f 3e
       0.09306583 0.018263735 -0.08966654 0.13980044
0002a0 f4 e1 89 3d 83 18 8a 3d 8e b4 90 bd 35 d8 8e bd
       0.0673255 0.067429565 -0.07065688 -0.06974832
0002b0 61 4c 9e bd d0 35 82 3d 19 c3 37 3d 63 b6 db bd
       -0.07729412 0.0635792 0.044863794 -0.10728147
0002c0 3e 8e 22 3e ec c3 fc 3d 35 23 9b bd 4d c4 a6 3d
       0.15874574 0.12342057 -0.075750746 0.0814291
0002d0 90 ce 9e bd 8c 32 18 3b 47 ed 2f 3e 2b 8e 18 be
       -0.077542424 0.0023223488 0.17180358 -0.14897983
0002e0 79 71 99 bd cf cd e7 ba 5b b3 ac bb 50 25 0c be
       -0.07492346 -0.0017685237 -0.0052704043 -0.13686109
0002f0 9a 8a e7 bd 1f fb a9 bc ab b6 8c bd b4 20 4a 3d
       -0.11305733 -0.020749627 -0.06870779 0.049347594
000300 25 95 08 3b f9 97 77 3d cb 16 a3 3c 39 28 40 3c
       0.002084085 0.060447667 0.01990833 0.01172834
000310 26 b4 8a bc d9 16 66 3d 50 49 0c 3e 69 28 c6 bd
       -0.016931605 0.056174133 0.13699841 -0.096756764
000320 7c 7f be bd fa 95 1f 3d 9a c9 05 be 4f 61 c2 3d
       -0.093016595 0.03896139 -0.13065186 0.094912164
000330 e1 cd 91 3d d7 dd 80 3c b1 a2 89 bd 11 5f 1a bc
       0.071193464 0.015730781 -0.06720484 -0.00942208
000340 95 36 13 be 20 36 34 be 47 50 23 3e ec e0 1e be
       -0.1437629 -0.17598772 0.15948592 -0.15515488
000350 e3 01 19 be 03 fc d0 bd 36 61 ed 3c 0d 8d 10 3d
       -0.14942126 -0.102043174 0.028977018 0.035290767
000360 a6 e9 a1 bd 75 f6 6d bd 45 da bf 3c af 6f 27 3e
       -0.07905893 -0.058096368 0.023419509 0.16351198
000370 6e 0e e4 3d bc 13 80 3d ec 01 54 3d 62 fe 70 3e
       0.11135565 0.06253764 0.051759645 0.2353454
000380 06 7d 11 be b5 23 6f 3d 3a 20 d1 bd 77 d9 1d 3e
       -0.14207849 0.058383662 -0.10211225 0.15414988
000390 c3 c0 19 be 24 63 92 3d 7a 34 0f be 39 17 f5 3d
       -0.15014939 0.07147816 -0.13984862 0.1196732
0003a0 59 44 35 3d 9d 99 2d 3e e5 4a 00 be b9 08 05 3e
       0.044254635 0.1695313 -0.1252857 0.12991609
0003b0 8c 7e f5 bd d2 dc bc bd be d3 7a 3d c1 14 b6 bc
       -0.119870275 -0.09221806 0.06123709 -0.022226693
0003c0 77 73 18 be 6c 73 1e be 7a 8a 02 bd 63 20 58 3d
       -0.14887796 -0.15473717 -0.031870343 0.05276526
0003d0 62 e8 2a 3e 84 97 09 3e 0b 3c b7 bd 67 30 e9 bd
       0.1669021 0.13436705 -0.08946999 -0.11386185
0003e0 69 c8 2a be d4 d4 32 3e 77 2f ad bd 24 fd 80 bd
       -0.16678013 0.17464 -0.08456319 -0.06298283
0003f0 d6 bb e4 bd 72 44 e3 bd 68 3d 45 3d 7c 12 f6 bd
       -0.11168639 -0.11097039 0.048154265 -0.12015244

rowAttentions.0.v_net.bias f4 [32]
000000 9a ec 09 be 5d 58 09 3e 45 bf 05 3d af 98 2b bc
       -0.13469163 0.13412614 0.032653112 -0.010473414
000010 cd a2 36 be 2f 0e 11 3e 49 a7 e6 bd a7 46 b6 3d
       -0.17835541 0.14165567 -0.11262376 0.089001946
000020 f5 6e e5 bb 48 2d a1 3b a1 db ae 3d 56 12 84 bd
       -0.0070017525 0.004918728 0.08537985 -0.0644881
000030 0b ba 26 bd bb e6 10 3e 96 f9 03 be cd 47 b3 3d
       -0.04070477 0.14150517 -0.12888178 0.08753929
000040 04 96 59 bd 20 80 75 bd fe 0a e4 3d 42 11 04 3d
       -0.05312158 -0.059936643 0.11134909 0.03224302
000050 75 f4 21 be 7a e2 2d 3e c2 68 b5 bd 11 0e 24 3e
       -0.15815909 0.16980925 -0.088578716 0.16020991
000060 24 6d 90 bd 06 3f 32 3e d4 de 7a 3d be 5e 94 bc
       -0.07052067 0.17406854 0.06124766 -0.018111583
000070 ff ca 8d 3d a3 62 0e 3b da c3 c0 bd c0 07 e0 3d
       0.06923484 0.0021726273 -0.09412356 0.10938978

rowAttentions.0.proj_net.weight f4 [32, 32]
000000 20 c4 e9 3d f3 f5 df bc 48 be 2e 3e cd 4d 9c ba
       0.11414361 -0.027338957 0.17064774 -0.0011925042
000010 18 a5 c2 bd f4 e2 ab bd 4e 67 ed 3d d6 3b 93 bd
       -0.095041454 -0.08392897 0.115919694 -0.07189147
000020 5a 5e c6 3d a1 82 32 be 93 4f 96 bc a5 b1 bb bd
       0.09685965 -0.17432643 -0.01834849 -0.091647424
000030 b8 65 78 3d e3 44 0f 3e c0 ed 85 3d 4c a7 82 bd
       0.06064388 0.13991122 0.06539488 -0.063795656
000040 52 dc 2f be 45 61 a5 bd 8d f8 f4 bd 64 03 1f 3e
       -0.1717389 -0.08075193 -0.1196147 0.15528637
000050 68 f3 da bd 90 07 76 3d 95 85 29 3e 8e ab 7f 3d
       -0.10690957 0.060065806 0.16554864 0.062419467
000060 7f 90 26 be db c2 c4 bc 7d c7 2c bd b0 49 ff 3d
       -0.16266058 -0.024018696 -0.042182434 0.12465227
000070 14 e6 3f bc b4 e0 13 bc 90 a1 20 3e 23 17 42 3d
       -0.01171257 -0.009025741 0.15686631 0.047385346
000080 49 4c 7c 3d 8f ab 35 bd 0e 5f 04 3e 9a cf 8a 3c
       0.06159619 -0.044353064 0.12926885 0.016944695
000090 ba 90 6e bd 4b cd b6 3c 3f e0 04 be 83 e0 21 bc
       -0.05824349 0.022314688 -0.12976168 -0.009880188
0000a0 9c 39 c6 3d aa 36 1f be 40 b3 c6 bd 2f db f0 3d
       0.09678957 -0.15548196 -0.09702158 0.11760556
0000b0 58 95 f7 3c 0d 12 62 3c d5 ab 71 3c 7a ad 9f bd
       0.03022258 0.013798249 0.014750441 -0.0779676
0000c0 73 82 11 3e ee 0b 6c bc 82 12 86 bd 23 5a b5 3d
       0.14209919 -0.014407141 -0.06546499 0.08855083
0000d0 69 bb 16 be 2c 78 2b bd b1 66 05 3d 93 20 74 bd
       -0.14719929 -0.04186265 0.032568637 -0.059601378
0000e0 43 f6 c7 3d 19 e0 0d be 79 e8 07 bd b2 0a aa bd
       0.097637676 -0.13855018 -0.033180688 -0.08302821
0000f0 a8 37 20 3e ed bf 94 3d bd 9a 07 be d3 42 77 3d
       0.15646231 0.072631694 -0.13242622 0.060366463
000100 bc ce 6e bc f3 1a 25 3e ff 16 c0 3d 46 9e da bd
       -0.0145756565 0.16123562 0.09379386 -0.106747195
000110 a9 40 21 3e 0b 92 22 bd 29 eb c2 bc 8b 2d 82 3d
       0.15747322 -0.03969006 -0.023793774 0.06356343
000120 04 88 36 3e 08 4c 30 3d 4f 95 31 be dc 5d 63 bd
       0.17825323 0.04304126 -0.17342113 -0.055509433
000130 0d 84 24 3e 4a 7d 8d bd a0 f0 9f bd a3 70 16 be
       0.16065998 -0.069086626 -0.078095675 -0.14691405
000140 19 c6 c0 bd bf 40 e8 bd 72 9d 2a 3d 7b 47 7b 3d
       -0.09412784 -0.11340474 0.041654058 0.061347466
000150 78 1f 2c 3e 44 d0 d6 3d 77 01 9c 3c 9d 26 ab 3d
       0.1680888 0.10488942 0.019043667 0.08356974
000160 0c 7e db 3d a9 d7 15 be ea 80 cc 3d 8f 56 e2 bd
       0.10717401 -0.14633049 0.09985526 -0.11051666
000170 9f 42 07 3e 56 a3 97 bd 27 85 b5 3c 52 c6 5c bb
       0.13209008 -0.07404201 0.022158219 -0.0033687544
000180 94 f6 b6 3d f8 d5 af 3c b3 d3 0b be 7e 14 8d 3d
       0.0893375 0.021464333 -0.13654976 0.06888674
000190 39 52 d9 3d 42 3f c4 bd bb ea f3 bd c9 d4 d9 bd
       0.10611386 -0.09582378 -0.11910006 -0.10636289
0001a0 02 67 a7 bd e1 c9 b2 bc b7 c2 26 3d 0d a3 c2 bb
       -0.08173944 -0.021824779 0.04071304 -0.0059398473
0001b0 97 43 3b bd 23 20 cc 3d a7 27 25 3c e0 fd bf bd
       -0.045718756 0.09967067 0.010080255 -0.09374595
0001c0 3f 13 12 bd e1 3e de bd 10 ef 62 bd 3f 75 21 be
       -0.035662886 -0.10851837 -0.05540377 -0.15767382
0001d0 38 7a 1c 3d 0a ab f7 bd ea 78 5f 3d 8c bd 0d 3e
       0.038202494 -0.1209317 0.054558672 0.13841838
0001e0 45 21 0f be 5c 49 d6 bd f5 a2 12 be 26 2f 0d 3d
       -0.13977535 -0.10463211 -0.14319976 0.034468792
0001f0 c6 f5 ab 3c 86 c9 c9 bd b5 a8 01 3e 34 cb 99 3d
       0.020991217 -0.09852891 0.12662013 0.07509461
000200 34 19 2f be dc 85 8a bc fc f1 92 bd 6d ad 2e bd
       -0.17099458 -0.016909532 -0.07175061 -0.04264586
000210 f4 5e cc 3d f8 12 d2 bc 8d 82 02 be e1 a9 0d 3e
       0.09979048 -0.02564381 -0.12745114 0.13834335
000220 b3 73 29 be bd f2 84 bd 7e 83 a2 3d 04 12 25 3e
       -0.16548042 -0.06491611 0.079352364 0.16120154
000230 12 4e 40 3e 4d b0 2f bd 24 29 6d 3d 97 3d 14 be
       0.18779781 -0.042892743 0.057900563 -0.1447662
000240 34 31 64 bd 4f d0 67 bd 04 f7 2a 3d 34 37 e6 bd
       -0.055710986 -0.056595143 0.04173948 -0.11240998
000250 0d 6b 17 3d 62 9a a5 3d 9c 11 0f 3e 3d 42 fa bc
       0.036967326 0.08086087 0.13971561 -0.030549163
000260 d3 fc 17 3e 3b 72 34 be bd 09 5b bd 64 7c 91 3d
       0.14842539 -0.176217 -0.053476084 0.07103804
000270 0f a3 2f 3d c2 5d aa 3d dd 20 ee bd f5 ef f2 3d
       0.042880114 0.08318664 -0.11627362 0.118621744
000280 44 c5 19 be 87 52 f8 bd d2 63 be bc 7c a2 33 be
       -0.15016657 -0.12125116 -0.023240957 -0.17542452
000290 ed 67 39 be 37 dc 21 be 3d 88 0e 3e 6e fb de 3c
       -0.18106051 -0.15806662 0.13919158 0.0272195
0002a0 23 1c 45 bd 62 e3 f9 bb 57 28 36 be 59 62 1d be
       -0.048122536 -0.007625983 -0.17788826 -0.15369548
0002b0 2c cc 13 be 51 bf 37 be cf 76 f4 3d 3b 1e 95 bd
       -0.14433354 -0.17944075 0.119367234 -0.07281157
0002c0 63 aa 5f bd 7a c7 10 be b6 a4 a5 bc 3b 8f 30 bd
       -0.054605853 -0.14138594 -0.020220142 -0.043105345
0002d0 11 bb 19 be b9 d7 ed 3d 78 7e 34 3e 00 24 df bd
       -0.15012766 0.116134115 0.17626369 -0.10895538
0002e0 a4 46 cd 3d fe 3f cd bc 74 ed 2c 3c ed 6a a8 3d
       0.10023239 -0.025054928 0.01055466 0.082235195
0002f0 bd cf d2 bc 96 bf 2d 3e c0 c3 bc 3d 32 05 f4 bd
       -0.025733823 0.16967615 0.09217024 -0.119150534
000300 89 10 f2 bd 68 6b 28 be ad ae 94 3d 84 9a 13 be
       -0.1181956 -0.16447222 0.07259879 -0.14414412
000310 20 3d 16 be 74 79 dd bd 50 65 3a be 48 20 13 be
       -0.14671755 -0.10814181 -0.1820271 -0.14367783
000320 f2 9c 22 3e e8 57 e6 3d 5a 93 2a 3e e5 53 b5 bd
       0.15880182 0.112472355 0.16657773 -0.08853892
000330 9e 99 6a bd e5 6c 8e bd 8a 24 2a 3c bc 8a fb bd
       -0.057275407 -0.06954364 0.010384688 -0.12282321
000340 8f 96 04 3d ae af ff bd 98 13 32 3d 7e 32 3a 3e
       0.032370146 -0.1248468 0.043475717 0.18183324
000350 78 f1 74 3d 13 37 06 3e 26 4f fe bd 45 a3 fe bc
       0.059800595 0.13106947 -0.1241744 -0.031083712
000360 5b a0 d8 bd c3 f8 02 bd 7e 54 73 bd b6 83 d8 bd
       -0.105774604 -0.03197552 -0.05940675 -0.10571997
000370 d4 bc 23 be 12 cb a0 bd ce 00 00 3d 08 7a 9e bc
       -0.15990001 -0.078512326 0.031250767 -0.019345298
000380 cd 25 23 be fa df ef 3d 72 6d 05 3e b1 e7 f8 bd
       -0.15932389 0.11712642 0.13030031 -0.12153567
000390 ff 2b c9 3c 86 3a d9 3d b4 a7 2f be f0 44 0b be
       0.024557112 0.106068656 -0.17153817 -0.13600516
0003a0 8c fd bd 3d b4 5a c4 bc 3d bb 98 3d d9 3a a2 bd
       0.09276876 -0.023969032 0.07457588 -0.079213805
0003b0 df c6 26 3d e3 32 ed 3d 06 34 31 bd 6a fc 0a bd
       0.040717002 0.115819715 -0.043262504 -0.033932127
0003c0 af d2 44 be 87 3a 4d bc 99 79 b4 3d c4 a3 23 be
       -0.19220994 -0.012526161 0.088122554 -0.1598044
0003d0 7b e2 6c bc 70 83 02 3e 1a 95 25 bd c4 8e 58 bd
       -0.014458294 0.12745452 -0.040425397 -0.052870527
0003e0 68 0e 9c bd 44 16 aa bd 82 12 3f 3c d7 82 20 be
       -0.07619935 -0.08305028 0.011662127 -0.15674911
0003f0 19 5c 85 3d d0 9a 17 bd 71 49 c6 bc e5 6b b9 3b
       0.06511707 -0.037012875 -0.024204941 0.005658614

rowAttentions.0.proj_net.bias f4 [32]
000000 6d 48 15 3e 9f d6 27 3e 53 52 aa 3d a3 cb 06 be
       0.1457841 0.16390465 0.08316483 -0.13163619
000010 2d ed 0c bd 25 cf 1e 3e 92 2b f2 3d a8 e0 2d bd
       -0.034405876 0.15508707 0.11824717 -0.042450577
000020 4f f2 f3 3d 43 55 d5 bd c6 6b 2c 3d 86 d8 f8 3d
       0.11911451 -0.10416653 0.04209497 0.121506736
000030 6e cd 17 3d b1 59 13 be 0c 26 9b 3d da 8f d2 3d
       0.037061147 -0.14389683 0.07575616 0.10281344
000040 b0 14 c5 3d b7 c2 ec bd 6b 12 ec bc 21 cb 16 3c
       0.096230865 -0.115605764 -0.028817376 0.009203703
000050 a7 48 ab bc 71 ee 2f bd 07 1a ad bd 9f e2 77 3d
       -0.020908667 -0.042952005 -0.0845223 0.060518857
000060 93 f1 a1 3d e3 27 6b bc d6 9d 05 3e 0f 14 1a bb
       0.07907405 -0.014352771 0.13048491 -0.002351049
000070 2b 47 12 3d b1 ed 88 3d b8 c3 ab bd 78 f5 fa bc
       0.035712402 0.06685961 -0.0838694 -0.030634627

rowAttentions.1.q_net.weight f4 [32, 32]
000000 6e f9 07 3e e5 5a 39 bc 8f f1 f9 3d 92 90 d1 3d
       0.13278744 -0.011313175 0.12204277 0.10232653
000010 70 da ce bc ef 93 96 bd d6 c2 be bd d8 d6 10 be
       -0.025250643 -0.07352435 -0.09314506 -0.14144456
000020 70 dc d5 bd f4 bd 38 3d ad ef 82 3d c4 1e 52 bd
       -0.10442436 0.04510303 0.06393371 -0.05129887
000030 2d ec 6e bc f0 b7 e5 3d e0 2e da 3c 93 a4 fb bd
       -0.014582676 0.11216724 0.02663368 -0.122872494
000040 6f da 17 3e ba 06 db 3d 7f 05 b5 3c 54 f2 ad 3d
       0.1482942 0.10694642 0.022097347 0.08493486
000050 35 14 18 be ef 5b cf 3d 10 aa 35 3d b2 f2 73 bc
       -0.14851458 0.10124957 0.044351637 -0.014889406
000060 76 e0 65 bd 1a a6 12 3e ef 42 1c 3d a3 b4 c8 bd
       -0.056122266 0.14321175 0.03814977 -0.09800079
000070 b8 5a a3 3d 1a 1d fa 3c a0 e8 7c bd fb 53 fc 3d
       0.079762876 0.030531455 -0.061745286 0.123207055
000080 86 e0 35 3e 74 6e ed bb 72 6d 95 bd da 48 c7 bd
       0.1776143 -0.007245833 -0.07296266 -0.09730692
000090 9a 18 be bd db f6 ba 3d 60 39 e5 3d e9 bb d6 bd
       -0.09282036 0.09129115 0.11192584 -0.1048506
0000a0 e1 cf c7 3d 64 22 52 3b dc b3 e3 bb ed a8 71 bd
       0.09756447 0.0032063955 -0.006948931 -0.05899899
0000b0 e2 b2 28 be d5 64 21 be 65 6f 05 3e f7 91 dc bc
       -0.16474488 -0.1576112 0.13030775 -0.02692507
0000c0 e9 18 30 bc 72 f3 d9 bd 91 7f 0c bd 0a 41 8a bd
       -0.010748127 -0.10642137 -0.034301344 -0.067506865
0000d0 5e 2d 85 3c 98 bb 32 be 8e 96 9e 3c 0f 9d 1e be
       0.016256984 -0.17454374 0.0193589 -0.154896
0000e0 fe 9a ff bd 1f 8e b5 bb 7f f3 6d bc 6d d3 43 bd
       -0.12480734 -0.005540624 -0.014523386 -0.047809053
0000f0 70 51 d3 3d 53 38 53 3c bb cb 2a 3d 39 b8 99 3d
       0.10318267 0.012891847 0.0416982 0.07505841
000100 58 79 34 3c 14 af 1f be 3c 9f 85 bd dd a1 e3 3d
       0.011015259 -0.15594131 -0.06524512 0.11114857
000110 00 48 d4 3d a5 04 80 3d 11 64 1f 3e ca a2 b9 bd
       0.103652954 0.06250886 0.15565516 -0.09064253
000120 5a 8f 51 bd 21 eb ea bc 89 d1 2e bd 10 63 1f 3e
       -0.0511621 -0.028676571 -0.042680297 0.15565133
000130 d6 61 35 be aa 6c 9c 3c 2f 75 31 3e 04 a3 c7 bd
       -0.17713103 0.019094784 0.17329858 -0.0974789
000140 2d ca 09 3e 7a 23 1b be 81 82 02 3d 06 ae ca bd
       0.1345603 -0.15150252 0.03186274 -0.098964736
000150 80 e5 6e 3d 6e 21 20 3d 1e f7 0b 3d 8f 32 1f bd
       0.058324337 0.03909438 0.034171216 -0.038866576
000160 f5 a9 5e bd d6 d1 2d be 5e 64 e0 3c 9e b7 2d 3e
       -0.054361302 -0.16974577 0.027391609 0.16964576
000170 4f c8 07 be cd c9 8c bd d8 42 46 3d cf b2 ba 3d
       -0.13260005 -0.06874428 0.04840359 0.09116136
000180 02 05 85 3d 47 ee eb 3d 24 ae b5 3c 16 f0 39 bd
       0.06495096 0.11520057 0.022177763 -0.04539498
000190 48 4f 15 be 13 f1 33 be 04 9f 09 be ba c3 b8 3d
       -0.14581025 -0.17572431 -0.13439566 0.09021707
0001a0 7a 33 22 3e ca 58 29 3e 13 3c 07 3e 50 d6 8d 3c
       0.15839949 0.16537777 0.1320651 0.017314106
0001b0 43 3a f6 3d 0f 9f 66 3d f1 8b f3 bd fd e1 02 bd
       0.12022831 0.056304034 -0.11891926 -0.0319538
0001c0 9f 61 2e be 36 56 1d 3e d9 85 1b 3d 94 68 26 3e
       -0.17029427 0.15364918 0.037969444 0.16250831
0001d0 1e d8 b1 bc 38 ea 0c 3e 9a cb ae 3d 8e b2 ab bc
       -0.021709498 0.13761222 0.08534928 -0.020959165
0001e0 9c 73 b5 bb e4 02 00 3e 21 82 c2 bc 6d 08 0e 3e
       -0.0055374634 0.12501103 -0.02374369 0.13870402
0001f0 06 22 1e 3d 6d 76 8f bd f9 6a 9c bd 7c 06 b1 bd
       0.038606666 -0.0700501 -0.07637591 -0.08643815
000200 1c f9 ea 3d be 06 0b 3e 9c e7 a9 bd d9 fb 2a be
       0.11473295 0.1357679 -0.08296129 -0.16697635
000210 b0 5d d6 3d e8 50 1d bd 21 0f 27 be 4e 14 1d 3d
       0.10467088 -0.038407236 -0.16314365 0.038349442
000220 89 be 90 bc 9d 5f fb 3d a2 10 19 3d e8 53 c7 bd
       -0.01766898 0.12274096 0.037369378 -0.09732801
000230 32 21 0b bd 4d 3b 15 be 98 05 ab 3d e2 e8 60 3d
       -0.033967204 -0.14573403 0.08350676 0.054909594
000240 7e 8f b1 3d 14 45 02 be 80 8d cd bd 4e da d9 bd
       0.08669947 -0.12721664 -0.100367546 -0.106373414
000250 8f 45 16 be 05 5d 2c be 55 bb 0d be cc 29 fd 3d
       -0.14674972 -0.16832359 -0.13840993 0.12361488
000260 07 f6 58 bd 0a 81 05 bd fe 84 5f 3d a9 ba 46 3d
       -0.052969005 -0.032593764 0.05457019 0.048517857
000270 42 cd a4 3d 48 e2 00 be e9 10 2c 3e 4d d1 76 bc
       0.08046962 -0.1258632 0.16803326 -0.01506455
000280 73 73 a9 bd 4b 2b ef 3d 28 18 18 be 2e 06 ea bd
       -0.08273973 0.11678179 -0.14852965 -0.1142696
000290 73 02 ca 3d 88 14 8d 3d 01 f1 8f bd b3 10 44 bc
       0.098637484 0.06888682 -0.0702839 -0.011966872
0002a0 4f 7f 15 bd c0 2d 85 3d a3 f2 07 3d c9 35 93 3d
       -0.036498364 0.06502867 0.03319038 0.07187993
0002b0 56 55 12 3e e8 3a 05 be 9f 62 08 be e5 fb 15 bd
       0.14290366 -0.13010752 -0.13318871 -0.03661718
0002c0 e8 57 b3 bd 97 fe fb bd 05 ba 20 3e e9 78 17 3e
       -0.08757001 -0.123044185 0.15695961 0.14792217
0002d0 d9 8e 0f 3e 19 b8 ef bd 58 cb 41 bc b8 34 0c be
       0.14019336 -0.11705036 -0.011828266 -0.13691986
0002e0 b2 73 83 bd cd c5 12 3e 6d 35 fc 3c a5 b5 81 3d
       -0.064185515 0.14333268 0.030787194 0.06333474
0002f0 ea fb 34 be a9 be 96 3d 35 f1 0a 3e 78 4a 83 bd
       -0.17674223 0.07360584 0.13568576 -0.06410688
000300 39 e8 09 3e d3 05 a5 3d 0e d7 03 be ff b9 0a be
       0.13467492 0.080577515 -0.12875006 -0.13547514
000310 aa 5d c1 3b e8 05 2d be ef c0 fb bd 91 73 91 3d
       0.005901058 -0.16896784 -0.122926585 0.07102121
000320 d8 32 6c bd 98 0b 1c bc 40 4f 92 bd 10 14 04 3e
       -0.057665676 -0.009524249 -0.07144022 0.12898278
000330 ce 43 12 3e a0 34 dc 3d c3 aa 20 be 71 ca 55 bd
       0.14283678 0.10752225 -0.1569014 -0.052195016
000340 02 9b 99 3d f2 81 db 3d 91 3c 20 bd 36 af c7 3d
       0.075002685 0.107181445 -0.03912026 0.09750216
000350 c4 c1 ac bb 40 48 83 3c 71 a2 02 3e e1 be f9 3d
       -0.005272122 0.016025662 0.12757279 0.121946104
000360 5b 82 fb bd fe 99 dc bd a5 66 80 3d 90 f1 dc 3d
       -0.12280723 -0.10771559 0.06269578 0.10788262
000370 27 92 28 bd c4 41 1f 3e 27 d6 93 bc c2 1e be bd
       -0.041155007 0.15552431 -0.018046452 -0.0928321
000380 22 cb 8d bc 69 16 18 be bf 55 61 3d aa c7 2b be
       -0.017308775 -0.14852299 0.055013414 -0.16775385
000390 2a 85 2b 3e 41 1a 08 be 3b a9 e8 3d ba 73 06 be
       0.16750017 -0.13291265 0.11360403 -0.13130084
0003a0 e8 b1 d5 bc c7 bc d0 bd 52 46 b9 3d 05 c3 e7 3d
       -0.026085809 -0.101922564 0.09046616 0.11316494
0003b0 3e bd 2b be e5 aa 29 be 89 30 c2 3c 76 43 89 ba
       -0.16771409 -0.16569097 0.023704784 -0.0010472375
0003c0 ff 05 5e bc 9a 4c 6a 3d d0 08 16 bd 91 5c 1a 3e
       -0.013551234 0.05720196 -0.036629498 0.15074374
0003d0 60 8c 4a 3c 6b 36 ac bd 8c 68 86 3d 5d 9b 0b be
       0.01236257 -0.08408817 0.065629095 -0.13633485
0003e0 8e 9c ac bd b2 91 50 3d 23 d0 91 bd 70 2e 2c be
       -0.08428298 0.050920196 -0.07119777 -0.1681459
0003f0 1a f9 b6 3d 75 ea 35 3d 51 fb 78 3d e6 a5 6f 3d
       0.08934231 0.04441305 0.06078655 0.058507822

rowAttentions.1.q_net.bias f4 [32]
000000 e3 66 18 3e 57 65 c7 bd 34 c5 9d bd 15 44 05 3e
       0.14882998 -0.09736126 -0.07703629 0.13014252
000010 d2 e3 a9 bc 7e fb fd bd 57 8b ab bd 0d 6f 01 3e
       -0.020738516 -0.12401484 -0.08376186 0.12640019
000020 3f 7d d8 bd db b8 63 3d e6 bb 19 be 9e 08 e4 3d
       -0.10570764 0.055596214 -0.15013084 0.11134456
000030 7f f0 4a 3d e0 2a f9 3d 7e 72 96 3b f6 50 b0 3d
       0.04954576 0.12166381 0.0045912853 0.08609192
000040 45 28 15 3e 44 1b 05 bd c1 4b 05 be 04 5a 04 be
       0.14566143 -0.032496706 -0.13017179 -0.12924963
000050 88 54 cb 3d d6 aa f3 bd 70 95 23 be 3f 20 19 be
       0.099282324 -0.11897819 -0.15974975 -0.14953707
000060 d9 6f b5 bd 8a 50 8d 3c de ef 46 be 92 90 ae bd
       -0.08859224 0.017250318 -0.1942744 -0.08523668
000070 86 55 22 3e f7 22 23 bd f6 03 8a bd c9 78 5b 3d
       0.15852937 -0.039828267 -0.06739037 0.053581987

rowAttentions.1.k_net.weight f4 [32, 32]
000000 9c f5 14 be 46 b2 0d be 71 0e d8 3c 3e 4b 73 3d
       -0.14546818 -0.13837537 0.026374074 0.05939793
000010 29 ee 30 be e8 b3 1f 3e dc 33 8a bd 08 af df 3c
       -0.17278351 0.15595973 -0.06748173 0.027305141
000020 4b 1a 03 3e bd 57 8c 3d 29 97 65 3d 8c 42 26 be
       0.12802999 0.06852672 0.05605236 -0.16236323
000030 4f 25 28 be 01 8d 75 3d 8d a4 c1 3b 56 d5 da 3d
       -0.16420482 0.059948925 0.0059095086 0.10685222
000040 38 2d b3 3d ef 21 11 be e4 d4 16 3d 3e f8 0d be
       0.08748859 -0.14173101 0.036824122 -0.13864228
000050 ac 98 c5 bd 10 cf 41 3d b1 48 2f bc 1a ab e5 bd
       -0.096482605 0.04731661 -0.010698483 -0.11214276
000060 41 dd 79 3d 5c 18 fd 3d 42 f7 34 be e1 c6 2a 3e
       0.06100202 0.12358162 -0.17672446 0.16677429
000070 3a 49 c8 3d 80 c8 87 bc e2 6e 35 be 76 b6 9b bd
       0.09779592 -0.016575098 -0.1771808 -0.07603161
000080 73 e8 5e 3d 9b 48 9a bd 7b 05 6c bd f4 56 99 bd
       0.0544209 -0.0753338 -0.057622414 -0.07487288
000090 20 26 1a 3e 87 ca 17 3e 24 f2 0d be d3 8d 5f bd
       0.15053606 0.14823352 -0.138619 -0.054578613
0000a0 ad 46 23 3e 2c c8 25 bc 6a d4 b0 bd 88 8d 75 3c
       0.1594493 -0.0101185255 -0.08634265 0.014987357
0000b0 37 a4 0f 3e cf f0 bf bc 05 56 29 be 6d 8c 6e bd
       0.14027487 -0.023430256 -0.1653672 -0.05823939
0000c0 bd fb c0 3d 8e ee e0 bc f7 17 fc 3d 05 b1 79 3d
       0.09423015 -0.027457502 0.123092584 0.060959835
0000d0 07 5a d7 3a b9 70 8b 3d d1 0d b2 bc c8 85 1b be
       0.0016430028 0.068086095 -0.021735104 -0.15187752
0000e0 e7 1b 1c be 7c 68 0e be 93 db cc bc aa d6 04 be
       -0.15245019 -0.13907045 -0.025007045 -0.12972513
0000f0 b3 63 d5 3c b5 9c ad 3c 29 ef 0d 3e fa 3f ff 3b
       0.026048517 0.021192888 0.13860764 0.007789609
000100 81 50 f9 3c e2 ee 81 3d 21 b2 49 bd d8 5e b2 bd
       0.030433895 0.063443914 -0.049242143 -0.08709496
000110 44 52 29 be 50 e3 2f be c3 e3 3f 3c 28 66 ac bd
       -0.16535288 -0.17176557 0.0117120175 -0.08417922
000120 7c 5d 4c 3d 8a f1 35 3d b4 c0 0d 3e 54 cd a7 bc
       0.04989384 0.044419803 0.13843042 -0.02048365
000130 55 51 02 39 3d d2 ef 3d 01 f9 f2 3c 86 ab a2 3d
       0.00012428065 0.11710022 0.02965975 0.07942872
000140 b4 45 c7 bd ad cb 02 be c7 e0 0a 3e ca 2f 01 3e
       -0.09730092 -0.12773009 0.13562308 0.12615886
000150 7c bb 87 bd 39 5a fc 3c 52 b5 20 be b8 c4 48 3c
       -0.06627557 0.03080474 -0.15694168 0.012253933
000160 21 31 27 be 17 4c d0 3d 4c 67 35 be d2 e2 2c bd
       -0.16327335 0.10170763 -0.17715186 -0.0422085
000170 1c 8d 29 3e cb 40 75 bd 2a f6 d8 bd bc 55 21 3e
       0.16557735 -0.059876245 -0.10593827 0.15755361
000180 cf 0c b8 bd 3e ac 1c 3d 72 69 c8 3d 3d 58 4f 3d
       -0.08986818 0.0382502 0.09785737 0.05062126
000190 b3 03 fb bd b7 30 24 3e 7a 3e ae 3d 0c bc e4 bd
       -0.12256565 0.16034208 0.0850801 -0.111686796
0001a0 2a 76 ce bd e3 ee 23 bd 84 d8 70 3d d7 aa 87 3d
       -0.10081132 -0.040022742 0.058800235 0.06624382
0001b0 2d c5 bd 3c 6b 5e f6 3d 71 b9 33 3e 84 a8 11 3d
       0.02316531 0.120297275 0.17551209 0.0355611
0001c0 06 a4 95 3d 6d 6c cd 3d 12 3d 19 3d 45 f7 29 3c
       0.073066756 0.10030446 0.037411757 0.010373895
0001d0 1f e2 22 3e d8 fc fc 3d 7d 39 df 3d 2e 9c 8c bd
       0.15906571 0.123529136 0.10899637 -0.068657264
0001e0 5f cf ae bd 3b 63 c4 bd 68 0f 19 be e0 3e 98 bc
       -0.08535647 -0.09589239 -0.14947283 -0.018584669
0001f0 d5 27 cb 3d 3b b4 d0 3c 42 76 82 bd b5 35 b9 bc
       0.09919707 0.025476566 -0.06370212 -0.022608617
000200 83 8b 09 be 10 bd e7 bd da 83 90 3c 7f b0 d3 bd
       -0.13432126 -0.11315358 0.017640997 -0.10336398
000210 36 05 b3 3c 31 a2 15 3e 12 ae 3b 3d 0b a3 0a 3e
       0.02185307 0.14612652 0.045820303 0.13538758
000220 86 04 e3 bd 06 c6 8e 3b 9f 0b 31 be 88 bc fc bb
       -0.11084847 0.0043571023 -0.1728959 -0.0077129044
000230 ba 8b 04 be 33 7b 27 3e 54 e3 1a be c8 dc 7b 3d
       -0.12943926 0.1635559 -0.15125781 0.06148985
000240 d0 1f e1 bd c9 c8 49 3d 99 b9 80 ba 32 88 b3 bc
       -0.10992396 0.04926375 -0.0009820937 -0.021915529
000250 72 b1 8b bd 60 d4 e4 3d c1 e7 f1 bc 64 69 77 3c
       -0.068209544 0.1117332 -0.029529454 0.015100811
000260 c5 25 58 bd 21 fd 03 be f2 5f 94 bd 58 2f 24 3e
       -0.052770395 -0.1288953 -0.072448626 0.16033685
000270 a8 db 2c 3e ea e6 a6 bd e1 3c 8b 3c f5 7b ec 3c
       0.16880667 -0.08149512 0.016996803 0.028867701
000280 bd 1b 1f 3e ff c2 c4 3c 6a 47 e2 3b 0a 02 51 bd
       0.15537925 0.024018763 0.006905486 -0.051027335
000290 f0 fd 10 3d 09 74 34 be 47 b9 34 be 09 43 a6 bc
       0.035398424 -0.17622389 -0.17648803 -0.020295637
0002a0 68 13 fe bd 9f 44 fb bd 1a 23 fd bc 5f b1 c7 3d
       -0.12406045 -0.12268948 -0.030900527 0.09750628
0002b0 a9 7b b2 3d 08 f8 51 bd f3 54 50 bc cd e1 28 3e
       0.087149926 -0.05126193 -0.012715566 0.16492386
0002c0 bb 41 2c 3d 7c fe f3 3d f8 ff 97 bd 7f 07 22 be
       0.042054873 0.119137734 -0.07421869 -0.15823172
0002d0 f9 32 a8 bd cc 37 89 3c b1 6c 44 bd 73 b5 c5 bd
       -0.08212847 0.016750239 -0.04795522 -0.09653749
0002e0 38 18 2d 3e 09 1e 28 be 58 e9 96 3b 2c 3d 8f 3d
       0.1690377 -0.16417708 0.0046054535 0.069940895
0002f0 6f 22 46 bd ee ca 9e 3d 9f 40 a3 3a 66 8f cf bd
       -0.048372682 0.077535495 0.0012455172 -0.10134773
000300 e6 7b c4 bd 21 be a2 bd 74 58 30 be ce b8 e3 3d
       -0.09593944 -0.079464205 -0.17221242 0.11119233
000310 d8 8f 28 3e 28 4d b8 bd 71 d7 18 3c 07 4d 72 3d
       0.16461122 -0.089990914 0.009328709 0.05915549
000320 be b3 52 3d b8 6f c9 bd 95 b4 d9 bd de 50 38 3e
       0.051440947 -0.09835762 -0.106301464 0.17999598
000330 9b 95 d1 3d d2 ea 1e 3e fd 3c fd 3d 2d e3 6d bc
       0.10233613 0.15519264 0.12365148 -0.014519495
000340 11 f7 f4 3d 60 58 87 bb 50 d8 c9 3a 06 54 9d bd
       0.11961187 -0.004130408 0.0015399549 -0.07682042
000350 0b 2d 0d 3e 90 bb 19 bd 59 25 eb 3c 3e ea 0f be
       0.13786714 -0.03753239 0.028704332 -0.140542
000360 11 9e 7d 3d d6 07 ab bd 77 8f 2c bd ec a5 7a bc
       0.061918322 -0.08351104 -0.042129006 -0.015298348
000370 6b a5 86 3d 64 45 bd 3b 23 b9 e4 3c e8 ab f2 bd
       0.0657452 0.0057760943 0.027920311 -0.11849195
000380 2d 8c 09 be 8d a8 82 3d 9f 91 96 bd f1 a0 20 be
       -0.13432379 0.06379805 -0.07351994 -0.15686394
000390 90 bb 95 bd e1 ea 31 be 86 08 0e 3d 9e 6a 5e 3c
       -0.07311165 -0.17374755 0.034676097 0.013575224
0003a0 db 8d 24 3e ce b8 ca bd b3 b4 bd bd 3b 26 4d 3d
       0.16069739 -0.0989853 -0.09262981 0.050085288
0003b0 1d 2e 44 bd ad ae 10 3e 2d 19 e0 3c 8f 2e 1d bb
       -0.04789554 0.14129134 0.027355755 -0.002398405
0003c0 05 0f 8d bd 0e 40 dc 3d 45 12 b2 bd ad a0 90 3d
       -0.068876304 0.10754405 -0.08694891 0.070618965
0003d0 3e d1 e4 3d 01 f2 0f be 8e f9 1a be 04 62 cd bd
       0.11172722 -0.14057161 -0.1513426 -0.100284606
0003e0 f8 fb ac 3d 30 0d cb bd 28 92 9c 3c 72 e1 d3 3c
       0.08446497 -0.09914625 0.019112661 0.025864337
0003f0 08 13 16 3d d5 72 b8 bd 04 6a 47 3c 14 6f fc 3d
       0.036639243 -0.090062775 0.012171272 0.12325874

rowAttentions.1.k_net.bias f4 [32]
000000 a3 ad 9f 3d 6e 52 6d 3c 16 fe 36 bb 08 d4 3b 3d
       0.077967905 0.014484985 -0.0027922443 0.045856506
000010 14 01 27 3e cc 8b 54 bc 3a ba b0 bd 65 27 00 be
       0.16309005 -0.012972783 -0.0862927 -0.12515028
000020 32 30 13 3e 13 86 23 be b7 41 a9 3d 05 66 1b 3e
       0.14373854 -0.15969114 0.08264487 0.15175636
000030 4a ff d2 3d 3c 9b bb 3b e2 e5 02 bd da 4d dd 3d
       0.10302599 0.0057252925 -0.031957515 0.10805865
000040 c2 5c b8 bd cc 7a 5d 3d 2b f2 3f bd 9a be cb 3d
       -0.09002067 0.054072186 -0.04686181 0.09948464
000050 b8 cb 26 bd a1 77 fe bd 26 72 8b bd 50 ff cf 3d
       -0.040721625 -0.12425161 -0.068088815 0.10156119
000060 9e 37 6d 3d 9d 2a f7 bd 57 ff f5 bd 71 df e0 bc
       0.05791437 -0.12068675 -0.12011593 -0.027450295
000070 ec 26 8b bc 4c ce 8a bd a3 8c f4 3d 29 63 73 3c
       -0.016986333 -0.06777629 0.11940887 0.014855185
