train/checkpoints/uduta8zd/u1ul5cmq.checkpoint.pt (torch, 540514 bytes, 159 tensors)

rowAttentions.0.q_net.weight f4 [32, 32]
0	0xbe29f3b8	-0.16596878
1	0x3d8b5877	0.06803983
2	0x3ddd8b6e	0.1081761
3	0xbe1648ad	-0.14676161
4	0x3c7b9fb2	0.015357899
5	0x3e1ee9d8	0.15518892
6	0x3c7964a2	0.015221747
7	0xbdcfc1f5	-0.10144416
8	0x3e1a6493	0.15077429
9	0x3d93e283	0.07220938
10	0x3dfa98c0	0.12236166
11	0xbe414a72	-0.18876055
12	0x3de69759	0.11259336
13	0xbe0d60ef	-0.13806508
14	0x3e2f29a3	0.17105727
15	0xbd84ede2	-0.06490685
16	0x3e074226	0.13208827
17	0x3d47fddf	0.048826095
18	0x3d52a337	0.051425185
19	0xbca3ecb6	-0.020010334
20	0x3d97aded	0.074062206
21	0xbd395d29	-0.04525486
22	0xbe20a98d	-0.15689678
23	0xbd633ced	-0.055478025
24	0x3de3f662	0.11130978
25	0xbd20e783	-0.039283287
26	0x3cd0fc15	0.025510827
27	0xbd6c7a80	-0.057734013
28	0x3e07694a	0.13223758
29	0x3dea21f6	0.11432259
30	0x3d27428a	0.04083494
31	0xbd8e6102	-0.069520965
32	0xbe0300a7	-0.12793218
33	0x3cc781ad	0.024353826
34	0xbdb76296	-0.08954351
35	0x3e1bf44f	0.15229915
36	0xbe2a7c87	-0.16649066
37	0x3db30c0a	0.08742531
38	0x3e3a339b	0.18183748
39	0x3dc3c740	0.09559488
40	0x3d8b6dc7	0.06808048
41	0xbe3a03f9	-0.18165578
42	0x3e35b302	0.17744067
43	0xbdb57bc2	-0.088614956
44	0xbe1e2e67	-0.15447389
45	0x3df43d14	0.11925712
46	0xbdb22c08	-0.086998045
47	0x3c4698c6	0.012121385
48	0x3e022f2e	0.1271331
49	0xbdd36ce2	-0.10323502
50	0xbdf248a5	-0.11830262
51	0x3d1dff68	0.038573653
52	0xbc99874e	-0.018741276
53	0x3d0b092b	0.03394429
54	0xbe397422	-0.18110707
55	0x3c9f2530	0.019426912
56	0xbd8a587b	-0.067551576
57	0xbd9ad2c7	-0.07559734
58	0xbe51b025	-0.2047735
59	0x3de1badf	0.11021971
60	0x3d1e7b13	0.03869159
61	0xbe0f77f3	-0.14010601
62	0x3dd585f3	0.104259394
63	0x3dbc3aa5	0.09190873
64	0x3d036b57	0.03208479
65	0xbde13493	-0.10996356
66	0x3cda266f	0.026629655
67	0x3e26506f	0.1624162
68	0x3e086187	0.13318454
69	0xbe144d96	-0.14482722
70	0x3e1ba00c	0.15197772
71	0x3bbdbbbb	0.0057902015
72	0x3d9dc2e7	0.0770319
73	0x3e332f15	0.17498429
74	0x3e11c115	0.14233811
75	0xbe24a4c1	-0.16078474
76	0x3e1a6682	0.15078166
77	0xbe29bd67	-0.16576158
78	0xbb9274e9	-0.004469503
79	0xbe02b256	-0.12763342
80	0xbd7e20dc	-0.062043056
81	0xbc3c6128	-0.011497773
82	0xbced7433	-0.028986072
83	0xbd0aac5c	-0.03385578
84	0x3b86a1ab	0.004108628
85	0x3e58cea9	0.21172585
86	0x3e3a9b14	0.1822322
87	0x3dc632ba	0.09677644
88	0x3d80e94c	0.06294498
89	0x3e25c394	0.16187888
90	0x3bf745d9	0.0075461683
91	0x3ca1eb46	0.019765507
92	0x3cc12413	0.023576772
93	0xbe240738	-0.16018379
94	0xbdd92e1d	-0.106044985
95	0x3b8e82d9	0.0043490943
96	0xbd7eb96e	-0.06218856
97	0x3a3593d3	0.00069266296
98	0xbd10d988	-0.035363704
99	0x3cd01af6	0.025403481
100	0x3df15c75	0.11785213
101	0xbd734259	-0.059389446
102	0x3e0db0f0	0.13837028
103	0x3e0cd0b5	0.1375149
104	0xbe0ce5c6	-0.13759527
105	0xbe053e18	-0.13011968
106	0xbe1426c8	-0.14467919
107	0xbe095004	-0.1340943
108	0xbd8b5f71	-0.068053134
109	0xbd8c05d8	-0.06837052
110	0xbd7ed4a4	-0.06221451
111	0xbd99255a	-0.07477827
112	0xbd96b828	-0.07359344
113	0xbd570659	-0.052496288
114	0x3e2f5dd6	0.1712564
115	0xbd84c277	-0.06482404
116	0xbe069479	-0.13142575
117	0x3da10a28	0.07863265
118	0x3d014c13	0.03156669
119	0x3e11bf0c	0.14233035
120	0x3de34aea	0.11098273
121	0x3e35f3d7	0.17768799
122	0xbe0ba52d	-0.13637228
123	0x3e0111db	0.12604468
124	0x3e11039b	0.14161532
125	0xbdb1b1aa	-0.08676465
126	0x3e2958d0	0.16537786
127	0x3e1b519c	0.1516785
128	0xbb09e712	-0.002104227
129	0x3da94d17	0.08266657
130	0xbd823549	-0.063578196
131	0xbe1e54ca	-0.15462032
132	0x3d2500f1	0.0402841
133	0x3d55e19d	0.052217115
134	0xbdee4a72	-0.11635293
135	0x3daecf61	0.08535648
136	0xbe1ae042	-0.1512461
137	0x3e1b747a	0.15181151
138	0x3e2e39f8	0.17014301
139	0x3d27e76c	0.040992185
140	0xbde67faa	-0.11254819
141	0x3dbcc833	0.092178725
142	0x3d12903c	0.035782084
143	0x3d4596fd	0.048239697
144	0x3d8efe19	0.06982059
145	0x3e0620c8	0.13098443
146	0xbd9cbc5c	-0.07653114
147	0xbd244383	-0.040103447
148	0x3d3fb8a2	0.04680694
149	0x3d5bbfb9	0.053649638
150	0x3e0aefd1	0.13568045
151	0xbdc1bf50	-0.09460318
152	0xbc54af56	-0.0129812565
153	0x3d0dbf01	0.034605984
154	0xbd52a4ac	-0.051426575
155	0x3dee8d51	0.11648048
156	0x3c818736	0.015811544
157	0xbe27f132	-0.16400602
158	0xbce3b176	-0.02779458
159	0xbd8c5b23	-0.068533204
160	0x3c7074cb	0.014676283
161	0xbca3d58f	-0.019999294
162	0xbe335fcf	-0.17517017
163	0xbcffbdd9	-0.031218456
164	0xbc581c05	-0.013190274
165	0xbd51b480	-0.05119753
166	0x3e271fde	0.1632075
167	0xbd1977f6	-0.03746792
168	0x3dec08a0	0.115250826
169	0x3d3eb150	0.046555817
170	0xbe183d68	-0.14867175
171	0x3ca8c425	0.020601342
172	0x3e15b39e	0.146193
173	0xbdfb6a45	-0.12276129
174	0xbddeb6e5	-0.10874728
175	0x3e2c917e	0.16852376
176	0x3e11f25d	0.1425261
177	0xbdd11080	-0.10208225
178	0x3ddbc54a	0.10730989
179	0xbcb8b98f	-0.022549419
180	0xbe323177	-0.17401682
181	0x3d197a4f	0.03747016
182	0x3d1d196f	0.038354333
183	0xbd5ce3d3	-0.053928208
184	0x3d8ea840	0.06965685
185	0xbe1cea08	-0.15323651
186	0x3e01aeaf	0.12664293
187	0x3e18deee	0.14928791
188	0x3dc473a5	0.0959237
189	0x3cf44023	0.029815739
190	0x3d60751b	0.05479918
191	0xbdf75fc2	-0.12078811
192	0xbd46caff	-0.048533436
193	0xbc9c7c2d	-0.01910218
194	0xbdcdc6c0	-0.10047674
195	0xbe0641ff	-0.13111113
196	0x3df6f39d	0.12058184
197	0x3df458d0	0.11931002
198	0xbe25a2d9	-0.16175403
199	0x3d643c2a	0.05572144
200	0x3d92e698	0.071728885
201	0x3e2d3885	0.16916092
202	0x3dcebcf1	0.100946315
203	0x3e117119	0.142033
204	0xbd748305	-0.059695262
205	0x3de4a730	0.11164701
206	0x3e1d4667	0.15358888
207	0xbe2eddb3	-0.17076759
208	0xbe05f60c	-0.1308214
209	0x3d02f857	0.031975117
210	0x3dc3ea64	0.09566191
211	0xbdb5b320	-0.08872056
212	0x3c92fb4e	0.017942097
213	0x3d0f1c20	0.03493893
214	0x3d12dbf4	0.035854295
215	0xbdc76cec	-0.09737572
216	0x3dd34762	0.103163496
217	0x3df28b9c	0.118430346
218	0xbde6a6c9	-0.112622805
219	0xbb5b8b7b	-0.0033499885
220	0xbb9fbba4	-0.0048746634
221	0x3d6328a6	0.055458687
222	0x3e2b0168	0.16699755
223	0x3d67e9c1	0.05661941
224	0xbd2ad1b3	-0.04170389
225	0x3e22d2e1	0.15900756
226	0xbd88ed28	-0.06685859
227	0xbd4c5752	-0.049887963
228	0x3c553dd2	0.013015227
229	0xbe0876df	-0.13326596
230	0x3ca71da3	0.020399874
231	0xbdf2935a	-0.11844511
232	0x3ca55fcf	0.020187287
233	0x3c96356e	0.018336024
234	0x3cd2d25e	0.025735077
235	0xbe262ea8	-0.16228735
236	0xbe2b5a4c	-0.16733664
237	0x3d954056	0.07287662
238	0x3e1fe7af	0.15615724
239	0xbe21c951	-0.15799452
240	0x3d875dd1	0.06609691
241	0xbe05e700	-0.13076401
242	0x3c4a17d7	0.012334785
243	0x3e29c144	0.16577631
244	0x3e0a291c	0.13492244
245	0xbde72b3e	-0.11287545
246	0x3dc1a4da	0.09455271
247	0x3dbd697b	0.092486344
248	0x3b84461d	0.0040366785
249	0x3e2fc09b	0.17163317
250	0xbd945e3d	-0.07244537
251	0xbd2a8720	-0.04163277
252	0xbdb94f74	-0.090483576
253	0x3cd7f79c	0.026363187
254	0x3d2758bb	0.040856104
255	0x3c9633f6	0.018335324

rowAttentions.0.q_net.bias f4 [32]
0	0x3d1ca963	0.038247477
1	0x3df11759	0.11772031
2	0x3d4559aa	0.048181213
3	0x3df00c01	0.117210396
4	0x3de893f6	0.11356346
5	0x3d47e6a7	0.04880395
6	0x3d812769	0.06306345
7	0x3d5feff2	0.05467219
8	0x3c837a18	0.01604943
9	0x3e1df60c	0.1542589
10	0x3e259f95	0.16174157
11	0x3d61d9a7	0.05513921
12	0xbc5efdb2	-0.01361029
13	0x3e1b3d0b	0.15160005
14	0xbe142a2c	-0.14469212
15	0x3df4045e	0.119148955
16	0x3dadddbc	0.08489558
17	0x3dcacff6	0.09902947
18	0xbcd2cfb2	-0.025733802
19	0xbdfc569f	-0.12321209
20	0x3dfd617a	0.12372108
21	0xbdc9893f	-0.09840631
22	0x3d2e11c7	0.042497423
23	0x3d9e831c	0.07739851
24	0xbe585125	-0.21124704
25	0x3ad7a52c	0.0016452423
26	0xbda4195f	-0.08012652
27	0x3e09c1ab	0.13452785
28	0xbdf11242	-0.117710605
29	0x3dd12b62	0.10213353
30	0x3dd2edd3	0.102992676
31	0x3dcab961	0.098986395

rowAttentions.0.k_net.weight f4 [32, 32]
0	0x3e314440	0.17311192
1	0x3ce6032c	0.028077684
2	0xbe1d24ce	-0.15346071
3	0x3e0754ec	0.13215989
4	0xbc2986dc	-0.010347094
5	0x3c1e3667	0.009656525
6	0xbe2607b5	-0.16213877
7	0xbd0a223f	-0.033724066
8	0xbda276e6	-0.07932834
9	0x3e29034d	0.16505165
10	0x3e0766d0	0.13222814
11	0x3ded302c	0.11581454
12	0x3e02a061	0.12756492
13	0xbdc4d9b6	-0.096118376
14	0xbd9036f9	-0.07041735
15	0xbd887d05	-0.066644706
16	0xbd30fb16	-0.043208204
17	0x3e12f8aa	0.1435267
18	0x3d86ba2f	0.065784805
19	0x3e17094a	0.14749637
20	0xbb47d0db	-0.0030489478
21	0xbe1ca873	-0.15298633
22	0xbdac6683	-0.0841799
23	0x3e053389	0.1300794
24	0x3db647b7	0.08900397
25	0x3d56130e	0.052264266
26	0xbda8c613	-0.08240905
27	0xbe289a54	-0.16465122
28	0xbdb7ea7a	-0.0898027
29	0x3dca3bd7	0.09874695
30	0xbdc88677	-0.09791272
31	0x3dc3ad38	0.09554523
32	0x3d60c499	0.05487499
33	0xbd5db14b	-0.054124158
34	0x3de97148	0.1139856
35	0xbd3dabd7	-0.046306457
36	0xbca6ef25	-0.020377705
37	0xbd6a2d25	-0.05717196
38	0xbe1f6311	-0.15565135
39	0x3d206831	0.039161865
40	0x3d7e48b1	0.062081043
41	0xbdc547d1	-0.096328385
42	0x3df3e723	0.1190932
43	0xbe772725	-0.24136026
44	0xbe284f03	-0.1643639
45	0xbe213496	-0.15742716
46	0xbd50bece	-0.050963216
47	0xbb7e6be5	-0.0038821634
48	0xbd0eb4fb	-0.034840565
49	0x3db2ab59	0.08724088
50	0xbe145fd9	-0.14489688
51	0x3d119a33	0.035547446
52	0x3c542d71	0.012950287
53	0x3ce17fc7	0.02752675
54	0x3e162b6a	0.14664999
55	0x3df0ab70	0.11751449
56	0xbd7c1c92	-0.061550684
57	0xbe24c0e4	-0.16089207
58	0xbd828ce1	-0.06374527
59	0xbda49c62	-0.0803764
60	0x3d8e1ffd	0.06939695
61	0x3c2c0514	0.010499258
62	0x3dee7603	0.11643603
63	0x3dacc931	0.08436812
64	0xbd1bd4d1	-0.038044754
65	0xbb7e171e	-0.0038771103
66	0x3d047b6b	0.032344263
67	0xbcfc899e	-0.03082734
68	0x3e2ea8ed	0.17056628
69	0xbe16dd89	-0.14732946
70	0x3d9a5d71	0.07537354
71	0xbdf947e9	-0.12171919
72	0xbe2881bc	-0.1645574
73	0xbcd0d89d	-0.025493914
74	0x3d9ced42	0.07662441
75	0x3e478ec3	0.19488053
76	0x3d193432	0.037403293
77	0x3ca9258d	0.020647788
78	0xbc80c0be	-0.015716907
79	0xbdb5ecc9	-0.08883054
80	0xbcd81f53	-0.026382124
81	0xbcc3e3f8	-0.023912415
82	0x3e1145fb	0.14186852
83	0x3dc21dd7	0.09478348
84	0xbe189da9	-0.14903893
85	0x3c2714c6	0.010197824
86	0xbd83d62e	-0.06437336
87	0xbd1f2da1	-0.038861874
88	0xbe2592e5	-0.16169317
89	0x3d4faf23	0.050704133
90	0xbdd24ec2	-0.10268928
91	0x3e28dd3d	0.16490646
92	0x3e02a40c	0.12757891
93	0xbe056fc8	-0.13030922
94	0xbe0fd600	-0.14046478
95	0xbc6947c6	-0.0142383035
96	0xbd40a926	-0.047036313
97	0x3d4905b3	0.0490777
98	0xbdf59af5	-0.11992446
99	0x3d8f719b	0.070040904
100	0xbe240ad0	-0.1601975
101	0xbdc3a723	-0.09553363
102	0xbdc5ad49	-0.09652192
103	0x3daa5b92	0.08318247
104	0xbbf3de21	-0.0074422513
105	0xbe36d308	-0.1785394
106	0xbdd3754b	-0.10325106
107	0xbd960cb7	-0.07326644
108	0xbe28f65f	-0.16500233
109	0x3d07f403	0.033191692
110	0x3d614684	0.05499889
111	0xbcf24b33	-0.029576873
112	0xbdaa98b0	-0.08329904
113	0x3b82295b	0.003972215
114	0xbe1229b5	-0.14273722
115	0xbddf11bc	-0.108920544
116	0xbbdbf177	-0.0067121345
117	0x3e28b0c0	0.16473675
118	0xbcf0a17a	-0.029373873
119	0x3db8607c	0.09002778
120	0xbda758d7	-0.08171242
121	0xbd088564	-0.033330336
122	0xbe288157	-0.16455589
123	0x3e19d840	0.15023899
124	0x3e2d4453	0.16920595
125	0xbb9fba0b	-0.004874473
126	0x3dde69fc	0.10860059
127	0x3e160627	0.14650784
128	0x3db2aca1	0.087243326
129	0x3db850d8	0.08999795
130	0xbe2d3bde	-0.16917369
131	0xbe2a578d	-0.1663496
132	0xbe0dc75c	-0.13845581
133	0x3d61e5d1	0.05515081
134	0xbe1cb4f2	-0.153034
135	0xbe0a68d1	-0.13516547
136	0xbdb01e9a	-0.08599587
137	0xbe27d3ce	-0.16389391
138	0xb8e31634	-0.00010828339
139	0x3cd86ebd	0.026419992
140	0xbdd4fa9f	-0.10399365
141	0x3df88653	0.12134995
142	0xbd896e25	-0.067104615
143	0xbd46578f	-0.048423346
144	0x3e0e3379	0.13886823
145	0x3e1aa3b4	0.1510151
146	0xbca7d5b1	-0.020487638
147	0xbe01d653	-0.12679414
148	0xbdb63594	-0.08896938
149	0x3cd999f4	0.026562668
150	0x3dda92c9	0.10672528
151	0x3db474ef	0.08811366
152	0xbdaa26c1	-0.08308173
153	0xbe2a20cf	-0.16614078
154	0xbe208361	-0.15675117
155	0xbd68e081	-0.05685473
156	0x3ad51158	0.0016255779
157	0xbda247fe	-0.07923888
158	0xbe11aabb	-0.14225285
159	0x3ca34c97	0.019933982
160	0xbe0f61ed	-0.140022
161	0xbe0afbc5	-0.13572605
162	0xbe120e65	-0.14263304
163	0xbd40f6be	-0.04711031
164	0x3e21ae72	0.15789202
165	0x3d8ee622	0.06977488
166	0xbca7c1a7	-0.020478083
167	0x3d1848ba	0.037178732
168	0x3d9233d1	0.071387894
169	0x399b3d00	0.00029609352
170	0xbe1127da	-0.14175358
171	0xbdec08df	-0.115251295
172	0xbdf55fef	-0.119811885
173	0xbc17da31	-0.0092683295
174	0xbe23957c	-0.15974993
175	0xbd1109ee	-0.03540986
176	0xbd7fe49a	-0.06247387
177	0x3e316b0f	0.17325996
178	0x3e13f7a1	0.14449932
179	0x3dd30350	0.10303366
180	0x3c2e0c0c	0.010622989
181	0xbd68f25b	-0.056871753
182	0x3d281e9d	0.04104482
183	0xbdf951cc	-0.12173805
184	0xbd9a0b67	-0.07521706
185	0xbd109691	-0.03529984
186	0xbd122a68	-0.035684973
187	0xbe2b4dfe	-0.1672897
188	0x3d8f8837	0.07008403
189	0x3e15750d	0.14595433
190	0xbdc82afb	-0.09773823
191	0x3d33f6ff	0.043936726
192	0xbca9a7ec	-0.020709954
193	0xbbad6999	-0.0052921292
194	0x3c27b1a9	0.010235229
195	0x3e1d6f6e	0.15374538
196	0x3cb2f30e	0.021844413
197	0xbde3b9cd	-0.11119423
198	0xbd804ce7	-0.06264668
199	0x3db217bc	0.08695933
200	0x3d644f56	0.055739723
201	0x3c0eef50	0.008724049
202	0xbcbc0f8c	-0.022956632
203	0xbd94ef8e	-0.07272254
204	0xbd80f26a	-0.06296237
205	0xbdc25041	-0.094879635
206	0x3cf1d652	0.029521141
207	0x3d533b5a	0.051570274
208	0x3e089028	0.13336241
209	0xbd2554d5	-0.040364105
210	0x3c579c78	0.013159864
211	0x3deb8834	0.11500588
212	0x3d9d6dad	0.076869346
213	0x3caa68c4	0.02080191
214	0x3d46c673	0.0485291
215	0x3c21a41c	0.009865787
216	0xbe1493df	-0.14509533
217	0x3b4643a6	0.0030252724
218	0xbd3d6e18	-0.04624757
219	0x3e23f3ca	0.16010967
220	0x3e22fc21	0.15916492
221	0x3d125c4a	0.035732545
222	0x3e22d829	0.15902771
223	0xbdadca20	-0.08485818
224	0x3e1e0e4b	0.1543514
225	0x3e1bf6ab	0.15230815
226	0xbbd0071d	-0.006348504
227	0xbe11eaec	-0.14249772
228	0xbd638bdd	-0.055553306
229	0xbd448ef5	-0.047987897
230	0x3b09dc90	0.0021036007
231	0xbe24d2ba	-0.16096011
232	0x3d02fa42	0.031976946
233	0xbd9b2e51	-0.075771935
234	0xbd3af37e	-0.04564237
235	0xbda7ef26	-0.08199911
236	0xbd153e3e	-0.036436312
237	0xbe286316	-0.16444048
238	0xbdc4278f	-0.09577858
239	0x3c890a01	0.016728403
240	0x3de4bb35	0.111685194
241	0x3e2645fd	0.16237636
242	0xbe0994d8	-0.13435686
243	0x3d9697cc	0.07353172
244	0xbdcc0c39	-0.09963269
245	0xbe0e9184	-0.13922697
246	0xbb02bac8	-0.0019947756
247	0xbdd1282c	-0.1021274
248	0xbe1e9cc0	-0.15489483
249	0xbe270353	-0.16309862
250	0xbdf25a4a	-0.118336275
251	0x3e14e849	0.14541735
252	0x3dcd03ce	0.10010491
253	0xbd90cdd0	-0.070705056
254	0xbdf22ebc	-0.1182532
255	0xbe0f2b3b	-0.13981335

rowAttentions.0.k_net.bias f4 [32]
0	0xbdb7db25	-0.089773454
1	0x3e0990c1	0.13434125
2	0x3e0fd9e8	0.14047968
3	0x3e264e14	0.16240722
4	0xbe2f3d8e	-0.17113325
5	0x3ab3b8a2	0.0013711641
6	0xbd757354	-0.05992444
7	0x3d31567d	0.043295372
8	0xbe103caf	-0.14085649
9	0x3da6d983	0.08146956
10	0xbc5df9ad	-0.013548297
11	0xbdb0441f	-0.08606743
12	0xbe20b1cb	-0.15692823
13	0x3db48949	0.088152476
14	0xbd732e47	-0.059370305
15	0x3e028cf9	0.1274909
16	0x3c9466f1	0.018115493
17	0x3d6e484d	0.05817442
18	0xbcc3e579	-0.023913132
19	0xbca7f318	-0.020501658
20	0xbd7981d6	-0.060914837
21	0xbe17aa75	-0.14811118
22	0x3de5d6ed	0.112226345
23	0xbdfa4280	-0.12219715
24	0x3da2564d	0.07926617
25	0xbd6b77be	-0.057487242
26	0x3e03ef59	0.12884273
27	0x3e1ca42f	0.15297006
28	0xbde8c2a7	-0.11365252
29	0x3e13258a	0.14369789
30	0x3af299aa	0.001850893
31	0xbe0af26f	-0.13569044

rowAttentions.0.v_net.weight f4 [32, 32]
0	0x3d929953	0.071581505
1	0x3dcc107c	0.09964082
2	0x3e1422e4	0.14466435
3	0xbe248d3c	-0.16069502
4	0x3e61b451	0.22041442
5	0x3e107c48	0.1410991
6	0x3e2fe8da	0.1717867
7	0x3dd40191	0.10351861
8	0xbda1a1f6	-0.0789222
9	0x3e4cbad0	0.19993138
10	0x3e2a6501	0.16640092
11	0x3b9962e8	0.00468098
12	0xbc9bb9f5	-0.01900957
13	0x3e1e571f	0.15462922
14	0x3e1c66c7	0.15273581
15	0x3dec3fea	0.11535628
16	0x3d4ad192	0.049516268
17	0xbd8c673e	-0.068556294
18	0xbcbd30ba	-0.023094524
19	0xbd8fee2e	-0.07027851
20	0x3dc24580	0.09485912
21	0x3d780773	0.06055398
22	0xbe85e5d7	-0.26151916
23	0xbcfc1008	-0.030769363
24	0xbe534564	-0.20631939
25	0xbe1ee698	-0.15517652
26	0x3e10bde1	0.14134933
27	0xbd9d1d19	-0.076715656
28	0x3d967690	0.07346833
29	0xbd0a1d41	-0.033719305
30	0xbd1b7b3d	-0.037959326
31	0xbd3c4e8e	-0.045973353
32	0x3e180d55	0.14848836
33	0xbd009ed8	-0.031401485
34	0x3e1ec3d8	0.15504396
35	0x3df95a20	0.12175393
36	0x3d8af9e5	0.06785945
37	0xbe1247dd	-0.14285226
38	0xbd5b22e1	-0.05350006
39	0xbe000a25	-0.1250387
40	0xbc8b9b89	-0.017041938
41	0x3d90596d	0.070483066
42	0x3d4c4ed9	0.049879882
43	0x3dea08ea	0.114274815
44	0x3da1bd25	0.078974046
45	0xbe1b4368	-0.15162432
46	0xbe1e7af6	-0.15476593
47	0x3dfdc8ee	0.1239184
48	0xbcb0ec6a	-0.021597106
49	0x3d175fa0	0.03695643
50	0xbd9d9d51	-0.07696021
51	0xbcd137ed	-0.025539363
52	0x3d902252	0.07037796
53	0xbe376af2	-0.1791189
54	0xbcb4ab00	-0.022054195
55	0x3db8c5a5	0.09022073
56	0xbd534616	-0.05158051
57	0xbd5ee74f	-0.05441981
58	0xbdace526	-0.08442144
59	0x3d0b748a	0.034046687
60	0xbd07137e	-0.032977574
61	0x3e3729ce	0.17887041
62	0xbda330b5	-0.079682745
63	0xbe068d16	-0.13139758
64	0xbe06fe7e	-0.13183019
65	0x3cc22ca5	0.023702929
66	0x3cc4985e	0.023998436
67	0xbd4493ab	-0.04799239
68	0x3dff04b3	0.12452068
69	0xbe150a71	-0.14554764
70	0x3d9f327a	0.077732995
71	0xbdc15c2d	-0.09441409
72	0xbcd292dc	-0.025704794
73	0xbe2abcd8	-0.166736
74	0xbe0769e1	-0.13223983
75	0xbdd07dd5	-0.101802506
76	0x3d8d5961	0.06901813
77	0xbe10253b	-0.14076702
78	0x3d52c121	0.051453713
79	0xbdb05780	-0.08610439
80	0xbe5b002e	-0.21386787
81	0x3b017062	0.0019750823
82	0x3e19045d	0.1494307
83	0xbd5526e2	-0.052039035
84	0x3dd2d200	0.102939606
85	0x3d8643e0	0.06555915
86	0x3dcba878	0.09944242
87	0x3ddd933f	0.108191006
88	0x3e14e2b9	0.14539613
89	0xbca59019	-0.020210313
90	0x3dadf98c	0.08494863
91	0x3dafbb03	0.085805915
92	0x3da08206	0.078373
93	0xbbdf5c38	-0.0068164133
94	0x3e0fd197	0.14044796
95	0xbe0e4547	-0.13893615
96	0x3dcd5b5d	0.10027192
97	0xbca92a4a	-0.020650048
98	0xbdcea5fc	-0.10090253
99	0xbda9267d	-0.08259294
100	0xbde3146c	-0.110878795
101	0x3d401c3c	0.046901926
102	0xbdc33957	-0.09532421
103	0xbd407955	-0.04699071
104	0x399d4707	0.00029998293
105	0xbdcce6dd	-0.10004971
106	0x3c211501	0.009831668
107	0xbd9effda	-0.077636436
108	0x3d764bea	0.06013099
109	0x3d970e68	0.07375795
110	0xbdb8d702	-0.090253845
111	0x3defd3db	0.1171033
112	0xbdd171aa	-0.10226758
113	0xbdd70cce	-0.10500489
114	0xbda13126	-0.078707024
115	0x3d564153	0.05230839
116	0x3d10c34d	0.035342503
117	0xbcfa24d8	-0.030535147
118	0xbd4299eb	-0.04751007
119	0x3ddefe41	0.10888339
120	0x3d63111f	0.05543625
121	0xbe67457e	-0.22585103
122	0xbdb4b5a6	-0.08823709
123	0xbc819ca0	-0.015821755
124	0xbdc03ba0	-0.093863726
125	0xbdb8f659	-0.09031362
126	0xbe0e2ecf	-0.13885044
127	0x3e799196	0.24371943
128	0xbe1dae39	-0.15398492
129	0x3e27c05a	0.1638197
130	0xbe0c2647	-0.13686477
131	0xbd2b745e	-0.041859023
132	0xbd8f09f8	-0.06984323
133	0xbdbf8ba0	-0.09352803
134	0x3d81649e	0.06318019
135	0x3dd3be86	0.10339074
136	0xbdedf1dd	-0.116183974
137	0xbd920a3a	-0.07130857
138	0x3dbba8e1	0.091630705
139	0xbd457afb	-0.048212986
140	0x3d2cb62f	0.04216593
141	0x3dc00f3e	0.09377907
142	0xbd90263a	-0.07038541
143	0xbdc1121a	-0.09427281
144	0x3dadd9fb	0.08488842
145	0xbd7b9f6a	-0.061431326
146	0xbdef5673	-0.11686411
147	0xbdb2862f	-0.08717
148	0xbda4d5de	-0.080486044
149	0x3e29eced	0.16594286
150	0x3bb01b22	0.0053743282
151	0x3da02e52	0.07821335
152	0x3cc1ae85	0.023642788
153	0xbde2590b	-0.1105214
154	0x3dc5a3b8	0.096503675
155	0xbca41e26	-0.020033907
156	0xbd371fc9	-0.044708047
157	0x3e14abc9	0.14518656
158	0xbdabfa8f	-0.083974
159	0x3d4c4761	0.04987276
160	0xbe1a0b05	-0.15043266
161	0x3dc84ae7	0.097799115
162	0x3d9d99f9	0.076953836
163	0xbe21ed21	-0.15813114
164	0x3de547bf	0.11195325
165	0x3c21c919	0.009874606
166	0xbdcd5d08	-0.1002751
167	0x3e0ce4aa	0.13759103
168	0x3d728651	0.059210125
169	0x3da03306	0.07822232
170	0xbd9a2a89	-0.07527644
171	0xbda4b97a	-0.08043189
172	0xbdc8ef77	-0.09811299
173	0x3d975cd3	0.07390752
174	0x3cbb9560	0.022898376
175	0xbdbe7f4c	-0.09301624
176	0x3e3746a1	0.17898037
177	0x3dd5d368	0.10440713
178	0xbda0eab4	-0.07857266
179	0x3dcb8212	0.09936918
180	0xbdab406f	-0.08361899
181	0x3d81a098	0.06329459
182	0x3e1624fb	0.14662544
183	0xbe18b0b9	-0.14911164
184	0xbd849ebe	-0.0647559
185	0xbc2f4a81	-0.010698915
186	0x3bf31b47	0.007419023
187	0xbe1bd0a7	-0.15216313
188	0xbe00b627	-0.12569486
189	0xbcc98c80	-0.024603128
190	0xbc9a0628	-0.018801764
191	0x3d6721fe	0.0564289
192	0x3c22cddf	0.009936779
193	0x3d2daed1	0.042403046
194	0x3cc66ba7	0.024221255
195	0x3c21da0f	0.009878649
196	0x3b8189d1	0.0039531966
197	0x3d5eebbc	0.054424033
198	0x3df2f7ee	0.11863695
199	0xbdc9d8e9	-0.098558255
200	0xbdc64b1a	-0.09682293
201	0x3d82b02f	0.063812606
202	0xbe099658	-0.13436258
203	0x3e130945	0.14359005
204	0x3d9ac6af	0.07557427
205	0xbce43692	-0.027858052
206	0xbd904db3	-0.0704607
207	0x3b701d62	0.0036638607
208	0xbe2b1f12	-0.16711071
209	0xbe2a8017	-0.16650425
210	0x3e221018	0.15826452
211	0xbe237306	-0.15961847
212	0xbe1b3017	-0.15155064
213	0xbd9d8358	-0.076910675
214	0x3d4e6a52	0.050394364
215	0x3d0cf2fd	0.03441142
216	0xbcdbd373	-0.026834225
217	0xbd00bebf	-0.03143191
218	0xbcee4d3c	-0.029089563
219	0x3e22b09c	0.15887684
220	0x3e149e71	0.14513566
221	0x3d81d451	0.06339324
222	0x3d08a890	0.03336388
223	0x3e09a621	0.1344228
224	0xbe07238a	-0.13197151
225	0x3d91d218	0.0712015
226	0xbdedb286	-0.11606316
227	0x3e1db306	0.15400323
228	0xbe2f19e5	-0.17099722
229	0x3d9cf546	0.0766397
230	0xbe093f2e	-0.13403007
231	0x3df4f38e	0.11960517
232	0x3d43e639	0.04782698
233	0x3e12b937	0.14328466
234	0xbdfaaa3c	-0.12239501
235	0x3df612df	0.12015318
236	0xbde19998	-0.11015624
237	0xbdcf6317	-0.10126322
238	0x3dad876c	0.08473095
239	0xbd4bf3a3	-0.049792897
240	0xbe0814f0	-0.13289237
241	0xbe15aacf	-0.1461594
242	0xbd00c377	-0.03143641
243	0x3d2665b8	0.04062435
244	0x3e2c7d9d	0.16844793
245	0x3df73480	0.120705605
246	0xbd6b8085	-0.057495613
247	0xbdfc0fce	-0.12307702
248	0xbe4a5413	-0.19758634
249	0x3e3ae7f3	0.18252544
250	0xbda24e84	-0.07925132
251	0xbd1f5056	-0.038894974
252	0xbdf9cd81	-0.121974
253	0xbde63133	-0.11239853
254	0x3ccb8050	0.024841458
255	0xbd97fe9e	-0.07421611

rowAttentions.0.v_net.bias f4 [32]
0	0xbde45ab3	-0.11150112
1	0x3e07b14c	0.13251227
2	0x3cc060c5	0.023483643
3	0xbc4ed589	-0.012624153
4	0xbe3109a2	-0.17288831
5	0x3e13d03b	0.14434902
6	0xbdf3ea12	-0.1190988
7	0x3dbff342	0.093725696
8	0xbc3fa054	-0.01169594
9	0x3c9b8302	0.018983368
10	0x3d87f44a	0.06638391
11	0xbd6ad5e0	-0.057332873
12	0xbd33c4bb	-0.04388879
13	0x3e0a1d4b	0.13487737
14	0xbe0a5a2b	-0.13510959
15	0x3db044ae	0.086068496
16	0xbd298499	-0.04138622
17	0xbd7bbd94	-0.061460093
18	0x3df40a77	0.119160585
19	0x3d49c5ed	0.049261022
20	0xbe2492ed	-0.16071673
21	0x3e377337	0.17915045
22	0xbd9544ab	-0.07288488
23	0x3e2f0ac8	0.17093956
24	0xbdb9d9e6	-0.09074764
25	0x3e33838b	0.17530648
26	0x3d8a9736	0.067671224
27	0xbcac2b1f	-0.021016655
28	0x3d92cedb	0.07168361
29	0xbb27a554	-0.002558072
30	0xbdb11757	-0.0864703
31	0x3ddfb29b	0.10922738

rowAttentions.0.proj_net.weight f4 [32, 32]
0	0x3df837e2	0.12120034
1	0xbd3cdb87	-0.046107795
2	0x3e138a36	0.14408192
3	0xbc3b17ad	-0.011419219
4	0xbda8c796	-0.08241193
5	0xbd9f8d1b	-0.077905856
6	0x3de96cf8	0.11397737
7	0xbd7d758f	-0.06187969
8	0x3dc70932	0.09718551
9	0xbe3ceaab	-0.18448894
10	0xba83794e	-0.0010030658
11	0xbdc72d57	-0.09725445
12	0x3d3a9a23	0.045557152
13	0x3e0b613f	0.13611315
14	0x3d6ca478	0.057774037
15	0xbd81692d	-0.06318889
16	0xbe226211	-0.15857722
17	0xbdaaa0ce	-0.08331452
18	0xbdf1d7fd	-0.118087746
19	0x3e1046a6	0.1408945
20	0xbdd9622b	-0.10614427
21	0x3d86c2d9	0.06580133
22	0x3e2440b5	0.16040309
23	0x3d67a801	0.056556705
24	0xbe1b4e21	-0.15166523
25	0xbd6e8a82	-0.05823756
26	0xbd08ddfb	-0.033414822
27	0x3dd4c6c4	0.10389474
28	0xbc8dc1a4	-0.01730425
29	0x3b19e85d	0.0023484447
30	0x3e1c0ee5	0.15240057
31	0x3d461636	0.048361026
32	0x3d7cfe44	0.061765924
33	0xbccc45a0	-0.024935544
34	0x3e01ed3a	0.12688151
35	0x3ccc24d9	0.024919914
36	0xbd4dd0de	-0.05024802
37	0x3c634aba	0.013872797
38	0xbe080926	-0.1328474
39	0x3ba2c6b2	0.004967534
40	0x3da9fd9b	0.083003245
41	0xbe238ea8	-0.15972388
42	0xbdc61bca	-0.09673269
43	0x3dcdfca2	0.100579515
44	0x3ca64642	0.020297173
45	0xbb21feb0	-0.0024718456
46	0x3d0b64b2	0.034031577
47	0xbdaa7bed	-0.08324418
48	0x3e0448e5	0.12918432
49	0xbcce04b0	-0.02514872
50	0xbd8a9eb6	-0.06768553
51	0x3d9b5688	0.07584864
52	0xbe15063f	-0.14553164
53	0xbca3de2f	-0.020003406
54	0x3cd00e72	0.025397513
55	0xbd5bcd4c	-0.053662583
56	0x3dad542a	0.08463319
57	0xbe1898ea	-0.14902082
58	0xbd7a3fdd	-0.06109606
59	0xbd860ce5	-0.06545428
60	0x3e246f93	0.16058187
61	0x3d93ac1f	0.07210564
62	0xbdf3ad8e	-0.11898337
63	0x3d655621	0.055990342
64	0xbbdcd2c7	-0.006738994
65	0x3e2473a6	0.16059741
66	0x3d9b819e	0.07593082
67	0xbde0f4d8	-0.109842
68	0x3e1f2a07	0.15543376
69	0xbd4b2188	-0.049592525
70	0xbd0496b8	-0.0323703
71	0x3d8e9d2e	0.069635734
72	0x3e315653	0.17318086
73	0x3d4420b7	0.04788276
74	0xbe24e496	-0.16102824
75	0xbd96295d	-0.07332108
76	0x3e272ec4	0.16326433
77	0xbdbffb6e	-0.09374128
78	0xbd8129c9	-0.06306798
79	0xbe180225	-0.14844568
80	0xbde63efa	-0.112424806
81	0xbdc0b631	-0.0940975
82	0x3ae59398	0.00175153
83	0x3d1ddd87	0.038541343
84	0x3e32e196	0.17468867
85	0x3e0d7a73	0.13816242
86	0x3cd05518	0.0254312
87	0x3dc4343d	0.09580276
88	0x3dbd4c65	0.09243087
89	0xbe1a1e8d	-0.15050717
90	0x3db64d9c	0.089015216
91	0xbdd1419d	-0.10217593
92	0x3e0e14e4	0.13875157
93	0xbd845b11	-0.06462682
94	0x3d081688	0.033224612
95	0x3accdfcd	0.0015630663
96	0x3e03fef4	0.12890226
97	0x3c01f932	0.007932948
98	0xbe1abd7a	-0.15111342
99	0x3de18b6c	0.11012921
100	0x3dd0d625	0.10197095
101	0xbdcefef4	-0.10107222
102	0xbdeceed6	-0.11568992
103	0xbe0189b7	-0.1265019
104	0xbd615168	-0.055009276
105	0xbc907571	-0.017634125
106	0x3cad202e	0.021133509
107	0xbcf8165b	-0.030284097
108	0xbd8a95d9	-0.067668624
109	0x3decf5b3	0.11570301
110	0x3cb0180f	0.021495847
111	0xbdd2f993	-0.10301509
112	0xbca2e066	-0.019882392
113	0xbdc8f4a2	-0.09812285
114	0xbc30dc5f	-0.010794728
115	0xbe0d60ce	-0.1380646
116	0x3c15b076	0.00913631
117	0xbe0361ac	-0.12830228
118	0x3d89f031	0.06735266
119	0x3e1f2c40	0.15544224
120	0xbe0420ad	-0.1290309
121	0xbd9337ad	-0.07188354
122	0xbe065b11	-0.13120677
123	0x3cdda23f	0.027054904
124	0x3d0ff28c	0.03514342
125	0xbdbcf028	-0.09225494
126	0x3dee9604	0.11649707
127	0x3d653197	0.055955496
128	0xbe45ba76	-0.1930941
129	0xbcc83829	-0.024440842
130	0xbd95bbe1	-0.07311226
131	0x3bf10db8	0.0073563717
132	0x3dd1d179	0.10245032
133	0xbd07ef0a	-0.03318695
134	0xbde896bb	-0.113568746
135	0x3e072b6b	0.13200156
136	0xbe23c792	-0.15994099
137	0xbd435770	-0.04769081
138	0x3dbd3ec4	0.09240487
139	0x3df3abc7	0.11897998
140	0x3e43655d	0.19081636
141	0xbd3b46ad	-0.0457217
142	0x3d6aa40d	0.057285357
143	0xbe2350c6	-0.15948781
144	0xbd798cdc	-0.06092535
145	0xbd69829c	-0.057009324
146	0x3d7a6ffd	0.061141957
147	0xbdd6e0f0	-0.10492122
148	0x3d4c56e8	0.049887568
149	0x3da89a4d	0.082325555
150	0x3deb7b92	0.114981785
151	0xbd50622e	-0.05087488
152	0x3e31c021	0.17358448
153	0xbe3cc7f6	-0.18435654
154	0xbd542e19	-0.051801775
155	0x3d10542c	0.035236523
156	0x3d284d46	0.04108932
157	0x3d91a284	0.071110755
158	0xbddd778f	-0.108138196
159	0x3dc877f4	0.09788504
160	0xbe30951c	-0.1724438
161	0xbe13b4a7	-0.14424382
162	0xbc83cf31	-0.016090007
163	0xbe369d57	-0.17833458
164	0xbe284190	-0.1643126
165	0xbe173122	-0.14764836
166	0x3e0ffbba	0.1406087
167	0x3cfada3a	0.030621637
168	0xbd322deb	-0.043500822
169	0xbabd2451	-0.0014430379
170	0xbe1bbfb9	-0.15209855
171	0xbe233e11	-0.15941645
172	0xbe0e7433	-0.13911514
173	0xbe1a963d	-0.15096374
174	0x3dc7ce7b	0.0975618
175	0xbd9c67ba	-0.07636972
176	0xbd22e9d5	-0.03977378
177	0xbe09b079	-0.13446225
178	0x3bbef6b4	0.005827749
179	0xbd576b0f	-0.052592333
180	0xbe10a3ee	-0.14125034
181	0x3dcd692b	0.10029825
182	0x3e1e89c2	0.15482238
183	0xbdf6f975	-0.12059299
184	0x3dc8e477	0.09809201
185	0xbcaf64c6	-0.021410357
186	0x3d1b365f	0.03789365
187	0x3d8158fc	0.063158005
188	0xbceff1f8	-0.029290184
189	0x3e15ecc4	0.146411
190	0x3dac4c3d	0.08412979
191	0xbe009fde	-0.12560984
192	0xbd94d004	-0.07266238
193	0xbe52ae92	-0.20574406
194	0x3d5118b1	0.05104894
195	0xbe091f9b	-0.13390963
196	0xbe05373c	-0.13009351
197	0xbdb4eca5	-0.08834199
198	0xbe38f84a	-0.18063465
199	0xbe0f928b	-0.14020745
200	0x3e215f77	0.15759073
201	0x3dc0434f	0.09387838
202	0x3e3f0bb2	0.18656805
203	0xbdc50675	-0.09620372
204	0xbd51b861	-0.051201228
205	0xbd7579b3	-0.059930515
206	0xbcfc4aa8	-0.030797318
207	0xbe06e870	-0.13174605
208	0x3d666a1a	0.05625353
209	0xbe1ec335	-0.15504153
210	0x3db9567f	0.09049701
211	0x3e2b82ea	0.16749159
212	0x3d0a7258	0.033800453
213	0x3e0c939e	0.13728186
214	0xbe1e1ff2	-0.15441874
215	0xbcdbe926	-0.026844572
216	0xbda87de2	-0.08227135
217	0xbd1c4984	-0.038156047
218	0xbd7694ef	-0.060200628
219	0xbe139154	-0.14410907
220	0xbe2e5d47	-0.1702777
221	0xbd9dbe6b	-0.07702335
222	0x3c9cf0fe	0.019157883
223	0xbccce9f4	-0.025013901
224	0xbe165d3a	-0.14684
225	0x3df77e1a	0.12084599
226	0x3e03dd48	0.12877381
227	0xbddf194a	-0.108934954
228	0x3ca838d2	0.020534907
229	0x3dd03f78	0.10168356
230	0xbe3117e2	-0.17294267
231	0xbe1c50a3	-0.15265135
232	0x3dbe28a5	0.09285096
233	0x3bb01a63	0.0053742393
234	0x3d241357	0.040057506
235	0xbda0941d	-0.0784075
236	0x3ccd9446	0.025095116
237	0x3dff1405	0.1245499
238	0xbc02d9dd	-0.007986513
239	0xbd16522e	-0.036699466
240	0xbe2fe9b1	-0.1717899
241	0xbd25f7d0	-0.040519536
242	0x3db10c36	0.08644907
243	0xbe0f3370	-0.13984466
244	0xbc95a719	-0.018268155
245	0x3de6077d	0.11231897
246	0xbd59e1d2	-0.053193875
247	0xbd4e9e94	-0.0504442
248	0xbdac7cee	-0.08422266
249	0xbd914f2d	-0.0709518
250	0x3b1b5983	0.0023704476
251	0xbe24d2e0	-0.16096067
252	0x3d71697a	0.05893848
253	0xbd63d20d	-0.055620242
254	0xbcb155b9	-0.021647321
255	0xbc386cac	-0.011256378

rowAttentions.0.proj_net.bias f4 [32]
0	0x3e0ec0ba	0.13940707
1	0x3e207966	0.1567131
2	0x3da69dd1	0.0813557
3	0xbe0170ce	-0.12640688
4	0xbd8ce731	-0.06880034
5	0x3e1dd4fa	0.15413275
6	0x3e065f98	0.13122404
7	0xbd83b850	-0.06431639
8	0x3e0cad80	0.1373806
9	0xbdde55d6	-0.10856216
10	0x3d1a7190	0.037705958
11	0x3e07743d	0.13227935
12	0x3d64fc10	0.055904448
13	0xbe2e22e2	-0.17005494
14	0x3d94990e	0.07255755
15	0x3dd6188f	0.10453903
16	0x3df12fc1	0.117766865
17	0xbe01f39a	-0.12690583
18	0x3c90fe39	0.017699348
19	0x3c53340f	0.01289083
20	0xbc310127	-0.010803497
21	0xbd42e215	-0.04757889
22	0xbddca25d	-0.10773156
23	0x3d4ae74d	0.049536992
24	0x3d95738c	0.072974294
25	0xbc8425d6	-0.016131323
26	0x3e0145bc	0.12624258
27	0xba949c5b	-0.0011338101
28	0x3d1bbdea	0.038022913
29	0x3d3d0046	0.04614284
30	0xbd987186	-0.07443528
31	0x39e2bc5e	0.00043246424

rowAttentions.1.q_net.weight f4 [32, 32]
0	0x3e0935cc	0.13399428
1	0xbc2744b6	-0.010209253
2	0x3df7bbfc	0.12096402
3	0x3ddf0a16	0.108905956
4	0xbcdbdd79	-0.026839005
5	0xbda421a1	-0.08014227
6	0xbdb47279	-0.088108964
7	0xbe12f4b1	-0.14351155
8	0xbdcf8e66	-0.10134582
9	0x3d3cd78d	0.046104003
10	0x3d840844	0.06446889
11	0xbd67431d	-0.05646049
12	0xbc37d5b5	-0.011220385
13	0x3dfe3cbb	0.12413927
14	0x3cd2924b	0.025704524
15	0xbe016e89	-0.12639822
16	0x3e121203	0.14264683
17	0x3de2c2c5	0.110723056
18	0x3cde4f44	0.027137406
19	0x3db250c6	0.087068126
20	0xbe1769d2	-0.14786461
21	0x3dec72d1	0.11545337
22	0x3d01c3a8	0.031680733
23	0xbc62d69d	-0.013845113
24	0xbd8ada55	-0.06779925
25	0x3e139378	0.14411724
26	0x3d16ea3f	0.03684449
27	0xbdcf9a3b	-0.10136839
28	0x3da94534	0.082651526
29	0x3d0ea3e0	0.034824252
30	0xbd86337a	-0.06552787
31	0x3dec513d	0.115389325
32	0x3e33d46b	0.175615
33	0xbbf99dc1	-0.0076176827
34	0xbd9196a6	-0.07108812
35	0xbdc97dec	-0.09838471
36	0xbdb918a7	-0.09037905
37	0x3da60c06	0.08107762
38	0x3ddde047	0.10833793
39	0xbdd758b3	-0.10514965
40	0x3dce3e07	0.100704245
41	0x3b591738	0.0033125412
42	0xbbdc780f	-0.0067281793
43	0xbd363265	-0.044481654
44	0xbe2f0b88	-0.17094243
45	0xbe1ea8f6	-0.15494141
46	0x3e049162	0.12946084
47	0xbcde59e4	-0.027142473
48	0xbc655f7b	-0.013999815
49	0xbddadcd8	-0.10686654
50	0xbd06efbc	-0.032943472
51	0xbd80277c	-0.06257531
52	0x3ca96931	0.020680042
53	0xbe1b0f6a	-0.15142599
54	0x3cb6cd8e	0.022314813
55	0xbe1cb005	-0.15301521
56	0xbe0fae6d	-0.14031382
57	0xbb9e94f6	-0.004839535
58	0xbbb87519	-0.0056291935
59	0xbd78243a	-0.060581423
60	0x3dd29f11	0.10284246
61	0x3c86f3f8	0.016473755
62	0x3d25413a	0.040345408
63	0x3d764915	0.06012829
64	0x3c05cf55	0.008167108
65	0xbe20193c	-0.15634626
66	0xbd8deb4d	-0.06929646
67	0x3dd1be2c	0.102413505
68	0x3dd74ce3	0.10512712
69	0x3d6a4e20	0.057203412
70	0x3e17c077	0.14819513
71	0xbdc5458b	-0.09632405
72	0xbd42c8e7	-0.047554877
73	0xbcd7e045	-0.026352057
74	0xbd2e7648	-0.04259327
75	0x3e3458b3	0.17611961
76	0xbe3b6e56	-0.18303809
77	0x3d4a13b8	0.04933521
78	0x3e2c919d	0.16852422
79	0xbdc08b2d	-0.09401546
80	0x3df7df12	0.12103094
81	0xbe1c4832	-0.15261915
82	0x3cc3fea8	0.02392514
83	0xbdc64010	-0.09680188
84	0x3d724d3d	0.05915569
85	0x3d3bbceb	0.045834463
86	0x3d10c7cb	0.035346787
87	0xbd233310	-0.03984362
88	0xbd6b6129	-0.057465706
89	0xbe2c71e4	-0.16840321
90	0x3d23341f	0.03984463
91	0x3e25173a	0.16122141
92	0xbe052cf6	-0.13005432
93	0xbd8c4a2d	-0.068500854
94	0x3d40e240	0.04709077
95	0x3db527b1	0.08845461
96	0x3d88e9e3	0.06685235
97	0x3dea9702	0.11454584
98	0x3cb2d0e8	0.02182813
99	0xbd41c4ae	-0.04730671
100	0xbe10694a	-0.14102665
101	0xbe3c40a1	-0.18384029
102	0xbe0987ec	-0.13430756
103	0x3db2ee83	0.08736899
104	0x3e23efcc	0.16009444
105	0x3e2e718a	0.17035499
106	0x3e05f723	0.13082556
107	0x3b607fe2	0.0034255912
108	0x3df74eb3	0.120755576
109	0x3d50e5d2	0.051000424
110	0xbdf6b7a7	-0.12046748
111	0xbceee385	-0.029161224
112	0xbe4d5829	-0.20053162
113	0x3e22e8a9	0.15909065
114	0x3d2f6d32	0.042828746
115	0x3e2b239e	0.16712806
116	0xbcb3e641	-0.02196038
117	0x3e1b0efa	0.15142432
118	0x3db18665	0.08668212
119	0xbc6aa3f9	-0.014321321
120	0xbb461733	-0.003022623
121	0x3e0177cf	0.1264336
122	0xbca142f1	-0.01968524
123	0x3e080cf2	0.13286188
124	0x3d3d0b0d	0.046153117
125	0xbd866953	-0.06563058
126	0xbd92cff7	-0.071685724
127	0xbdcbfd6e	-0.09960447
128	0x3de659e2	0.112476125
129	0x3e08b52a	0.13350359
130	0xbdaa86be	-0.08326481
131	0xbe2671f1	-0.16254403
132	0x3dcd3001	0.10018922
133	0xbd22cbd3	-0.039745163
134	0xbe23ce18	-0.15996587
135	0x3d165b1e	0.03670799
136	0xbc8b579f	-0.017009554
137	0x3e04208c	0.1290304
138	0x3d19d043	0.03755213
139	0xbdef60c8	-0.116883814
140	0xbd03a777	-0.03214213
141	0xbe077ffc	-0.13232416
142	0x3da848f8	0.08217043
143	0x3d4c6b12	0.049906798
144	0x3decb9fb	0.115589105
145	0xbe06e1bd	-0.1317205
146	0xbdc2623b	-0.09491392
147	0xbddc69ac	-0.10762343
148	0xbe17b8a4	-0.14816529
149	0xbe227152	-0.15863541
150	0xbe15c0cc	-0.14624327
151	0x3df7b9bb	0.12095972
152	0xbd7a88ab	-0.061165493
153	0xbcf2114d	-0.029549265
154	0x3d61bca4	0.055111542
155	0x3d3e3b05	0.046443004
156	0x3da1049c	0.07862207
157	0xbe016569	-0.12636341
158	0x3e28c5e8	0.16481745
159	0xbc815985	-0.015789757
160	0xbdafbc27	-0.08580809
161	0x3dea5279	0.11441512
162	0xbe16fd05	-0.14744957
163	0xbdd809aa	-0.10548718
164	0x3dcad2a2	0.09903456
165	0x3d8c1cf8	0.06841463
166	0xbd8b3809	-0.06797797
167	0xbc8215be	-0.015879508
168	0xbd049b4f	-0.032374676
169	0x3d9589ad	0.0730165
170	0x3d16174d	0.036643315
171	0x3d84b96f	0.06480681
172	0x3e166512	0.14686993
173	0xbe05a9c9	-0.13053049
174	0xbe0d0119	-0.1376995
175	0xbd3300a9	-0.0437018
176	0xbd89805d	-0.067139365
177	0xbe004ffc	-0.12530512
178	0x3e2ba453	0.16761903
179	0x3e1620b5	0.14660914
180	0x3e10b478	0.14131343
181	0xbdd65d89	-0.10467059
182	0xbca7169a	-0.02039652
183	0xbe0f0a77	-0.13968836
184	0xbd91d17f	-0.07120036
185	0x3e1881ff	0.1489334
186	0x3cc747d3	0.02432624
187	0x3d7be035	0.061493117
188	0xbe35bef2	-0.17748621
189	0x3d941125	0.072298326
190	0x3dfab307	0.12241178
191	0xbd8e4117	-0.06946009
192	0x3e09be0d	0.13451405
193	0x3da5163e	0.08060883
194	0xbe0373c8	-0.12837136
195	0xbe081b94	-0.1329177
196	0x3b1565ba	0.002279623
197	0xbe2e3fe2	-0.17016557
198	0xbdf6b224	-0.120456964
199	0x3d8f137a	0.06986137
200	0xbd6eb4c7	-0.05827787
201	0xbbd337be	-0.006445854
202	0xbd909650	-0.0705992
203	0x3dca66b3	0.098828696
204	0x3e15aedb	0.14617483
205	0x3de2575a	0.11051817
206	0xbe207f4d	-0.15673561
207	0xbd611e5b	-0.05496059
208	0x3db80223	0.089847825
209	0x3dd5fa33	0.10448112
210	0xbd105d5d	-0.03524529
211	0x3dc690d6	0.09695594
212	0xbbe5da55	-0.0070145526
213	0x3cc20e4a	0.023688454
214	0x3df5233f	0.11969613
215	0x3df9e03d	0.12200973
216	0xbe02e12f	-0.12781213
217	0xbdd3e66b	-0.10346683
218	0x3d8ad240	0.06778383
219	0x3ddac312	0.10681738
220	0xbd298f2a	-0.041396298
221	0x3e223d43	0.15843682
222	0xbc57102b	-0.013126413
223	0xbdc0fb74	-0.09422961
224	0xbc99e006	-0.01878358
225	0xbe18d629	-0.14925446
226	0x3d615850	0.055015862
227	0xbe237526	-0.15962657
228	0x3e264194	0.16235954
229	0xbe09635b	-0.13416807
230	0x3dfb6e0d	0.1227685
231	0xbe076d6e	-0.13225338
232	0xbccf8e36	-0.025336366
233	0xbdc7952e	-0.09745251
234	0x3dbd6888	0.092484534
235	0x3db3c533	0.08777847
236	0xbe26f530	-0.16304469
237	0xbe292784	-0.1651898
238	0x3cb4c982	0.022068743
239	0xbbfa0c7b	-0.0076308823
240	0x3c78301c	0.015148189
241	0x3d5f19df	0.054468032
242	0xbced3310	-0.028955013
243	0x3e17fcb7	0.14842497
244	0x3c273e89	0.010207781
245	0xbd9bbb87	-0.076041274
246	0x3d779840	0.06044793
247	0xbe0e27b2	-0.1388233
248	0xbdbd0963	-0.09230306
249	0x3d5c6b27	0.053813126
250	0xbd961d03	-0.07329752
251	0xbe2b8d95	-0.16753228
252	0x3db37b96	0.087638065
253	0x3d3dbf78	0.046325177
254	0x3d6a1088	0.05714467
255	0x3d64e3a8	0.055881172

rowAttentions.1.q_net.bias f4 [32]
0	0x3e16aaa6	0.14713535
1	0xbdbf5edc	-0.09344265
2	0xbd8d11cf	-0.06888162
3	0x3e06b5d8	0.13155305
4	0xbcc04cfc	-0.023474209
5	0xbe0616b5	-0.130946
6	0xbdb0973d	-0.086225964
7	0x3df706ce	0.12061845
8	0xbdc9a8df	-0.09846663
9	0x3d7f3035	0.062301833
10	0xbe17c5a6	-0.1482149
11	0x3defe851	0.11714233
12	0x3d12a655	0.035803158
13	0x3de3dbfe	0.111259446
14	0xbb3a4387	-0.0028421597
15	0x3d8de503	0.06928446
16	0x3e02712d	0.12738486
17	0xbd93d191	-0.07217706
18	0xbe1fb3c0	-0.15595913
19	0xbe2a8cea	-0.16655317
20	0x3dc940ba	0.09826799
21	0xbdfa8cf3	-0.12233915
22	0xbe1e33b5	-0.15449412
23	0xbe24c26f	-0.16089796
24	0xbdb32b69	-0.08748514
25	0x3cd94568	0.026522353
26	0xbe2d223c	-0.1690759
27	0xbdb8b8f3	-0.09019651
28	0x3e19e20a	0.15027633
29	0xbd39285e	-0.045204513
30	0xbd82800e	-0.06372081
31	0x3d896ca6	0.06710176

rowAttentions.1.k_net.weight f4 [32, 32]
0	0xbe168568	-0.14699328
1	0xbe0e3f3e	-0.13891312
2	0x3cc59edb	0.0241236
3	0x3d53792c	0.05162923
4	0xbe34c94c	-0.17654914
5	0x3e1cb29f	0.15302514
6	0xbd87718c	-0.06613454
7	0x3cd5343a	0.02602588
8	0x3e007ba4	0.12547165
9	0x3d86795e	0.06566118
10	0x3d5d7f87	0.054076698
11	0xbe2f2238	-0.17102897
12	0xbe28d416	-0.16487154
13	0x3d8ccaf3	0.06874647
14	0x3bce543e	0.0062966635
15	0x3dd772e1	0.10519958
16	0x3dd23313	0.10263648
17	0xbe14f6c3	-0.14547257
18	0x3d0e7203	0.0347767
19	0xbe10ab8c	-0.1412794
20	0xbdd192ec	-0.10233101
21	0x3d684031	0.056701843
22	0x3b57deea	0.0032939264
23	0xbded6014	-0.11590591
24	0x3d49edc4	0.049299017
25	0x3e01e65a	0.12685528
26	0xbe2e1e70	-0.17003798
27	0x3e29a3b3	0.16566353
28	0x3dcc0f1f	0.099638216
29	0xbc8587ad	-0.016300047
30	0xbe29ad23	-0.16569953
31	0xbd99dfdf	-0.07513403
32	0x3d6337fe	0.05547332
33	0xbd980c22	-0.07424189
34	0xbd649ade	-0.055811755
35	0xbd819969	-0.06328089
36	0x3e182120	0.14856386
37	0x3e19495a	0.14969388
38	0xbe097ffb	-0.13427727
39	0xbd559c90	-0.052151263
40	0x3e24059a	0.16017762
41	0xbc291ed1	-0.010322289
42	0xbdadb155	-0.08481089
43	0x3c868d24	0.016424723
44	0x3e121cd3	0.14268808
45	0xbcaecfec	-0.02133938
46	0xbe29f7e7	-0.16598473
47	0xbd7ec233	-0.06219692
48	0x3dc58a27	0.09645491
49	0xbccfb7be	-0.02535617
50	0x3e00e12d	0.12585898
51	0x3d7ca737	0.061682906
52	0x3b8de4b5	0.0043302425
53	0x3d84beb6	0.06481688
54	0xbd0e02a6	-0.034670494
55	0xbe1b120c	-0.15143603
56	0xbe1c058d	-0.15236492
57	0xbe110ee8	-0.14165843
58	0xbd07775d	-0.033072818
59	0xbe01656e	-0.12636349
60	0x3cbdf23b	0.023186794
61	0x3cbcc1d2	0.02304164
62	0x3e02e9a5	0.12784441
63	0x3c16a319	0.009194159
64	0x3d01ea9e	0.03171789
65	0x3d8400e6	0.06445484
66	0xbd418ba7	-0.047252323
67	0xbdaba5d1	-0.08381236
68	0xbe2a4cf6	-0.16630921
69	0xbe30d55c	-0.1726889
70	0x3c9dd3fb	0.01926612
71	0xbdaa53a4	-0.083167344
72	0x3d534d1a	0.0515872
73	0x3d2f1962	0.042748816
74	0x3e0edadb	0.13950674
75	0xbd33621c	-0.043794736
76	0x3b6d2b11	0.0036189
77	0x3dd4357b	0.10361763
78	0x3cdd8e5c	0.027045421
79	0x3d9ff8cd	0.07811127
80	0xbdbfe1e7	-0.09369259
81	0xbe02a252	-0.12757233
82	0x3e15b9c4	0.14621645
83	0x3e012310	0.12611032
84	0xbd889610	-0.06669247
85	0x3d175f93	0.03695638
86	0xbe2d0b4f	-0.16898845
87	0x3c6989bb	0.014254029
88	0xbe28a247	-0.16468154
89	0x3de03b2e	0.10948788
90	0xbe37089e	-0.17874381
91	0xbd28cb5b	-0.04120956
92	0x3e29fc5a	0.1660017
93	0xbd6e0c84	-0.058117405
94	0xbdd565dd	-0.104198195
95	0x3e1fac66	0.15593109
96	0xbdbaf619	-0.09128971
97	0x3d182cbf	0.03715205
98	0x3dc35583	0.095377944
99	0x3d11af26	0.035567425
100	0xbdf30dd9	-0.118678756
101	0x3e25162e	0.16121742
102	0x3d964c85	0.07338814
103	0xbde76f4b	-0.11300524
104	0xbdd54a28	-0.10414535
105	0xbd19910b	-0.03749184
106	0x3d667344	0.05626227
107	0x3dbffcd7	0.09374397
108	0x3c82da8c	0.015973352
109	0x3e07ed26	0.13274059
110	0x3e36f5cb	0.178672
111	0x3d3569f9	0.044290517
112	0x3d5983fc	0.053104386
113	0x3dceac04	0.10091403
114	0x3cb7818e	0.022400644
115	0x3c3ca54c	0.011514019
116	0x3e22c6ad	0.15896101
117	0x3ddfbe89	0.109250136
118	0x3e0798bd	0.13241859
119	0xbd8be213	-0.068302296
120	0xbd9e0ec0	-0.07717657
121	0xbdd812e8	-0.10550481
122	0xbe0fb949	-0.14035524
123	0xbcb20a85	-0.021733532
124	0x3dcccbcf	0.09999811
125	0x3cb51d43	0.02210868
126	0xbd5ed550	-0.05440265
127	0xbcb66acc	-0.022267722
128	0xbe0ae413	-0.13563566
129	0xbdea22e9	-0.1143244
130	0x3c785688	0.015157349
131	0xbdd0ad8a	-0.1018935
132	0x3ca1df32	0.019759748
133	0x3e152111	0.14563395
134	0x3d3650e4	0.044510737
135	0x3e09125e	0.13385913
136	0xbde4b1b1	-0.111667044
137	0x3bcb56b9	0.0062054065
138	0xbe325c45	-0.1741801
139	0x3b199323	0.0023433648
140	0xbe04d48d	-0.12971707
141	0x3e341dd4	0.17589504
142	0xbe1b9afe	-0.15195844
143	0x3d7b86fd	0.06140803
144	0xbdcba9d2	-0.099445
145	0x3d43fcff	0.047848698
146	0xba67e971	-0.0008846736
147	0xbcba7119	-0.022759007
148	0xbd896add	-0.06709836
149	0x3de872a0	0.11349988
150	0xbd1bd4be	-0.038044684
151	0x3c5e76f8	0.013578169
152	0xbd6b9e36	-0.05752393
153	0xbe04a6b8	-0.12954223
154	0xbd9749b0	-0.07387102
155	0x3e2136e6	0.15743598
156	0x3e2b3ba8	0.16721976
157	0xbdaa2c6b	-0.08309253
158	0x3c9d70ae	0.019218769
159	0x3d01af0a	0.03166107
160	0x3e1f59c2	0.15561584
161	0x3ccacc01	0.02475548
162	0x3c09fdfd	0.008422372
163	0xbd56c9ee	-0.05243867
164	0x3d19532f	0.037432846
165	0xbe34e5bd	-0.17665763
166	0xbe365c6b	-0.17808692
167	0xbca58124	-0.02020318
168	0xbdfae992	-0.12251581
169	0xbdfc1312	-0.12308325
170	0xbcf4d3c6	-0.029886138
171	0x3dcf910d	0.10135088
172	0x3db171a2	0.08664252
173	0xbd7d579f	-0.06185114
174	0xbc47e4ae	-0.012200518
175	0x3e28d9e8	0.16489375
176	0x3d12dc76	0.03585478
177	0x3df45037	0.11929362
178	0xbd982674	-0.07429209
179	0xbe216285	-0.15760238
180	0xbda664ae	-0.08124672
181	0x3c68e92c	0.014215749
182	0xbd270985	-0.040780563
183	0xbdc4a28f	-0.09601318
184	0x3e2ffae0	0.17185545
185	0xbe272c27	-0.16325437
186	0x3bad55c8	0.005289767
187	0x3d8f79cd	0.070056535
188	0xbd428f34	-0.04749985
189	0x3d9cca69	0.07655794
190	0x37cf13b6	2.4685502e-05
191	0xbdd69446	-0.104775
192	0xbdc122eb	-0.09430488
193	0xbda06d64	-0.078333646
194	0xbe2fcc49	-0.17167772
195	0x3de558cc	0.11198577
196	0x3e276f69	0.16351093
197	0xbdb7d37a	-0.08975883
198	0x3c471a09	0.012152203
199	0x3d7289d6	0.05921348
200	0x3d5153b6	0.051105224
201	0xbdc936e0	-0.0982492
202	0xbddaa7c6	-0.106765315
203	0x3e2b3312	0.167187
204	0x3dd62936	0.10457079
205	0x3e23357a	0.15938368
206	0x3dfe95dd	0.12430928
207	0xbc8054df	-0.01566547
208	0x3dfa5430	0.12223089
209	0xbb35f390	-0.0027763583
210	0x3aadc644	0.001325794
211	0xbd9cd7d4	-0.076583534
212	0x3e0ba79e	0.1363816
213	0xbd119b6d	-0.035548616
214	0x3cba0b40	0.022710443
215	0xbe0fa516	-0.14027819
216	0x3d7a532f	0.061114486
217	0xbdaa96d9	-0.08329553
218	0xbd2b9211	-0.041887347
219	0xbc7b90a9	-0.015354314
220	0x3d86b8a4	0.06578186
221	0x3c0700fb	0.00823998
222	0x3cec84bc	0.028871886
223	0xbdf4aaba	-0.11946626
224	0xbe097726	-0.13424358
225	0x3d81cf9f	0.06338429
226	0xbd94457d	-0.07239816
227	0xbe1d9e51	-0.15392424
228	0xbd911c60	-0.0708549
229	0xbe311d92	-0.17296436
230	0x3d0d5123	0.034501206
231	0x3c59a265	0.013283347
232	0x3e2721e7	0.16321526
233	0xbdc8922d	-0.09793506
234	0xbdbaf2df	-0.09128355
235	0x3d3f5aa9	0.04671732
236	0xbd41a85b	-0.047279697
237	0x3e06d497	0.13167034
238	0x3cd9c608	0.026583686
239	0xbb853cd6	-0.00406609
240	0xbd8e5de9	-0.06951506
241	0x3ddbd299	0.10733528
242	0xbdaa5c17	-0.08318346
243	0x3d916164	0.07098654
244	0x3de702a8	0.112798035
245	0xbe0e147c	-0.13875002
246	0xbe1b93f2	-0.15193155
247	0xbdcc2e6e	-0.09969793
248	0x3db0a052	0.08624329
249	0xbdc6c90c	-0.097063154
250	0x3c89e705	0.016833792
251	0x3cdc0ee4	0.02686257
252	0x3d17c390	0.037051737
253	0xbdb8e1c1	-0.09027434
254	0x3ba1cc63	0.004937695
255	0x3dfad027	0.12246733

rowAttentions.1.k_net.bias f4 [32]
0	0x3da64368	0.081183255
1	0x3c169430	0.009190604
2	0xbbcee48f	-0.0063138674
3	0x3d63fa07	0.055658367
4	0x3e27e947	0.16397582
5	0xbc524943	-0.01283485
6	0xbdb2770f	-0.08714115
7	0xbe02fa69	-0.12790836
8	0x3e15f183	0.1464291
9	0xbe201cbc	-0.15635961
10	0x3dacbd65	0.08434562
11	0x3e210e37	0.15728079
12	0x3dc716fd	0.097211815
13	0x3bc82f23	0.0061091348
14	0xbd16fb30	-0.036860645
15	0x3dd885cb	0.10572394
16	0xbdd84fb0	-0.10562074
17	0x3d9ec3b7	0.077521734
18	0xbd6c8f35	-0.05775376
19	0x3da2a1c9	0.07941014
20	0xbd3d8a6c	-0.046274588
21	0xbdf16db3	-0.117885016
22	0xbd8c7dd9	-0.06859941
23	0x3ddad473	0.10685053
24	0x3d8acde4	0.06777552
25	0xbdfa3416	-0.12216966
26	0xbdf70bb8	-0.12062782
27	0xbd1f9398	-0.038959116
28	0xbc801945	-0.01563705
29	0xbd707460	-0.058704734
30	0x3defcb90	0.11708748
31	0x3c9338c0	0.017971396
