train/checkpoints/uduta8zd/wm3wzxbb.checkpoint.pt (torch, 464518 bytes, 137 tensors)

rowAttentions.0.q_net.weight f4 [32, 32]
00000000: d4e8 2cbe 8566 993d 15a4 d03d ead0 18be
00000010: e9c7 813d 9c60 1b3e 4940 333c a055 d5bd
00000020: e3f4 163e 43db 6b3d 18b4 f73d 6218 1ebe
00000030: a9ff e23d 1592 03be 2fec 333e c117 97bd
00000040: 2e8c d03d a6d9 373d 2639 4a3d e17b cabc
00000050: 3b82 983d c385 8dbd 951a 2bbe ce3d 83bd
00000060: e95d 0f3e f3d6 71bd 0641 553d e4bc 6dbd
00000070: 3f4f 0a3e 185a df3d f623 4b3d dab0 a2bd
00000080: 155f 0fbe ead3 5a3b d642 d3bd b779 133e
00000090: 3fe8 21be 5b07 a03d e874 293e fae9 b13d
000000a0: fa1d 713d eb67 50be 1a74 2e3e 5d57 60bd
000000b0: 3264 24be fe13 5d3e 9e1d 95bd 44bb 95bc
000000c0: e8f2 313e 3a2e f5bd 28ae 01be d88d e63c
000000d0: a2af d3bc 789f cc3c a173 25be b6c7 b33b
000000e0: 54b6 a4bd 553e ccbd 942c 0cbe e089 d73d
000000f0: 44e1 083d 8aa1 18be 1837 083e 7911 a33d
00000100: 781f 1b3d 5e07 cfbd c6c6 ec3c f319 303e
00000110: 4826 003e ee71 0bbe ea7e 233e 4821 783c
00000120: e51e b13d be76 f73d 9055 1d3e 0332 22be
00000130: 4ef9 233e b3e5 dbbd 1638 613c 5d97 fcbd
00000140: 35ac 04bd 5d32 39bb 1827 a0bc 2222 d6bc
00000150: cc34 773c 45e6 2f3e 0e41 bb3d 5412 d03d
00000160: e9e6 903d fe3b 053e 08da e4bb 7497 893c
00000170: aa3a 1c3d 4ee2 1bbe c0a3 23be b6b6 f53c
00000180: a843 82bd 3a5b 11bc 647e 22bd 0f13 db3c
00000190: 7281 ff3d 0b63 71bd 46a5 083e 9dc6 0d3e
000001a0: 4101 0cbe ae8f 29be 00cd 11be ab1b fbbd
000001b0: 4380 82bd 55cc e23c 6102 40bd 59ff c1bd
000001c0: 447c 19bd 1a5b 74bd 2e7d 303e b8ee 86bd
000001d0: 527c 03be ab79 643d 00a2 c2bc 0ed8 0b3e
000001e0: 4861 df3d a2a4 1b3e d68e e0bd 52a7 f83d
000001f0: 1fd2 173e f9bc b0bd b05b 1f3e 70a9 1c3e
00000200: f770 993b 5fee a93d b841 6ebd 8f2f 1abe
00000210: cf2a 2c3d e6aa 653d 8e0c e6bd 91db b63d
00000220: 77c5 16be 414f 313e b7fe 323e 0050 a53c
00000230: 827e debd 7d99 a13d ad7b fc3c aa19 4f3d
00000240: de70 7d3d f199 063e c6f6 93bd f2a5 16bd
00000250: d896 513d d322 f13c 8b00 123e a9fb b6bd
00000260: d9ba 56ba d9fc a33c 7084 88bd 7946 fe3d
00000270: 69d7 b03c 5ac5 23be 6c21 36bd 3b6e 9dbd
00000280: c60a a03c 48a1 97bc 9a92 30be 6b24 eebc
00000290: d7cd a5bc 3aa0 49bd 66c0 283e 7658 11bd
000002a0: 386b ef3d 06ef 6e3d b28d 15be 5c55 bc3c
000002b0: 2529 173e 0916 01be d0e6 e7bd ed6e 333e
000002c0: a125 113e 0031 cfbd 7c72 e03d 8d93 a3bc
000002d0: 09c1 2fbe 1cb1 a53c 4b1b 7e3d 9040 4dbd
000002e0: c8ce 883d 750b 24be ddcb cb3d 38d5 1e3e
000002f0: 6c1f cb3d d007 073d acab 1c3d 7ed7 fdbd
00000300: fd74 2dbd 4f14 9bbc a66a c3bd 8ada 02be
00000310: ae2e e63d abcf fa3d 845b 22be 1768 713d
00000320: ff6d 993d b19f 4d3e 1b1e d73d 8bc6 0c3e
00000330: 117d 67bd ba60 fa3d 7f4d 123e 50da 29be
00000340: 2358 08be cec7 ea3c aba4 cb3d 2269 afbd
00000350: 5900 b03c 7057 493c ab14 2d3d 0a8a bcbd
00000360: d183 d93d abb7 e43d 22d1 18be 2c76 a9ba
00000370: 51f7 743a 523d 733d c6b0 113e d85c 6f3d
00000380: 4c1f 1bbd 4edf 213e 5010 84bd d58e 46bd
00000390: 9afa 213c f111 07be 4920 af3c 28f0 efbd
000003a0: 4982 ad3c f679 0a3d e0f2 df3c 12ac 2bbe
000003b0: 7dbc 29be 0f55 a23d 695b 1b3e 7797 1ebe
000003c0: d0f6 903d 8257 08be 8f8a 653c 3ffa 2a3e
000003d0: 4ccb 0b3e 4472 fdbd 70fa da3d b1c2 c23d
000003e0: c00c 853b d843 253e 1fbc b0bd 3d67 2fbd
000003f0: 6e7e b3bd f544 e73c 8882 de3c 4788 893c
-0.16885692 0.07490257 0.10187546 -0.14923444 0.06336958 0.15173572 0.01094062 -0.10416722
0.14741854 0.05758215 0.12094897 -0.15438989 0.110839196 -0.12848695 0.17570566 -0.073775776
0.10182987 0.0448853 0.049370907 -0.024717273 0.074467145 -0.06910279 -0.16709359 -0.06408273
0.14000668 -0.059042882 0.052063964 -0.05804147 0.13506792 0.10905856 0.049594842 -0.07943888
-0.14001115 0.003339047 -0.10315482 0.144019 -0.15811251 0.07813903 0.16548502 0.086872056
0.05886648 -0.20352142 0.17036477 -0.054770816 -0.16053846 0.21589658 -0.0728104 -0.018277772
0.17377818 -0.11971708 -0.12664092 0.028143808 -0.025840584 0.024978384 -0.1615739 0.005486454
-0.08042589 -0.099728264 -0.1368888 0.105243444 0.033417955 -0.14905372 0.13302267 0.07962317
0.037871808 -0.10108827 0.028903376 0.17197399 0.12514603 -0.1361768 0.15966383 0.015144654
0.08648471 0.12083195 0.15364671 -0.1583939 0.16013071 -0.10737171 0.013746282 -0.12333558
-0.032390792 -0.0028258779 -0.019549891 -0.026139323 0.015088271 0.17177685 0.091432676 0.10159746
0.070752926 0.13011166 -0.006983999 0.016795851 0.038141884 -0.15223047 -0.15980434 0.02999435
-0.06360561 -0.008871848 -0.039671317 0.026742486 0.124758616 -0.058932345 0.13344297 0.13845296
-0.13672353 -0.16558716 -0.14238358 -0.122611366 -0.0637212 0.027685324 -0.04687727 -0.09472532
-0.037472025 -0.059657194 0.17235252 -0.06588501 -0.12840393 0.055780094 -0.023758888 0.13656637
0.10907227 0.15199521 -0.10964744 0.12141289 0.14826249 -0.08629794 0.1556232 0.1529901
0.004682656 0.08297419 -0.058168143 -0.15057205 0.042033013 0.056071185 -0.11232863 0.08928598
-0.14723764 0.17315389 0.17479979 0.020179749 -0.10863973 0.07890604 0.030820692 0.050561585
0.061875217 0.13144661 -0.07224803 -0.03677935 0.051169246 0.02943555 0.1425802 -0.08934719
-0.00081912946 0.020018028 -0.066658854 0.12415785 0.02158709 -0.15993252 -0.044465467 -0.076870404
0.019536387 -0.018509522 -0.17243424 -0.0290701 -0.020239754 -0.04922507 0.16479644 -0.035484754
0.11690372 0.05833342 -0.14604834 0.022989921 0.14761789 -0.12606062 -0.11323321 0.17522784
0.1417451 -0.10116768 0.10959336 -0.019967819 -0.17163481 0.020226054 0.062037747 -0.0501104
0.066800654 -0.16019996 0.09950993 0.15511024 0.099181026 0.032966435 0.038249657 -0.123946175
-0.042347897 -0.018930582 -0.09541826 -0.12778679 0.11239372 0.12246641 -0.15855223 0.05893716
0.07491683 0.20080449 0.10503789 0.13747613 -0.056515757 0.122254804 0.14287375 -0.16587186
-0.13314871 0.028659727 0.09943517 -0.08564974 0.02148454 0.012288913 0.04225604 -0.09206016
0.10620845 0.111678444 -0.14923528 -0.0012928895 0.00093447143 0.05938465 0.1422759 0.058438152
-0.037871644 0.1580784 -0.06448424 -0.04847606 0.009886408 -0.13190438 0.0213777 -0.11715728
0.021180289 0.033807717 0.027337492 -0.16764858 -0.16575809 0.0792638 0.15171589 -0.15487467
0.07078326 -0.13314632 0.014010086 0.16697024 0.1365177 -0.1237531 0.106922984 0.09509791
0.004060358 0.16139162 -0.08629631 -0.042823065 -0.08764349 0.028231123 0.027161852 0.016788615

rowAttentions.0.q_net.bias f4 [32]
00000000: 1fbe 513d 0cbc 0d3e df55 1f3d 0017 fa3d
00000010: f3d7 d73d 380e 2c3d e7fb 573d 4460 4d3d
00000020: a391 903c 0106 1c3e c493 1d3e 94ae 743d
00000030: aeee 61bc fcf7 123e 554b 15be a212 f53d
00000040: 0707 ad3d 1a35 d13d 20d7 06bd 70f3 09be
00000050: db88 fa3d ed31 b2bd 66b9 203d 8d3a bd3d
00000060: ed79 32be 1a56 003c 60ad 81bd 106b f03d
00000070: 62cb f4bd c350 d53d 8649 e13d f1d2 cd3d
0.051206704 0.13841265 0.038900252 0.12211418 0.10539236 0.042005748 0.052730467 0.050140634
0.01764757 0.15236665 0.153884 0.059736803 -0.013789816 0.14352411 -0.14579518 0.119664446
0.08448606 0.102152064 -0.032920003 -0.1347177 0.12233134 -0.08700929 0.03923931 0.09239683
-0.17429323 0.007833028 -0.06331897 0.117391706 -0.11952855 0.10415795 0.110003516 0.100499995

rowAttentions.0.k_net.weight f4 [32, 32]
00000000: 367b 2d3e a1d5 de3c b237 23be 5635 023e
00000010: 2994 6c3c 7d0a 923b de87 2abe 3499 1ebd
00000020: 84b9 adbd b217 353e 73d9 013e c08b 063e
00000030: 6fda f93d d01b ecbd fa80 9bbd 429e 8bbd
00000040: 38b0 96bd da2a 0d3e 0d15 7a3d 7dca 113e
00000050: ce98 f3bb 8125 1cbe 8f84 51bd 9ba6 ff3d
00000060: 04d2 dc3d d4f2 543d 3ef5 6abd 1093 2abe
00000070: d04b c1bd 906e be3d 712f 98bd c633 ab3d
00000080: e85b 363d fa38 94bd 9dc6 d53d e45f 76bd
00000090: 696c 07bb f518 90bd f8a7 2dbe a3fa ce3c
000000a0: 18c2 443d bce1 bbbd ef1d d73d baa1 1ebe
000000b0: 6f89 32be 39ca dbbd 56f1 7fbd c481 bcbc
000000c0: 7207 04bd b5e7 9a3d 813f 22be 57ab b93c
000000d0: f601 68b8 df55 433d e8b4 3c3e eae7 d63d
000000e0: bc86 ccbd b9bc 17be fb9c b3bc c592 90bd
000000f0: 5f77 6d3d 1a0a f4ba c92f 253e d89f 823d
00000100: 3d9f f8bc 6b62 583c 1280 383d bac1 96bc
00000110: e30b 0d3e 003a 0abe dcdd b93d 2686 dfbd
00000120: 6612 1bbe 625c febc a8fe b63d 3cba fb3d
00000130: 581b 403d bac2 bbbc 4ac2 e5bb fd23 89bd
00000140: 14e1 a8bc 56ad 0ebc e7c3 1d3e bac1 da3d
00000150: 4331 0dbe a56b cc3b 3a7f f4bd 963a cabc
00000160: 62e6 0cbe bffb 3e3d a8eb 17be 97c6 213e
00000170: c300 0c3e 04b5 f2bd 95da 3cbe 4916 0f3c
00000180: 8eeb 3abd 10b4 583d 5cf0 f2bd edf5 943d
00000190: b398 19be 018b bebd d1a0 c4bd 038a af3d
000001a0: a1f5 94bb b4a0 3bbe 2bcb ccbd 707d afbd
000001b0: 41b3 25be 76b1 193d 9783 803d 4e87 07bd
000001c0: d8e8 80bd dc0b 123b 3691 0fbe 29f7 dabd
000001d0: e542 80bb 3079 183e b343 7fbd d9ec b63d
000001e0: dca5 8ebd 16da 39bd 5e75 2cbe 9924 113e
000001f0: 4874 313e b2dd 2dbb ab94 d03d 42af 1d3e
00000200: 4699 b33d 6725 ba3d 457c 2cbe 8e34 2abe
00000210: 6fa4 0bbe a859 623d a979 1cbe 4346 0abe
00000220: 84be afbd 0360 2abe 333e 8938 c07b ca3c
00000230: 5edd d4bd 96c4 f43d 3031 88bd 71b3 4bbd
00000240: 273c 0b3e 9fa3 1a3e d3fa a6bc 47f6 01be
00000250: 47dc b5bd cf94 b13c 1dca cb3d 500f b43d
00000260: 4c65 a0bd 0d87 28be 11d2 19be 97bb 6dbd
00000270: 6fc9 0a3b 8cb4 a2bd 5963 0ebe 81af a03c
00000280: 2484 0ebe 0ecd 0bbe d29b 12be 243c 3fbd
00000290: 75ea 233e 43aa 8f3d 597d aabc bef4 193d
000002a0: c6cb 923d 7e5e 6dbc 07bc 10be 7a54 d5bd
000002b0: 7de3 f3bd 8c3e d13a 36b9 23be 8556 febc
000002c0: 42df 81bd 1acf 333e 0867 143e b79d d43d
000002d0: 25d9 373c 1eac 87bd 0f93 273d 91df f7bd
000002e0: ca36 99bd 36d2 1fbd c6a9 19bd 3b09 2dbe
000002f0: 0b5d 923d ce3c 163e 3bc4 cfbd ab61 373d
00000300: 1907 a8bc 3200 c0bb 3c3f 353c 9007 1d3e
00000310: 5262 8f3c 96bf e4bd 0d1d 80bd c613 b13d
00000320: 7132 623d 2740 c73c 557c bebc b156 9cbd
00000330: 6e43 81bd 72ff cdbd 8b91 e53c f754 4b3d
00000340: 9408 0c3e a50b 33bd 970b 523c ac5b ea3d
00000350: f000 9d3d 0911 033d add2 623d 3689 1a3c
00000360: 06c6 1abe 4cce 0e3c f3a8 45bd 533b 203e
00000370: 86de 223e ffe5 0f3d d2de 1e3e b488 b3bd
00000380: bd0f 1c3e f049 1c3e d5f3 05bc c7d6 12be
00000390: 590a 5bbd 877a 47bd 8916 bf3a 72a0 25be
000003a0: 232d 003d 3680 9abd a527 3fbd 2623 b0bd
000003b0: 78de 19bd eda2 2abe 9622 c4bd 3c37 773c
000003c0: c9e0 e43d 9f51 273e e488 0abe cacc 943d
000003d0: f28a cebd 1ae5 0abe 5d00 ddb9 07bf d2bd
000003e0: e406 1dbe 3765 2abe a9fe eebd fe5d 1c3e
000003f0: 4184 c83d db32 92bd 181f e4bd 55d5 0dbe
0.16941532 0.027201476 -0.15939215 0.12715659 0.014439621 0.0044568167 -0.16653392 -0.038720325
-0.0848265 0.1768482 0.12680607 0.13139248 0.12199866 -0.11528742 -0.0759296 -0.06817295
-0.0735783 0.13785878 0.06105523 0.142374 -0.007433987 -0.15248682 -0.05115181 0.12482949
0.10782245 0.05198939 -0.057362787 -0.16657662 -0.09438288 0.09298432 -0.07430924 0.083594844
0.044521242 -0.0723743 0.10438273 -0.060150042 -0.0020663983 -0.0703601 -0.16958606 0.025265997
0.048036665 -0.09173915 0.10503756 -0.15491381 -0.1743524 -0.1073193 -0.062486015 -0.023011096
-0.032233663 0.07563726 -0.15844537 0.022664709 -5.5314937e-05 0.047689315 0.18428385 0.10493453
-0.09986636 -0.14818086 -0.02192544 -0.07059244 0.05797517 -0.0018618733 0.1613151 0.06378144
-0.030349368 0.013207058 0.045044012 -0.018402923 0.13774066 -0.13498688 0.090755194 -0.10914259
-0.15143737 -0.031049911 0.089352906 0.12291381 0.046901077 -0.022920001 -0.0070116865 -0.06696317
-0.020615138 -0.008708319 0.15406762 0.10681482 -0.13788323 0.006238418 -0.11938329 -0.02468614
-0.13759759 0.046626803 -0.1483599 0.15798412 0.13672166 -0.11850932 -0.18442757 0.008733341
-0.0456348 0.052906096 -0.11862251 0.07273469 -0.14999656 -0.09303857 -0.09600986 0.085712455
-0.004545883 -0.18323022 -0.09999689 -0.08568847 -0.16181661 0.037522756 0.06275099 -0.03308802
-0.062944114 0.00222849 -0.14020237 -0.10691673 -0.0039142244 0.1488998 -0.062320422 0.08931894
-0.06965229 -0.045374 -0.16841647 0.14174117 0.17329514 -0.0026529846 0.10184606 0.15398887
0.08769469 0.09089165 -0.1684428 -0.1662161 -0.13636945 0.055261284 -0.15280785 -0.13503365
-0.0858126 -0.16638188 6.5442546e-05 0.024717212 -0.10393785 0.11951558 -0.06650007 -0.049731676
0.13597165 0.15101479 -0.020383274 -0.12691604 -0.08879905 0.021677403 0.099506594 0.08791983
-0.07831821 -0.16457768 -0.1502154 -0.058040228 0.0021177193 -0.07944593 -0.13905086 0.019614937
-0.13917595 -0.13652441 -0.14317253 -0.046688214 0.16007407 0.07014897 -0.020811724 0.03758692
0.07167773 -0.014487861 -0.14134227 -0.10416503 -0.11908624 0.0015964075 -0.15988621 -0.031047115
-0.06341411 0.17559472 0.14492428 0.10381644 0.011221205 -0.066246256 0.04091173 -0.12103189
-0.07481153 -0.039018832 -0.037515424 -0.16898052 0.07146653 0.14671633 -0.1014485 0.044770878
-0.020511197 -0.0058593983 0.0110624395 0.15334916 0.017502937 -0.111693546 -0.06255541 0.086463496
0.055223886 0.024322582 -0.023252646 -0.076337226 -0.06311689 -0.10058488 0.028023502 0.049641576
0.13675147 -0.043712277 0.012820146 0.11443266 0.076661944 0.031998668 0.055376697 0.009432128
-0.15114602 0.008716177 -0.048256826 0.1564763 0.15905198 0.03513145 0.15514687 -0.087663084
0.15240379 0.1526258 -0.00817581 -0.14339744 -0.053476665 -0.048700836 0.001457886 -0.16174486
0.031293046 -0.075439855 -0.046668667 -0.08600454 -0.03756568 -0.16663714 -0.09576909 0.0150888525
0.11175687 0.1633973 -0.13528782 0.07265623 -0.100850955 -0.13563958 -0.00042152675 -0.10290342
-0.1533466 -0.16640173 -0.11669666 0.1527023 0.097908504 -0.07138606 -0.11138743 -0.13850911

rowAttentions.0.k_net.bias f4 [32]
00000000: 0375 a1bd 34db 203e bec4 ec3d 7816 243e
00000010: 6f86 2ebe 56f9 b53a be6d 75bd 6d03 343d
00000020: 12f0 08be b1da 963d 7b53 e9bb abe7 b6bd
00000030: 2cac 29be 5bc6 c93d 657c 7abd 6d2e 033e
00000040: c5e8 133d bf56 3f3d 1b6f 02bd 913c c9bc
00000050: 083c 6cbd 92a6 1bbe 8bee e93d 77d4 f0bd
00000060: f545 d53d 5e7f 72bd ce33 ed3d d2da 143e
00000070: 012e d9bd 75af 123e 80dd 1a3b 0e72 0dbe
-0.07883646 0.1570862 0.11560963 0.16024196 -0.1704347 0.0013883512 -0.05991911 0.04394858
-0.1337283 0.07365931 -0.0071205474 -0.08930906 -0.16569585 0.098522864 -0.061153788 0.12810679
0.03611066 0.046713587 -0.03184424 -0.024565013 -0.057674438 -0.1520026 0.114224516 -0.117592745
0.10413734 -0.059203498 0.115821466 0.14536598 -0.10604478 0.14324744 0.002363056 -0.1381304

rowAttentions.0.v_net.weight f4 [32, 32]
00000000: 1f18 9c3d c7f9 aa3d e666 193e 0e25 35be
00000010: faed 3b3e 1344 033e c5ff 2b3e 4839 b23d
00000020: e74d c0bd 3a3d 133e ca7e 233e 9c97 f7bc
00000030: 95d1 20bd e92d 343e 0684 153e 6709 ea3d
00000040: 5ef6 113e e034 9ebd 1751 1fbd 55e2 95bd
00000050: e827 a33d 99c4 33bd 89d2 b5bd 5cdb d1bc
00000060: 1222 2abe 58d8 10be 8628 3b3e e89b febd
00000070: 0114 853d 7d18 36bd e14f 753b 8e4c ed3a
00000080: e20d 053e 884a 71bd 42e9 123e 91e5 e33d
00000090: 24c2 e23d 71b0 1bbe ed00 9abd 4089 0abe
000000a0: e4aa f0bc af83 e9bc a096 0d3d c15e 343e
000000b0: d7e6 8c3d 7251 a6bd 718e e9bd b2d9 073e
000000c0: c9ba ec3c 1bd5 0e3d ec27 b1bd 61da a7bc
000000d0: e2dd 6b3d 8562 19be 0264 b93d e240 aa3d
000000e0: 29b9 e0bd 2f77 7abd 78b5 76bc ed32 a1ba
000000f0: 0426 56bd 2f9e 2d3e 7f12 02be c90b 13be
00000100: 2d2d e1bd 5dc3 4e3d ed5c b63c a8ef 47bd
00000110: 3dd6 193e 6b9c 16be bcc7 993d e788 c2bd
00000120: 7d58 0bbd 0cc1 30be 3c3d 06be b0bf 05be
00000130: 064f 883d b577 8ebd 789e 763d 87a2 b5bd
00000140: b5f2 e3bc 4fac 623c 4409 193e d6da 42bd
00000150: b4f9 d53d 99ff 4e3d 12eb e23d 0ff6 d63d
00000160: 79c6 7d3d eb03 3cbd 0457 ffbc 2f64 a13d
00000170: 7656 c93d 875c 24bc 39f0 ed3d 2fc4 31be
00000180: ea37 c73d 70db a3bc 1d36 eabd 4d27 a6bd
00000190: b91a f8bd c738 2e3d 7717 ddbd eb3f 3bbd
000001a0: cdff 09bc 66db c1bd e6d9 b83b 9e1f 06bd
000001b0: cdfe 843d 9a61 1c3e d1a2 e7bd a848 b13d
000001c0: ddcf 63bc c6fd ffbd 197a 9dbd f8f0 3c3d
000001d0: 5e81 283d e70d 6d3c 9389 0cbe f893 b03d
000001e0: afb4 193d cb2f 1bbe 4e0b 29bd 08dc 7ebd
000001f0: c64f 95bd 4304 c0bd 1cb3 29be dff5 363e
00000200: 0685 22be a0fc 243e 7791 12be 93b4 45bd
00000210: 1126 8cbd c488 c9bd ddc0 743d 27ef c53d
00000220: 4927 f7bd 40d9 b3bd d44a b33d 4484 5cbc
00000230: 8f88 283d 12ed c13d b3fe 4bbd bf1b d1bd
00000240: c18b b33d 3e2a 5fbd 93df fabd e6a4 bbbd
00000250: f018 b4bd 6d27 2f3e a497 673d 930d 9b3d
00000260: cec3 d33c 9eb4 07be 9056 f13d b833 f1bc
00000270: aeb8 39bd 035f 0f3e 6e6f cbbd b87c 543d
00000280: 3a05 14be 0fea c83d 7be8 983d cf08 1fbe
00000290: 0b8f cb3d a5cb 663c f866 b7bd fd36 0f3e
000002a0: 3c16 8a3d 94fb a23d e395 8cbd a69a a7bd
000002b0: 954d b1bd 4347 263d 4771 4d3d 09f5 debd
000002c0: 5256 383e 4df0 e93d a837 9abd dadd b43d
000002d0: cdb0 a5bd 36a7 4f3d 9100 3a3e bad2 19be
000002e0: f24e 97bd 2663 73bd 3aff a43c 19ec 17be
000002f0: 5ed9 f4bd 4ea4 a7bc cc43 75bd 1c02 ad3d
00000300: 0dfa 8e3c 9edb fe3c 5452 c33c 66ec e73c
00000310: d58f 93bb 0835 8a3d 04ad 023e 90c0 a2bd
00000320: 452e aabd 36d2 de3d 1f0e ffbd 9bab f93d
00000330: d64a b43d 832b 0a3d ba00 c8bd 466d c33b
00000340: f7dd 36be 476b 37be b4db 323e a8c9 21be
00000350: 4e7a 08be b936 8bbd 0561 1dbd 36ca 163d
00000360: bd6e 86bd 91ed c6bc 136d 51bd d154 273e
00000370: d5ba 203e 4775 a03d 9a31 0c3b c741 d33d
00000380: 8e5f 0ebe 804c 973d 33aa dbbd 6621 123e
00000390: 7c66 2abe be85 8c3d 696c 0cbe 02f8 dd3d
000003a0: d821 1d3d 5cb0 f33d 3a79 06be a34a ef3d
000003b0: 76b8 febd 8b4f d5bd f7f9 a73d 6ad9 acbc
000003c0: 8de4 11be d244 11be 44b9 2cbd 7887 543d
000003d0: 4b61 223e 533c fb3d 906b 2bbc c06e debd
000003e0: 83cb 36be a385 403e ad92 a9bd b214 47bd
000003f0: a553 11be 8911 f8bd e2ca 423d 8f09 7dbd
0.07621788 0.083484225 0.14980659 -0.17689916 0.183525 0.12818937 0.16796787 0.08702332
-0.09389859 0.14378825 0.15966335 -0.03022366 -0.039262373 0.17595638 0.14601144 0.114275746
0.14254138 -0.07724929 -0.038895693 -0.0731856 0.07966596 -0.043888662 -0.08878047 -0.025617294
-0.1661456 -0.14145029 0.18277177 -0.124320805 0.06497956 -0.044456948 0.0037431645 0.001810448
0.12993577 -0.05890897 0.14346793 0.11127771 0.11072186 -0.15204026 -0.07519708 -0.13528919
-0.029378362 -0.028505174 0.034567475 0.17614271 0.06879967 -0.08121003 -0.11404122 0.13266638
0.02889766 0.034871202 -0.086501926 -0.020489873 0.05758465 -0.14978988 0.09052278 0.08313157
-0.109728165 -0.06114882 -0.015057914 -0.0012298502 -0.05228235 0.16954874 -0.12702368 -0.14359964
-0.10994945 0.05047928 0.022261107 -0.04881254 0.15023132 -0.14708106 0.075087994 -0.09498768
-0.034019936 -0.17261142 -0.13109297 -0.13061404 0.066556975 -0.06956426 0.06020972 -0.0886889
-0.027825693 0.013835027 0.14944941 -0.04757198 0.10448018 0.050536726 0.11079992 0.10496151
0.061956856 -0.045902174 -0.031169422 0.07880437 0.09830944 -0.010031826 0.116180845 -0.17359994
0.09727462 -0.020002097 -0.114361025 -0.08112965 -0.12114472 0.042534616 -0.10795491 -0.045715254
-0.008422804 -0.09465675 0.00564121 -0.032744996 0.06493912 0.15271607 -0.11310352 0.08656436
-0.013904539 -0.12499575 -0.07689304 0.046128243 0.041139 0.014468647 -0.13724355 0.08621973
0.03752583 -0.1515495 -0.041270547 -0.062221557 -0.07290606 -0.09375813 -0.16572231 0.1786723
-0.15871057 0.16111994 -0.14313303 -0.048267912 -0.06843198 -0.09840539 0.05975424 0.09664755
-0.1206804 -0.087816715 0.08754507 -0.013459269 0.041145857 0.09469046 -0.049803447 -0.1021037
0.0876689 -0.054483645 -0.12249675 -0.09162311 -0.08793819 0.17104883 0.0565411 0.075709485
0.025850203 -0.13252494 0.117840886 -0.029443607 -0.04534214 0.14001088 -0.09933363 0.051876754
-0.14455119 0.09810268 0.07466217 -0.15530704 0.09939393 0.014086639 -0.089551866 0.1398582
0.06742522 0.07958141 -0.06864526 -0.08183794 -0.08657376 0.040595304 0.050156858 -0.108865805
0.18001679 0.11422787 -0.07530147 0.08831377 -0.08090363 0.050696574 0.18164279 -0.15021792
-0.073881045 -0.059420727 0.020141233 -0.14836158 -0.11955522 -0.020464089 -0.05987911 0.08447668
0.017453218 0.031110581 0.023842968 0.028310966 -0.00450323 0.06748396 0.12761313 -0.07946885
-0.083096065 0.10879938 -0.12453865 0.12190934 0.08803336 0.033732902 -0.097657636 0.005963954
-0.1785811 -0.17912017 0.17466623 -0.15799582 -0.13327906 -0.06797547 -0.038422603 0.036813937
-0.065640904 -0.024283202 -0.051129412 0.16340949 0.15696271 0.07834869 0.002139187 0.103152804
-0.13903639 0.07387638 -0.10725822 0.14270553 -0.16640657 0.06861447 -0.1371323 0.10838319
0.038362354 0.11898872 -0.13132182 0.11684158 -0.12437527 -0.10415562 0.08201974 -0.021099765
-0.14247341 -0.14186409 -0.04216887 0.051887006 0.15857427 0.12267365 -0.010462657 -0.10860968
-0.17851071 0.18800978 -0.08279929 -0.04860372 -0.14192064 -0.121127196 0.047556765 -0.061776694

rowAttentions.0.v_net.bias f4 [32]
00000000: 2b91 e5bd 63bf 113e f189 ff3c 1d28 fcbb
00000010: 9192 31be 7b55 133e 19ab f9bd 0070 b83d
00000020: 595b 59bc 1ff0 c73b 4689 b13d ea72 4cbd
00000030: 854a 14bd fc73 103e 2c68 05be fc8f b13d
00000040: 7f49 4fbd 22b3 82bd 8b0f d53d 6c08 f23c
00000050: 681c 25be 4fe5 2a3e 2815 afbd 7eec 203e
00000060: cc47 5bbd dab6 323e dab7 443d 79bb 9abc
00000070: 3d39 843d 1679 32bc 767f b0bd 156e e13d
-0.11209329 0.14233164 0.031193705 -0.0076952116 -0.17341067 0.14388077 -0.121908374 0.09005737
-0.013266408 0.0061016227 0.08668761 -0.049914278 -0.03620388 0.14106745 -0.1302802 0.08670041
-0.0506072 -0.06381823 0.10403355 0.029545031 -0.16124117 0.16689037 -0.08548957 0.15715215
-0.053535268 0.17452565 0.048026897 -0.018888222 0.0645623 -0.010893127 -0.08618061 0.110073246

rowAttentions.0.proj_net.weight f4 [32, 32]
00000000: dc92 e83d 6ef6 02bd 27eb 1c3e 9928 bb3c
00000010: 84ba c0bd 3807 c7bd 96a5 ff3d 74be 84bd
00000020: 9118 eb3d 07cd 34be e415 0c3b 3fc9 07be
00000030: b001 533d 1888 0e3e 375e 853d 3bca 85bd
00000040: 2c0e 2ebe 9c1e 9fbd 4632 afbd 1cfc 1d3e
00000050: 7a43 d0bd ca41 a33d 6d70 183e ae49 8b3d
00000060: c009 19be b4b9 7abc f272 3dbd 4a2b ef3d
00000070: 2484 89bc c7b8 1039 a792 203e 5e3d f23c
00000080: 9c92 b23d e907 58bd 697a f53d ed42 393d
00000090: da6d 23bd a3f2 eb3c 0518 0ebe 7a12 60bb
000000a0: 680b c63d 85c7 20be 5e09 b3bd f561 cc3d
000000b0: 2f0c ee3b 72ba 243c ffac 0b3c 64e9 b2bd
000000c0: 72b2 153e 7b35 b4bb 9ceb 85bd b786 d03d
000000d0: ee0f 21be 2dce 48bd 6059 463c 343b 50bd
000000e0: 3501 b93d d95a 13be a882 4bbd 9b0f acbd
000000f0: c399 283e 0d3a 923d 28f7 01be b5e5 713d
00000100: 812c 37bc c5e6 2d3e 045d cf3d 2851 f8bd
00000110: 85bb 203e f47b 0abd e49c 42bd 07fc 693d
00000120: ca0f 3c3e 8d8c 433d a55b 29be 55a1 29bd
00000130: a83b 1f3e fb0e 9dbd 0381 a1bd cd85 13be
00000140: 74ad d7bd a171 d4bd 9ecc 8b3c 2683 a53d
00000150: 04d5 1b3e c9b7 003e ffac 8d3c 4137 d13d
00000160: 4805 bb3d ecb9 27be c5c9 d23d 3b66 f4bd
00000170: 7fa6 113e 8607 98bd 50f7 943c 1024 2d3b
00000180: f495 b53d 581a 043d cf51 13be a955 923d
00000190: 1df1 bd3d 6395 babd f354 f1bd 14bf e6bd
000001a0: cb1b 8dbd 2875 28bc 7a6a 753c 2497 253c
000001b0: 1bb9 54bd f7db d73d 6de1 183c bb9b cdbd
000001c0: e804 0fbd debe ccbd 2dd6 73bd 1a2c 28be
000001d0: e622 953c dfb0 12be a810 9b3d d24b 073e
000001e0: daff 00be 0d49 a5bd 6ce4 04be c564 0f3d
000001f0: 9e43 ed3c 2ec4 a5bd d041 d33d 0cf7 953d
00000200: 7b78 25be 6dc3 adbc dec2 a8bd a3ce a0bc
00000210: 2054 dc3d 3d7d adbc cda7 ecbd cdf5 fe3d
00000220: 47c2 2ebe 3ac5 92bd cae0 983d b11e 0e3e
00000230: fdfe 2b3e d34a 65bd 8762 703d f2e1 21be
00000240: c36e 3bbd bfc2 18bd 2435 083d f44b 06be
00000250: b5aa 0f3d f273 c53d 1561 193e fc1b 03bd
00000260: 01ba 273e f790 39be 6f50 4cbd f83e 9e3d
00000270: 2109 3f3d 357d c53d c500 e9bd 1437 da3d
00000280: 72df 35be 763a ecbd 1af6 00bc 80f1 35be
00000290: 8a45 2fbe b98e 30be 28d5 1a3e 858a 403d
000002a0: cbbf 84bd e997 5ebc e2fe 1cbe 0ef0 3abe
000002b0: e8fe ebbd e150 3cbe 1b54 f63d 2c0c 81bd
000002c0: 79b7 aabd a923 04be df02 51bb 23d1 60bd
000002d0: e1cb efbd 40ae 093e de15 293e b3a8 fcbd
000002e0: 46e6 b23d 1240 03bd da4b 2f3b f7ba c23d
000002f0: 7fd5 d4bc 249f 223e a171 d53d c757 e9bd
00000300: b1c1 e5bd d552 2abe 35fd 713d c731 0abe
00000310: 72e8 12be c32c e1bd c6e4 39be df43 10be
00000320: 9fb4 223e aeed c83d 7206 223e 3850 afbd
00000330: eece 91bd 11a1 86bd 9d08 b83b a7d6 06be
00000340: 1fe0 d23c f8d2 02be 534d 433d 8ff3 363e
00000350: bab9 be3c 4408 153e a84d 07be 6885 debc
00000360: 0cd7 e2bd fdc9 08bd 0397 89bd 8ea6 e9bd
00000370: 1d61 2dbe fab2 93bd 70a9 cc3c 26f3 03bd
00000380: a69c 30be 8b7c 043e 8e8f 043e 4cb0 efbd
00000390: 580a 9b3c 6b35 fa3d b0b2 31be 1392 14be
000003a0: fec5 b43d f72d 8339 7951 653d 0e2e 86bd
000003b0: 29d8 113d e6cd e53d 5754 fdbc 4c2c 29bd
000003c0: 57fe 23be 121a 4cbd b2cd f23d 189d 10be
000003d0: 8c26 02bc 7b8e f43d eb4e 5cbd b945 80bd
000003e0: 290c 7cbd bc22 a5bd 2092 363c aa8b 30be
000003f0: 29b8 703d 53c1 4fbd 70d0 a4bc b328 3e3a
0.11356136 -0.031973295 0.15324079 0.022846507 -0.09410575 -0.09718174 0.12482755 -0.064816386
0.11479295 -0.17656337 0.0021375353 -0.13260363 0.05151528 0.13919103 0.06512111 -0.06532713
-0.16997594 -0.0776951 -0.08554511 0.15428203 -0.1016912 0.07971533 0.14886637 0.06801163
-0.14945126 -0.015303064 -0.0462522 0.116781786 -0.016786642 0.00013801745 0.15680943 0.029570278
0.0871937 -0.05274192 0.119862385 0.04522984 -0.039899684 0.028802222 -0.1387635 -0.00341907
0.09670144 -0.1570111 -0.08742021 0.09979621 0.007264636 0.010054218 0.008525132 -0.08735922
0.14618853 -0.0054995394 -0.065390795 0.10181945 -0.15728733 -0.04902475 0.01210627 -0.05083771
0.09033433 -0.14390124 -0.04968515 -0.08401414 0.16464905 0.071399786 -0.12691939 0.059056956
-0.011180044 0.16982563 0.10125163 -0.12124854 0.15696533 -0.033809617 -0.047512904 0.057125118
0.18365398 0.04774146 -0.16538866 -0.041413624 0.15550101 -0.07668873 -0.07885935 -0.1440651
-0.105311304 -0.103732355 0.017065343 0.08081655 0.15217978 0.12570108 0.017294405 0.10215617
0.09131867 -0.16379517 0.10292391 -0.119335614 0.1422367 -0.0742331 0.018184334 0.00264192
0.08866492 0.032251686 -0.14386676 0.07145245 0.09274504 -0.091105245 -0.11783781 -0.11266914
-0.06890067 -0.0102818385 0.014978999 0.0101068355 -0.051934343 0.10540002 0.009331089 -0.10039469
-0.03491679 -0.099973425 -0.059530426 -0.16423073 0.018205117 -0.14325283 0.07571536 0.13212517
-0.125976 -0.08070574 -0.12977761 0.03500821 0.028962906 -0.08094059 0.10315287 0.07322511
-0.16159241 -0.02121135 -0.08240293 -0.019629782 0.10758233 -0.021177882 -0.11555443 0.124492265
-0.17066298 -0.07166524 0.0746475 0.13878895 0.16796489 -0.05597956 0.058687713 -0.15808848
-0.045759927 -0.0372951 0.033253804 -0.13114911 0.03507491 0.096412554 0.1497844 -0.03200911
0.16379549 -0.18121706 -0.049881395 0.07726854 0.046639565 0.09643022 -0.113771 0.106550366
-0.17761019 -0.11534588 -0.007871175 -0.17767906 -0.17116371 -0.17241944 0.15120375 0.047007103
-0.06481894 -0.013586023 -0.15331605 -0.18255636 -0.11523229 -0.18390228 0.120277606 -0.0630115
-0.08335776 -0.12904228 -0.003189258 -0.05488695 -0.11708809 0.13445377 0.16512248 -0.12336864
0.087353274 -0.032043524 0.0026748092 0.09508317 -0.02598071 0.1588102 0.104220636 -0.11393695
-0.11218584 -0.1663316 0.059079368 -0.13495551 -0.14346483 -0.10994866 -0.18153676 -0.14088391
0.15889214 0.09810959 0.15822771 -0.085602224 -0.07119547 -0.0657369 0.005616261 -0.13167821
0.025741635 -0.1277579 0.047681164 0.17866348 0.02328192 0.14553934 -0.13213217 -0.027163222
-0.11076173 -0.033395756 -0.06718256 -0.11408721 -0.16931577 -0.072118714 0.024983138 -0.032214306
-0.17247257 0.12938134 0.12945387 -0.11703548 0.01892583 0.1221722 -0.1735332 -0.14508848
0.088268265 0.00025020514 0.0559859 -0.06551753 0.035606537 0.11220913 -0.030924005 -0.04130201
-0.16014992 -0.04982955 0.118556395 -0.14122427 -0.007943761 0.119412385 -0.0537862 -0.062632985
-0.061535034 -0.08063266 0.011143237 -0.17240778 0.05876938 -0.050721478 -0.020118922 0.00072539895

rowAttentions.0.proj_net.bias f4 [32]
00000000: 3b8b 043e 86d4 263e eaa4 b93d 09b7 f9bd
00000010: d109 35bd 2087 133e 486b 043e b0ee 57bd
00000020: d85f f93d 7bd5 e3bd 657f f13c 08de ed3d
00000030: cb4c 283d 12ff 0abe 4c93 963d 584f ec3d
00000040: f5fd 003e 7142 e8bd 04fd 86bc e9c8 433c
00000050: 6bb4 9bbc 82e6 14bd dbe5 97bd 0fda 573d
00000060: 01bb 9e3d 107c 07bd 95c5 013e 9ac3 c3bc
00000070: 10ab 253d ac94 503d 86d2 a2bd d73a 85bc
0.12943737 0.16292009 0.09064658 -0.12193114 -0.044198815 0.14407015 0.1293155 -0.052717865
0.12176484 -0.111247025 0.029479692 0.11614615 0.04108886 -0.13573864 0.073523134 0.11538571
0.12596877 -0.11340798 -0.01647807 0.011949756 -0.019006928 -0.036352642 -0.07416888 0.05269819
0.07750512 -0.0330773 0.12673028 -0.023896981 0.04044634 0.050923035 -0.079503104 -0.016263409

rowAttentions.1.q_net.weight f4 [32, 32]
00000000: f07c 093e 1363 3ebc 12bc f63d af32 db3d
00000010: d40e f5bc 5e45 9dbd 9470 babd 55bc 12be
00000020: fb3f d1bd 6dfe 423d a9ec 803d dee5 7cbd
00000030: ebe4 4abc 9679 f63d 8f73 bf3c 912a 00be
00000040: e060 103e 3c70 de3d 9ce8 ab3c 3f8f b13d
00000050: 9391 18be 4f3a ec3d 80d9 093d ac93 69bc
00000060: 2818 66bd 6fad 103e 3600 193d 0225 bbbd
00000070: 1f8d a43d 003f 143d 1214 8bbd 14a4 fd3d
00000080: 6674 363e 97e5 d2bb ae99 91bd 074c ccbd
00000090: d877 a5bd ae39 c43d 0c16 ea3d 8669 dbbd
000000a0: 5f24 cf3d 1783 4a3c 3cb4 80bb b649 4dbd
000000b0: 5d54 27be f42a 3dbe f3a6 ff3d 6ae9 d9bc
000000c0: cc0f 77bd cd51 c9bd 54f7 04bd ea3a 7fbd
000000d0: 0aa4 8a3c b653 1dbe edf7 b13c 87c0 1abe
000000e0: 02d9 fabd b1b0 16bb c04b b7bc a653 50bd
000000f0: c533 d63d a496 9a3c d59d 1b3d 7be2 6b3d
00000100: c437 283c 19f7 1fbe 780f 89bd 4692 e13d
00000110: fdc7 d03d b12a 743d d929 203e c8c1 bbbd
00000120: da2a 52bd 49d2 cfbc 5e24 35bd 3024 0d3e
00000130: 17d0 33be 3fb5 b03c bfec 2c3e 452b c9bd
00000140: 700d e43d 9a02 17be 8c2d e83c 7d4b c6bd
00000150: 5ece 603d 4d99 563d f8d0 323d 3c27 1dbd
00000160: 2db8 5ebd 36fc 2fbe 13ba f53c 4ffe 343e
00000170: 6130 04be d87e 7dbd 368e 3d3d f93f c53d
00000180: dad1 863d e887 eb3d 0a6b b43c e228 47bd
00000190: 11c3 15be 0a67 33be 3a7f 09be 7374 b13d
000001a0: 0039 233e 52ad 2c3e 3732 053e d8a8 663c
000001b0: bc15 fa3d 83d0 483d a623 f4bd 8f85 f4bc
000001c0: 6e3c 3ebe 3914 1f3e 7c77 173d 697a 2a3e
000001d0: 300c acbc 29cd 1d3e 226b 9c3d 72dd a6bc
000001e0: ec54 f5bb 1f68 043e 8c07 a3bc 81be 0c3e
000001f0: 4e64 1f3d 8e63 87bd 8fc1 92bd f022 bfbd
00000200: 23fd e63d e946 083e 2841 a9bd 2fb4 23be
00000210: 28b7 cd3d 2cf5 2bbd 10f6 24be a7cd 163d
00000220: 9521 86bc 562b 063e 35df 193d 81d6 edbd
00000230: 5639 f3bc adec 02be 8e56 a63d db29 483d
00000240: bd80 df3d a8b0 05be f78c c7bd 802e dcbd
00000250: 1508 15be e4d5 22be 302d 13be 6df7 fc3d
00000260: 2b2b 5cbd aae6 dbbc 7466 503d 730e 2a3d
00000270: 0be1 a23d 474b fcbd 3ffa 1c3e 7ff9 8fbc
00000280: 321a adbd 3f72 ea3d b157 15be d40c d8bd
00000290: df05 ce3d b8de 8a3d 6e40 8dbd 7430 60bc
000002a0: f4d3 01bd de99 963d 7173 123d 3fbc 763d
000002b0: 9f10 173e 6980 01be 06ea 0cbe c659 35bd
000002c0: 7f04 a0bd 3940 ffbd da84 283e f0da 163e
000002d0: 1318 123e 7b29 d8bd 8e44 8fbc 19b2 0cbe
000002e0: ee9a 82bd a686 1b3e 388a a93c 5022 743d
000002f0: 8606 34be 60ec 963d 0971 ee3d d78b 91bd
00000300: e889 093e 49f9 a13d c7fc 03be 3505 07be
00000310: 2ee9 253b 59ba 2fbe fd4e fcbd 30b1 8c3d
00000320: a678 6abd 9429 8bbb 4108 94bd 32e5 de3d
00000330: 0d2c 153e ec4f 013e 480c 22be a154 59bd
00000340: 0286 b23d c767 d73d f175 20bd bbee c53d
00000350: c11f b6bb daff c53c 9e4d f63d 3e67 f83d
00000360: 9e8d 00be ecc1 d7bd 2bca 7c3d 21e9 d73d
00000370: 986b 25bd 4d3b 213e 9997 bcbc a932 b9bd
00000380: a783 94bc 00a7 1cbe 1e52 603d 50c1 24be
00000390: 41ab 273e c660 0bbe 276d eb3d e36b 07be
000003a0: d3d7 c7bc 4ffb c4bd ee4b b93d 15b1 c03d
000003b0: bba2 27be 178a 1bbe bc8c af3c 9161 a9bb
000003c0: 5841 7f3b 1d19 5c3d d99c 0dbd 5042 193e
000003d0: 4951 573c 0c88 9fbd 1043 723d efb3 0bbe
000003e0: 70d3 aebd 5b6c 663d ba96 96bd df00 2fbe
000003f0: 920d b63d 75cc 413d 8ac4 473d 413f 803d
0.13426566 -0.011620301 0.1204759 0.107030265 -0.029914297 -0.07679246 -0.09103504 -0.14329655
-0.102172814 0.04760592 0.06295139 -0.061742656 -0.01238368 0.120349094 0.023370532 -0.12516238
0.14099455 0.10861251 0.02098494 0.086699 -0.14899282 0.11534559 0.03365469 -0.014256399
-0.05617538 0.1412866 0.037353717 -0.09137918 0.08034729 0.036192894 -0.067909375 0.12384811
0.1781784 -0.0064360606 -0.0710939 -0.099754386 -0.08079499 0.09581314 0.11429986 -0.107134864
0.10114359 0.012360356 -0.0039277356 -0.050119124 -0.16340776 -0.18473417 0.12483015 -0.026600558
-0.0603178 -0.098300554 -0.032462433 -0.062312044 0.016923923 -0.15363964 0.021724666 -0.15112506
-0.12248422 -0.00229935 -0.022374988 -0.050861023 0.10459093 0.01887066 0.037992317 0.057589035
0.010267202 -0.15621604 -0.066924036 0.110142276 0.10194395 0.059611026 0.15640964 -0.0916782
-0.051310398 -0.025368826 -0.044224136 0.13783336 -0.17559849 0.0215708 0.16887186 -0.09822706
0.111353755 -0.14747086 0.028342031 -0.09682367 0.054884307 0.052392293 0.04365632 -0.038367495
-0.054374862 -0.17186055 0.029995954 0.17675136 -0.1290908 -0.061888546 0.0462782 0.096313424
0.06582995 0.115005314 0.022023696 -0.048622973 -0.14625193 -0.17519775 -0.1342744 0.08664789
0.15939713 0.16862991 0.13007437 0.014078341 0.12211177 0.049026977 -0.11920862 -0.029848842
-0.1857774 0.15535058 0.036979184 0.16648258 -0.021001905 0.15410294 0.076376215 -0.020369265
-0.00748693 0.12930344 -0.01990106 0.13744546 0.038914017 -0.066107854 -0.071658246 -0.09332836
0.11278751 0.133083 -0.08264381 -0.15986703 0.100447 -0.04198186 -0.1610949 0.03681722
-0.016373435 0.13102469 0.037566382 -0.11613179 -0.029690426 -0.12785597 0.08121978 0.04886804
0.10913227 -0.1305567 -0.09743684 -0.10751057 -0.14553864 -0.15901905 -0.14372706 0.1235188
-0.053752106 -0.026843388 0.050878957 0.041517686 0.0795308 -0.123190455 0.15329836 -0.017575024
-0.08452262 0.11447572 -0.14584233 -0.10549322 0.100597136 0.067807615 -0.068970546 -0.013683427
-0.031696275 0.073535666 0.035754625 0.06023812 0.14752434 -0.12646641 -0.13761148 -0.044275068
-0.078133576 -0.124634214 0.16456929 0.14731956 0.14266996 -0.10554787 -0.017488744 -0.13739814
-0.06377207 0.15188083 0.02069579 0.059603035 -0.17580613 0.07369304 0.116426535 -0.071067505
0.13431513 0.079088755 -0.12889396 -0.1318558 0.0025315988 -0.1716093 -0.12319753 0.06869733
-0.057243966 -0.0042469 -0.07228137 0.10883559 0.14567585 0.12628144 -0.15824997 -0.053059224
0.08716966 0.10517841 -0.039174978 0.09664675 -0.0055579846 0.024169851 0.12026523 0.12129067
-0.12554023 -0.105350345 0.06171624 0.10542513 -0.040385813 0.15745278 -0.023021506 -0.09042866
-0.018129183 -0.1529808 0.054765813 -0.16089368 0.16373922 -0.13611135 0.114954285 -0.1322475
-0.024394905 -0.09618246 0.090476856 0.09408776 -0.1637067 -0.15189396 0.021429412 -0.0051691015
0.003894886 0.053734887 -0.03457341 0.14966702 0.0131419385 -0.07789621 0.059145987 -0.13642858
-0.08536422 0.05625568 -0.073529676 -0.17090176 0.08889307 0.047314126 0.04877142 0.06262065

rowAttentions.1.q_net.bias f4 [32]
00000000: c37f 153e b0aa cabd a200 9fbd 8056 073e
00000010: 9d23 c0bc 5b31 05be b270 aebd e4c5 fd3d
00000020: b035 12be 71cb 443d e2ac 2cbe 71e1 ec3d
00000030: bacf 123d 6440 da3d 38ea b5ba 297a 963d
00000040: 099c 143e 24bf 55bd 992f 10be fc88 22be
00000050: 1f15 ca3d 6122 f4bd aac2 20be f86d 20be
00000060: 942c c0bd 5d37 9c3c 7edd 28be 4295 a7bd
00000070: 4e8a 1d3e 92f4 0abd 9a01 67bd b2c7 b43d
0.14599518 -0.09895837 -0.077637926 0.13216591 -0.023454482 -0.13007109 -0.08517589 0.1239126
-0.14278293 0.04804558 -0.16862825 0.11566437 0.035842635 0.10656813 -0.0013879007 0.07347519
0.14512648 -0.05218424 -0.14080657 -0.15872568 0.0986731 -0.1192062 -0.15699258 -0.1566695
-0.093835026 0.019069368 -0.16490743 -0.081827655 0.1538479 -0.033924647 -0.05639801 0.08827151

rowAttentions.1.k_net.weight f4 [32, 32]
00000000: de70 15be f777 0ebe 663d ca3c 350b 663d
00000010: 4dba 32be 6abd 1c3e 3814 90bd 72ab ed3c
00000020: 8fb0 003e fa75 833d afd9 5c3d 0e02 2abe
00000030: bf14 2abe 9f44 8a3d dc2b 703b 944f da3d
00000040: 465a b23d fde0 10be 69d5 fe3c 5e7c 0ebe
00000050: 502a cdbd 3240 4e3d 1176 abbb 3d15 ebbd
00000060: c4c5 773d afbf f33d 9bb2 30be fac7 373e
00000070: f2ba c83d 5dd3 5dbc 583f 33be 0b32 86bd
00000080: c640 5e3d 58b6 99bd d277 6dbd 34c3 96bd
00000090: 1f28 1e3e dc1c 1c3e 4fde 0ebe b8f6 5fbd
000000a0: ca91 253e f858 b0bb 4f71 aabd 147a f13c
000000b0: adc5 0d3e 2051 ebbc 0698 28be 583f 68bd
000000c0: 8631 9f3d 403f c6bc 7cd2 fb3d a828 823d
000000d0: eda2 793b 785a 783d 30cf d3bc 0374 18be
000000e0: 132a 19be 1a25 13be 425c d2bc 71dc 09be
000000f0: 41c2 d03c 35cb a43c 3975 0a3e c366 e73b
00000100: 11ce 013d 7ff0 7e3d edf1 46bd f20d a4bd
00000110: 845e 2bbe 868d 30be 8d2f 9d3c ab85 a9bd
00000120: ecce 503d 5e65 4d3d b3f9 103e a7ef 20bd
00000130: 6bc0 4e3b 574a f73d 8185 d03c 0491 9b3d
00000140: 69b2 b6bd 283f 02be 9e88 103e e705 fe3d
00000150: 1f09 88bd 6840 053d a941 17be f151 6e3c
00000160: 6989 25be 9b51 cf3d 5059 3fbe 9634 35bd
00000170: a820 2a3e e77b 6fbd 3fc6 eebd e195 183e
00000180: 397c b9bd ed17 263d acf7 c83d d90f 273d
00000190: d7a5 fdbd 7f74 233e 97ea a53d 5713 e8bd
000001a0: 2a57 d5bd a475 48bd b4e4 593d be4d 9f3d
000001b0: fc64 b23c 2f6b f73d f0d7 383e a0e0 233d
000001c0: a6b6 983d 7f8b c73d 0a05 063d 599b 283c
000001d0: 4304 223e 9104 003e b4b8 d63d d9ad 92bd
000001e0: 88d1 b6bd 540d b6bd 33b2 0fbe bb4d afbc
000001f0: dd3d ca3d 2fa1 c03c 60a0 3ebd 3998 a3bc
00000200: 1bf4 0abe 7a29 eebd 0891 873c 3ebd d0bd
00000210: cc75 af3c 6403 153e d248 393d 1720 0b3e
00000220: fce8 e4bd 92f9 b53b 7e0c 31be ea93 a3b9
00000230: d5fa 04be dd4f 293e c9ed 1abe b7a2 773d
00000240: 3dd9 d6bd 82cc 443d e4f9 18b9 c329 b3bc
00000250: 02e5 88bd ba39 e93d 2def 0abd 41cd 813c
00000260: c170 5bbd 53b3 01be 5488 97bd f1d7 1e3e
00000270: 950a 2c3e df81 a6bd 7caf 8e3c 69a4 f13c
00000280: f92d 203e 1ef8 d53c 20ea 043c a708 52bd
00000290: 0f9f 193d f0a5 34be 61ab 34be 6a83 a5bc
000002a0: f73c fbbd 0b2b ffbd db2b f8bc b9ce c63d
000002b0: 5b86 b23d 17bd 7dbd 2e01 50bc 8ff2 273e
000002c0: f3ca 1b3d c29c f73d 1643 97bd c32c 22be
000002d0: 6361 abbd fc19 833c c7b6 25bd 96e2 c5bd
000002e0: f389 2e3e 8105 2abe 9820 b33b 12a5 963d
000002f0: 5567 3fbd 9f54 9c3d a699 d8b9 a89d d5bd
00000300: 918f c5bd 30c6 a3bd 94c7 30be cd31 e13d
00000310: 2e58 263e c523 b8bd bc76 133c 4192 6e3d
00000320: 251f 4e3d 8cbd c5bd 78a3 dbbd 71bd 343e
00000330: 657f d23d c520 293e 9ad7 fe3d b311 55bc
00000340: ba49 f93d f58a b1bb 79d6 75ba f497 9cbd
00000350: 052e 0e3e 74d0 19bd 2bbd c43c d054 10be
00000360: f887 793d 5d09 abbd e03d 2dbd 7a86 8bbc
00000370: 545d 853d e499 e63b 098c 003d 0c27 eebd
00000380: b15c 08be cab8 853d 41a5 95bd 794d 1bbe
00000390: 3c14 97bd d9e9 31be 1889 123d 5976 593c
000003a0: 7583 273e 7e8d c8bd da64 bbbd 448f 1e3d
000003b0: b0f8 3cbd c8c4 0d3e 97fb d93c 2719 88bb
000003c0: c9aa 85bd 691b db3d 71de a8bd dc8e 903d
000003d0: a411 e63d 32b8 0ebe 42ee 1ebe 00cb ccbd
000003e0: 77c8 ad3d 8370 cbbd 2626 903c 23e0 eb3c
000003f0: 2066 183d e6e2 b8bd 8576 973b 9c4a fc3d
-0.14593837 -0.1391295 0.02468748 0.05616303 -0.1745388 0.1530663 -0.070351064 0.029012416
0.12567352 0.064189866 0.053918537 -0.16602346 -0.16609477 0.0675137 0.0036647236 0.106597096
0.087086245 -0.14148326 0.031107621 -0.1391463 -0.10017836 0.05035419 -0.0052325805 -0.1147866
0.06049134 0.11901795 -0.17255633 0.17947379 0.09801282 -0.013539162 -0.17504632 -0.06552514
0.05426099 -0.075054824 -0.057975598 -0.07361451 0.15444992 0.15245384 -0.13951991 -0.05467865
0.16168895 -0.0053816997 -0.08322393 0.029477157 0.13844939 -0.028725207 -0.16464242 -0.056701034
0.07773118 -0.024200082 0.12296006 0.06355411 0.0038091496 0.060633153 -0.02585563 -0.14888005
-0.14957456 -0.14369622 -0.025678758 -0.13462998 0.025483252 0.020116428 0.1352128 0.0070618107
0.03169066 0.062241074 -0.048570562 -0.08010472 -0.16735274 -0.17241487 0.019187713 -0.08277448
0.050978586 0.0501455 0.14157753 -0.03929105 0.0031547796 0.12074726 0.025454285 0.07596019
-0.08920748 -0.12719405 0.14114615 0.124034695 -0.06642365 0.032532126 -0.14771141 0.014545904
-0.16165699 0.10122987 -0.18686414 -0.044239603 0.1661402 -0.05846777 -0.11658906 0.14900924
-0.09056897 0.04055016 0.09812865 0.040786598 -0.12385147 0.15962408 0.08101385 -0.11331814
-0.10417016 -0.048940316 0.053196624 0.077785 0.021776669 0.120809905 0.18051124 0.04000914
0.074567124 0.09743404 0.03271965 0.010290944 0.15821938 0.12501742 0.10484448 -0.07162065
-0.08926684 -0.08889261 -0.14032821 -0.02139937 0.09875081 0.023514358 -0.046539664 -0.019970046
-0.13569681 -0.11629005 0.016548648 -0.10192345 0.021418475 0.14552075 0.045235462 0.1358646
-0.11177251 0.0055534327 -0.17289922 -0.00031199987 -0.1298631 0.16534372 -0.1512977 0.06045791
-0.10490654 0.048046596 -0.00014588941 -0.0218705 -0.06684305 0.113879636 -0.033919502 0.015844943
-0.053574327 -0.12666063 -0.073990494 0.15512063 0.16800912 -0.0813024 0.017417662 0.029497342
0.15642537 0.026119288 0.00811246 -0.051277783 0.037505206 -0.17641425 -0.17643501 -0.020204265
-0.122674875 -0.12459382 -0.03029435 0.09707398 0.087170325 -0.06194791 -0.012695594 0.16401123
0.038035344 0.12090446 -0.073858425 -0.15837388 -0.083681844 0.016003601 -0.040457513 -0.096623585
0.17044811 -0.16603662 0.005466532 0.073557034 -0.046729404 0.07633328 -0.00041313207 -0.10430461
-0.09646524 -0.07996786 -0.17263633 0.10995827 0.16244575 -0.089911975 0.009000476 0.058244947
0.05032267 -0.09655294 -0.107245386 0.17650391 0.10278205 0.16516407 0.124434665 -0.013004708
0.12172265 -0.0054181763 -0.0009377967 -0.0764617 0.13884743 -0.037552312 0.024015984 -0.14094853
0.060920686 -0.08351395 -0.042295337 -0.017031897 0.065119416 0.007037388 0.031383548 -0.11628541
-0.13316609 0.06529386 -0.0730691 -0.15166272 -0.07376906 -0.17374362 0.035775274 0.013272845
0.1635874 -0.097926125 -0.09150095 0.038710847 -0.046135604 0.13844597 0.026609225 -0.004153389
-0.06526715 0.106985874 -0.08245552 0.07058498 0.112338334 -0.13937452 -0.15520576 -0.09999657
0.08485501 -0.09933569 0.017596316 0.0287934 0.03720677 -0.090276524 0.004622283 0.12318918

rowAttentions.1.k_net.bias f4 [32]
00000000: 2726 a33d fbab 6a3c a4f8 11bc 6c40 5a3d
00000010: c237 273e 5c64 66bc e9fa adbd 92ed 03be
00000020: c02d 093e 1c73 26be 3914 b03d 0b2c 2b3e
00000030: 6d9a ba3d a8e4 e1ba 65b4 88bc a807 df3d
00000040: fcab c1bd c15b 853d 43f4 3bbd ccbc ac3d
00000050: 6f92 1fbd 8653 f8bd 7109 8dbd f06f db3d
00000060: a9eb 813d e53b 08be c8dd e0bd 0062 ecbc
00000070: e8aa c1bc 81f1 52bd bcd6 f03d 1a5a 8d3c
0.07966261 0.01432323 -0.008909378 0.053284094 0.16329864 -0.0140620135 -0.08495123 -0.12883595
0.13396358 -0.16254848 0.08597607 0.1671602 0.09111486 -0.0017234283 -0.016687581 0.10890132
-0.094566315 0.06511641 -0.045887243 0.08434448 -0.03895801 -0.12125306 -0.068865664 0.1071471
0.06343777 -0.13304098 -0.109798014 -0.028855324 -0.023641065 -0.051499847 0.11759707 0.017254878

rowAttentions.1.v_net.weight f4 [32, 32]
00000000: 11f1 1fbd 468c 9ebc e08e b53d 610f e4bd
00000010: f1b1 30be d210 0ebe c364 b73d 7d89 d93c
00000020: 49fa 0ebe a43b 1e3e 15e3 d33d 6f42 49be
00000030: 70ad f23d 9821 fabb 1057 9b3c 104a 053e
00000040: 2bf1 0d3e 2a16 013d 4f30 84bd 2140 093e
00000050: 9b57 203e 956e c9bc 3493 22be 4a9d 2d3e
00000060: 0048 9fbd e4f7 aebd e9a2 30be f0c6 6a3d
00000070: eb8e 863d c167 88bd 35dc 53be 7ab7 ac3d
00000080: 107c 0f3c f533 1d3e 1c7d 99bc b1fd 143e
00000090: a274 2fbd 513c a2bd 053f cd3d d90e 403d
000000a0: fcd5 1d3e 4b97 ea39 4bb7 0fbe bde1 e4bd
000000b0: 8d27 15bd 496f 0bbd a42e c4bd 05b4 1d3e
000000c0: 6f8c e3bd e085 2a3c 6ed4 ce3d 9aca 133d
000000d0: b815 0b3c 4fb3 833d b36e aebd 4de4 32be
000000e0: 7fd1 303d e83e eabd 1f36 19be 3d9d f7bd
000000f0: 9e6b 183e 8d02 eebd 0b07 183e 5e18 003e
00000100: 4f72 e23c f95d ebbd bdc4 21be 7122 00be
00000110: c515 ec3d 85e9 fabd 690b fcbc e6bd 003d
00000120: 60d9 cebc 4c70 283d a0b1 12be f485 f73d
00000130: f451 f2bd d8e9 a3bd 34a5 18be 801c cd3d
00000140: 7f8e d2bd bd1e 6ebd 8f06 a63d 639b 91bc
00000150: f7ba 0e3e 8c64 413d 00a6 86bb bb23 08be
00000160: faca 19be b366 f13c 4a15 993b aa4e 4a3e
00000170: 3fb8 23be cb9c 433d f61b 903d 9d9d ed3d
00000180: 9b9e aa3d 292c 9ebc 7cd9 2dbe 8783 0bbd
00000190: 3cd6 313e 0179 10be b975 f8bd 32a3 223e
000001a0: 0196 c2bc 987c 82bd d328 923c 4cf3 833d
000001b0: eee3 423c ca76 fa3d 9fb4 55bc 7e7e 8ebd
000001c0: a823 aebd 6695 2abc 6106 37bd 30b8 f13d
000001d0: 36a4 993d d004 0f3e 5e39 3b3e df46 1e3e
000001e0: cff9 24be a2ed 68bd 59f7 62bc bb3f 103e
000001f0: d359 923a ffe8 853d 0d28 0b3c 17fa 19be
00000200: 60af 653c 1484 78bc 246a d9bd e461 343e
00000210: a1d9 15be 64a8 18be a365 f8bd ce61 1bbe
00000220: 7fb6 04bd a9e5 b6bd 11e3 153e fade 9e3d
00000230: b71d c03d 29c1 203e b23a 0fbe 08b6 e6bd
00000240: 94df 223e 8d72 fc3d f6ae 0a3d a71a cd3d
00000250: fc19 5b3d 4ba3 95bc 3e76 99bd 1f2b 6d3d
00000260: bec4 11be ff50 3d3e f0eb 27be dc6b 12be
00000270: 3224 033e 90fa cfbd 31d4 a5bd 3d9b 58bd
00000280: ab1f 26be ddb0 45bc 19be e1bc fbac 43bd
00000290: 42a8 243c eaaa f8bd 838d 2fbd 5bbb d4bc
000002a0: 2bb8 3bbe 3a34 0abe bf99 053e 007f 22be
000002b0: a97e 20bd d03d c3bd ff19 373e 9908 083e
000002c0: 4abf 833d 9527 b4bd 9983 2fbe 94f6 d0bc
000002d0: 1a29 d33d d616 6c3c a70f adbd 26ef 28be
000002e0: e533 1c3e 6427 de3c 3f8f 0b3e 37f5 11be
000002f0: e2e2 c53c 88f5 263e 7272 13be 6666 15be
00000300: f58c 27be 9993 94bd 42d3 b9bc 8e7c b93d
00000310: d16c 77bd d1d4 103e e62d 0f3e bfbc da3d
00000320: dbc4 16be 0120 8c3d ef26 d13d 1e1d 213e
00000330: 930b 30be c3b8 34bd 1a86 d4bd 18b5 81bd
00000340: 604f 513d 9118 b339 59d3 8f3d 74f3 06be
00000350: 9c5f 7bbd dcf5 9d3d 1f50 5fbd 001c de3c
00000360: 436b e6bd af99 0e3e fbdd 77bb c92b 913d
00000370: 3c6f 133c 792c 583c f87d 223e ac43 68bd
00000380: 6dbf 1c3e ed62 a6bd 7b3f ebba aece e0bd
00000390: 1d6d 5b3d dd4f 36be 2a8e 5b3d 91e5 abbd
000003a0: 1e81 213e 2d3c 333e 9f4f de3d f2ca 3dbe
000003b0: 1d64 a93d 1885 f0bd c8e2 2a3c 08ed e8bd
000003c0: 3173 de3d 35c5 c2bc ec8c 7b3d 804f 753d
000003d0: 2f10 f93d 1895 e93d 94fe 9abc 5aa8 f9bd
000003e0: 5ce2 663d e308 5dbd 1982 3cbc 9fc6 e63a
000003f0: ae92 1f3e d8e8 083e 098b f6bc fb28 c3bd
-0.03904826 -0.019353997 0.08865142 -0.11135746 -0.1725538 -0.13873604 0.08954766 0.026554817
-0.13962664 0.15452439 0.10346047 -0.19654249 0.11849487 -0.007633399 0.018962413 0.13016534
0.1386153 0.031515278 -0.06454527 0.1340337 0.15658419 -0.024588862 -0.15876466 0.16954532
-0.07777405 -0.08543375 -0.17249645 0.057318628 0.06570228 -0.066604145 -0.20689471 0.08433433
0.008757606 0.15351851 -0.018736415 0.145499 -0.04283584 -0.07921661 0.10021786 0.04688916
0.1541366 0.0004474468 -0.14034764 -0.11175869 -0.03641467 -0.034041677 -0.095792085 0.15400703
-0.1111077 0.010407895 0.100991115 0.036081888 0.008489065 0.06430685 -0.08517208 -0.17469902
0.04316854 -0.1143778 -0.14962052 -0.12090538 0.14884803 -0.1162158 0.14846437 0.12509295
0.027642397 -0.11492533 -0.15797706 -0.12513138 0.1152759 -0.122515716 -0.03076716 0.0314311
-0.025250137 0.04112272 -0.14325571 0.120860964 -0.118320376 -0.080035865 -0.1490677 0.100152016
-0.10281085 -0.058134783 0.0810672 -0.01777429 0.13938509 0.04721503 -0.004109144 -0.1329488
-0.15018836 0.029467916 0.0046717273 0.1975657 -0.15988253 0.04775695 0.07036583 0.11602328
0.08331033 -0.019308167 -0.16977495 -0.03406098 0.1736688 -0.1410866 -0.12131829 0.15882567
-0.023753168 -0.063714206 0.017841732 0.064428896 0.011895163 0.122296885 -0.013043552 -0.0695772
-0.08502895 -0.010411596 -0.044683818 0.11802709 0.07502024 0.1396668 0.18283603 0.15456723
-0.1611092 -0.05686725 -0.013852918 0.14086811 0.0011165686 0.06538581 0.008493436 -0.15036808
0.014018863 -0.015168209 -0.10615948 0.17615467 -0.146338 -0.14907986 -0.12128761 -0.15174028
-0.032400604 -0.08930523 0.146374 0.07757373 0.09380668 0.15698685 -0.13987234 -0.112651885
0.15905601 0.12326536 0.033858262 0.10014849 0.053491578 -0.01826634 -0.07493256 0.05790245
-0.14235207 0.18487929 -0.16398597 -0.14298958 0.12806776 -0.10155213 -0.08097113 -0.05288242
-0.16223018 -0.012066093 -0.027556466 -0.04777239 0.010049881 -0.12141974 -0.042859565 -0.025968244
-0.18331973 -0.13496485 0.1304693 -0.15868759 -0.039183293 -0.09533274 0.1788101 0.1328453
0.0643297 -0.08796612 -0.17140044 -0.025508203 0.10310574 0.014409741 -0.08450251 -0.16497478
0.15254171 0.027118392 0.13628863 -0.14253698 0.024156038 0.163046 -0.14399126 -0.14589843
-0.16362365 -0.072547145 -0.022683743 0.0905696 -0.06040651 0.14143683 0.13982353 0.10680532
-0.14723532 0.06842042 0.10212504 0.15733764 -0.17191915 -0.044121515 -0.1037714 -0.06333369
0.05110109 0.00034159844 0.07022733 -0.13178807 -0.061370477 0.077129096 -0.05451977 0.02711296
-0.11250927 0.13925813 -0.003782152 0.070884295 0.008998688 0.013194197 0.15868366 -0.056705162
0.15307398 -0.08124337 -0.0017947996 -0.10976921 0.053570855 -0.17803903 0.053602375 -0.08393396
0.1577191 0.17503424 0.1085503 -0.18534449 0.08271048 -0.117441356 0.010430045 -0.11373335
0.10861815 -0.023775676 0.06141369 0.05989027 0.1216129 0.114053905 -0.01892022 -0.12190314
0.056368217 -0.053963553 -0.011505627 0.0017606801 0.15583298 0.13370073 -0.030095594 -0.09529301

rowAttentions.1.v_net.bias f4 [32]
00000000: 6242 14be 703a 413d f86e f2bd 7822 1a3e
00000010: 9005 95bb e46b 8ebd af85 f3bd 828d 51bd
00000020: e822 1a3e 794a dfbd 7841 29be e9d2 843d
00000030: 9358 983d 4a53 18be aa6d a1bd 2678 143e
00000040: dd80 a8bd 50a4 863d bcaf c8bd c348 1ebe
00000050: 856e 2cbe 851d 0a3e 4722 393d f5da 313d
00000060: 0c12 573d c1f5 903d 0fe8 eb3d a194 093e
00000070: d138 103e 524f 573d f0e8 a23c 65c7 1e3d
-0.14478448 0.04717487 -0.11837572 0.15052211 -0.0045477822 -0.06954172 -0.118907325 -0.051160343
0.15052378 -0.109028764 -0.1652888 0.064855404 0.07438769 -0.14875522 -0.07882245 0.14498958
-0.08227704 0.06574309 -0.09799144 -0.15457444 -0.16839035 0.13487823 0.045198705 0.043421704
0.052507445 0.07078124 0.11518871 0.13435604 0.14084174 0.05256588 0.019886464 0.038764376
