train/checkpoints/uduta8zd/yq4188jb.checkpoint.pt (torch, 464518 bytes, 137 tensors)

rowAttentions.0.q_net.weight f4 [32, 32]
000000 32 16 31 be a5 91 90 3d 16 22 cc 3d 4d e8 1a be
       -0.17293623 0.070590295 0.09967439 -0.15127678
000010 54 d9 7e 3d 25 a3 19 3e 08 36 30 3c e1 2e d9 bd
       0.06221898 0.15003641 0.01075507 -0.106046446
000020 11 12 15 3e e3 f8 99 3d 40 84 f1 3d 32 1a 01 be
       0.14557673 0.075181745 0.11792803 -0.12607649
000030 d5 d0 d2 3d 41 7e fc bd c4 3b 33 3e a5 d6 98 bd
       0.10293738 -0.123287685 0.17503268 -0.07462815
000040 c3 e6 d7 3d c2 d6 15 3d 6e fc 41 3d e8 73 d6 bc
       0.10542061 0.036581762 0.047359876 -0.026178315
000050 47 d4 94 3d 32 6b 97 bd f6 ce 26 be c8 ac 88 bd
       0.07267051 -0.07393493 -0.16289887 -0.066735804
000060 32 22 0f 3e c0 20 41 bd 89 1f 56 3d a6 d9 83 bd
       0.13977888 -0.047150373 0.052276168 -0.064379975
000070 46 b1 05 3e 51 33 da 3d f5 a1 65 3d d1 99 b1 bd
       0.13055906 0.10654319 0.056062657 -0.08671916
000080 c3 fb 0e be be 95 53 3c 60 52 cd bd ae 2f 17 3e
       -0.13963227 0.012914119 -0.100254774 0.14764282
000090 6a 70 2f be 04 25 a8 3d e8 18 34 3e b8 c7 b9 3d
       -0.17132726 0.08210185 0.17587626 0.090712965
0000a0 9f 01 81 3d 14 b4 2d be c2 b6 30 3e 8e 24 21 bd
       0.06299137 -0.16963226 0.17257217 -0.039341502
0000b0 56 b4 26 be 59 1d 32 3e ce 14 90 bd 40 23 3b bc
       -0.1627973 0.17394008 -0.07035218 -0.0114219785
0000c0 62 b5 22 3e 40 04 fd bd 8f 63 fb bd 06 da 05 3d
       0.15889505 -0.12354326 -0.12274849 0.032678626
0000d0 45 61 b5 bc 27 f6 05 3d ab 5b 17 be 5a e4 14 3c
       -0.022141108 0.032705452 -0.14781062 0.009087646
0000e0 c4 3a 97 bd 8c b8 b1 bd ee f9 36 be 48 77 c3 3d
       -0.073842555 -0.08677778 -0.17868778 0.095442355
0000f0 c1 22 01 3d b4 38 16 be 04 c5 ee 3d 01 4c 86 3d
       0.031527285 -0.14670068 0.116586715 0.06557465
000100 ba c2 0c 3d a1 80 cf bd 1f 27 de 3c 32 bf 2e 3e
       0.034365393 -0.10131956 0.027118264 0.17065123
000110 c4 9d fa 3d 49 96 0c be 88 ba 24 3e a6 73 65 3c
       0.12237123 -0.13729204 0.16086781 0.0140046235
000120 97 f4 ae 3d 82 00 0d 3e 33 d9 1a 3e 6e d9 10 be
       0.085427456 0.13769725 0.15121917 -0.14145443
000130 55 a2 1e 3e 8e 22 f5 bd db ce 4d 3c 45 1b fd bd
       0.15491612 -0.119694814 0.012561525 -0.12358717
000140 2e 8f 1e bd 32 e4 10 bc e1 99 aa bc 84 31 df bc
       -0.038710766 -0.0088434685 -0.020825328 -0.02724529
000150 cd 8c 64 3c 0d df 33 3e ed 2b ce 3d 7e 1f cc 3d
       0.013949585 0.17565556 0.10066972 0.09966944
000160 0e 0d 92 3d 52 ad 0c 3e c9 b0 54 bc ab 92 6e 3c
       0.07131396 0.13737991 -0.012981602 0.014561336
000170 94 ba 13 3d 1c 8a 1d be d0 01 16 be d8 39 cf 3c
       0.036066607 -0.15384716 -0.14649129 0.025296137
000180 4c d5 83 bd 78 db df 3b 35 99 1a bd a8 4b f0 3c
       -0.064371675 0.0068315826 -0.037743766 0.02933295
000190 be 24 e9 3d 6a 99 65 bd 39 8a 11 3e 5d aa 10 3e
       0.11383961 -0.05605451 0.14212884 0.14127488
0001a0 69 b8 08 be 44 57 0a be 89 67 10 be e6 54 e7 bd
       -0.13351597 -0.13509852 -0.14101996 -0.1129549
0001b0 49 d3 89 bd 19 68 81 bc 21 8d 28 bd bc b5 b4 bd
       -0.067297526 -0.015796708 -0.041150216 -0.088237256
0001c0 8f a6 6a bd 2b b6 85 bd 0c 78 33 3e 6f 78 7d bd
       -0.05728775 -0.065288864 0.17526263 -0.061882433
0001d0 1f ce 00 be 9d 9f 89 3d 04 54 0d bc 92 5b 0e 3e
       -0.12578629 0.06719897 -0.008625988 0.13902119
0001e0 bb 6b ec 3d 7f 1e 27 3e 42 67 19 be 6d f1 f0 3d
       0.115439855 0.16320227 -0.14980796 0.11764798
0001f0 58 51 13 3e c3 0d ae bd c1 9b 10 3e ab b4 18 3e
       0.14386499 -0.084987186 0.14121915 0.1491267
000200 f3 f3 98 3b 1b e0 b8 3d 96 1a 7b bd d2 b3 1d be
       0.004667753 0.0902712 -0.06130465 -0.15400627
000210 55 50 30 3d 8d a9 59 3d 6c 63 ed bd 40 e4 af 3d
       0.04304536 0.05314021 -0.11591229 0.08588457
000220 0a 4c 1a be 97 88 1c 3e ea b8 2f 3e 55 1b 2f 3d
       -0.15068069 0.1528648 0.17160383 0.042750675
000230 17 e7 e2 bd d8 65 af 3d 78 56 fd 3c bd 6d 45 3d
       -0.11079233 0.08564347 0.03092502 0.048200358
000240 51 04 67 3d f7 76 0a 3e 9d 39 9b bd 52 d6 1e bd
       0.0564006 0.13521944 -0.07579348 -0.03877861
000250 d9 42 44 3d 72 4b 80 3c 41 7d 13 3e 62 d8 bb bd
       0.047915313 0.015660975 0.1440325 -0.09172131
000260 f9 23 a1 bb 91 95 08 3d a2 5a 52 bd 9f 7f f9 3d
       -0.0049176184 0.033345763 -0.051355965 0.12182545
000270 d0 58 90 3c 70 d1 26 be 62 04 d6 bc c0 19 96 bd
       0.017620474 -0.16290832 -0.026125137 -0.0732913
000280 e6 db 9e 3c 3a 78 88 bc fa 61 32 be 68 0e 00 bd
       0.019391965 -0.016658891 -0.17420188 -0.03126374
000290 a0 60 8f bc e7 af 50 bd b9 00 26 3e 5b 4f 1a bd
       -0.01750213 -0.050949004 0.16211213 -0.037673336
0002a0 d5 0a eb 3d 0e cb 33 3d f6 8b 17 be b6 2f 13 3d
       0.114766754 0.04389482 -0.14799485 0.035934173
0002b0 76 a8 16 3e 7a 2e f0 bd a3 8f e9 bd 1d f6 31 3e
       0.147127 -0.11727615 -0.1140435 0.17379041
0002c0 76 9e 0f 3e e9 fa c7 bd 18 d1 db 3d e8 ca ab bc
       0.14025292 -0.09764654 0.10733241 -0.020970777
0002d0 bb fb 31 be b9 f4 2d 3c 0d 41 72 3d f1 f5 52 bd
       -0.17381184 0.010617428 0.05914407 -0.05150408
0002e0 c5 bc 81 3d 9f 48 1a be 01 64 ec 3d f6 c7 1b 3e
       0.06334833 -0.15066765 0.11542512 0.15212998
0002f0 7d b4 c3 3d 09 b4 ff 3c 1d 99 42 3d f6 9c fb bd
       0.0955591 0.031213777 0.0475093 -0.12285797
000300 3a 9e 20 bd 93 9e 2e bc ff 3b c3 bd 5b 4a 03 be
       -0.039213397 -0.010657924 -0.09532928 -0.12821333
000310 40 d4 f1 3d bc 8e fb 3d 05 74 24 be b5 9f 6f 3d
       0.118080616 0.12283084 -0.16059883 0.058501918
000320 33 d4 98 3d c3 3e 2c 3e de d5 d6 3d 4e 3a 1c 3e
       0.07462349 0.16820817 0.10490011 0.15256616
000330 66 45 64 bd 03 7f fc 3d 14 46 14 3e 72 b2 29 be
       -0.055730246 0.12328913 0.14479858 -0.16571978
000340 6b 8c 14 be 06 da 0e 3d 86 8c ca 3d c9 60 ac bd
       -0.1450669 0.034875892 0.09890084 -0.08416898
000350 06 aa ab 3c 58 fd e6 bb 41 5a 3c 3d 25 61 bb bd
       0.020955097 -0.007049244 0.04598451 -0.09149388
000360 cb 40 d4 3d dc ea f0 3d 59 53 0d be 06 a2 79 3b
       0.10363921 0.11763546 -0.13801326 0.0038090958
000370 53 61 e8 ba c9 93 73 3d f4 7e 11 3e 4f 2c 7b 3d
       -0.00177292 0.05946711 0.14208585 0.061321553
000380 71 5b 1c bd 75 11 25 3e 2b df 88 bd 9f 65 51 bd
       -0.038173143 0.1611994 -0.06683191 -0.051122304
000390 e4 8a 3a 3c 1e 7e 09 be 8f 3f 91 3c a2 40 f5 bd
       0.011385653 -0.13427016 0.017730502 -0.11975218
0003a0 71 0b 98 3c b1 b8 83 3c ba d8 cb 3c 4d 84 17 be
       0.018560143 0.016079279 0.024883617 -0.14796562
0003b0 81 6f 2b be c7 4e a9 3d 1a 81 1b 3e 3b c7 20 be
       -0.16741754 0.08266979 0.15185967 -0.15701
0003c0 9b 7f 80 3d 3e 73 05 be 30 28 39 3c 05 3d 29 3e
       0.06274339 -0.13032243 0.011301085 0.16527183
0003d0 60 30 09 3e a7 bc 06 be c0 3b e0 3d 7c a8 be 3d
       0.1339736 -0.13157903 0.109488964 0.093094796
0003e0 1c b4 0e 3a d8 80 2f 3e a0 3d 95 bd 9b d1 28 bd
       0.00054437085 0.17138994 -0.07287145 -0.04121552
0003f0 6c e5 b6 bd 90 e2 d4 3c ea c4 29 3d 41 65 94 3c
       -0.089304775 0.02598694 0.041447558 0.018114688

rowAttentions.0.q_net.bias f4 [32]
000000 ae b3 6a 3d 4b a1 08 3e 89 bc 30 3d ef c1 f0 3d
       0.057300262 0.13342778 0.04314855 0.1175574
000010 f1 8e e7 3d 81 95 41 3d f2 7c 63 3d 71 26 65 3d
       0.11306561 0.04726172 0.05553908 0.055944864
000020 8a b3 9d 3c 26 06 1e 3e 0c 00 26 3e 5b ae 85 3d
       0.01925065 0.15432033 0.16210955 0.06527396
000030 6e 63 bb bb 0d c9 23 3e 9f 4f 0b be 0e 9a 07 3e
       -0.00571864 0.15994664 -0.13604592 0.13242361
000040 02 40 bb 3d 7d 07 de 3d f2 ee 63 bc 1c f9 05 be
       0.09143068 0.10841272 -0.0139119495 -0.13083309
000050 c9 c2 fa 3d c0 bf a3 bd 61 1d 39 3d 45 8e cc 3d
       0.122441836 -0.07995558 0.045194034 0.09988073
000060 1d 47 2a be ce fa 2d 3c 64 91 8a bd db 8f f5 3d
       -0.1662869 0.0106188785 -0.06766012 0.11990329
000070 d7 23 ee bd c5 77 cf 3d aa a7 dd 3d f8 e3 c1 3d
       -0.1162793 0.10130266 0.10822995 0.0946731

rowAttentions.0.k_net.weight f4 [32, 32]
000000 c4 f6 2c 3e 17 a9 d1 3c f6 9b 23 be 98 be 01 3e
       0.16891009 0.025593324 -0.15977463 0.12670362
000010 3f 01 85 3c 18 77 81 3b dc de 2b be 86 b5 20 bd
       0.016235946 0.0039509647 -0.16784233 -0.039235614
000020 bc ac ae bd eb 4a 30 3e b2 46 01 3e 92 57 08 3e
       -0.0852904 0.17216079 0.12624624 0.13314655
000030 95 dd f8 3d 76 65 e4 bd 3d 84 9a bd 4e 8e 8c bd
       0.121516384 -0.11152165 -0.07544754 -0.0686308
000040 df a7 91 bd 53 ea 0d 3e 2f 09 78 3d 1a 34 11 3e
       -0.07112097 0.13858919 0.060555633 0.14180031
000050 79 cc fb bb 8e 3b 20 be 78 17 4d bd 16 bc fe 3d
       -0.007684287 -0.15647718 -0.05007121 0.12438218
000060 e2 f9 dc 3d e1 ae 5d 3d 3b 6c 5a bd 69 70 29 be
       0.10789849 0.054121856 -0.053325873 -0.16546787
000070 80 a1 c2 bd 9a f2 bd 3d 97 c8 95 bd 5e 55 a8 3d
       -0.0950346 0.09274788 -0.0731365 0.082194075
000080 19 6f 43 3d c3 27 85 bd 8a 74 dd 3d a7 c4 66 bd
       0.047713373 -0.065017246 0.10813244 -0.056339886
000090 41 b7 c2 bb f9 eb 88 bd 8b e6 2a be 4d 1e ed 3c
       -0.0059422557 -0.06685633 -0.16689508 0.028945113
0000a0 3b ef 52 3d 2e 17 b4 bd 0b 95 de 3d 84 b5 24 be
       0.05149768 -0.08793484 0.108682714 -0.16084868
0000b0 bd 4b 2e be d7 bb e9 bd fd 6f 7d bd ac d6 9a bc
       -0.1702108 -0.11412781 -0.06187438 -0.018901192
0000c0 b7 75 10 bd 1e af a5 3d be 68 1e be 2b e5 d9 3c
       -0.03526851 0.080900416 -0.15469643 0.026598534
0000d0 44 07 61 3b 43 c0 4d 3d 38 d5 36 3e 41 b2 df 3d
       0.0034336606 0.050232183 0.17854774 0.10922671
0000e0 48 08 c7 bd 50 1a 13 be f1 9d 4b bd b4 64 b2 bd
       -0.097183764 -0.14365506 -0.04971117 -0.08710614
0000f0 f7 90 79 3d d2 06 fc 3a 3f 1a 0d 3e f9 88 90 3d
       0.060929265 0.0019228107 0.13779543 0.070573755
000100 fe e2 0d bd b4 c9 bb 3a 94 f6 28 3d fe bc b9 bc
       -0.034640305 0.001432708 0.04125078 -0.022673126
000110 9a ca 12 3e 1b 85 0e be 5f 6f af 3d d6 2e e8 bd
       0.14335099 -0.13917963 0.08566164 -0.11337058
000120 0e 83 1f be fa b4 1a bd b4 80 ae 3d 2e 21 09 3e
       -0.15577337 -0.03777025 0.08520642 0.13391563
000130 f1 6c 34 3d 2a 1f 78 bc 58 d2 26 bc c8 83 93 bd
       0.044049207 -0.015144149 -0.010181986 -0.0720287
000140 1e 43 6f bc 0d 98 3c bc 37 45 19 3e 91 fe d0 3d
       -0.014603404 -0.011510861 0.1496781 0.10204805
000150 e7 11 11 be d9 e4 62 3b 15 98 e2 bd f3 ae f1 bc
       -0.14166985 0.0034621267 -0.110641636 -0.029502368
000160 5a ab 11 be be ba 39 3d 0b 07 f7 bd c7 35 30 3e
       -0.14225522 0.045344107 -0.1206189 0.17208014
000170 ad c1 0a 3e 9c be fa bd 6e 6f 21 be e5 00 9f 3a
       0.13550444 -0.12243387 -0.15765163 0.0012131004
000180 cd 13 4a bd f6 1c 56 3d 51 cd f4 bd 00 c2 93 3d
       -0.04933529 0.052273713 -0.119532235 0.07214737
000190 e9 49 1b be be 38 bf bd 51 48 bf bd aa be ae 3d
       -0.15164913 -0.093369946 -0.09339965 0.0853246
0001a0 30 e3 9d bb b3 d7 2d be ea 1c cf bd 1c fe a8 bd
       -0.0048183426 -0.16976814 -0.10112937 -0.082515925
0001b0 83 12 28 be fd 4b c2 3c 31 42 80 3d 3d 7f 06 bd
       -0.16413312 0.023717875 0.06262625 -0.032836188
0001c0 1d 65 8d bd d3 fe 17 bb 91 ff 0f be 6f 79 dc bd
       -0.069040515 -0.0023192659 -0.14062335 -0.10765349
0001d0 8b 51 8b bb f4 8f 22 3e a6 70 69 bd 20 fc b3 3d
       -0.004251664 0.15875226 -0.056992196 0.087883234
0001e0 bb 20 8e bd 2a 34 3f bd 10 3d 2e be 23 37 16 3e
       -0.069398366 -0.046680607 -0.17015481 0.1466947
0001f0 01 f3 2f 3e 47 3f 80 bb c2 09 e7 3d 72 d3 16 3e
       0.17182542 -0.0039137932 0.11281158 0.14729097
000200 94 8d b6 3d 24 95 ba 3d 15 61 2c be 79 03 2a be
       0.08913723 0.091104776 -0.16833909 -0.16602887
000210 46 5c 0b be 6c 7c 62 3d 7c 91 1c be 69 18 0a be
       -0.13609418 0.05529444 -0.15289873 -0.13485874
000220 86 4e af bd 12 5d 26 be 05 fa ff 39 12 7f c9 3c
       -0.08559899 -0.16246441 0.0004882367 0.024596725
000230 0a 90 d3 bd d9 ab f3 3d 90 a1 89 bd 1e 4d 4b bd
       -0.10330208 0.11898012 -0.06720269 -0.04963409
000240 f9 34 09 3e 34 08 1c 3e 98 74 a5 bc 4a e3 01 be
       0.13399114 0.15237504 -0.020197198 -0.1268436
000250 69 b8 b5 bd 36 ac 99 3c 04 05 d2 3d 60 50 b4 3d
       -0.08873064 0.018758874 0.10254863 0.08804393
000260 6d 5c a0 bd a9 94 2b be b0 f0 1a be 13 ec 68 bd
       -0.07830129 -0.16755928 -0.15130877 -0.056865763
000270 62 29 2c 3b 06 81 a2 bd 7f 58 10 be 74 d4 8f 3c
       0.0026269783 -0.079347655 -0.14096259 0.01755736
000280 eb c9 0d be 94 12 0a be 36 12 12 be 07 5b 3f bd
       -0.13846557 -0.1348365 -0.1426476 -0.04671767
000290 b1 63 1f 3e a7 d4 8f 3d ac cc ac bc 24 bd 19 3d
       0.15565373 0.07022982 -0.021093689 0.037533894
0002a0 43 ca 92 3d 06 ba 92 3a 2c c5 10 be 23 58 e6 bd
       0.071674846 0.0011194355 -0.14137715 -0.112472795
0002b0 31 b8 f3 bd 25 0b aa bb 0b 7e 25 be 23 bc 00 bd
       -0.11900366 -0.005189317 -0.16161363 -0.03142942
0002c0 62 16 85 bd 1c 65 32 3e 40 59 14 3e 5e c4 d4 3d
       -0.0649841 0.17421383 0.14487171 0.103890166
0002d0 e5 8a 33 3c 95 74 74 bd f6 62 38 3d df d2 f7 bd
       0.010958408 -0.059681494 0.04501625 -0.12100767
0002e0 84 54 98 bd 0f ae 13 bd 85 64 35 bd e5 d4 2b be
       -0.07437995 -0.036054667 -0.044285316 -0.16780432
0002f0 11 62 8e 3d 86 51 16 3e 68 e6 d7 bd b5 c5 43 3d
       0.069522984 0.14679536 -0.105419934 0.04779597
000300 b5 35 94 bc 12 33 29 bb 9b c1 31 3c 7c 59 1d 3e
       -0.018092016 -0.0025817794 0.010849382 0.15366167
000310 79 8b b8 3c 25 cc e3 bd 50 e5 7f bd 14 c0 b1 3d
       0.022527443 -0.11122922 -0.06247455 0.08679214
000320 29 73 64 3d 47 99 9c 3b d4 02 b8 bc e2 bc a9 bd
       0.055773888 0.0047790143 -0.022462286 -0.0828798
000330 4d e8 80 bd 65 9b bd bd 60 c3 f5 3c c1 ac 4c 3d
       -0.06294308 -0.09258155 0.030000389 0.04996944
000340 b8 a8 0a 3e f8 2b 24 bd 14 62 57 3c 5b d0 eb 3d
       0.13540924 -0.040080994 0.013145942 0.1151435
000350 14 81 9d 3d 7d b6 94 3c 5f e5 68 3d 27 a5 27 3c
       0.07690635 0.018153423 0.05685937 0.0102322465
000360 6c fe 19 be 3c 8b d5 3b f2 dc 1f bd fc b7 25 3e
       -0.1503846 0.006516842 -0.03902907 0.16183466
000370 5c 38 21 3e 0d 26 11 3d bf 33 1d 3e 31 aa b3 bd
       0.15744156 0.03543668 0.15351771 -0.08772696
000380 fb c7 1b 3e 6c 8d 1a 3e 98 d4 fb bb 77 01 12 be
       0.15213005 0.1509301 -0.0076852553 -0.14258371
000390 87 95 69 bd 17 1c 45 bd 3e 0c 0b 3b 58 d5 24 be
       -0.057027366 -0.04812249 0.0021217014 -0.16097009
0003a0 b3 d8 02 3d e3 b2 98 bd 3d 92 3c bd c1 2d b0 bd
       0.03194494 -0.07455995 -0.0460379 -0.08602477
0003b0 24 3f 1b bd 2e a8 27 be 46 91 bf bd d4 cf 81 3c
       -0.037902012 -0.16372749 -0.093538806 0.01584617
0003c0 37 34 eb 3d ee 59 24 3e 61 af 09 be 32 96 96 3d
       0.114845686 0.1604993 -0.13445808 0.07352866
0003d0 de 3b cd bd b4 2f 0b be 4a 61 d6 bb 64 a3 d1 bd
       -0.100211844 -0.13592416 -0.0065423595 -0.102362424
0003e0 bd de 1c be de 8f 28 be 5f 0d ea bd 97 69 14 3e
       -0.15319343 -0.16461131 -0.114283316 0.14493404
0003f0 6d 3f cb 3d 7a 74 90 bd c5 40 e8 bd 4a c3 0c be
       0.09924207 -0.07053466 -0.11340479 -0.13746372

rowAttentions.0.k_net.bias f4 [32]
000000 51 03 9f bd a4 a9 19 3e 95 02 fe 3d ec d1 25 3e
       -0.077643044 0.15006119 0.12402836 0.1619336
000010 bf 99 2f be 63 75 9c b9 fc fa 74 bd 2a 16 32 3d
       -0.17148493 -0.000298421 -0.05980967 0.04347817
000020 28 3b 08 be 55 cb 97 3d c7 cb 22 bc 54 b9 ad bd
       -0.13303816 0.074118294 -0.00993628 -0.08482614
000030 36 00 23 be 50 c5 bb 3d 7c e9 81 bd c3 cd 06 3e
       -0.15918049 0.09168494 -0.06343362 0.1316443
000040 6b 8f f9 3c e1 75 4f 3d 4f 77 01 bd 5f 33 d4 bc
       0.030463895 0.050649527 -0.031607922 -0.025903402
000050 70 af 6a bd bb 3e 1d be db e9 f3 3d 46 26 e4 bd
       -0.057296216 -0.15355961 0.11909839 -0.111401126
000060 fc 60 da 3d 3a 05 69 bd f2 6d e7 3d 41 03 1a 3e
       0.106630296 -0.05688975 0.11300267 0.15040304
000070 77 36 d9 bd 52 ee 0a 3e e8 8a cd 3a a1 c6 09 be
       -0.106060915 0.13567474 0.0015681656 -0.13454677

rowAttentions.0.v_net.weight f4 [32, 32]
000000 a0 2e 97 3d bc 42 a5 3d fa ca 1c 3e 75 f7 2a be
       0.0738194 0.08069369 0.15311804 -0.1669596
000010 be 4c 31 3e 38 0a 09 3e 6e af 34 3e 59 fb c7 3d
       0.17314431 0.13382804 0.17645046 0.09764738
000020 f5 a7 af bd 19 98 13 3e 00 d1 27 3e 01 97 71 bd
       -0.08576957 0.1441349 0.16388321 -0.0589819
000030 50 be dd bc 6e 79 14 3e 78 00 0a 3e 01 4b ec 3d
       -0.027068287 0.14499447 0.13476741 0.11537743
000040 af 9e 05 3e d3 85 9e bd 26 ae f6 bc 10 a8 8f bd
       0.13048814 -0.07740369 -0.030112337 -0.07014477
000050 7c cd b5 3d 46 2b cf 3c 37 8a 19 be a0 0d e2 bc
       0.08877084 0.02528919 -0.14994131 -0.027594388
000060 9c 69 22 be 75 45 20 be b1 b7 2f 3e 43 26 af bd
       -0.158606 -0.15651496 0.17159916 -0.0855222
000070 64 e4 97 3d 0d 6d 25 bd c8 49 64 bc 2a 26 7a bc
       0.07416609 -0.040387202 -0.013933606 -0.015267888
000080 de 8b 09 3e 69 d7 2a bd df fd 11 3e b5 0d da 3d
       0.13432261 -0.041709337 0.14257 0.10647146
000090 44 8a e1 3d ed 97 1f be 2a 11 aa bd 04 3a 10 be
       0.110127 -0.15585299 -0.08304055 -0.14084631
0000a0 ea 7a 0e bd 4f d8 fe bc 75 ab 10 3d 70 e7 22 3e
       -0.03478519 -0.031109003 0.035319764 0.15908599
0000b0 0f eb 93 3d 86 9c 03 be 1e 08 e8 bd 68 88 02 3e
       0.07222568 -0.12852678 -0.11329673 0.12747347
0000c0 3a a2 f1 3c 29 eb 50 3d 53 37 ba bd 70 9f ae bc
       0.029496301 0.051005516 -0.090925835 -0.02131626
0000d0 d2 d6 58 3d 40 21 f8 bd db 4f d5 3d 52 20 bb 3d
       0.052939244 -0.12115717 0.10415622 0.09137024
0000e0 18 c7 cb bd d5 0e 89 bd 46 28 73 bd 6d 69 19 3d
       -0.099500835 -0.06692282 -0.05936458 0.037454057
0000f0 9f 46 28 bd e6 e1 32 3e 1f f1 2d be 40 21 c9 bd
       -0.041082975 0.17468986 -0.16986512 -0.09820795
000100 87 a6 c6 bd 16 39 af 3d b4 89 b0 3c f8 96 5c bd
       -0.09699731 0.0855581 0.021550037 -0.053854913
000110 a9 a6 12 3e be a6 1c be 8e db 6c 3d 5e 60 ce bd
       0.14321388 -0.15297982 0.05782657 -0.10076974
000120 b6 1e 26 bd 1b 48 1e be 7b 9f 07 be 71 7b 2f be
       -0.040556632 -0.15457194 -0.1324443 -0.17136933
000130 60 9f 97 3d 6b 96 a1 bd 47 83 ac 3d 78 62 bf bd
       0.07403445 -0.07890018 0.08423477 -0.09344953
000140 49 64 88 bd b4 89 e9 3c f1 8d 13 3e f9 1e 31 bd
       -0.06659753 0.028508045 0.14409615 -0.04324243
000150 0d 45 ca 3d 56 11 f1 3c 70 4c 1a 3e df 5c d8 3d
       0.09876452 0.029427212 0.15068221 0.10564589
000160 f2 75 8f 3d 24 55 95 bd a4 a3 07 bd 74 e0 88 3d
       0.07004918 -0.0729163 -0.033115044 0.06683436
000170 d0 f1 b4 3d 74 b9 54 bc 94 f7 e4 3d 40 58 de bd
       0.088351846 -0.012983669 0.11180034 -0.10856676
000180 6b b1 e8 3d ff 8d 92 3c 76 22 f2 bd 20 67 ba bd
       0.11361965 0.017889975 -0.11822979 -0.09101701
000190 a2 14 11 be ee 86 14 3d 02 a6 f1 bd 56 53 65 bd
       -0.14168027 0.03626149 -0.117992416 -0.05598768
0001a0 a1 b6 5a bc 02 88 fb bd f1 57 22 3b 49 2a bd bc
       -0.013349206 -0.12281801 0.0024771655 -0.023091452
0001b0 93 dc 6e 3d 3b 22 0c 3e 55 2c bc bd 1a d2 af 3d
       0.058315825 0.13684933 -0.09188143 0.085849956
0001c0 f9 63 39 bd 60 75 e2 bd f6 69 ae bd fe 7b 53 3d
       -0.045261357 -0.11057544 -0.08516304 0.05163192
0001d0 94 ca 00 3d e6 c2 e4 bc 0c 14 49 bd b5 ae b9 3d
       0.031443194 -0.027924966 -0.049091384 0.09066526
0001e0 2d e6 1b 3d fd 93 2b be 4d 73 1c bd fe 5b 4e bd
       0.03806131 -0.16755672 -0.038195897 -0.0503807
0001f0 12 12 93 bd 38 61 c8 bd 93 a1 22 be c1 c8 46 3e
       -0.07181181 -0.09784168 -0.15881948 0.19412519
000200 77 56 27 be f3 41 18 3e 90 d7 0f be 76 a8 31 bd
       -0.16341577 0.14868908 -0.14047074 -0.043373547
000210 f5 73 a9 bd bd 4e c2 bd c6 3b 77 3d 86 c2 d0 3d
       -0.0827407 -0.094876744 0.06035974 0.101933524
000220 a5 0e ed bd 62 42 a8 bd 90 02 ba 3d a3 12 28 bc
       -0.11575059 -0.082157865 0.0908252 -0.01025835
000230 f8 bb 20 3d 3a 2c c5 3d 09 e4 80 bd 9f 4e cf bd
       0.03924176 0.09627576 -0.06293494 -0.10122418
000240 99 b6 8e 3d 16 c0 72 bd d7 8d f0 bd c3 f4 ba bd
       0.069684215 -0.05926522 -0.11745804 -0.09128716
000250 18 14 ac bd d8 8f 4a 3e 8e 05 b1 3c fb d6 9c 3d
       -0.0840227 0.19781435 0.021609094 0.07658192
000260 4f f6 c2 3c 99 09 e1 bd 95 82 ef 3d 8c 24 90 bc
       0.02379909 -0.10988159 0.116948284 -0.017595552
000270 92 56 11 bd d2 9b 11 3e f8 c9 ca bd 7b 70 07 3d
       -0.03548295 0.14219597 -0.09901804 0.033066254
000280 79 12 09 be cb ac a3 3d e1 28 a0 3d 8a ec 19 be
       -0.13385953 0.07991942 0.07820297 -0.15031639
000290 a7 eb c6 3d 0c c8 8d 3c a5 1b be bd af 90 15 3e
       0.09712916 0.017307304 -0.092826165 0.14605974
0002a0 7a f5 94 3d e7 36 92 3d 32 e6 86 bd 66 de b7 bd
       0.072733834 0.07139378 -0.06586875 -0.08977966
0002b0 8f 7d b9 bd 51 a6 8f 3d b4 73 14 3d 7a 4d e4 bd
       -0.090571515 0.07014144 0.036243156 -0.1114759
0002c0 92 50 37 3e a0 de e5 3d 6b a9 8e bd 6e 16 ad 3d
       0.17901829 0.11224103 -0.06965908 0.08451544
0002d0 a3 ce 95 bd 1a 5b 2d 3d 40 3f fe 3d 16 89 13 be
       -0.073148035 0.04232321 0.12414408 -0.14407763
0002e0 bc e6 9b bd d5 4a ca bb c9 22 48 3d 7f 9a 1c be
       -0.076123685 -0.0061734715 0.0488613 -0.1529331
0002f0 4f 02 0f be a1 1a 8f bc ff 1c 2c bd ac c7 47 3d
       -0.13965724 -0.017468752 -0.04201984 0.048774406
000300 ca d5 0e 3d ba 22 5d 3d f2 e9 84 3c 19 7b 24 3c
       0.034871854 0.053988196 0.016224835 0.010039114
000310 e3 55 64 bb 6f ce 5b 3d 11 8c db 3d bb 29 c9 bd
       -0.0034841232 0.053663667 0.10720075 -0.098224126
000320 01 a1 c7 bd 0c 27 a0 3d 61 ed 08 be 37 83 06 3e
       -0.09747506 0.078199476 -0.13371803 0.13135992
000330 3c 52 ac 3d e2 9f f3 3c cb 31 8b bd 1d 85 90 bb
       0.084141225 0.029739324 -0.06796607 -0.0044103996
000340 fc 38 25 be d9 c6 2b be 23 a5 21 3e 82 82 27 be
       -0.16135019 -0.16775073 0.15785651 -0.16358379
000350 46 49 17 be 0f 9a c8 bd 03 d0 18 3d 2e 5e 21 3d
       -0.14774045 -0.09795009 0.03730775 0.039396457
000360 89 30 9b bd 24 86 8e bc e5 34 3a bd 25 d4 11 3e
       -0.07577617 -0.017397948 -0.0454606 0.14241083
000370 dc e1 1e 3e c5 10 92 3d cf 00 0e 3c 8c 3f 29 3e
       0.15515846 0.07132105 0.008667185 0.16528147
000380 8b 55 1b be 4d 58 77 3d 4d a4 e1 bd 59 e4 10 3e
       -0.15169351 0.060386945 -0.11017666 0.14149608
000390 79 96 24 be 06 5c 87 3d b3 54 06 be 33 73 da 3d
       -0.16073026 0.06609349 -0.13118248 0.10666504
0003a0 6a ec 0f 3d c8 7e 10 3e 04 cb 07 be 17 04 f1 3d
       0.03513757 0.14110863 -0.13261038 0.11768358
0003b0 67 2f fc bd de 6d d2 bd ad 9f 72 3d 2a 17 e3 bc
       -0.12313729 -0.10274862 0.05923431 -0.027721006
0003c0 bf 91 0a be 8d 24 19 be c9 f3 36 bd 4a 15 3f 3d
       -0.1353216 -0.1495535 -0.044666085 0.046651162
0003d0 db a1 1f 3e 77 71 19 3e 84 c6 12 bc bc 0b f3 bd
       0.15589087 0.1498469 -0.008958463 -0.118674725
0003e0 0e 97 30 be d3 b0 1f 3e df f1 84 bd bc 78 d6 bc
       -0.17245123 0.15594797 -0.06491446 -0.026180618
0003f0 86 61 fe bd 3a c1 fe bd 82 7e 6f 3d f2 8a 9e bd
       -0.12420945 -0.12439199 0.058470257 -0.077413455

rowAttentions.0.v_net.bias f4 [32]
000000 e2 a9 07 be 5c 71 03 3e fa eb ce 3c 5b 2e 5a ba
       -0.13248399 0.12836212 0.025259007 -0.00083229475
000010 99 ce 2d be da 80 22 3e a2 c3 e8 bd ef 9b ad 3d
       -0.16973342 0.15869465 -0.11365439 0.084770076
000020 02 25 4b bc e9 de 30 3a 25 74 bf 3d 49 cf 43 bd
       -0.01239896 0.00067470834 0.09348325 -0.047805104
000030 4f 6b 4c bd 21 2b 10 3e 69 91 06 be 0a e2 a8 3d
       -0.049907025 0.14078952 -0.13141407 0.082462385
000040 6c bb 4e bd 33 65 90 bd b7 e6 f1 3d 65 86 05 3d
       -0.05047171 -0.07050552 0.118115835 0.03259887
000050 f4 3f 25 be 06 f1 1f 3e bf 09 cb bd 6b 9a 1e 3e
       -0.16137677 0.15619287 -0.09913968 0.15488593
000060 b6 1b 59 bd 42 43 3b 3e 06 a1 3f 3d 71 79 80 bc
       -0.053004943 0.18287376 0.046784423 -0.015682908
000070 9f 39 59 3d 23 71 ad 3b 42 c0 a7 bd f7 7b d2 3d
       0.053033467 0.005293028 -0.08190967 0.10277551

rowAttentions.0.proj_net.weight f4 [32, 32]
000000 f7 66 e2 3d a1 28 82 bc 77 0d 1c 3e 13 d8 10 3c
       0.11054795 -0.015888514 0.15239511 0.008840579
000010 b0 fb d5 bd 3f 4d d6 bd ef a1 04 3e 6b 20 6d bd
       -0.10448396 -0.10463952 0.12952398 -0.057892244
000020 c9 8a df 3d 02 9e 35 be 4f 2b 10 3a 4c fc 02 be
       0.10915143 -0.17736056 0.00054996175 -0.12791556
000030 fb af 74 3d ee fa 0d 3e c5 1e a5 3d 1c f7 74 bd
       0.05973814 0.13865253 0.080625094 -0.059805974
000040 52 15 2b be db c9 be bd d7 f1 eb bd fe 48 1e 3e
       -0.16707352 -0.093158446 -0.11520737 0.15457532
000050 21 cd c0 bd 23 ca a4 3d 72 a1 15 3e f3 b2 98 3d
       -0.09414125 0.08046367 0.14612368 0.07456007
000060 d4 89 17 be e5 c2 d6 bc 73 72 55 bd 1c 91 ee 3d
       -0.14798671 -0.02621598 -0.0521111 0.11648771
000070 6a a9 d9 bc f2 1f f9 ba 27 e9 27 3e 70 c5 ff 3c
       -0.02657004 -0.0019006713 0.16397534 0.031222075
000080 a1 e7 99 3d 2c 22 4e bd b5 ee ff 3d 16 12 e4 3c
       0.07514883 -0.050325558 0.12496702 0.027840655
000090 50 0e 15 bd 9c 66 02 3d 2c 51 0b be 7a 66 14 3b
       -0.036390603 0.031836137 -0.13605183 0.0022644089
0000a0 8d 49 ac 3d db f2 27 be 8d d9 a7 bd 6b 7e d1 3d
       0.08412466 -0.16401236 -0.081957914 0.102291904
0000b0 94 c5 5b 3c ec ea 9e 3b 98 94 2b 3c 0f 70 9e bd
       0.0134138055 0.004849782 0.010472439 -0.07736217
0000c0 24 1f 15 3e 73 3f 98 bc 48 62 53 bd 6c ac c9 3d
       0.1456266 -0.018584942 -0.0516074 0.0984734
0000d0 f1 62 10 be a8 58 ff bc 82 c9 1e 3c cc 76 6f bd
       -0.14100243 -0.031170204 0.009691598 -0.058462903
0000e0 36 a6 c5 3d 7b a0 14 be 72 b6 4c bd ca d5 93 bd
       0.09650843 -0.14514343 -0.04997868 -0.072185114
0000f0 bb 5d 26 3e cc 1f 8b 3d 1b 1c 10 be 30 96 84 3d
       0.16246693 0.06793174 -0.14073221 0.064739585
000100 41 b7 b7 ba b4 dc 21 3e ff 60 c8 3d 20 66 dc bd
       -0.0014016406 0.15806848 0.097841255 -0.10761666
000110 ba 7f 24 3e 9b 86 23 bd 23 e2 01 bd f4 1e 62 3d
       0.16064349 -0.03992329 -0.0317098 0.0552053
000120 7a ad 3c 3e 70 e5 51 3d f0 4e 32 be 4b 9f 58 bd
       0.18425551 0.0512442 -0.17412925 -0.05288629
000130 19 aa 1c 3e 32 72 93 bd e4 72 9d bd a0 f2 1e be
       0.15299262 -0.071995154 -0.07687929 -0.15522242
000140 8c 6d cb bd 16 99 cf bd 6b 5f ec 3c ed 80 85 3d
       -0.09933004 -0.10136621 0.028854093 0.06518731
000150 ee 49 24 3e c0 0a e0 3d b9 f4 86 3c 89 9c cb 3d
       0.16043827 0.109395504 0.016474115 0.09941966
000160 14 e6 cb 3d e7 c0 19 be 8d 50 ca 3d 2b 0b e3 bd
       0.09955993 -0.15014993 0.09878645 -0.110861145
000170 74 90 06 3e 1b dd ae bd 2a 36 b5 3c 84 7a 1e bc
       0.13141042 -0.08538266 0.022120554 -0.009672765
000180 67 b2 af 3d 19 5c b3 3c 14 4e 09 be 4c 4d 8c 3d
       0.085789494 0.021894502 -0.1340869 0.06850681
000190 b5 4c bd 3d a4 1e d4 bd 67 e0 e9 bd c1 06 f6 bd
       0.09243146 -0.10357407 -0.114197545 -0.12013007
0001a0 23 45 86 bd 19 4b 60 bc 00 91 ad 3c a7 1a 8e 3b
       -0.065561555 -0.01368978 0.021187305 0.0043366733
0001b0 02 1e 53 bd 35 64 d0 3d c9 78 7c 3c f6 3f d3 bd
       -0.05154229 0.10175363 0.015409657 -0.10314934
0001c0 3e 88 44 bd f2 37 c3 bd 55 a3 9e bd cd 66 34 be
       -0.047981493 -0.09532155 -0.07745997 -0.1761734
0001d0 d2 8a 1f 3c 06 5b f9 bd 25 1a 9e 3d 52 26 0e 3e
       0.009737687 -0.121755645 0.077198304 0.13881806
0001e0 c0 20 0a be 73 cc c6 bd 61 92 fe bd 54 12 13 3d
       -0.13489056 -0.09706964 -0.12430263 0.03590615
0001f0 34 fb d7 3c 91 97 b4 bd f1 c7 fe 3d 96 23 76 3d
       0.0263649 -0.088179715 0.124404795 0.06009253
000200 e6 9b 29 be 99 2e 78 bc b1 75 9e bd 89 e8 df bc
       -0.16563377 -0.0151478285 -0.077372916 -0.027332561
000210 38 0e d2 3d 92 b6 c1 bc 82 81 fc bd 6a e3 0d 3e
       0.10256618 -0.023646627 -0.12329389 0.13856283
000220 96 50 2b be 07 7a 65 bd 7b e4 94 3d 5e d0 1c 3e
       -0.1672996 -0.056024577 0.07270142 0.15313861
000230 88 b5 31 3e 93 b4 2f bd fd f4 72 3d b4 86 1c be
       0.17354405 -0.04289682 0.05931567 -0.1528576
000240 72 d8 37 bd 16 07 6d bd 02 3c 62 3d 87 fd d9 bd
       -0.044884153 -0.057868086 0.05523301 -0.1064406
000250 ad cd 1c 3d 71 0b b4 3d 56 ec 08 3e 64 9e 12 bd
       0.038282085 0.08791245 0.13371405 -0.035795584
000260 42 72 22 3e 59 20 33 be 4f 54 4c bd 4e 83 8a 3d
       0.15863898 -0.17492808 -0.04988509 0.06763326
000270 c7 5a 34 3d 98 cc 91 3d 3f 26 ec bd 0a 03 d9 3d
       0.044031885 0.07119101 -0.11530732 0.10596283
000280 e1 96 26 be 18 de f9 bd d6 8a 39 bc 83 ef 2b be
       -0.16268493 -0.12200564 -0.011324605 -0.16790585
000290 78 d9 29 be fe 64 22 be dc bf 15 3e 5a 4c 0f 3d
       -0.16586864 -0.15858838 0.1462397 0.034984924
0002a0 6d 42 67 bd 5a 34 87 bc 7a c4 20 be 44 93 31 be
       -0.056459833 -0.016504455 -0.1569995 -0.17341334
0002b0 6e 62 02 be f5 78 2e be f4 3d e1 3d 05 ed 79 bd
       -0.1273286 -0.17038329 0.10998145 -0.061017055
0002c0 53 57 63 bd 3d 5c 15 be 5a 41 bb 3c 45 fa 0d bd
       -0.0555032 -0.14585967 0.02285831 -0.034662504
0002d0 31 27 fc bd a4 dc df 3d 21 7e 16 3e 60 8f 02 be
       -0.12312163 0.10930756 0.14696552 -0.12750006
0002e0 37 39 d8 3d 6a b4 c4 bc 08 ab 6b bb 49 c0 9a 3d
       0.10557788 -0.02401181 -0.0035960097 0.07556207
0002f0 f6 a2 f2 bc 2f 1f 24 3e 0d 27 d7 3d 69 18 e8 bd
       -0.029618721 0.1602752 0.10505495 -0.11332781
000300 fa 94 d9 bd 8c a5 2b be fa 02 79 3d 3f 59 07 be
       -0.10624118 -0.1676237 0.060793854 -0.13217638
000310 47 ee 16 be 51 5a ca bd c8 bf 3f be dc 75 18 be
       -0.14739333 -0.09880508 -0.18725502 -0.1488871
000320 ec 55 1d 3e 71 f0 ed 3d 21 63 14 3e ca 40 8f bd
       0.15364808 0.11618126 0.1449094 -0.069947794
000330 91 a6 9a bd 08 ec 88 bd a7 9d 2f 3c 61 71 08 be
       -0.07551301 -0.066856444 0.01071874 -0.133245
000340 4d da 37 3d ce c5 f0 bd d4 f6 35 3d ea 09 24 3e
       0.044885922 -0.11756478 0.044424847 0.16019407
000350 81 a0 11 3d bd 3a 08 3e 32 74 fc bd b4 59 06 bd
       0.03555346 0.13303657 -0.1232685 -0.03280039
000360 4b 4f d9 bd 75 c6 8e bc df 17 8c bd d5 f0 cd bd
       -0.10610827 -0.017428616 -0.068404905 -0.10055701
000370 d5 63 23 be cc e0 98 bd bd 1f cf 3c 7a ee e5 bc
       -0.15956052 -0.074647516 0.025283689 -0.028067816
000380 1c 36 29 be 61 fa 05 3e a9 2d 07 3e 02 05 e7 bd
       -0.16524547 0.13083793 0.13201012 -0.11280252
000390 4a 34 6a 3c 8b 62 f5 3d 3b 22 2f be 75 17 19 be
       0.014294693 0.11981686 -0.17102902 -0.14950354
0003a0 7d c9 be 3d 95 56 cf bb 82 99 71 3d 48 4e 84 bd
       0.093157746 -0.00632746 0.058984287 -0.064602435
0003b0 42 c7 2d 3d 74 6e 00 3e 4e f0 1e bd c6 6b 40 bd
       0.042426355 0.12542135 -0.03880339 -0.04697778
0003c0 b4 28 28 be a2 35 29 bd 86 43 ee 3d a4 b5 26 be
       -0.16421777 -0.041310914 0.11633973 -0.16280228
0003d0 23 65 e3 bb 3f fb 02 3e 5e 63 50 bd f6 7c 6d bd
       -0.0069395467 0.12791155 -0.050876014 -0.0579805
0003e0 58 50 80 bd 76 09 90 bd 9f 9b 4e 3c 2e 4b 21 be
       -0.06265324 -0.070330545 0.012610345 -0.15751335
0003f0 2f 0f 6c 3d b1 2d 3f bd 49 66 9b bc 8a 4a 97 bc
       0.057631668 -0.046674434 -0.018969672 -0.01846816

rowAttentions.0.proj_net.bias f4 [32]
000000 07 6a f8 3d da b9 27 3e 8f f0 91 3d 8f bb 07 be
       0.12129598 0.1637949 0.07125961 -0.13255142
000010 52 09 2b bd 67 41 17 3e 4c 05 f2 3d 29 7e 5c bd
       -0.041756935 0.14771043 0.118174165 -0.053831253
000020 0e 21 d6 3d 9b 98 e1 bd 12 24 3d 3d b0 9f 07 3e
       0.104555234 -0.11015435 0.046176977 0.1324451
000030 ba 73 27 3d c5 f2 00 be ff 39 7b 3d c7 b9 b9 3d
       0.04088185 -0.12592609 0.061334606 0.09068637
000040 be 8a 05 3e de 98 d3 bd ab aa f0 bc ef 7d 47 3b
       0.13041207 -0.103318915 -0.029378256 0.0030440053
000050 87 dc bd bc 1f 12 25 bd 91 3f 6a bd 07 77 6f 3d
       -0.023176445 -0.040300485 -0.057189528 0.058463123
000060 dd 96 a7 3d a4 ef f2 bc 82 34 0a 3e ee 99 85 bc
       0.08183072 -0.029655285 0.13496593 -0.016308751
000070 d2 65 14 3d 3d 96 63 3d d2 11 57 bd 70 e5 a9 bc
       0.036229916 0.0555632 -0.05250723 -0.020739287

rowAttentions.1.q_net.weight f4 [32, 32]
000000 98 d8 07 3e c5 79 3b bc 4b 50 f9 3d 02 8f d0 3d
       0.13266218 -0.011442606 0.12173518 0.101835266
000010 17 be d3 bc 78 c8 97 bd f0 f2 be bd 79 44 11 be
       -0.025847478 -0.07411283 -0.093236804 -0.14186276
000020 f7 c3 d8 bd 4b a7 3d 3d 0a 2a 82 3d 84 34 4e bd
       -0.10584252 0.04630212 0.063556746 -0.05034305
000030 c1 2b 6e bc b2 cc f6 3d 96 7a d5 3c ff 30 fc bd
       -0.014536799 0.12050761 0.02605943 -0.12314033
000040 b6 be 17 3e c3 2a dc 3d cf a4 a4 3c c3 45 ad 3d
       0.14818844 0.10750344 0.020098118 0.084605716
000050 94 42 19 be fe 12 d2 3d cd 2b 37 3d 7d 7c 77 bc
       -0.14966804 0.10257529 0.044719506 -0.015105364
000060 3a 45 64 bd 3b 58 12 3e 49 df 1b 3d f7 ab ca bd
       -0.055730082 0.1429147 0.03805474 -0.09896081
000070 bf 62 a4 3d 7d bd 00 3d 37 37 7a bd 76 dd f4 3d
       0.08026647 0.03143071 -0.061087813 0.11956303
000080 4a 06 36 3e 64 ee 12 bc 15 61 92 bd e9 a7 c2 bd
       0.17775837 -0.00896797 -0.07147423 -0.095046826
000090 15 e8 b9 bd 5c 36 b8 3d e9 b8 e8 3d 2e 81 d6 bd
       -0.09077469 0.08994743 0.11363394 -0.10473858
0000a0 9b a8 c6 3d 8b 0a eb 3b ae 92 b6 bb 52 32 6e bd
       0.09700128 0.0071728877 -0.005571685 -0.058153458
0000b0 f8 f2 26 be a7 82 24 be 3d 82 04 3e 21 6e fb bc
       -0.16303623 -0.16065465 0.12940307 -0.030692162
0000c0 0b 45 3e bc a7 b7 d2 bd 92 8c 05 bd d9 44 8b bd
       -0.011613141 -0.10288935 -0.03260476 -0.06800241
0000d0 9e 24 75 3c 50 2e 31 be 27 39 d8 3c 8e 33 1e be
       0.0149623435 -0.17302823 0.02639444 -0.15449354
0000e0 5c 9f f9 bd 92 72 aa bb 07 15 a0 bc 7b 86 4c bd
       -0.121885985 -0.005201646 -0.019541277 -0.049932938
0000f0 74 4f d7 3d 9f 7f 54 3c 98 5e 25 3d 7d 50 72 3d
       0.10513201 0.01296988 0.040373415 0.05915879
000100 96 f3 4a 3c 6a 1d 21 be 2a dd 80 bd 0d 6e e7 3d
       0.012387177 -0.15733877 -0.06292184 0.113002874
000110 35 d6 d5 3d 92 36 79 3d 95 23 23 3e 17 2a b9 bd
       0.104412474 0.060843058 0.15931542 -0.09041231
000120 59 b8 51 bd a3 66 c4 bc ea 0a 2b bd 06 60 1a 3e
       -0.0512012 -0.023974722 -0.041758455 0.15075693
000130 cc 56 35 be 2e e1 f2 3c f3 b8 2f 3e 1c 22 cd bd
       -0.17708892 0.02964839 0.17160396 -0.100162715
000140 85 b7 09 3e 35 39 1a be ed 34 00 3d 18 37 cd bd
       0.13448913 -0.15060885 0.031300474 -0.10020274
000150 0e 23 64 3d d1 46 19 3d 2b 6c 3b 3d 92 33 1d bd
       0.055697493 0.03742105 0.045757454 -0.03837926
000160 19 22 53 bd 20 29 2e be 97 82 d3 3c f3 c1 2d 3e
       -0.05154619 -0.17007875 0.025819106 0.16968517
000170 09 0d 07 be 96 fa 89 bd 49 89 2e 3d 30 5a 92 3d
       -0.13188566 -0.067372486 0.042611394 0.07146108
000180 ba 7c 85 3d ce 3b ec 3d e7 4e b3 3c c6 73 38 bd
       0.0651793 0.11534844 0.02188821 -0.045032285
000190 c9 d0 15 be 19 bf 35 be 65 cd 0a be ea 8d b6 3d
       -0.14630426 -0.17748679 -0.13554914 0.08913787
0001a0 fe 82 21 3e ec da 2a 3e 70 76 07 3e 3e 33 4f 3c
       0.15772626 0.16685075 0.13228774 0.012646494
0001b0 f4 02 f8 3d e9 72 88 3d b8 7f f4 bd fb 64 05 bd
       0.12109938 0.066625424 -0.11938423 -0.032567006
0001c0 74 eb 2a be 35 2b 1d 3e be 5f 16 3d dd b4 26 3e
       -0.1669138 0.15348513 0.0367124 0.16279931
0001d0 56 15 b9 bc b9 e9 10 3e 84 43 a9 3d c4 e0 aa bc
       -0.022593182 0.14151658 0.08264831 -0.02085913
0001e0 36 75 a5 bb 53 42 00 3e f1 53 b7 bc a3 dc 0a 3e
       -0.005049373 0.125253 -0.022378894 0.13560729
0001f0 cb c2 27 3d 56 c4 8e bd ae 3f 9e bd 61 a4 bb bd
       0.040957253 -0.06971042 -0.0772699 -0.09162212
000200 26 b0 eb 3d 81 0b 0a 3e 22 25 aa bd 3d 5a 28 be
       0.11508207 0.13480951 -0.08307864 -0.16440673
000210 f7 6f d4 3d 6c ac 2a bd b1 e3 24 be 2f 2e 1c 3d
       0.10372918 -0.04166834 -0.16102482 0.03812998
000220 41 c6 a1 bc 30 b1 00 3e 2d bb 19 3d cf ca d7 bd
       -0.019747855 0.12567592 0.03753202 -0.105367295
000230 57 f8 06 bd 21 99 06 be f0 7f a8 3d 2a 04 55 3d
       -0.03295168 -0.13144352 0.08227527 0.052005924
000240 bc 20 c4 3d 52 51 01 be 9c 56 cf bd a9 33 db bd
       0.09576556 -0.12628677 -0.10123941 -0.10703213
000250 42 88 18 be 83 10 28 be 03 d3 0b be fa 1e ff 3d
       -0.14895728 -0.16412549 -0.13654713 0.1245708
000260 e2 7c 4d bd 58 57 03 bd 6e 8b 5c 3d b2 b7 35 3d
       -0.050167926 -0.03206572 0.053843908 0.04436464
000270 f0 a4 a9 3d 3a 93 00 be 5b 64 29 3e 7e 41 f0 bc
       0.082834125 -0.12556162 0.16542189 -0.029328104
000280 f6 73 aa bd 06 ed ec 3d 6b eb 17 be df 0a e2 bd
       -0.08322899 0.11568646 -0.14835899 -0.1103723
000290 ad db cf 3d e8 07 89 3d 90 34 90 bd 3d d8 4c bc
       0.10149322 0.06690961 -0.070412755 -0.012502727
0002a0 be 8d 14 bd 69 bd 8a 3d 7c 06 0d 3d 37 86 8c 3d
       -0.03626799 0.06774408 0.034430012 0.06861537
0002b0 8c 16 15 3e 4a c9 06 be e0 3c 09 be 72 88 26 bd
       0.14559382 -0.13162723 -0.13402128 -0.04065747
0002c0 60 c6 ae bd 3e 5b f7 bd dc 58 24 3e 10 11 18 3e
       -0.08533931 -0.1207795 0.16049522 0.14850259
0002d0 f2 82 0f 3e a6 8c e0 bd af 96 81 bc f4 10 0b be
       0.14014795 -0.109643266 -0.015818922 -0.13580686
0002e0 0c fa 7b bd 84 c3 14 3e d2 d2 d4 3c b3 ce 6f 3d
       -0.06151776 0.14527708 0.025979433 0.058546733
0002f0 39 ce 30 be d1 54 93 3d bd 88 07 3e c2 1f 96 bd
       -0.17266168 0.07193912 0.13235755 -0.07330276
000300 4e 1b 0a 3e 65 a2 a5 3d e1 6d 04 be 3b bc 0a be
       0.13486978 0.08087615 -0.1293254 -0.13548367
000310 c3 33 b8 3b 02 ad 2f be ba fc fb bd 1b 02 8f 3d
       0.005621405 -0.17155841 -0.12304063 0.069828235
000320 a8 24 75 bd 15 36 f4 bb 60 01 94 bd 35 f6 f1 3d
       -0.05984941 -0.007452736 -0.07226825 0.118145384
000330 22 88 13 3e e9 20 ff 3d 71 48 21 be 42 08 55 bd
       0.144074 0.12457449 -0.1575029 -0.05200983
000340 65 b9 a5 3d 4a 14 dc 3d 98 19 29 bd a4 2c c7 3d
       0.08092002 0.10746057 -0.041284174 0.097253114
000350 0e 80 ea bb 05 df af 3c 3c 5c fc 3d dd 51 fa 3d
       -0.0071563786 0.021468649 0.1232228 0.122226454
000360 d1 dd fb bd fa eb dc bd 37 67 81 3d 11 32 d4 3d
       -0.122981675 -0.107871965 0.06318515 0.10361112
000370 59 93 1d bd ca e4 1f 3e ab 26 68 bc b5 6a cd bd
       -0.0384706 0.1561462 -0.014169375 -0.100301184
000380 1b 1f 87 bc da 87 19 be ef e4 65 3d 82 86 28 be
       -0.016494324 -0.1499323 0.05612653 -0.1645756
000390 64 a0 2b 3e c5 cf 0a be ff 01 f1 3d cc db 05 be
       0.16760403 -0.1355582 0.11767959 -0.13072127
0003a0 60 33 de bc a0 82 c8 bd 16 27 ba 3d db c3 d0 3d
       -0.027124107 -0.0979054 0.09089486 0.101936065
0003b0 b7 01 2a be 38 9c 24 be 8e 12 bb 3c eb 52 9a bb
       -0.16602217 -0.16075218 0.022835996 -0.0047095916
0003c0 0f 9f ec bb a9 f0 70 3d b8 cc 13 bd ce 79 19 3e
       -0.0072211097 0.05882326 -0.036083907 0.14987871
0003d0 85 3c 29 3c da 27 a9 bd 9d a4 93 3d 20 13 0a be
       0.01032937 -0.08259554 0.07209132 -0.13483858
0003e0 b7 4b a4 bd c1 e1 53 3d 06 2a 98 bd a6 ad 2d be
       -0.08022254 0.051728968 -0.0742989 -0.16960773
0003f0 dc 1e bb 3d 70 ba 39 3d f9 ae 69 3d a8 17 2b 3d
       0.09136745 0.045343816 0.057051633 0.041770607

rowAttentions.1.q_net.bias f4 [32]
000000 79 ec 18 3e ab 44 cc bd f9 0b a3 bd ac d6 05 3e
       0.14933957 -0.09974035 -0.07961268 0.13070172
000010 37 0b b1 bc 12 fe 00 be f0 22 aa bd af f7 fd 3d
       -0.021611793 -0.1259692 -0.08307445 0.124007575
000020 9b 53 dc bd 67 da 69 3d 67 0e 1c be 06 4d d8 3d
       -0.10758134 0.05709305 -0.15239869 0.10561566
000030 77 4d 1b 3d f6 dd e4 3d 8a 8a 1e 3b 0f f6 9d 3d
       0.037915673 0.11175148 0.0024191462 0.077129476
000040 4c fc 13 3e 8a c4 e1 bc 48 8b 08 be a3 72 05 be
       0.14451712 -0.027559537 -0.13334382 -0.13032012
000050 15 d9 d8 3d 3b 7e ec bd 44 23 1f be 16 15 1f be
       0.1058828 -0.11547514 -0.15540797 -0.15535387
000060 44 81 9f bd 2f 3c ff 3c ef b1 24 be c4 86 a6 bd
       -0.07788327 0.031156627 -0.16083501 -0.08131173
000070 1c 07 2d 3e c9 e3 08 bd 9e a1 83 bd 43 bf 9d 3d
       0.16897243 -0.033420358 -0.064273104 0.07702496

rowAttentions.1.k_net.weight f4 [32, 32]
000000 2a 7a 14 be 0d 6e 0d be 45 f5 d3 3c c9 66 68 3d
       -0.14499727 -0.13811512 0.02587379 0.05673865
000010 bd dc 31 be 15 4b 1f 3e 01 9a 8b bd 00 15 dc 3c
       -0.17369361 0.15555985 -0.06816483 0.026865482
000020 9d 49 01 3e 35 78 8c 3d ee 81 62 3d 27 f8 24 be
       0.12625737 0.06858865 0.05529969 -0.16110288
000030 d8 fc 28 be 12 1f 8a 3d 79 2a b9 3b 32 1c dd 3d
       -0.16502702 0.067442074 0.005650815 0.107963935
000040 61 33 b3 3d 29 56 11 be 4e c8 06 3d e8 16 0e be
       0.08750034 -0.14193024 0.03290587 -0.13875926
000050 21 0f c8 bd 0e 89 46 3d 6b 63 1a bc b1 19 e7 bd
       -0.097685106 0.04847055 -0.009423117 -0.11284197
000060 24 17 77 3d 27 76 fc 3d a4 1b 33 be 81 05 2a 3e
       0.060324803 0.12327223 -0.17491013 0.16603662
000070 1c bc c7 3d 72 27 74 bc 06 7b 31 be b8 1b a0 bd
       0.09752676 -0.014901983 -0.17332086 -0.07817787
000080 4b 12 5a 3d 86 f5 9b bd ec 06 6d bd 93 a5 94 bd
       0.0532401 -0.07615189 -0.05786793 -0.07258143
000090 c2 f2 19 3e d7 3c 19 3e 03 94 0d be ca 53 5d bd
       0.15034011 0.14964615 -0.13825993 -0.054034986
0000a0 16 e6 23 3e 78 37 21 bc a3 40 b0 bd 85 46 90 3c
       0.1600574 -0.009839885 -0.086060785 0.017611751
0000b0 cb 33 10 3e 3b b2 de bc e8 b6 29 be 94 28 74 bd
       0.14082257 -0.027184596 -0.1657368 -0.05960901
0000c0 95 39 ba 3d a4 0b d8 bc f1 a8 00 3e da c5 79 3d
       0.09093014 -0.026372738 0.12564446 0.0609797
0000d0 f3 96 1d 3b 16 c1 86 3d 8a f7 b8 bc 43 42 1b be
       0.0024046272 0.06579797 -0.022578973 -0.15161996
0000e0 f3 5a 1b be 6a 7a 0e be 23 93 e3 bc 09 ae 01 be
       -0.15171413 -0.13913885 -0.027780121 -0.12664045
0000f0 ee 82 cd 3c 8f e1 aa 3c 0b ac 09 3e dc d0 5d 3c
       0.025086846 0.020859508 0.13444535 0.0135385655
000100 43 6a ff 3c a7 82 7d 3d 11 49 46 bd bb 80 b0 bd
       0.0311786 0.061892178 -0.048409525 -0.086183034
000110 e6 49 29 be af 8c 2f be d8 3b 54 3c dc a9 ab bd
       -0.16532096 -0.1714351 0.012953721 -0.083820075
000120 18 a4 51 3d c9 a3 3b 3d 28 11 0e 3e 08 02 bd bc
       0.051181883 0.045810495 0.13873732 -0.023072258
000130 c0 7e 30 ba 4e b5 f9 3d bb b6 ee 3c 64 cd a3 3d
       -0.00067327544 0.12192784 0.029139867 0.079981595
000140 9f 14 c5 bd 45 0c 04 be 9f 04 0c 3e 55 a5 00 3e
       -0.09623074 -0.12895305 0.13673638 0.12563069
000150 7b 0a 87 bd ad 45 eb 3c 14 80 20 be c4 59 4b 3c
       -0.06593796 0.028719747 -0.15673858 0.0124115385
000160 2f b0 27 be 0e 63 cf 3d 39 7a 35 be 13 b4 28 bd
       -0.16375802 0.10126315 -0.17722405 -0.041187357
000170 e9 2e 28 3e f1 32 74 bd c0 73 de bd cc fc 1e 3e
       0.16424145 -0.059618894 -0.10861921 0.15526122
000180 09 a2 b8 bd 4e 60 22 3d 64 57 c8 3d 22 20 43 3d
       -0.09015281 0.039642625 0.097822934 0.047638066
000190 d0 05 fc bd 24 62 24 3e 6e 20 ab 3d 0e b1 e5 bd
       -0.12305796 0.16053063 0.08355795 -0.11215411
0001a0 87 56 ce bd e3 8a 28 bd 7b f7 6f 3d c2 56 8a 3d
       -0.100750975 -0.041148078 0.058585625 0.06754829
0001b0 04 0b b9 3c ea 48 f8 3d 53 02 34 3e 4d b7 18 3d
       0.02258826 0.12123282 0.17579012 0.037284184
0001c0 58 34 92 3d cf b5 ca 3d 57 c1 0e 3d a0 47 2d 3c
       0.0713889 0.098979585 0.034852352 0.010576159
0001d0 87 fa 22 3e 15 c7 ff 3d 9a 8b e2 3d ab 88 8e bd
       0.15915881 0.12489144 0.11061783 -0.06959661
0001e0 27 b5 b0 bd ad dc c3 bd 2d 4c 17 be 77 d9 95 bc
       -0.08628302 -0.09563575 -0.14775153 -0.018292172
0001f0 63 31 ca 3d 44 97 d3 3c 90 47 82 bd 1f 6f 93 bc
       0.09872701 0.025828965 -0.06361306 -0.017997323
000200 88 5d 0a be 50 c0 e8 bd 0f 85 89 3c fa 52 d2 bd
       -0.13512242 -0.11364806 0.01678708 -0.10269733
000210 b0 d5 af 3c ad 28 15 3e bc e2 3c 3d f2 6c 0b 3e
       0.021464199 0.14566298 0.04611467 0.13615778
000220 3a e9 e6 bd e0 10 9c 3b 85 83 31 be e8 2d bd 38
       -0.11274953 0.004762754 -0.17335327 9.020773e-05
000230 f2 df 04 be 32 63 27 3e 79 f5 1a be 14 4f 75 3d
       -0.12976053 0.16346434 -0.15132703 0.059889868
000240 c8 19 dd bd a3 49 50 3d 3b df a0 ba e1 97 b7 bc
       -0.10795933 0.050851475 -0.0012273559 -0.022411289
000250 96 c2 8d bd 65 c4 e3 3d ef 03 e0 bc f2 24 7f 3c
       -0.0692188 0.11121444 -0.027345626 0.015572773
000260 00 b5 52 bd fb 36 04 be 3a b2 97 bd c7 8e 22 3e
       -0.051442146 -0.12911598 -0.07407041 0.15874778
000270 5f f7 2c 3e 8b e8 a7 bd 4e 0b 9b 3c ae 8c c7 3c
       0.1689124 -0.08198651 0.018926289 0.024359073
000280 6c 9d 1f 3e 6d 06 c7 3c 68 58 01 3c e6 47 4f bd
       0.15587395 0.024295056 0.007894613 -0.050605677
000290 be a6 16 3d 36 3e 34 be f1 d6 34 be 91 21 a8 bc
       0.03678011 -0.17601857 -0.17660119 -0.020523818
0002a0 57 3a fa bd a6 e1 fb bd 45 29 f7 bc 93 10 c8 3d
       -0.12218159 -0.122988984 -0.030171046 0.09768786
0002b0 ea 39 b2 3d 8c 70 70 bd b2 6d 4a bc dc 74 28 3e
       0.087024525 -0.058701083 -0.012355255 0.16450828
0002c0 f3 49 24 3d d5 b1 f3 3d 24 50 95 bd 34 03 22 be
       0.040109586 0.11899153 -0.07290676 -0.15821534
0002d0 ca 84 a7 bd 76 9d 85 3c 4f 37 3a bd 08 14 c6 bd
       -0.081796244 0.016310435 -0.045462903 -0.096717894
0002e0 60 2a 2d 3e cb 2e 28 be d7 fa 97 3b 2e 8f 90 3d
       0.16910696 -0.164241 0.0046380567 0.07058559
0002f0 03 c7 44 bd 38 1a 9d 3d 8c b9 71 ba 59 64 ce bd
       -0.048041355 0.076710165 -0.0009221069 -0.100777335
000300 b9 44 c4 bd 60 82 a0 bd 3c fc 30 be 0a 1e e0 3d
       -0.0958342 -0.07837367 -0.1728372 0.109432295
000310 bd d8 26 3e 90 22 ba bd d6 67 07 3c 53 c1 6f 3d
       0.16293617 -0.090886235 0.0082645025 0.058533978
000320 b6 6e 4d 3d 37 ff c9 bd 13 6f dc bd b7 70 32 3e
       0.05015441 -0.098631315 -0.10763373 0.1742581
000330 f6 35 d2 3d 07 a1 2b 3e 80 2e fe 3d e5 2d 49 bc
       0.102641985 0.16760646 0.12411213 -0.0122790085
000340 ad 4e fc 3d ab 23 c2 bb 6c 85 9c ba a5 62 9d bd
       0.12319694 -0.005924662 -0.0011941618 -0.076848306
000350 6b ea 0c 3e ec 19 13 bd 74 20 be 3c bb 60 10 be
       0.13761298 -0.035913393 0.023208834 -0.140994
000360 55 8b 75 3d c9 ae aa bd f8 ed 21 bd 7e 25 88 bc
       0.05994733 -0.08334119 -0.039533585 -0.01661944
000370 0a 79 87 3d e0 a3 d7 3b 55 df fe 3c 1d b1 ee bd
       0.06614883 0.0065808147 0.031112352 -0.116548754
000380 c3 4e 09 be 73 1d 83 3d 5b 7f 97 bd f2 25 1f be
       -0.13408951 0.06402101 -0.07397338 -0.15541819
000390 9b 12 93 bd fd 15 32 be c1 7a 0d 3d a3 07 5d 3c
       -0.07181283 -0.173912 0.034540895 0.01349059
0003a0 0c dc 24 3e 6f ca cb bd 28 70 bc bd 36 0b 3f 3d
       0.16099566 -0.099507205 -0.092010796 0.04664155
0003b0 cd 07 3f bd 8d 2c 08 3e f8 b4 e0 3c de 5f 67 bb
       -0.0466383 0.13298245 0.027430043 -0.0035304944
0003c0 af 1f 8d bd e5 f7 de 3d dc 09 ae bd 59 cc 92 3d
       -0.06890809 0.10887126 -0.08497974 0.071678825
0003d0 2b d6 e6 3d ba 99 0d be 60 c4 1e be 03 71 cb bd
       0.11271318 -0.13828173 -0.15504599 -0.09933665
0003e0 b5 bc ae 3d d7 b7 c9 bd 41 82 93 3c 19 76 c9 3c
       0.08532087 -0.09849518 0.018006446 0.024592446
0003f0 47 d8 1c 3d 03 58 b9 bd 0d da 5d 3c c4 0d fc 3d
       0.038292196 -0.0904999 0.013540757 0.12307313

rowAttentions.1.k_net.bias f4 [32]
000000 74 f8 a2 3d 90 05 55 3c e2 bb 86 bb fb c6 43 3d
       0.07957545 0.0130018145 -0.004111753 0.047797184
000010 57 1f 27 3e ac 13 61 bc d4 eb ac bd 78 bf 00 be
       0.16320549 -0.0137376 -0.08443418 -0.1257304
000020 58 de 11 3e 4b 23 24 be c5 d1 ac 3d 05 be 1c 3e
       0.14244974 -0.16029088 0.08438448 0.15306862
000030 86 a7 c5 3d 05 ab 60 3a 21 51 9e bc cd 49 e1 3d
       0.09651093 0.0008570406 -0.019325795 0.110004045
000040 4f 44 bf bd 27 8c 85 3d dc 2f 5d bd 59 26 bb 3d
       -0.09339201 0.065208726 -0.05400072 0.091381736
000050 03 59 16 bd 66 35 f1 bd d5 9f 8e bd 21 2b d2 3d
       -0.036705982 -0.11777763 -0.06964079 0.102621324
000060 dd 91 84 3d 4f 55 fe bd aa e9 eb bd 4c 54 0b bd
       0.06473134 -0.12418615 -0.11519177 -0.03401594
000070 21 74 62 bc c4 d4 5b bd a7 c2 ed 3d 4c fa 4b 3c
       -0.013821633 -0.053669706 0.116093926 0.012449812
